Quantum/2 qubit/3 dim/models/0_latent.pt (torch, 107111 bytes, 5 tensors)

encode.0.weight f4 [100, 30]
0	0xbc2a86b0	-0.010408089
1	0x3e0a5560	0.1350913
2	0xbe1e0ec4	-0.1543532
3	0xbe2f0f33	-0.17095642
4	0xbcd52f90	-0.026023656
5	0x3e2c29d8	0.16812837
6	0x3cfa5ed8	0.030562803
7	0xbd8c0787	-0.06837373
8	0xbc250e50	-0.010074213
9	0x3ddc9c34	0.10771981
10	0x3dafe1d0	0.08587992
11	0xbe2eff9f	-0.17089699
12	0x3d529048	0.05140713
13	0xbdb2192e	-0.08696209
14	0xbdd4dcf6	-0.103937075
15	0x3e0d9ffc	0.1383056
16	0x3c46c110	0.012130991
17	0xbe231553	-0.15926103
18	0xbda42d06	-0.080164
19	0x3e1a521e	0.15070388
20	0x3d8982bc	0.06714389
21	0xbd2dc180	-0.042420864
22	0x3dc86c50	0.09786284
23	0x3e05533e	0.13020036
24	0xbd8d0297	-0.068852596
25	0xbe0461df	-0.1292796
26	0x3cfe2db8	0.03102766
27	0x3d8d1754	0.06889215
28	0x3cc524d8	0.02406542
29	0xbe11f9b6	-0.14255413
30	0x3dd46adc	0.10371944
31	0x3e2ea6f4	0.17055875
32	0xbd9723ab	-0.0737985
33	0xbd6ea854	-0.058266
34	0x3d920a5c	0.07130882
35	0x3d9c8758	0.07643002
36	0xbd9b105a	-0.07571478
37	0x3e3a0e24	0.18169457
38	0x3c3f96c0	0.011693656
39	0xbdd07744	-0.10178998
40	0xbdabb703	-0.08384516
41	0xbcbea318	-0.023271129
42	0xbe0d6c5a	-0.13810864
43	0x3e1a6e0e	0.15081045
44	0xbcfb1768	-0.03065081
45	0x3d424b88	0.047435313
46	0xbd93adef	-0.072109096
47	0x3df07354	0.11740747
48	0x3e28664c	0.16445273
49	0x3df57bd0	0.11986506
50	0xbdc5e885	-0.0966349
51	0xbe026588	-0.12734044
52	0x3e0b5fca	0.1361076
53	0xbd629a1c	-0.05532275
54	0x3dd1a33c	0.102362126
55	0x3cf942e0	0.030427396
56	0xbe1f3db5	-0.15550883
57	0x3dff3190	0.12460625
58	0x3d0e984c	0.03481321
59	0xbd550ae8	-0.052012354
60	0x3d50306c	0.05082743
61	0xbe0e8454	-0.13917667
62	0x3e30a8a2	0.17251828
63	0x3b94bc40	0.0045390427
64	0x3e18b108	0.14911282
65	0xbccea2f0	-0.025224179
66	0x3e0076b4	0.12545282
67	0xbe34ba84	-0.17649275
68	0x3e23a3ea	0.15980497
69	0xbe35dd82	-0.1776028
70	0x3e07df80	0.13268852
71	0xbb848c80	-0.004045069
72	0xbe11f57f	-0.14253806
73	0x3e090e64	0.13384396
74	0x3d2f01c8	0.042726308
75	0xbe2d9c2c	-0.16954106
76	0x3db9ed48	0.09078461
77	0x3e146248	0.14490616
78	0xbd29c558	-0.041447967
79	0xbe229a3c	-0.15879148
80	0xbd7cad5a	-0.06168876
81	0xbca4b600	-0.020106316
82	0x3d7dc6a8	0.06195703
83	0x3df3a458	0.118965805
84	0x3e1d013a	0.15332499
85	0x3da733c8	0.08164173
86	0xbe294abb	-0.16532414
87	0x3e01aaa8	0.12662756
88	0xbdedf808	-0.11619574
89	0x3e023812	0.12716702
90	0x3db0a55c	0.0862529
91	0xbda6e383	-0.08148863
92	0x3ce298e0	0.027660787
93	0xbdcdb532	-0.10044326
94	0xbcbfde38	-0.023421392
95	0xbd31642c	-0.043308422
96	0xbe20634c	-0.15662879
97	0x3dc1bd18	0.09459895
98	0xbda7f031	-0.0820011
99	0xbe2862d8	-0.16443956
100	0x3e2a9df6	0.1666182
101	0xbcaa6d48	-0.020804062
102	0xbc6a3890	-0.014295712
103	0x3d100f00	0.035170555
104	0x3cecf438	0.028925046
105	0xbd651130	-0.055924594
106	0x3d69d304	0.057086006
107	0x3e1c6a4e	0.15274927
108	0x3e17c876	0.14822564
109	0xbde81380	-0.11331844
110	0xbd465ce4	-0.04842843
111	0x3d91fdd8	0.07128495
112	0xbe0f7232	-0.14008406
113	0x3dc635d8	0.09678239
114	0x3a6d4c00	0.00090521574
115	0xbe1c6685	-0.15273483
116	0x3e1da2b4	0.15394098
117	0xbdea8fa2	-0.11453177
118	0x3d69683c	0.05698417
119	0x3e10536a	0.1409432
120	0x3e2875e4	0.16451222
121	0xbd002378	-0.031283826
122	0xbd8d3cb8	-0.06896347
123	0x3db49550	0.088175416
124	0xbd94c36f	-0.072638385
125	0x3e024ada	0.12723866
126	0x3c277870	0.010221586
127	0x3e232c80	0.15934944
128	0xbe12ad88	-0.1432401
129	0xbd5f40b8	-0.05450508
130	0xbdfd6d04	-0.12374309
131	0xbd91be41	-0.07116366
132	0xbdd979cb	-0.10618933
133	0x3e2bf82c	0.16793889
134	0x3d9c60c4	0.07635644
135	0xbd7297d2	-0.05922682
136	0x3d14e5dc	0.036352023
137	0x3e00a892	0.12564304
138	0x3dac2f90	0.08407509
139	0x3d342b94	0.04398687
140	0x3d51bec4	0.05120732
141	0x3df81984	0.12114242
142	0xbc7b2200	-0.01532793
143	0x3db71110	0.08938801
144	0xbe0df039	-0.13861169
145	0xbc80de90	-0.015731126
146	0x3d91c3f4	0.07117453
147	0x3e2458b0	0.16049457
148	0xbcdd3878	-0.027004465
149	0x3d3810fc	0.044938073
150	0x3c841ae8	0.016126111
151	0xbd215894	-0.039391115
152	0xbd3bc260	-0.045839667
153	0xbe38d2b7	-0.18049131
154	0x3d94c044	0.07263234
155	0xbcf66640	-0.030078053
156	0xbdc1d6cf	-0.094647996
157	0xbdbb6f33	-0.09152069
158	0x3dd9624c	0.10614452
159	0xbdf34a49	-0.11879403
160	0x3cba0c98	0.022711083
161	0xbe33f4b7	-0.1757382
162	0x3be4a980	0.006978214
163	0xbe225e2b	-0.15856235
164	0xbe0ce936	-0.13760838
165	0xbe1d3993	-0.15353994
166	0x3e3a0e68	0.18169558
167	0x3ccc84d8	0.024965689
168	0x3e06b85c	0.13156265
169	0x3e1e11e4	0.15436512
170	0x3e19d49c	0.1502251
171	0xbe396e58	-0.18108499
172	0xbd69622c	-0.05697839
173	0xbe1fe145	-0.15613277
174	0x3d4f92c8	0.05067709
175	0x3de35448	0.1110006
176	0xbdfc76c0	-0.12327337
177	0xbe33f8a7	-0.17575322
178	0xba961400	-0.0011450052
179	0xbd94e5b6	-0.072703764
180	0x3befe940	0.0073215067
181	0x3dcadc44	0.099052936
182	0x3d52cd4c	0.051465318
183	0x3df5ff08	0.12011534
184	0xbde98f0c	-0.11404237
185	0xbdf982ea	-0.12183173
186	0x3d07723c	0.033067927
187	0xbe25e147	-0.16199218
188	0xbd9d703b	-0.07687422
189	0x3d4cf268	0.050035864
190	0xbddb6595	-0.107127346
191	0x3cc7c008	0.02438356
192	0xbbb78520	-0.0056005865
193	0xbdbe8db6	-0.09304373
194	0xbba73020	-0.0051021725
195	0x3cce9be0	0.025220811
196	0x3b91df20	0.0044516474
197	0xbe10c068	-0.14135897
198	0x3e3ac3d0	0.18238759
199	0x3d608d30	0.054822147
200	0x3de642a8	0.112431824
201	0x3d3a2a7c	0.045450673
202	0x39fbe200	0.00048042834
203	0x3c5545e0	0.013017148
204	0x3dd3dbb8	0.103446424
205	0xbd9fa04d	-0.07794247
206	0xbe115c6b	-0.14195411
207	0x3ca2cb20	0.019872248
208	0x3dc5a840	0.09651232
209	0x3dc09064	0.0940254
210	0x3d8f0de0	0.06985068
211	0x3d3ec330	0.046572864
212	0xbd6e0bfa	-0.05811689
213	0xbe1d2399	-0.1534561
214	0xbe005c0e	-0.12535116
215	0x3df7bbf4	0.12096396
216	0xbdafdf40	-0.085875034
217	0x3e088342	0.13331321
218	0x3d09f094	0.0336767
219	0xbe1f73a8	-0.15571463
220	0xbdcccb5d	-0.09999726
221	0x3e096c6c	0.13420266
222	0x3e14ad30	0.14519191
223	0x3dfa6c18	0.122276485
224	0xbd6eadfc	-0.058271393
225	0xbdc0f560	-0.094218016
226	0x3e2c3d3e	0.16820237
227	0xbe3283cc	-0.17433089
228	0x3da442e8	0.08020574
229	0xbe0fd35f	-0.14045475
230	0x3d857418	0.06516284
231	0x3e374916	0.17898974
232	0x3e31d250	0.17365384
233	0x3d16b84c	0.036796853
234	0x3df5e218	0.120060146
235	0x3da15d78	0.07879156
236	0xbde82bfa	-0.11336513
237	0x3d86787c	0.06565949
238	0xbe2f936b	-0.17146079
239	0x3e2600dc	0.16211265
240	0xbe1008d0	-0.14065862
241	0xbe0493d0	-0.12947011
242	0x3d821cb2	0.063531294
243	0x3d9e069c	0.077161044
244	0xbd687c9c	-0.05675946
245	0x3ddb628c	0.10712156
246	0x3e1fb712	0.1559718
247	0x3d1ee3f0	0.038791597
248	0xbe1c7537	-0.15279089
249	0xbd9c9a39	-0.07646603
250	0x3deb07dc	0.114761084
251	0xbc3efcc0	-0.01165694
252	0x3d0f0870	0.034920156
253	0xbe371624	-0.1787954
254	0xbdf3c941	-0.119036205
255	0x3dcd6c8c	0.10030469

encode.2.weight f4 [100, 100]
0	0xbd8bed6d	-0.06832395
1	0xbc728898	-0.014803074
2	0xbcc90080	-0.024536371
3	0x3da9b221	0.082859285
4	0xbd96dcd5	-0.07366339
5	0x3c1c6770	0.009546146
6	0xbd6b43f0	-0.057437837
7	0x3d77c93a	0.06049464
8	0x3d664ab2	0.05622358
9	0xbd4bf0ed	-0.04979031
10	0x3d0f607e	0.03500413
11	0xbdca0b4a	-0.098654345
12	0xbd28bead	-0.041197468
13	0xbd1596e0	-0.03652084
14	0x3da13e73	0.07873239
15	0xbd5af3cd	-0.053455163
16	0xbd22b773	-0.039725732
17	0x3db899a1	0.090136774
18	0x3d7a8cc2	0.061169393
19	0xbdbc28af	-0.09187447
20	0xbd755a07	-0.05990031
21	0x3d87abed	0.06624589
22	0x3d80ed67	0.06295281
23	0x3cbcc718	0.023044154
24	0x3cede33c	0.029039018
25	0x3a978540	0.0011560097
26	0x3c782a58	0.015146814
27	0xbca1deb8	-0.01975952
28	0xbd044804	-0.032295242
29	0xbdadf1dd	-0.084933974
30	0x3d936a07	0.071979575
31	0xbd77acb0	-0.060467422
32	0x3d623262	0.05522383
33	0xbcab4320	-0.020906031
34	0xbbdf5fd0	-0.0068168417
35	0x3ba89900	0.005145192
36	0xbda712e5	-0.08157901
37	0x3dba5bc1	0.09099532
38	0x3d906ae3	0.07051637
39	0xbd48dbc3	-0.049037706
40	0xbd8b0bfa	-0.06789394
41	0x3d8f3bf7	0.06993859
42	0x3db7f391	0.089820035
43	0xbdc967aa	-0.098342255
44	0xbd269eca	-0.040678777
45	0x3b3b8a40	0.002861634
46	0xbda2578b	-0.07926854
47	0xbca84540	-0.020540833
48	0x3dbbc1f1	0.09167851
49	0xbd520317	-0.051272478
50	0x3cee566c	0.029093944
51	0xbce34b80	-0.027745962
52	0x3d41b8be	0.047295325
53	0x3d08e7f2	0.033424325
54	0xbd6d799d	-0.057977308
55	0xbdab7e0d	-0.08373652
56	0xbdc02c3d	-0.09383438
57	0x3dcc44f9	0.09974093
58	0x3dc50d29	0.09621651
59	0x3da16d51	0.078821786
60	0x3d95e0bd	0.07318256
61	0x3d28ddaa	0.04122702
62	0x3d7627c2	0.06009651
63	0xbceec2a8	-0.029145554
64	0xbd9288bb	-0.071549855
65	0x3d2b1cb2	0.041775413
66	0x3c81fda8	0.015868023
67	0xbd8018b6	-0.06254713
68	0xbc3aa130	-0.011390969
69	0x3d2cda9a	0.042200662
70	0x3da99447	0.08280235
71	0x3a482000	0.0007634163
72	0x3cecee24	0.028922148
73	0xbca89e34	-0.02058325
74	0xbce09640	-0.027415395
75	0x3d9276f1	0.071515925
76	0x3d451382	0.048114307
77	0x3da15001	0.07876588
78	0xbd8cc0b4	-0.06872693
79	0xbd5d09a7	-0.053964283
80	0xbd798a87	-0.060923126
81	0x3c6d0440	0.014466345
82	0xbdc09722	-0.09403826
83	0xbda30eb5	-0.079617895
84	0xbb6c4000	-0.003604889
85	0x3dbb9bd3	0.091605805
86	0x3cbcac08	0.02303125
87	0xbd80ee4d	-0.06295452
88	0xbb7b90c0	-0.0038385838
89	0x3da6e73b	0.081495725
90	0x3db71317	0.08939188
91	0x3c9b24ec	0.018938504
92	0xbd3b2c30	-0.045696437
93	0x3daac74f	0.08338796
94	0x3db1362d	0.08652911
95	0x3dada26f	0.084782474
96	0xbdc1cf03	-0.094633125
97	0x3cc4e1ec	0.02403351
98	0x3d9f9215	0.07791535
99	0x3c916c48	0.017751828
100	0x3c358090	0.011078015
101	0xbd542ee3	-0.051802527
102	0x3cbbc720	0.022922099
103	0x3d3d18fe	0.046166413
104	0x3db2e849	0.08735711
105	0x3c17b698	0.009259842
106	0x3da8cfb7	0.082427435
107	0xbdbbe46b	-0.09174427
108	0x3cb2584c	0.021770619
109	0x3d20e796	0.039283358
110	0xbced3e8c	-0.028960489
111	0x3cc03758	0.02346389
112	0xbd3fc0aa	-0.0468146
113	0x3cff04e4	0.031130262
114	0x3c814c38	0.015783414
115	0x3d05c1d2	0.032655545
116	0xbd6db6a0	-0.058035493
117	0x3dba553d	0.09098289
118	0x3d96bff7	0.07360833
119	0xbd7d1800	-0.061790466
120	0x3d223192	0.039598055
121	0x3bace9a0	0.0052768737
122	0xbcfa0898	-0.030521676
123	0xbd6c7733	-0.057730865
124	0xbdaee2a5	-0.08539323
125	0xbdbaabf3	-0.09114828
126	0xbc06b498	-0.008221768
127	0x3d3ae52a	0.045628704
128	0x3d74b7da	0.059745647
129	0x3d9ff001	0.07809449
130	0x3d85d1e1	0.06534172
131	0x3d304daa	0.043042816
132	0x3cd05664	0.02543182
133	0xbdb7a808	-0.08967596
134	0xbd4ed9ed	-0.0505008
135	0xbc7a6930	-0.015283868
136	0xbdbc2d58	-0.09188336
137	0xbcbcc980	-0.023045301
138	0x3cd4cbec	0.025976144
139	0x3c9b8c14	0.018987693
140	0x3d07a492	0.03311593
141	0xbd30746d	-0.043079782
142	0x3daf4b19	0.085592456
143	0xbd7d5c3d	-0.061855543
144	0xbd31fcbd	-0.04345392
145	0xb9ada800	-0.000331223
146	0x3cd74a14	0.02628044
147	0x3c77f658	0.0151344165
148	0x3da9db6f	0.08293807
149	0xbdc5e0e3	-0.09662034
150	0x3dbd5051	0.09243835
151	0x3cf0697c	0.029347174
152	0x3bca3f00	0.006172061
153	0x3d1b1e36	0.03787061
154	0x3d6666ce	0.056250386
155	0xbd6b7e77	-0.057493653
156	0xbd848add	-0.064717986
157	0x3d77d642	0.060507067
158	0x3dbbbf41	0.09167338
159	0xbdc0d202	-0.09415056
160	0xbb2a8a40	-0.0026022345
161	0xbdca7172	-0.09884919
162	0x3b090260	0.0020905957
163	0x3db3b3b9	0.08774514
164	0xbdc58e73	-0.09646311
165	0xbbb7f1e0	-0.0056135505
166	0x3d363146	0.044480585
167	0xbdbed1c0	-0.093173504
168	0xbcc3c280	-0.023896456
169	0xbdba2225	-0.09088544
170	0xbd75c17a	-0.059998967
171	0xbc88c668	-0.01669617
172	0x3cfdad64	0.030966468
173	0x3d4faa9e	0.050699823
174	0xbc8deb98	-0.017324254
175	0xbdac097e	-0.08400248
176	0x3d2a9872	0.04164929
177	0x3d9da741	0.07697917
178	0xbd093a4a	-0.033502854
179	0x3da73c81	0.08165837
180	0xbcf10ce8	-0.0294251
181	0x3d9dd9a1	0.07707525
182	0xbcb28940	-0.021793962
183	0xbd517000	-0.051132202
184	0x3db637a1	0.08897329
185	0xbd4d1a60	-0.05007398
186	0x3d6442fe	0.05572795
187	0x3d075762	0.03304232
188	0x3d754ba2	0.059886582
189	0xbd7c1373	-0.061541986
190	0xbc34d998	-0.0110382065
191	0x3d59fffa	0.053222634
192	0x3d981f41	0.07427836
193	0x3d842073	0.06451502
194	0x3d4b277e	0.04959821
195	0xbd255c6d	-0.040371347
196	0x3daa5151	0.08316291
197	0x3ce58d1c	0.028021388
198	0xba6eb180	-0.0009105429
199	0x3dbea349	0.09308488
200	0xbd194b40	-0.03742528
201	0x3dace50b	0.08442124
202	0x3daaf55b	0.08347579
203	0x3db51635	0.08842126
204	0x3d2c98c6	0.042137884
205	0x3db1291d	0.0865042
206	0x3c9cab2c	0.01912459
207	0xbcd77c74	-0.026304461
208	0xbd9279cb	-0.071521364
209	0x3d62a032	0.055328555
210	0xbcde58a8	-0.027141884
211	0xbd9d214d	-0.07672367
212	0xbd9651b2	-0.07339801
213	0xbdaa72f8	-0.0832271
214	0x3db7bf79	0.089720674
215	0xbd6e3483	-0.058155548
216	0xbcda3cb4	-0.026640274
217	0xbd0850f0	-0.033280313
218	0xbdc1a437	-0.094551496
219	0xbdc8d18b	-0.09805592
220	0x3bed2a60	0.0072377175
221	0x3bf57de0	0.007491812
222	0x3daaf4b7	0.08347457
223	0x3dbb3409	0.09140784
224	0x3dc88edb	0.097928725
225	0xbd1ffeea	-0.039061464
226	0xbb8431e0	-0.004034266
227	0x3d8233cb	0.06357535
228	0x3c826600	0.015917778
229	0x3dc21f1b	0.09478589
230	0xbdc2aed7	-0.09506004
231	0x3c90b2d4	0.017663397
232	0xbdb64f70	-0.0890187
233	0x3d1024fe	0.03519153
234	0x3dc8e631	0.098095305
235	0xbd631520	-0.05544007
236	0x3d4b2832	0.04959888
237	0xbda6c4ce	-0.08143006
238	0x3d907a99	0.07054634
239	0x3d13d476	0.03609129
240	0x3d5a7222	0.0533315
241	0x3bfacd60	0.007653877
242	0x3d7aab3a	0.06119845
243	0x3c244380	0.010025859
244	0xbd8f01b8	-0.0698275
245	0x3db650d9	0.08902139
246	0x3db0cb0d	0.08632479
247	0x3cf2b84c	0.029628895
248	0xbdb65da5	-0.0890458
249	0x3da7486f	0.081681125
250	0x3bbcc750	0.0057610646
251	0xbcba6d14	-0.02275709
252	0xbd0da510	-0.034581244
253	0x3d7f8a26	0.062387608
254	0xbd2efd90	-0.042722285
255	0xbd43148a	-0.04762701

decode.0.weight f4 [100, 30]
0	0xbd277b3c	-0.04088901
1	0xbb910822	-0.0044260183
2	0x3c52ee67	0.012874222
3	0xbd0076cf	-0.031363305
4	0x3d181d39	0.037137244
5	0xbd89ad77	-0.06722539
6	0x3d1fe783	0.039039146
7	0xbd90990f	-0.070604436
8	0x3b870272	0.0041201646
9	0x3daa57c5	0.08317522
10	0x3d237b42	0.03991247
11	0xbd0cfc3b	-0.034420233
12	0xbcf0be49	-0.02938761
13	0x3ccd0040	0.025024533
14	0x3a27598e	0.0006383889
15	0x3d3f5a10	0.04671675
16	0xbda98f37	-0.08279269
17	0xbd056926	-0.03257098
18	0x3d8ee24e	0.06976758
19	0x3e15bbf3	0.14622478
20	0x3d939340	0.0720582
21	0xbcd449bc	-0.025914066
22	0xbd303853	-0.043022465
23	0x3c3b9583	0.011449221
24	0x3dc0e34a	0.09418352
25	0xbd83710a	-0.06418045
26	0xbdd08bfc	-0.1018295
27	0x3d9e4908	0.07728773
28	0xbc1cf934	-0.009580899
29	0xbda7ab29	-0.08186943
30	0xbd5b91db	-0.053605895
31	0xbd61835b	-0.05505691
32	0xbc865c81	-0.016401531
33	0xbd1cf08d	-0.038315345
34	0xbd8f7c77	-0.07006162
35	0xbe1aa5e7	-0.15102349
36	0xbcc3f579	-0.023920761
37	0xbd2e8bc4	-0.04261376
38	0xbd20f7df	-0.03929889
39	0x3e1bc5bb	0.15212147
40	0xbe143202	-0.14472201
41	0x3e41880a	0.18899551
42	0x3cc3627b	0.02385067
43	0x3dd2dbb0	0.10295808
44	0xbdbe96c9	-0.09306104
45	0x3b22039d	0.0024721392
46	0x3dbbeb20	0.09175706
47	0x3c3561ff	0.011070727
48	0x3d3481a2	0.04406894
49	0xbdcece7f	-0.1009798
50	0xbd0ff809	-0.035148654
51	0x3b653003	0.0034971244
52	0xbd69cd46	-0.05708053
53	0x3e1895a8	0.1490084
54	0xbd6a8ee4	-0.057265177
55	0x3e3323e6	0.17494163
56	0x3cda27b0	0.026630253
57	0x3cd8e40f	0.026475934
58	0x3d197632	0.037466235
59	0xbd2af0d2	-0.04173357
60	0x3d7f1cdd	0.062283386
61	0x3cb52d39	0.02211629
62	0x3cf40ad3	0.029790318
63	0xbdf00ae0	-0.11720824
64	0x3be159ff	0.0068771834
65	0x3d98c114	0.07458702
66	0xbd081762	-0.033225425
67	0xbe0b45f6	-0.13600907
68	0xbd055004	-0.032547012
69	0x3d3e86af	0.046515163
70	0xbd838e4d	-0.06423626
71	0x3c17a72b	0.009256165
72	0x3d18153c	0.037129626
73	0xbcd92ee1	-0.026511611
74	0xbdaa77e9	-0.08323652
75	0xbdd8fb00	-0.105947495
76	0x3d99473c	0.0748429
77	0x3d67635a	0.056491233
78	0x3c955bbf	0.018232225
79	0xbb8132dd	-0.003942831
80	0x3db21e6d	0.086972095
81	0xbe05da67	-0.13071595
82	0xbd851ae0	-0.064992666
83	0xbccc124b	-0.024911067
84	0x3ddeea3d	0.10884521
85	0x3c8fb1f5	0.017540911
86	0x3c98d050	0.018654019
87	0x3e073e9b	0.13207476
88	0x3d8a3aa7	0.06749468
89	0xbd4f86b0	-0.050665557
90	0xbd9f7a04	-0.077869445
91	0xbd57204e	-0.052521043
92	0xbcb7237f	-0.022355793
93	0xbdb45e64	-0.08807066
94	0x3d60f530	0.05492133
95	0x3c98f2a9	0.018670397
96	0xbd7d5b76	-0.061854802
97	0xbd49074c	-0.049079224
98	0x3c2ec5fe	0.010667322
99	0xbe1b3286	-0.15155992
100	0xbdb2348f	-0.08701431
101	0xbd46dc5a	-0.048549987
102	0xbcc400c6	-0.02392615
103	0x3ce53575	0.027979592
104	0x3e1f9d44	0.15587336
105	0x3bea50d1	0.0071507473
106	0x3cc7a2ad	0.024369562
107	0x3de450c6	0.11148219
108	0xbda36b64	-0.079794675
109	0xbdb54aa9	-0.08852131
110	0x3da95aa4	0.082692415
111	0x3d452b27	0.048136856
112	0xbe163bd1	-0.14671256
113	0x3d030a72	0.031992383
114	0x3d39130a	0.045184173
115	0x3d26fee6	0.040770434
116	0x3e27c8d5	0.16385205
117	0x3e24d330	0.16096187
118	0xba99ffbb	-0.0011749187
119	0xbbcd6d8f	-0.006269164
120	0x3cb40dd6	0.021979254
121	0xbd8c1524	-0.0683997
122	0x3d97c198	0.07409972
123	0xbe08da14	-0.1336444
124	0x3ab93f62	0.001413327
125	0x3d70e68e	0.058813624
126	0x3d1a2353	0.037631344
127	0xbccd189e	-0.025036152
128	0x3dc0f784	0.0942221
129	0xbda700cd	-0.081544496
130	0xbcb2d3e4	-0.021829553
131	0x3d8426c9	0.0645271
132	0x3db41e1a	0.08794804
133	0xbda7f82e	-0.082016334
134	0xbde19c84	-0.11016181
135	0xbcec693b	-0.028858772
136	0x3e230378	0.15919292
137	0xbd29c368	-0.04144612
138	0xbb8a7202	-0.0042250166
139	0x3df23754	0.11826959
140	0x3cd23ae0	0.02566284
141	0x3c32445f	0.010880559
142	0xbdf8e7d5	-0.121535935
143	0xbc9df712	-0.019282851
144	0xbcb7d2bc	-0.022439353
145	0x3dcf339f	0.10117268
146	0xbc01ec5e	-0.0079298895
147	0xbe2b9ca9	-0.1675898
148	0x3da17025	0.07882718
149	0x3c94c0fb	0.018158427
150	0xbde95676	-0.11393444
151	0xbc41bc68	-0.011824705
152	0xbd818cd4	-0.06325689
153	0x3d8cbf5e	0.06872438
154	0x3dd80693	0.10548129
155	0xbc943f14	-0.018096484
156	0xbcea4b40	-0.028600335
157	0xbdbb16bc	-0.091351956
158	0xbdb39aeb	-0.08769783
159	0xbc357941	-0.011076272
160	0x3c888caf	0.016668646
161	0xbd601ca4	-0.054714814
162	0x3db59169	0.088656254
163	0x3e1a4f3b	0.15069287
164	0x3d88a64f	0.06672346
165	0xbd99de65	-0.075131215
166	0xbd49fcdb	-0.049313407
167	0x3e1d4b51	0.15360762
168	0x3d8d46be	0.068982586
169	0xbdfdef55	-0.123991646
170	0xbddf525d	-0.109043814
171	0x3cfa6f68	0.0305707
172	0x3e357e93	0.17724065
173	0xbd536fea	-0.0516204
174	0xba9c521b	-0.0011926325
175	0xbcecaac8	-0.028890029
176	0xbccd0428	-0.025026396
177	0xbb3a252d	-0.0028403506
178	0xbd0555b2	-0.03255243
179	0x3dad320a	0.0845681
180	0xbe1da7f0	-0.15396094
181	0xbe2999e4	-0.16562611
182	0xbdbf3737	-0.09336703
183	0xbda58c2e	-0.08083378
184	0x3d68d136	0.056840144
185	0xbbe57ca3	-0.0070033832
186	0x3bd661e2	0.0065424303
187	0x3cf25154	0.029579796
188	0x3d0b41b9	0.033998225
189	0x3cb6e480	0.022325754
190	0xbd98ad36	-0.07454912
191	0xbc1bfb67	-0.009520388
192	0xbdedd5c2	-0.11613037
193	0x3d22a8eb	0.039711874
194	0x3e5176d7	0.2045549
195	0x3c0ac95b	0.008470858
196	0xbcdb5275	-0.026772717
197	0x3d92d235	0.07169
198	0xbdf52672	-0.119702235
199	0x3aea9fe3	0.0017900433
200	0xbcf74f22	-0.0301891
201	0x3d881e11	0.0664636
202	0x3cb46b9c	0.022023968
203	0x3d975f62	0.0739124
204	0xbcee81d9	-0.02911465
205	0x3dceafbf	0.10092115
206	0x3ccfd5b1	0.02537045
207	0x3d37e1ed	0.044893194
208	0x3c76d375	0.015065064
209	0x3d99cc53	0.07509675
210	0xbd796fbf	-0.060897585
211	0x3d22e380	0.039767742
212	0x3dc4785f	0.095932715
213	0xbd6f9e55	-0.058500607
214	0x3da57c0c	0.08080301
215	0x3cb6290b	0.022236368
216	0x3d8c929f	0.06863903
217	0xbd0a03be	-0.033694975
218	0x3d8a1bd4	0.06743589
219	0x3d9c68f9	0.076372094
220	0xbc20233b	-0.009774025
221	0x3c0edf8b	0.008720289
222	0x3d4345e3	0.04767407
223	0xbc866318	-0.016404673
224	0xbe2f5c37	-0.17125021
225	0xbdd96279	-0.10614485
226	0x3be63d91	0.0070263823
227	0xbd9a84bc	-0.07544848
228	0x3c10877a	0.008821363
229	0xbd2e23a5	-0.042514462
230	0xbdc01556	-0.093790695
231	0xbd8fcfdd	-0.07022069
232	0xbdbb93d5	-0.09159056
233	0xbd4e2628	-0.050329357
234	0x3d986afb	0.0744228
235	0x3de50b6e	0.11183821
236	0x3daa27f0	0.08308399
237	0xbc8f59a3	-0.017498797
238	0x3d985f72	0.0744008
239	0x3d223080	0.039597034
240	0x3d1734a2	0.03691543
241	0x3cdc435e	0.026887592
242	0x3cefc679	0.029269444
243	0xbe0f3150	-0.13983655
244	0x3e2937bf	0.16525172
245	0xba9a43a8	-0.0011769431
246	0x3df3d414	0.11905685
247	0xbd06ffa7	-0.032958653
248	0x3d20466c	0.03912966
249	0x3e1f0018	0.1552738
250	0x3d24e917	0.040261354
251	0xbce34b38	-0.027745828
252	0xbdcbbee4	-0.09948519
253	0x3c646f45	0.013942544
254	0xbd392931	-0.0452053
255	0xbdb8d442	-0.0902486

decode.2.weight f4 [100, 100]
0	0xbb8b2945	-0.004246863
1	0x3c32b84f	0.0109082
2	0xbbb943f8	-0.0056538545
3	0xbb28dd7c	-0.002576678
4	0x3bbc1fab	0.00574108
5	0xbb7cd7df	-0.0038580818
6	0x3b1679f0	0.0022960864
7	0xbbce9c81	-0.006305278
8	0xbb3d1fe1	-0.0028858113
9	0x3bfcc75f	0.0077141966
10	0xbbc553c7	-0.00602195
11	0x3bfc062f	0.007691167
12	0x39deb195	0.0004247545
13	0xbb9a1b00	-0.0047029257
14	0x3b281f00	0.0025653243
15	0xbbff78eb	-0.007796397
16	0x3adc262f	0.0016796048
17	0xbb737328	-0.0037147496
18	0xbb3e174c	-0.0029005585
19	0x3c02b3ed	0.007977468
20	0x3c28c3af	0.010300561
21	0xbbe2652c	-0.0069090333
22	0x3bf89893	0.0075865476
23	0x3c23868c	0.009980809
24	0xbb3bbddb	-0.0028647098
25	0xbc033162	-0.008007379
26	0x3b00ccf4	0.0019653412
27	0xbaeef723	-0.0018231611
28	0xbbcb6db9	-0.0062081483
29	0xbb326c47	-0.0027225183
30	0x3ba31a77	0.00497752
31	0xbbccc118	-0.0062486045
32	0x3a5f5880	0.00085199624
33	0xbbae2fce	-0.0053157574
34	0xbb7906a4	-0.0037998343
35	0xb9bd7c84	-0.0003614166
36	0xbb8be6c0	-0.004269451
37	0x3b76de04	0.0037668953
38	0x3b56adca	0.0032757395
39	0x3c3ed800	0.011648178
40	0xbbd872e2	-0.006605492
41	0x3c2e8e0c	0.010653984
42	0xbc4ff55c	-0.012692776
43	0xbc09f601	-0.008420468
44	0x3b13615c	0.002248845
45	0x3b0248fe	0.0019879933
46	0xbba17b7c	-0.0049280506
47	0xbb659ba7	-0.0035035403
48	0x3c0d722e	0.00863318
49	0x3bcde393	0.0062832325
50	0xbb627918	-0.003455704
51	0x3ba228d2	0.004948714
52	0x3a168657	0.0005742064
53	0xbb471a79	-0.003038077
54	0x3c632953	0.013864833
55	0xbab406c8	-0.0013734931
56	0x3c2791b2	0.010227608
57	0xba9d7ff0	-0.0012016278
58	0xbb593518	-0.0033143219
59	0x3af44423	0.0018636029
60	0xbc05f65f	-0.008176415
61	0xbbbc9b3d	-0.0057558105
62	0x3ac60354	0.0015107193
63	0xba8a2f8d	-0.0010542736
64	0x3bfde32e	0.007748029
65	0xbb8229e1	-0.0039722775
66	0xbbcf2b76	-0.0063223196
67	0xba8b13ee	-0.0010610798
68	0x39c2ae8d	0.00037132614
69	0x3c13ba9c	0.009016659
70	0xbc81a2f5	-0.015824774
71	0x3c7955e9	0.0152182365
72	0x3c0363b5	0.0080193775
73	0x39409de4	0.00018369366
74	0x3abd52f1	0.0014444274
75	0x3a62cd80	0.00086518377
76	0xbb863693	-0.004095861
77	0xbae0a058	-0.001713763
78	0x3c9a7a3d	0.018857116
79	0xbae80a9c	-0.0017703357
80	0xbc6581cd	-0.014007998
81	0xb9052eaf	-0.0001270126
82	0x3ba52605	0.0050399327
83	0xbb5a3594	-0.0033296095
84	0x3b3060b8	0.0026913118
85	0x3c6896fe	0.014196156
86	0xbae7fbd4	-0.0017698952
87	0xbaaf55fb	-0.0013377065
88	0x3c047b61	0.008086056
89	0xba9b4188	-0.0011845091
90	0xbb6d58fc	-0.003621637
91	0x3c0f1798	0.0087336525
92	0xb8825524	-6.214742e-05
93	0x3bbcf4b4	0.0057664756
94	0xbc1aa859	-0.009439551
95	0xbc3220ea	-0.010872105
96	0x3c3c7122	0.011501582
97	0x3c2be098	0.010490559
98	0x3c8027cb	0.015643975
99	0x3c523837	0.0128307855
100	0xbad1e972	-0.0016015007
101	0x3b1cf679	0.002395062
102	0xba8c4873	-0.0010702744
103	0x3b40ae07	0.0029400603
104	0xbbe2da60	-0.006923005
105	0xb8fb79fc	-0.00011991334
106	0xbb80538f	-0.003916211
107	0xbc29fdfd	-0.010375497
108	0x3c4b3b47	0.01240427
109	0xbb3366ef	-0.0027374586
110	0x3bc6e978	0.006070312
111	0xbb9a97ec	-0.0047178175
112	0xbc66e0d2	-0.014091687
113	0x3b9c6756	0.004773061
114	0x38fab822	0.000119552264
115	0xbc148a8b	-0.009066234
116	0xbbcb1c58	-0.006198447
117	0xbbbb0bce	-0.0057081943
118	0x3a0080a9	0.00049019844
119	0x3c59a0f7	0.013283006
120	0xbb9b624b	-0.004741942
121	0x3ba1a7ea	0.004933347
122	0xbaf8c3c6	-0.0018979243
123	0x3b7f17fa	0.0038924203
124	0x3bfa934b	0.007646953
125	0x3af35528	0.0018564807
126	0xbb0bc689	-0.0021328053
127	0xbbaa8792	-0.0052041495
128	0x3c24ab8b	0.010050665
129	0x3b32ce80	0.0027283728
130	0x3c44ebed	0.01201914
131	0x399b912a	0.0002967206
132	0x3bcbfd9f	0.0062253023
133	0xbbdaa35a	-0.006672305
134	0x3b8e32a0	0.004339531
135	0x3c002ffa	0.0078239385
136	0x3c50e41d	0.012749699
137	0x3b72585c	0.0036978936
138	0x3c63d1a4	0.013904963
139	0x3c46c547	0.0121319955
140	0x3ba0f339	0.004911807
141	0xba230f1a	-0.0006220207
142	0x3c422688	0.011850007
143	0xbc058e54	-0.008151609
144	0x3a11b261	0.00055578916
145	0x3c14c976	0.009081235
146	0x3b24ce69	0.0025147444
147	0x3a9f4d10	0.0012153704
148	0xbbbc3595	-0.005743692
149	0xbba66c73	-0.005078846
150	0x3bb9b1f0	0.0056669638
151	0xbb8f7dbf	-0.004379004
152	0x3a58d6fa	0.000827178
153	0x3c077859	0.008268439
154	0xbb787507	-0.003791155
155	0xbab53b18	-0.0013826815
156	0xbc13760a	-0.009000311
157	0xb9ac191f	-0.00032825113
158	0x3b660454	0.0035097795
159	0xbc26b19a	-0.010174179
160	0x3b80417b	0.003914056
161	0xbc2b356c	-0.0104497485
162	0x3bbbc404	0.005730154
163	0xbc1cd547	-0.009572334
164	0xbb59b65f	-0.0033220274
165	0xba0fe6a6	-0.00054893864
166	0xbbe27d77	-0.006911929
167	0x3aa30735	0.0012438061
168	0x3bc90a56	0.0061352653
169	0xbb0b2e56	-0.0021237335
170	0x3a8bd715	0.0010668958
171	0x3c2c1d62	0.010505052
172	0xbc7b6c4c	-0.015345644
173	0x3bad95c2	0.0052973935
174	0xbb79b362	-0.0038101305
175	0x3c34257f	0.010995268
176	0x3c074f02	0.008258583
177	0xbba4b7f1	-0.0050268103
178	0xbc091455	-0.008366664
179	0x3c65e7e2	0.014032336
180	0x3bacd2c6	0.0052741496
181	0x3bad74bf	0.0052934582
182	0x3c564264	0.013077352
183	0x3bef1325	0.0072959834
184	0xbbc84d57	-0.0061127353
185	0x3b701ff8	0.0036640149
186	0x3c0d89c3	0.008638802
187	0x3b093eb8	0.0020941924
188	0xbad2fc4d	-0.001609692
189	0xbc057206	-0.008144861
190	0x39068624	0.00012829207
191	0xbb77a2f2	-0.0037786332
192	0xbb9a62e2	-0.004711495
193	0x3be18fde	0.0068836054
194	0x3bebf77f	0.0072011347
195	0xbc5c522a	-0.013447324
196	0xba63c57e	-0.00086887914
197	0xbbb5130c	-0.005525952
198	0x39b4a960	0.0003445847
199	0xbb433b67	-0.0029790045
200	0xbad13948	-0.0015962506
201	0x3a929e27	0.0011186049
202	0xbb8f719c	-0.004377557
203	0x3b62c893	0.0034604415
204	0xb7e9826a	-2.7836493e-05
205	0x3c041bd5	0.008063276
206	0xbbe1f39b	-0.006895495
207	0x3c3ce132	0.0115283
208	0xbc10a6cd	-0.008828831
209	0x3a27af00	0.00063966215
210	0xbc444293	-0.011978763
211	0xbc23ea2f	-0.010004564
212	0x3bd8fb89	0.006621782
213	0x3b1be7fe	0.0023789401
214	0xbb8eb418	-0.004354965
215	0x3a69019c	0.00088884844
216	0x39a6b841	0.00031799267
217	0x3c9bc968	0.019016936
218	0xbafa320e	-0.0019088404
219	0x3b5d83cc	0.003380048
220	0x3c2a0ea0	0.010379463
221	0xbb14a962	-0.0022683968
222	0xbc24baf3	-0.010054338
223	0x3c7b12d6	0.015324315
224	0xb9c5307e	-0.00037610898
225	0x3ad2fe96	0.0016097601
226	0x3bb1f766	0.0054311035
227	0xb9949666	-0.00028340815
228	0x3bd98fb2	0.0066394443
229	0x3bd13fa3	0.00638576
230	0xbc47377c	-0.012159225
231	0xbb869662	-0.0041072825
232	0x3b83941c	0.0040154587
233	0xba9722ef	-0.0011530797
234	0xbafd786a	-0.0019338254
235	0x3ab8e07f	0.0014104991
236	0xbb158689	-0.0022815785
237	0x3c3ce9e0	0.0115303695
238	0xbbfc7906	-0.007704857
239	0xbae31d8d	-0.0017327532
240	0x3acdd022	0.0015702287
241	0xbbf3d7aa	-0.0074414806
242	0x3c06c623	0.00822595
243	0x3a8a740e	0.0010563151
244	0x3c5d5b51	0.013510541
245	0x3bb21619	0.005434763
246	0xba9108de	-0.0011065265
247	0x3bd4be13	0.006492385
248	0x3b85ce1d	0.0040834085
249	0x3b5d3f7f	0.003375977
250	0xbc0b35ae	-0.008496685
251	0x38a5eb8b	7.9116864e-05
252	0x3b7cbc56	0.0038564405
253	0xbc2c2271	-0.010506258
254	0xbbf3af60	-0.007436678
255	0x3bc860c1	0.0061150496

decode.4.weight f4 [1, 100]
0	0x3a4e77e1	0.000787614
1	0x3a436f71	0.0007455266
2	0xb93535e2	-0.00017281578
3	0x3b03fce5	0.002013975
4	0xb9c83841	-0.00038188885
5	0xb99ad8a6	-0.00029534585
6	0xbab05af3	-0.0013454839
7	0xbacdf04f	-0.0015711876
8	0x3ae23555	0.0017258326
9	0xb993e750	-0.00028210366
10	0xba1eef6b	-0.0006062898
11	0x3aa187b1	0.0012323764
12	0xb9994a64	-0.0002923786
13	0xbaff2f68	-0.0019469084
14	0xb96c73a9	-0.000225498
15	0xba493076	-0.0007674763
16	0x3ae83ce2	0.001771834
17	0x3b02952d	0.0019925341
18	0xb86818be	-5.5336153e-05
19	0xbcaf398d	-0.021389747
20	0xbadfc590	-0.0017072428
21	0xb91758d4	-0.00014433573
22	0xba734af3	-0.00092808827
23	0x3b05e1e1	0.0020428824
24	0xb8f4f4c1	-0.000116804156
25	0xbaee7880	-0.0018193871
26	0x3aa1a1be	0.0012331528
27	0x3917a7ca	0.00014462988
28	0xba9ce46a	-0.0011969928
29	0xb8dc5670	-0.00010506518
30	0x3a1e0adc	0.000602884
31	0xb9577d3e	-0.00020550654
32	0x3acd2ce2	0.0015653635
33	0xb9e508cd	-0.0004368484
34	0x3ac3b1e3	0.0014930334
35	0xbad0922e	-0.0015912706
36	0x3974a389	0.00023330575
37	0x3addc5ee	0.001691995
38	0x3ac1a3c6	0.001477354
39	0xb91a2b52	-0.00014702723
40	0x3ad4e9aa	0.0016243954
41	0x3aa2e924	0.00124291
42	0x3a91ea4c	0.0011132448
43	0x3ae382a0	0.0017357655
44	0x3a914d0c	0.0011085584
45	0x3a68ac42	0.0008875766
46	0xba22f2ba	-0.00062159786
47	0xbac34141	-0.0014896767
48	0xb9ef77a1	-0.00045674763
49	0x3acc973e	0.0015609039
50	0xba0df64f	-0.0005415426
51	0xbac85ca6	-0.00152864
52	0x3abcd6e2	0.0014407302
53	0xba5747dc	-0.0008212307
54	0xbaec0f97	-0.0018010017
55	0x3ab7221b	0.0013971956
56	0xbb014be3	-0.001972907
57	0x3a41e584	0.0007396566
58	0xb98b3c9d	-0.00026557306
59	0xbad120ea	-0.0015955244
60	0xbabaaba8	-0.0014241831
61	0x3a379788	0.0007003476
62	0x3a8ee69d	0.0010902468
63	0xb98476cf	-0.0002526552
64	0xbadfe420	-0.0017081536
65	0xba7e7e70	-0.0009708172
66	0xba489fe0	-0.0007653218
67	0xba17f8cd	-0.0005797267
68	0xba099d4e	-0.00052495755
69	0xba9f6e80	-0.0012163669
70	0x3aed8491	0.0018121173
71	0x3ab6ccb5	0.0013946505
72	0xba6458b8	-0.000871073
73	0x394fd740	0.00019821245
74	0x3a0f87f3	0.0005475275
75	0x388b5f2a	6.645762e-05
76	0xba980005	-0.0011596686
77	0x3a7db193	0.00096776447
78	0xba80804b	-0.0009803859
79	0xba9a9903	-0.0011794869
80	0xb9d28809	-0.00040155675
81	0xba0f94d7	-0.0005477196
82	0xbaab2f95	-0.0013060445
83	0x3926c97c	0.00015906052
84	0x39882224	0.00025965378
85	0x3a0b1c2b	0.00053066266
86	0x3add66c5	0.001689159
87	0x3ab9b54a	0.0014168408
88	0x39ab2cc3	0.00032649012
89	0xbad9bd81	-0.0016612263
90	0xbae10c4a	-0.00171698
91	0x3a8165f9	0.0009872309
92	0xbae0aabb	-0.0017140725
93	0x3a71104f	0.00091958506
94	0x3ac011de	0.0014653762
95	0xba8ec09c	-0.0010891142
96	0x391e9076	0.0001512187
97	0xba41619b	-0.000737691
98	0x39affa9a	0.00033565314
99	0xba4022d3	-0.0007329408
