Quantum/2 qubit/3 dim/models/3_latent.pt (torch, 110759 bytes, 6 tensors)

encode.0.weight f4 [100, 30]
000000 bf 1b c5 3d f6 2b b1 3d 91 3c 01 be ec 7d 09 bd
       0.09624433 0.08650963 -0.1262076 -0.033567354
000010 81 3f 32 bd 14 e8 3e 3e d0 a8 ae bd 21 7f 9f 3d
       -0.043517593 0.18643218 -0.08528292 0.0778792
000020 d7 a4 bf bd 65 a2 2c be 3e f1 3f 3c cd 4c 01 bd
       -0.093576126 -0.16858824 0.011715231 -0.031567384
000030 d3 ac 04 3c c3 e5 c7 3c 67 40 ea bc b8 70 a0 3d
       0.008097845 0.024401551 -0.028595163 0.078339994
000040 4c 2f 67 bd 9e 4e 0b 3d 67 ec df bd 7a 1e f3 bd
       -0.05644159 0.034010522 -0.10933762 -0.11871047
000050 c7 4e 6e 3d 93 b2 00 bd 6d 10 77 3d 3c b3 5e 3c
       0.058180597 -0.0314203 0.0603184 0.0135925375
000060 12 82 ca 3d 04 77 e5 bd a6 a4 4b 3d cc 7a 22 3e
       0.0988809 -0.11204341 0.049717568 0.15867156
000070 ec 35 92 3d 3c 4c 5d bd 52 63 f0 be 5c 3d f4 bb
       0.07139191 -0.05402778 -0.46950775 -0.0074536037
000080 77 45 0e be 04 4b 70 3e f1 8d 53 be 3c 48 11 bf
       -0.13893686 0.23466116 -0.20659615 -0.56750846
000090 00 08 32 bf ff 76 b2 be 88 16 ca be 1b ae 4c be
       -0.6954346 -0.34856412 -0.39470315 -0.19988291
0000a0 8b a3 1f bf 0a fb 68 be e9 76 57 3e 7c 3b 89 bd
       -0.6235892 -0.22752014 0.21041454 -0.06700799
0000b0 91 bb bc be e5 89 3e be 64 d1 6a 3e 64 ac 3d 3d
       -0.36861852 -0.1860729 0.22931439 0.046306983
0000c0 4c 0b ee bd e8 45 47 bc 21 50 87 3e 64 bb 2a bd
       -0.116232485 -0.012162663 0.2642832 -0.041682616
0000d0 2b 72 41 3e 70 ed 0d 3f 3f a9 6e 3d 0e 5c 12 3e
       0.18891208 0.55440426 0.058266874 0.14292929
0000e0 78 3c 0b 3f df 1d 9c be 29 f5 29 3e a4 fd 7a 3c
       0.54389143 -0.3049154 0.16597427 0.015319262
0000f0 94 b0 cb 3d 78 31 07 be fa 9f 54 b8 26 a9 18 3a
       0.09945789 -0.13202465 -5.069373e-05 0.0005823545
000100 fc e0 42 3e 0d 73 18 3e e4 5c 87 bc 6c 2c 26 3e
       0.19031137 0.14887638 -0.016523786 0.16227883
000110 7a 89 0e be e1 a2 69 bd 0e 8d 5e bd d5 2f af bd
       -0.1391963 -0.0570401 -0.05433374 -0.08554045
000120 ee 84 e3 3d 83 95 a9 bc 04 99 13 bd cb bf 45 bd
       0.11109339 -0.020701176 -0.0360346 -0.04827861
000130 0c 53 74 bd 34 1a 5d 3c 10 5a ef bd 0e dd da 3b
       -0.059649512 0.013495017 -0.116871 0.006679184
000140 d1 da d4 3d 08 9d 01 be 6d 5b 79 3d ed 50 17 be
       0.103932984 -0.12657559 0.060878206 -0.14776964
000150 d2 d9 d8 bd 1f 69 3d 3d a3 03 2c 3e 16 b2 23 3d
       -0.10588421 0.04624283 0.16798262 0.039964758
000160 c8 d5 c4 3d bc 7f d5 bd 8f 78 aa 3d be c7 c0 3d
       0.09611088 -0.10424754 0.08323776 0.09413098
000170 a0 44 87 bd a0 89 7d bb 24 93 5b 3d da 8f 94 3d
       -0.06604886 -0.0038686767 0.05360712 0.07254
000180 64 f9 66 be 09 12 22 be 3d ac f7 3a 16 99 24 3c
       -0.22556072 -0.15827192 0.0018895936 0.010046264
000190 c7 93 de 3b 70 66 2b 3d 44 6d 9b bd 53 3d cb bd
       0.006792519 0.04184574 -0.075892 -0.09923806
0001a0 c8 fc 83 bd 5b 53 df 3c ee e0 fc bd 66 7e f4 3d
       -0.064446986 0.027261427 -0.123475894 0.11938171
0001b0 fc f6 7f bd c3 91 22 3e b8 2c eb 3d 2c 44 65 3d
       -0.062491402 0.15875916 0.11483139 0.055973217
0001c0 8b d6 b3 3d 9f c0 7e 3d 05 47 8e 3d 83 1b 83 bd
       0.08781155 0.062195417 0.0694714 -0.06401732
0001d0 ab 21 0c be b8 9e d5 3d c9 f6 96 3c aa b0 0e be
       -0.13684718 0.10430664 0.018428223 -0.1393458
0001e0 8d 3c f6 bd ac bd d0 bd a6 79 cc 3d 1b b5 38 3d
       -0.12023268 -0.10192427 0.0998414 0.04509459
0001f0 54 69 a1 3d c1 e5 1a 3e 38 88 e3 bd 59 10 0b 3e
       0.07881418 0.15126707 -0.11109966 0.13580455
000200 0b a7 d5 bd d6 b1 48 3d df d2 30 3e 18 40 9c 3b
       -0.104322515 0.048997723 0.17267941 0.0047683828
000210 47 91 93 bd d2 5b 01 3e ac 29 b5 3c 49 29 fd bc
       -0.07205444 0.12632683 0.022114597 -0.030903475
000220 e6 9f 7c bd 05 d7 37 3d c7 43 10 bd d5 fc 0e 3d
       -0.06167593 0.044882793 -0.035220888 0.03490909
000230 04 83 b8 bd a6 13 b2 bd 03 3c 8c 3d f2 64 33 3e
       -0.09009364 -0.08695154 0.06847384 0.17518976
000240 dc ea d9 bd 7b 82 94 bd 45 fa 62 3d 57 90 03 be
       -0.10640499 -0.0725145 0.055414457 -0.1284803
000250 17 b6 c3 bc a5 5e a2 bd f7 5a 7e 3d c3 d0 65 3d
       -0.023890538 -0.07928208 0.06209847 0.056107294
000260 0c 10 2a 3d f5 4c 06 3d 2c 24 09 3f 8b 96 c3 3d
       0.04151921 0.032788236 0.5357082 0.09550198
000270 e1 f9 34 3d 17 57 0f bf 40 14 bf be 72 63 f7 3d
       0.044183616 -0.55992264 -0.37320137 0.120795146
000280 98 fd 35 3e 6f 36 01 3f 47 7d 09 3e 5e ec b5 3e
       0.1777252 0.50473684 0.13426696 0.35531896
000290 28 c2 fb be a6 2e 29 3d 34 81 44 3d c5 c4 ea be
       -0.49171567 0.041304253 0.04797478 -0.45853248
0002a0 4b 5b 8d 3e c1 b7 38 3e 35 ba 52 bf e7 27 26 bf
       0.27608714 0.18038847 -0.8231538 -0.64904636
0002b0 ce e4 84 3d 76 34 36 be 1e e7 c3 3e 9d 04 6e 3e
       0.064889535 -0.1779345 0.38262266 0.23243947
0002c0 d7 78 14 3e a9 db 65 3e ee c9 f8 3d ff 8c b7 bd
       0.14499222 0.22447075 0.1214789 -0.0896244
0002d0 d7 21 d6 bd 27 01 5f 3e dc 9b 3f bd 9e b2 3c 3e
       -0.10455673 0.21777783 -0.0467795 0.18427512
0002e0 33 d4 8d 3d 27 3f 5d 3e 73 39 b0 3e bb 0c ec 3c
       0.069252394 0.21606122 0.3441883 0.028814664
0002f0 8c 84 46 bc 90 be 1a 3e bf 58 a2 bd 72 f9 9d bd
       -0.012116563 0.15111756 -0.07927083 -0.077135935
000300 cc bb 79 3e 4a ce f1 3d 7c 76 fe 3d e0 42 62 3e
       0.24388045 0.11806925 0.12424943 0.22095823
000310 a1 d5 7d 3e c9 ba 32 3f a9 7d 9d 3e c1 4a 94 bb
       0.24788524 0.6981626 0.30759934 -0.004525513
000320 c3 c6 1b 3f 6f 7f cc 3e a8 32 05 3e ff f8 fb 3e
       0.6085016 0.39940974 0.13007605 0.49213406
000330 7c 92 b6 3e 00 29 52 3e da 69 5a 3e 1e 14 37 be
       0.35658634 0.20523453 0.21329442 -0.17878768
000340 a7 ed b9 3e 6e 86 e7 3d 22 89 f2 3d 87 34 bc be
       0.36314127 0.11304937 0.11842562 -0.36758825
000350 42 0d e6 3e 8b 15 d2 3e 3b 71 4e 3e e7 a0 eb 3c
       0.4493199 0.4103206 0.20160381 0.028763248
000360 59 75 59 bf 21 fe ea 3d 50 ca 08 bf 91 79 fd bd
       -0.84944683 0.114742525 -0.53433704 -0.123767026
000370 93 bf 22 3e 70 f1 18 3f f6 1b aa bf 38 65 2b bf
       0.15893392 0.59743404 -1.3289783 -0.6695132
000380 0e 3b 75 be 3d 10 ce be 15 d3 99 bf d0 a2 09 c0
       -0.23948309 -0.40246764 -1.2017542 -2.1505623
000390 67 73 f6 bd 0f 9f bc be 78 46 c3 bd dd 34 48 bd
       -0.1203373 -0.36840102 -0.09534925 -0.04887854
0003a0 d0 77 45 bf 48 81 d6 be 1a 93 ec be 95 08 28 bd
       -0.77135944 -0.4189551 -0.4620598 -0.04102381
0003b0 e7 55 1d bf ab a2 30 3f 4b 26 23 3d fb a3 15 3f
       -0.614592 0.6899821 0.03983144 0.5845334
0003c0 aa 8b 15 bd e3 e3 ae bc 50 76 d7 3d 1c a0 80 3d
       -0.036510147 -0.0213489 0.10520613 0.062805384
0003d0 a2 98 c4 bd 32 49 2e bd 77 b8 a1 bd 42 b4 3d be
       -0.09599425 -0.042550273 -0.07896512 -0.18525794
0003e0 33 ba 72 3e 75 a8 c9 bc e1 17 44 3b c8 d3 31 3e
       0.23703842 -0.02461646 0.002992146 0.17365944
0003f0 82 78 e5 3d 6d a8 f0 3c 10 73 b5 3d 77 1e 85 3d
       0.11204626 0.029377187 0.08859837 0.06499951

encode.2.weight f4 [100, 100]
000000 20 ad dd 3c 77 ff a9 bc 18 3a 30 bd c5 c7 1b 3d
       0.027060091 -0.020751698 -0.043024153 0.038032312
000010 2b a5 2e 3d cd bb b4 bc 86 cb a4 3d 36 5e 46 bd
       0.042637985 -0.022062207 0.080466315 -0.04842969
000020 a1 29 1d 3d 55 fa 85 bb c8 6d 32 3d 40 84 0f 3d
       0.03836978 -0.00408868 0.043561727 0.035038233
000030 06 f4 60 3d 7f 95 9f 3b 68 52 fb bd 67 0c 94 3c
       0.05492022 0.0048701162 -0.12271577 0.01807232
000040 33 62 ef bc e8 7d c2 bc 93 31 12 bd bd cc f9 bc
       -0.02922163 -0.023741677 -0.03569181 -0.030493135
000050 42 82 a0 3c ec 84 0f bd b6 a6 40 bc b8 3b 1b 3a
       0.019593362 -0.035038874 -0.011758497 0.00059216795
000060 26 dc 85 3b c3 23 98 bc f1 41 4d 3b ee be 7c 3c
       0.0040850816 -0.01857174 0.0031319822 0.015426381
000070 2d 73 0a bd ca bb 3f 3d f1 f9 e0 3c 02 b0 bd 3c
       -0.033801246 0.04680995 0.027462931 0.023155216
000080 21 46 9d bb 80 56 e8 38 8b 30 1c 3c 98 1a 42 bc
       -0.00479962 0.00011078734 0.009533058 -0.011847161
000090 ef 40 be 3c 54 e1 30 bc 13 18 37 bc 30 56 b9 3d
       0.023224322 -0.01079591 -0.011175173 0.09049642
0000a0 03 3a 48 bc 9e 8d 09 bd 9b 45 ee bb 74 17 93 3d
       -0.012220862 -0.033582322 -0.007271481 0.07182208
0000b0 3f 27 51 3c 51 3b cd bc 5e 8f b5 bd 23 08 1a bd
       0.012765705 -0.025052698 -0.08865236 -0.037605416
0000c0 b2 6a 31 bd 3c f9 50 3c 69 0a f7 3b 1d a6 0e 3d
       -0.043314643 0.012754735 0.007539083 0.034826387
0000d0 ab 6d 8c bb a2 32 89 bd 06 68 1b bc 6c 7d 90 3c
       -0.0042855344 -0.066991106 -0.00948525 0.01763793
0000e0 9e 95 8d 3c 55 42 1b 3d 04 06 b9 bc 1d c9 08 bd
       0.017283257 0.037905056 -0.022585876 -0.03339492
0000f0 f7 e5 98 3b 51 da 35 bc 7f c4 ff bc 64 10 dd 3c
       0.004666086 -0.011099414 -0.031221626 0.026985355
000100 40 18 4a 3d 41 b6 89 bc 6c 9e 47 3c 2a 43 68 3d
       0.049339533 -0.016810538 0.012183767 0.056704678
000110 91 33 86 bc c7 70 0d bd 2f 5a 3a 3c fe ce b9 bc
       -0.01638201 -0.03453138 0.0113740405 -0.02268171
000120 de 38 0b 3c 6a 6a 6d 3d 33 8b ba 3d 6e c2 98 bc
       0.008497445 0.057962812 0.091085814 -0.018647399
000130 08 df 19 bc f4 2e d4 bc 1e 4e 8a bc 4d 82 24 bd
       -0.009391554 -0.025901295 -0.016882952 -0.040163327
000140 5f be 5a 3b ac 6b 9a 3c 0c fa 12 3d 56 1c 84 3d
       0.003337763 0.01885017 0.035882995 0.06450717
000150 8f 16 14 bd 69 8b 11 bd 3c d9 8a 3d 33 fc 3a 3d
       -0.036154326 -0.035533343 0.067797154 0.045650672
000160 83 bb a6 3a a2 c7 a4 3d 3c 27 35 bd 74 ce 15 3d
       0.0012720678 0.080458894 -0.04422687 0.036573842
000170 71 ec 0f bb c9 35 49 3d 14 7d 8e bd 32 9b aa bc
       -0.0021960998 0.04912356 -0.069574505 -0.020825956
000180 f1 54 e4 bd c0 17 fb 3c a2 dc f6 ba 65 41 0a 3d
       -0.11149014 0.030650973 -0.0018834064 0.03375377
000190 f9 65 0b bd 74 27 cb be 66 1d f4 3a 2a f6 0c 3c
       -0.034032796 -0.39678538 0.0018624484 0.008603612
0001a0 af f0 ee bc e0 14 b5 3e 98 6b 0b 3f 83 67 4c 3b
       -0.029167501 0.3536749 0.5446105 0.0031189627
0001b0 f2 5c 5c 3c fc 57 79 bc 9f 9c 71 3c 4e b1 3b be
       0.013449894 -0.015218731 0.014746814 -0.18329355
0001c0 40 fe b2 bb 26 3f ad 3c cf 7e 28 3f b3 3c cb bd
       -0.005462438 0.021148276 0.65818495 -0.09923687
0001d0 6f a2 88 3a 00 5a d4 bd dc 34 10 3e 0b c5 cb bd
       0.0010424386 -0.10368729 0.14082664 -0.09949692
0001e0 b0 60 1f be 42 8f 2d bc 08 ba 44 3b c0 9c 96 3f
       -0.15564227 -0.010593237 0.003001811 1.1766586
0001f0 3a 83 b2 3f 12 20 57 3e eb b2 3e 3c 31 f4 f1 bc
       1.3946297 0.21008328 0.011639337 -0.029535385
000200 98 c5 2b be d5 b0 00 bd 8f 82 17 3d d1 b5 74 3b
       -0.16774595 -0.03141864 0.036989745 0.0037339816
000210 67 ec 3f bc 34 cd 25 3e db 9b 40 3e e4 4e 43 bc
       -0.011714078 0.1619156 0.18809454 -0.011920664
000220 8d 5c 6b bf b8 8b 2a bb cb 61 22 bc 35 7e d7 3e
       -0.91938096 -0.002602322 -0.009911011 0.42088476
000230 bd c7 2b 3c 73 b4 f9 3e bc 97 65 bc 37 18 25 3e
       0.010484633 0.48770484 -0.014013227 0.16122518
000240 61 11 4c bd de 6c 44 3c 6c db 02 3e 91 1c bf bb
       -0.04982126 0.011988847 0.12779015 -0.005832263
000250 87 64 0e 3d ee 1e 20 bf 52 ea c6 3d b8 37 b3 3b
       0.03476384 -0.62547195 0.09712662 0.0054692887
000260 1c a9 18 3b df 52 04 3f 20 56 39 3d 02 e9 e2 bd
       0.0023294156 0.5168895 0.04524815 -0.11079599
000270 cc 00 77 bd 8b 14 4f 3f f9 26 06 bc d5 f8 32 3c
       -0.060303494 0.8089072 -0.008188003 0.010923584
000280 16 9c 67 bd 76 e0 6b bc c7 bc e2 bb bd 47 14 3e
       -0.05654534 -0.014396777 -0.0069194767 0.14480491
000290 27 3b a0 bc 23 2a 52 3c 62 23 ef bd 76 ea fc 3d
       -0.019559456 0.012827429 -0.116766706 0.123494074
0002a0 b8 16 d0 3f 7e 2b c1 3e 09 d1 26 3f 57 ca 06 bc
       1.6256933 0.37728494 0.6516271 -0.0082269525
0002b0 1f 35 05 be b4 43 4d bf 43 2c be bc 04 09 bd 3b
       -0.13008545 -0.8018143 -0.023214465 0.005768897
0002c0 4b 4d 1a bf 5b 3c 93 3e ea 5d 25 3a 27 6a 91 3d
       -0.6027419 0.28756985 0.0006308245 0.07100325
0002d0 41 c3 c6 bb 4d b8 1a bb e1 38 95 bc 21 e1 00 3f
       -0.0060657565 -0.0023608387 -0.018215599 0.5034352
0002e0 49 9a 46 be 6c 4e 91 be 5a 35 ff bd 89 ec 8d be
       -0.19394793 -0.28380144 -0.12461348 -0.27719525
0002f0 b3 62 a6 bd 9c 31 20 bd 0f 7d b5 3e e2 14 12 be
       -0.08124294 -0.03910981 0.35446975 -0.14265779
000300 62 22 ca bc 75 66 78 39 c0 da 06 bf 25 21 89 bc
       -0.024674598 0.00023689291 -0.52677536 -0.016739437
000310 28 71 19 3d 5a 91 d8 3d 08 98 76 bc 7a 7d 60 3f
       0.03746143 0.105745986 -0.0150508955 0.8769146
000320 21 03 84 bd 2c b4 49 3d 53 3b cc 3c ae c0 14 3d
       -0.06445909 0.04924409 0.024930632 0.036316566
000330 cf e9 a3 3c ba 95 ab 3d de 01 90 bb 3b 7e c3 3b
       0.02000895 0.083781675 -0.004394754 0.0059659756
000340 35 d1 47 3c d5 00 4a bd 8d da 98 b8 c7 ef a3 3c
       0.012195875 -0.0493172 -7.288633e-05 0.020011796
000350 7d 43 20 3d ea d3 8e 3c c6 1a 6d bd 80 8f 43 bd
       0.03912686 0.017435033 -0.05788686 -0.047744274
000360 b3 65 8d 3c 6e d1 ef 3a 5f 16 47 bb c2 eb 9e 3a
       0.017260408 0.0018296668 -0.0030378324 0.0012124705
000370 0b a4 32 3d 25 ff 6a bd 13 80 21 3d 8d cf f1 bb
       0.043613475 -0.05737223 0.03942878 -0.0073794783
000380 e6 8a 03 3d ca ef 03 bc 35 15 52 bd 9c 6b 2f bc
       0.032114886 -0.008052776 -0.051289756 -0.010706808
000390 a5 37 13 3e 53 46 3b 3d 5d b1 12 3c 09 47 00 bd
       0.14376695 0.045721363 0.0089534195 -0.031317744
0003a0 3e a7 e6 3c 87 aa b8 bc e0 50 db 3c 72 52 35 3d
       0.02815592 -0.022542251 0.026771963 0.04426808
0003b0 14 c9 8d 3c 04 09 09 bc f2 fe 42 3d 1b 3e f4 3d
       0.017307796 -0.008363966 0.047606416 0.11925908
0003c0 62 eb f5 3c 1e 24 ee bc 2e bd b3 ba d4 13 ac bb
       0.030019466 -0.029069956 -0.0013712996 -0.005251387
0003d0 11 17 bd bc 51 cb 02 3d e9 eb 4b bb 67 ee 32 3d
       -0.023082288 0.03193218 -0.0031115955 0.04368439
0003e0 dd f7 80 bd 20 de 4f 3d 78 be c4 bb 40 fe 7a 3d
       -0.06297276 0.050748944 -0.006004151 0.061277628
0003f0 cf ac 02 3d 97 f4 da bc f6 27 76 bd e3 e2 f6 3b
       0.031903084 -0.026727958 -0.060096703 0.007534371

encode.4.weight f4 [6, 100]
000000 a7 8c 83 b8 17 15 90 3d f3 94 20 b8 c8 fc 96 3a
       -6.272765e-05 0.070352726 -3.8285692e-05 0.0011519426
000010 af b3 13 b9 67 4b 1f be 99 04 4f be 3a 6a af 3a
       -0.0001408595 -0.15556107 -0.20216598 0.0013383098
000020 f0 a8 5a b9 16 ce 4a 39 d8 02 2c b7 5c 07 c5 bd
       -0.00020853034 0.00019340994 -1.0252661e-05 -0.09620544
000030 e6 48 04 3f 87 4e ea 3e ec 3d 27 b9 0f a1 21 3e
       0.51673734 0.45763037 -0.00015949429 0.15784095
000040 d4 3e 5f 3a e1 a7 54 3a 9a a1 4b 39 b7 bd 77 bd
       0.0008516137 0.0008112174 0.0001941979 -0.06048366
000050 45 a9 12 ba 38 99 51 3a 35 f3 c9 3a 38 f9 ff bd
       -0.0005594681 0.00079955487 0.0015407564 -0.124987066
000060 62 07 3c b9 89 44 49 3a fd ae 67 ba f5 00 70 3c
       -0.00017931827 0.0007677754 -0.0008838026 0.014648666
000070 4e f8 ff 37 89 02 3a bd 71 16 13 bb 7f 58 30 bc
       3.0513995e-05 -0.045412574 -0.0022443796 -0.010763287
000080 3d 34 e4 b9 61 de e8 3d 16 fb 1c be ba 12 f5 bc
       -0.0004352647 0.113705404 -0.15330157 -0.029916156
000090 f7 dc 28 39 b0 f2 11 be 6a 12 bb 3d 3b b1 56 be
       0.00016104044 -0.14252734 0.091343716 -0.20966046
0000a0 8a a1 20 ba 33 2d a5 bd e8 d7 62 ba c2 7d bd b9
       -0.0006127587 -0.08065262 -0.00086533884 -0.00036142586
0000b0 00 cd 96 b4 0a 61 2c ba d1 c6 f2 be 3c 68 e5 3d
       -2.8088834e-07 -0.0006575739 -0.4741731 0.11201522
0000c0 84 d5 f2 3d 4c 0c 61 3a 41 e3 69 3d 85 96 25 3d
       0.11857131 0.0008584901 0.05710149 0.04042675
0000d0 28 67 39 b8 52 48 9f bd 16 af 89 bd 86 4e 90 bd
       -4.420351e-05 -0.07777466 -0.06722848 -0.07046227
0000e0 6b 19 95 3c 3e c0 1a 3a f6 4e 12 3e f6 f3 45 bd
       0.018200597 0.000590328 0.14287934 -0.048328362
0000f0 4e 63 cf 3a ef 79 e0 ba 1c 4d 7c 3a b7 49 00 be
       0.0015822442 -0.0017126183 0.00096245273 -0.1252812
000100 2d fd 51 3e f2 72 09 3e 14 ea ac ba be 01 bf bc
       0.20506735 0.13422754 -0.0013192319 -0.02331626
000110 2b 1f ad 38 81 9a 53 bf 1a 7b d0 bd 64 6a 8b be
       8.255088e-05 -0.8265763 -0.1017973 -0.27229607
000120 c9 e7 46 3e e6 8b a0 bd d4 65 26 bb cd 51 66 bd
       0.19424357 -0.078391835 -0.0025390284 -0.056230355
000130 46 73 7f 3a 90 44 0b 38 da d6 12 39 af 54 b6 ba
       0.0009744655 3.3204036e-05 0.00014003683 -0.0013910736
000140 1e 91 6e b9 78 f3 c5 3d 52 2e 4e 38 ee 42 e6 3e
       -0.00022751509 0.096655786 4.9157366e-05 0.44972938
000150 59 8a 27 b9 c4 20 6f 3a ce c7 28 3a d9 7a 69 bd
       -0.000159779 0.0009122009 0.00064384646 -0.057001922
000160 2e b5 1b 3a b6 7b 4d 3a ab 60 c6 3d 7a ca a6 3d
       0.00059397786 0.0007838564 0.09686407 0.08144088
000170 16 53 0f b8 4d 7b 73 ba 7b 8d 59 b9 9d ec ae 39
       -3.4171237e-05 -0.00092880876 -0.00020747438 0.00033364157
000180 43 41 f3 b9 43 8c 8a 3d 1e d5 a7 b9 19 2d 15 ba
       -0.00046397196 0.06765034 -0.00032011507 -0.0005690619
000190 87 93 48 ba b5 49 96 bd f7 be d1 b8 e2 58 20 39
       -0.0007651378 -0.07338277 -0.000100014666 0.000152919
0001a0 70 1a 41 b8 15 9d 8b 3e b6 eb c5 bd fd 97 4f 3b
       -4.6039408e-05 0.27268282 -0.09664099 0.0031676285
0001b0 00 37 96 b6 0b 1e c5 ba 04 f4 60 39 6e 71 97 bd
       -4.476751e-06 -0.0015038861 0.00021453208 -0.07394682
0001c0 e8 0b 0e 3e e6 da 04 3e 6b fb 42 ba 4d e5 43 be
       0.1387173 0.12974128 -0.0007437977 -0.1913044
0001d0 98 51 aa ba 17 bb 7f ba e5 ac 8d b8 4a c9 d9 bd
       -0.0012994288 -0.00097553566 -6.755608e-05 -0.10634096
0001e0 66 83 63 ba df 09 18 bb 50 9d 2c ba e6 fd 5b bd
       -0.00086789427 -0.0023199243 -0.00065847207 -0.053708933
0001f0 c0 de 3a 3a 6f 8f 81 ba 24 aa 7f ba 99 f3 22 be
       0.0007128529 -0.0009884665 -0.0009752831 -0.15913238
000200 60 97 08 ba 08 10 4a be 6a f4 54 3b 51 cf 25 be
       -0.0005210545 -0.19732678 0.0032494315 -0.16192366
000210 be 15 8f ba 03 2d 0c 3e cf e0 82 be 9c bb a6 3e
       -0.0010916514 0.13689046 -0.2556214 0.3256501
000220 3f c5 91 ba 2e 62 1d 3e 73 9f 41 be 72 8b 52 bd
       -0.0011121406 0.15369484 -0.18908481 -0.051402517
000230 a7 dc 5e ba 92 24 ee 3c b6 60 bb 39 d4 d9 47 ba
       -0.00085015077 0.029070172 0.00035739475 -0.00076237065
000240 da fa 3e ba 75 ba cd 39 6c b6 31 be ce e8 19 bd
       -0.00072853046 0.00039239568 -0.17354745 -0.037575535
000250 45 9e c1 3d 6c 64 ea 39 99 e8 24 be 10 39 18 bb
       0.09454016 0.00044706778 -0.16104354 -0.0023227371
000260 86 a1 97 b8 e1 45 4f be 57 c8 ea bc 05 52 46 3c
       -7.230327e-05 -0.202415 -0.028659983 0.012104516
000270 48 11 46 3e cc 42 4d bb fd fc 1d be b8 41 bc bd
       0.1934253 -0.0031320332 -0.15428539 -0.09192222
000280 a9 0a 88 ba 95 10 35 b9 f4 04 8b b9 a2 ac 96 be
       -0.0010379154 -0.00017267682 -0.00026515836 -0.29428583
000290 fc 37 0c 3e 1a c4 cf be c4 05 80 39 fe 96 44 3e
       0.13693231 -0.405793 0.00024418358 0.19198224
0002a0 40 9a 2d 3a 87 32 0d be 25 ac 19 3e 87 f4 04 bb
       0.00066224113 -0.13788806 0.15007074 -0.0020287351
0002b0 69 3c c0 3e d5 f8 01 bd bd e2 af 3b 09 bf 29 be
       0.3754609 -0.031731445 0.0053676055 -0.1657678
0002c0 29 c6 59 bb 07 35 e3 38 20 97 b0 ba c3 8a 1c 3c
       -0.0033229685 0.000108340806 -0.0013472773 0.009554568
0002d0 49 79 d4 ba 83 19 97 bc d4 a9 c1 ba ec ac 14 3d
       -0.0016210462 -0.018444782 -0.0014775344 0.036297724
0002e0 55 87 cb ba 83 a4 1d 3a a4 26 2c 3a 66 11 84 3e
       -0.0015528003 0.0006013589 0.0006567037 0.25794524
0002f0 3a c5 4a bb 4e 2f df 39 1f 90 c8 3d 97 d3 99 3c
       -0.003094031 0.0004256912 0.09793114 0.018777652
000300 91 ba 16 3a c5 e6 de ba bd 4d 14 ba 5a 68 1e ba
       0.00057498465 -0.001700603 -0.0005657336 -0.0006042771
000310 40 42 fe b9 10 a8 03 3e d9 74 85 b9 a9 c6 5f ba
       -0.00048496015 0.1285708 -0.00025454795 -0.00085363776
000320 28 d2 9c ba 24 29 1e be bd 42 58 ba 5e 11 c2 3a
       -0.0011964487 -0.15445381 -0.0008249691 0.0014806201
000330 6c 6a 1a 3a a9 ff 30 3b 14 a4 5d be e4 ce 2e 3a
       0.0005890492 0.0027007854 -0.21644622 0.00066684023
000340 c0 89 27 ba aa 07 1b 39 35 15 9b ba 5e 3d 4d 3e
       -0.0006391071 0.00014784807 -0.0011831882 0.20042941
000350 7c 18 00 be 7c 32 3f 3e 4c 81 0b ba 62 85 60 be
       -0.1250934 0.18671602 -0.0005321696 -0.21925882
000360 24 a2 57 ba 2e 7a 0f b9 c0 a6 df ba 2a ba cd 3b
       -0.000822576 -0.00013683058 -0.0017063245 0.006278296
000370 92 9c 9b ba ae e0 7f 3a 70 77 62 3a d3 3e e4 bc
       -0.0011872223 0.0009760958 0.00086390134 -0.027861988
000380 c1 19 ad 39 b8 61 f5 b9 22 21 03 ba 18 9d 50 3e
       0.0003301632 -0.00046802848 -0.00050021906 0.20372427
000390 64 21 a6 ba 8e 22 12 3e db f3 bf b9 e9 46 c4 3c
       -0.0012674746 0.14270994 -0.00036612045 0.023959594
0003a0 da 94 9b 3a b9 88 64 3e 53 51 fc be 72 9e 13 be
       0.0011869923 0.2231778 -0.49280795 -0.14415911
0003b0 a2 fd c0 b9 2c 5c cc 3d 25 27 7d bd 2f 1e 22 bd
       -0.00036810065 0.09978518 -0.06180491 -0.039579567
0003c0 4f 75 b1 b9 3f ae 93 3c bf bb 83 3a 8a c8 ec 36
       -0.00033847473 0.018027423 0.001005046 7.056694e-06
0003d0 b8 e4 35 b7 d8 6a be 36 f0 32 24 be aa ca 3d bd
       -1.0841693e-05 5.6748795e-06 -0.16035056 -0.046335854
0003e0 47 bb 75 bd 79 14 11 3a ec 7e 36 3d 8a 6f 04 3e
       -0.059993055 0.00055343617 0.044554636 0.12933174
0003f0 78 ae b2 ba 8b de 09 3d 2a 65 07 3e c2 af 73 bc
       -0.0013632318 0.0336595 0.13222185 -0.014873447

decode.0.weight f4 [100, 33]
000000 a8 2b 80 3b 94 98 65 3d d3 02 e1 3c 1d 01 82 3e
       0.003911454 0.056053713 0.027467167 0.25391474
000010 32 1e 19 3e d1 4e 0a bf ee 61 a4 3d f6 44 95 3e
       0.14952925 -0.54026514 0.08026491 0.29154176
000020 ca 63 2c bd 5d 4b 25 be f6 c3 04 3f d6 fd 40 3f
       -0.042087354 -0.1614203 0.5186151 0.7538732
000030 aa 9b a8 be d8 7b 13 3e bf 7d 05 bf 16 76 c4 be
       -0.32931262 0.14402711 -0.52145 -0.38371342
000040 d7 46 8b 3d 7c e7 0b bf 3a 20 85 bf 15 57 bb 3e
       0.06800621 -0.5465009 -1.040046 0.36589876
000050 f0 3f 11 3f 8f bb 17 3e cf 6b 64 3d 1e 60 2b be
       0.56738186 0.14817642 0.055766877 -0.16735885
000060 d7 4b af be ea 6e 64 be 3c 78 22 3f 1f 52 96 3e
       -0.3423755 -0.22307935 0.63464713 0.29359528
000070 5c 0d 30 3e 06 a5 03 bf 9a 9b 78 3d f0 01 5b bf
       0.17192596 -0.5142368 0.06069527 -0.8554983
000080 ae 4e 98 be 09 b0 bb 3d f1 5d 8b bc 9f d7 40 3d
       -0.29747528 0.091644354 -0.017012568 0.047080632
000090 ff f5 5a be 4e e7 35 bc c5 a0 06 3e 5d 4a 3f be
       -0.21382903 -0.011102511 0.13147266 -0.18680711
0000a0 89 1e 89 3d aa 03 2b bf 3c f9 63 3e 25 b2 d3 be
       0.06695277 -0.66802466 0.22263044 -0.4134685
0000b0 e8 b5 c4 3b 88 52 cb be 6c 90 21 3d d8 b6 f4 3e
       0.00600313 -0.39711404 0.039444372 0.4779575
0000c0 47 54 a9 3d 33 c9 33 be d2 49 e0 3e 3b ec 42 be
       0.08268028 -0.1755722 0.4380632 -0.19035427
0000d0 96 e9 bb be fc 6a 06 bf d0 3e f4 3e b4 05 0a bf
       -0.3670165 -0.52506995 0.47704172 -0.5391495
0000e0 a2 f3 9d 3e af 1f 62 be bd e2 74 3e 43 c3 f6 bd
       0.3084994 -0.22082399 0.23914619 -0.12048962
0000f0 d6 04 40 bf 97 bb 8d be f5 db dd 3e 5d aa 34 3d
       -0.7500738 -0.27682182 0.43331876 0.044107784
000100 96 62 84 3f 45 6d 17 3e 71 58 36 3f 78 75 40 3d
       1.0342586 0.14787777 0.712287 0.046987027
000110 78 45 5a bf 55 a2 3d 3f 0e c6 7b bf ec 6d 8c be
       -0.8526225 0.74075824 -0.9834908 -0.27427614
000120 fc cf 05 bf 6b 9a 46 bf 93 2e 9b bf 98 d4 00 3f
       -0.52270484 -0.77579373 -1.2123588 0.5032439
000130 bd fd 0d bf d3 82 49 bd b8 37 9a be ba 83 f3 3e
       -0.554653 -0.04919703 -0.30120635 0.47561437
000140 f3 1c 6a 3f ac 16 02 bf 79 69 50 3e 41 9b 08 3f
       0.91450423 -0.50815845 0.20352735 0.533619
000150 c7 74 aa bf 15 c3 47 bf db 52 7e bf a2 9f fb be
       -1.3316888 -0.78032047 -0.9934518 -0.49145228
000160 a9 08 cf be d1 cf db 3e 41 d2 a2 be c0 01 f3 3d
       -0.40436295 0.4293199 -0.31801036 0.11865568
000170 09 f0 30 bf 5d af 72 3e 24 7f 26 bf cf d7 a6 3f
       -0.69116265 0.23699708 -0.6503775 1.303461
000180 6b e1 df be 4a ca 8d 3a 50 73 38 be 98 12 25 bf
       -0.43726668 0.0010817733 -0.18012738 -0.64481497
000190 06 a5 22 be 6c 02 03 bf a9 a6 45 3e 02 ac 66 be
       -0.15883264 -0.5117557 0.19301857 -0.22526553
0001a0 a4 bc 4f bf f2 34 10 bf 67 15 05 bf a4 cd 16 3f
       -0.8114722 -0.5633079 -0.5198578 0.5890753
0001b0 9a 5b 10 be 38 4a 49 bf 6e 4d d3 be d2 c4 c2 3c
       -0.14097443 -0.78628874 -0.41270012 0.023775492
0001c0 79 46 86 3f 35 08 38 3f 45 aa 38 bf 7a 72 4e 3e
       1.0490257 0.7188752 -0.7213481 0.20160857
0001d0 d3 e2 ca bd d2 fb 03 bf f2 79 2d 3e 15 e8 3d bc
       -0.099065445 -0.5155612 0.1694105 -0.011590977
0001e0 9e 53 aa be 86 36 ab be 65 46 ef be c0 67 ea 3d
       -0.3326692 -0.33440036 -0.46733394 0.1144557
0001f0 28 ba 6d bf 49 87 87 be e2 7b a3 3e df 2c 4a 3e
       -0.92862177 -0.26470402 0.31930453 0.1974368
000200 5c 3e d6 be c1 50 31 be 33 a2 98 bf 7b dc ca be
       -0.4184445 -0.17315961 -1.1924499 -0.39621338
000210 00 3c 2f be d4 a3 66 be e9 9c bd be 7c 54 fb bd
       -0.17112732 -0.22523433 -0.37033775 -0.122719735
000220 70 33 86 bf 63 00 24 3e ba 1e a2 3e cd 19 25 3d
       -1.0484447 0.16015773 0.31664068 0.04030781
000230 7c 86 f1 be 72 b7 a0 3e 6c 4c cb 3e 21 43 ea 3d
       -0.47172916 0.31389958 0.39706743 0.11438585
000240 6a 44 f7 3e c1 a8 d7 be 2a 0c 3a bf 89 47 44 3b
       0.48294383 -0.42120937 -0.7267481 0.0029949865
000250 87 5c dd 3d 5f e6 d5 bd 23 26 21 bf eb a5 a4 3d
       0.10808664 -0.104443304 -0.62948817 0.08039459
000260 e6 94 5d bf f6 57 d5 3e c6 75 1c be ce 82 40 3f
       -0.86555326 0.4166867 -0.15279302 0.7519959
000270 1f 30 19 3e d7 48 45 3e 6c 6c 26 bf f7 b0 14 bf
       0.14959763 0.19266067 -0.6500919 -0.58082527
000280 ef 64 07 be 47 d1 34 3d 08 55 1c 3f b6 d0 99 be
       -0.13222097 0.044144895 0.6106725 -0.30042046
000290 89 53 39 3d d2 9f ac be e3 de 89 3f 75 1f c0 be
       0.04524568 -0.33715683 1.0771145 -0.37524
0002a0 57 f3 df 3e cf 40 5d bf cb 5b 13 bf 94 1b e3 3e
       0.4374034 -0.86427015 -0.5756194 0.44356978
0002b0 5b 2a 75 3e b1 0e 2b bf a6 81 07 3e 76 cf 9e be
       0.23941939 -0.6681929 0.1323305 -0.31017655
0002c0 5f e4 8c 3e 33 89 af be 4a 52 5c be 19 9d ad 3d
       0.27517983 -0.34284362 -0.21515766 0.084772296
0002d0 41 32 98 be 45 e7 af bd ef 44 cb be 6c 30 86 bf
       -0.2972584 -0.08589033 -0.3970103 -1.0483527
0002e0 7d fe 6d bc 27 39 1a bf 67 21 c8 be 90 51 35 be
       -0.014526007 -0.6024346 -0.39087984 -0.17706895
0002f0 e9 2c 33 3f cc bd 53 bd 2b 0c 66 3e ea b6 fb 3d
       0.699904 -0.051694676 0.22465579 0.122907475
000300 dc e0 63 3e 9c 54 fc 3e da 42 2f be f3 11 d0 3d
       0.22253746 0.49283302 -0.17115346 0.101596735
000310 3b 46 aa bf 6a 0f fa 3d 54 5a 0d bc 77 01 ba 3b
       -1.3302683 0.12209971 -0.008627493 0.005676444
000320 15 35 2d bc c4 d7 7a 3e b5 f5 10 3d 14 ea 6f 3e
       -0.010571738 0.2449637 0.035390574 0.23429137
000330 e7 2a 5f be ac 22 3d bd 8a 49 ac be d6 4c e5 3e
       -0.2179371 -0.046175644 -0.33649856 0.44785184
000340 39 e3 08 be de 2c 35 bd 6e 33 89 3e 89 94 5a 3a
       -0.13367929 -0.04423224 0.2679705 0.00083381735
000350 8c 6d f4 3d f7 f2 8b 3d 5b d3 c8 bd ca 5d 80 3e
       0.11934957 0.06833451 -0.09805938 0.25071555
000360 bf a7 0d be 58 ff cc be 23 6e 0f be 43 18 b6 be
       -0.13833521 -0.40038562 -0.14006858 -0.35565385
000370 29 3c a7 be 66 a4 01 3f ec b7 c0 3e 12 91 ca bd
       -0.32663086 0.5064148 0.3764032 -0.09890951
000380 2e 77 a3 bd 67 74 18 be f9 e2 30 be f1 76 96 3e
       -0.07981716 -0.14888154 -0.17274083 0.2938762
000390 10 e3 73 be c8 e4 06 3e 61 c9 00 be 71 a3 65 bc
       -0.23817086 0.1317321 -0.1257682 -0.014016018
0003a0 9c b3 0a 3c b3 65 6f 3c f9 ba a5 bc fe 97 7b 3d
       0.008465674 0.014611649 -0.020230757 0.061424248
0003b0 36 0d c8 3d 3c bc 93 3c 7b 0d 1a be 0d b7 07 be
       0.09768145 0.018034093 -0.15044205 -0.13253422
0003c0 e9 ef a5 3a a1 93 9d bd e6 19 36 3e 8a f6 ec bc
       0.001266 -0.076941736 0.17783317 -0.028926153
0003d0 cf 08 42 3e 9f 84 c1 3d 6f e0 05 3e b0 05 27 3e
       0.18948673 0.094491236 0.13073896 0.16310763
0003e0 1c a1 ee bd 77 51 07 3d 61 26 25 be 91 df 83 3d
       -0.11651823 0.033036675 -0.16127922 0.06439126
0003f0 08 b2 12 3d e7 63 11 bd 44 47 2b 3e 1d a5 89 3b
       0.035814315 -0.035495665 0.16726404 0.0042005912

decode.2.weight f4 [100, 100]
000000 00 f3 48 3d 5d 78 0b bc 25 75 57 be f7 f7 d0 3e
       0.049059868 -0.008512584 -0.21040781 0.40814182
000010 27 d3 99 be 16 0f 0a bf 0e ec 9a bd ad 7f 30 3c
       -0.3004391 -0.5392927 -0.07564555 0.010772628
000020 c3 bd 33 bd c6 4a 59 bc 45 b9 6f be ad ec 56 bf
       -0.043882143 -0.013262456 -0.23410518 -0.8395489
000030 c6 b5 5d be 11 23 0c bc 47 36 85 bc 81 24 ff 3b
       -0.21651372 -0.008553282 -0.016261233 0.007786334
000040 e7 fa f9 bd 8f 03 3b 3e a6 c9 f2 be 0a e4 52 bc
       -0.12206059 0.18263076 -0.4741947 -0.012871752
000050 a2 54 56 3d a4 7e 88 3e ff 72 16 3f f1 0e 24 3c
       0.052326806 0.2665912 0.5876922 0.010013328
000060 9e ea 49 3d 3c 02 37 bd 4a 43 c7 3a 13 32 0c 3f
       0.049296014 -0.044679865 0.0015202549 0.5476391
000070 cc dc 74 be b0 95 d9 3b 1f 15 14 bf 13 37 42 3e
       -0.23912352 0.0066401586 -0.5784473 0.18966322
000080 f8 b0 d7 bc 7f b2 83 3c b3 bd f4 bd 45 30 81 bd
       -0.026329502 0.016076325 -0.11950245 -0.06308035
000090 f5 9b 54 bb 2c 12 74 3e 77 87 1b be e0 18 d7 be
       -0.003244159 0.23835057 -0.15188394 -0.42011166
0000a0 57 63 50 be ea fe 2b bf 90 c4 49 be 4e c5 d4 3a
       -0.20350395 -0.67185843 -0.19703889 0.0016233118
0000b0 b0 44 45 3c 4a f4 9c 3e 1f b8 f2 3d 0b 83 87 bc
       0.012040302 0.30655128 0.118515246 -0.016541978
0000c0 37 7c 99 3e e2 a2 30 3e 0e 71 98 3e bd 76 92 bb
       0.2997758 0.17249635 0.29773754 -0.004469721
0000d0 5f 55 9b bb 10 f9 8f bc 1d e8 92 3d 9d a1 55 3e
       -0.0047404016 -0.017574817 0.07173178 0.20862432
0000e0 21 7c 96 3e 78 e1 c2 bd 46 ca c6 bc 9e d0 d8 3b
       0.29391578 -0.09515661 -0.024266373 0.006616666
0000f0 46 c6 6f 3e c7 63 a0 3e 00 6d 04 be d1 d1 bc 3d
       0.23415479 0.31326124 -0.12932205 0.09219707
000100 db 27 9c 3c 81 2a aa 3c 25 32 97 3e 8a eb 97 3e
       0.019061973 0.02077222 0.29530445 0.2967189
000110 31 95 94 bc d8 ee 2d 3d 0d ab 78 3a de b3 40 bd
       -0.018137546 0.042464107 0.0009485938 -0.047046535
000120 e6 57 35 3d ed ba 8a 3e 73 49 30 bc fb a1 d2 3b
       0.04427328 0.27095738 -0.010759699 0.006428001
000130 21 85 f4 3c 07 33 26 3c 25 cf f9 bd 52 d7 99 3e
       0.029848637 0.010144002 -0.12197713 0.3004709
000140 ad 99 b0 3c b0 be 4f be 47 2c ca 3d 10 4c 85 be
       0.021557653 -0.20287585 0.098717265 -0.26034594
000150 13 33 85 bc c3 da 48 be 4b 37 69 bc d3 13 09 bf
       -0.016259706 -0.19614701 -0.014234374 -0.53545874
000160 43 32 bc bc 32 7b 11 3e cc ea 98 3e c1 d7 c8 3a
       -0.022973185 0.14207152 0.29866636 0.0015323089
000170 3b fc 99 bc b9 c6 28 be e4 c2 8f be 0c 36 e2 3d
       -0.01879703 -0.16482057 -0.28078377 0.11045465
000180 a8 af 60 3e 89 1e f8 be ce 03 a0 3c e1 40 11 3d
       0.21942008 -0.48460796 0.019533064 0.035462264
000190 6c 36 e0 bc ff 6a a4 3c e0 ff 85 bc 1a 38 b8 bc
       -0.0273697 0.020070551 -0.016357362 -0.022487689
0001a0 2f 60 2f 3c f2 99 5a bc 84 00 95 bc 69 45 66 3b
       0.010704084 -0.0133423675 -0.018188722 0.0035136587
0001b0 ea c3 fd bb cc 3c fc b9 fe 05 8c 3c 09 39 9e 3a
       -0.007744302 -0.00048110483 0.017092701 0.0012071441
0001c0 c5 02 19 3d 68 30 a4 bc 8c 8d 37 3c e4 d9 d4 bc
       0.037356157 -0.020042613 0.011203181 -0.025982805
0001d0 9c 56 46 bc 14 c9 5e 3d d3 b4 66 3c 78 45 62 3c
       -0.01210561 0.05439098 0.014081198 0.013810508
0001e0 7f 69 b0 bc 00 8f e1 bc 6a 9b 03 3b 7c 15 bc 3b
       -0.02153468 -0.027534008 0.0020081648 0.005739866
0001f0 ab 69 0e bc 1e 49 eb bc 0d b9 12 3b 41 78 1d 3c
       -0.008692185 -0.028721388 0.002238813 0.00961119
000200 3e 53 86 bc 40 75 af 3c ab 8c c2 3c 86 5b 43 3c
       -0.016397115 0.021418214 0.023748716 0.011923676
000210 08 60 3b 3c 1b d3 b5 3a 34 a6 0b 3d 32 96 18 3d
       0.01143647 0.0013872118 0.03409405 0.037252612
000220 ac bf d7 ba d3 d2 3f bb 91 db ec 3b 99 56 21 3c
       -0.0016460321 -0.0029269948 0.007228323 0.009847307
000230 fb c7 d9 bb a8 3d 38 3b 1d 00 e1 bc 11 66 ef bc
       -0.006646154 0.0028112922 -0.027465874 -0.029223474
000240 4b 57 1c bd d7 0e d1 bc cf 3f cc 3c 3c 74 88 3c
       -0.038169187 -0.025519772 0.02493277 0.016656987
000250 88 31 37 3c e0 4b 5b bd b0 28 a5 3b 8e 20 0b bd
       0.011181243 -0.053539157 0.0050402507 -0.033966593
000260 f3 bf e2 3b 32 c8 e0 3b 44 02 87 bc 01 db ab bb
       0.006919855 0.0068598026 -0.016480573 -0.005244613
000270 d8 2c ff bb 1a 7d a7 3c be 2e c1 bc f1 46 3c bc
       -0.007787328 0.020445395 -0.023581859 -0.011491523
000280 38 5d 04 bd a2 69 ba 3b af 6d df 3c e9 e5 89 bc
       -0.032315463 0.005688862 0.02727398 -0.016833263
000290 a0 0a 8b 3d a6 94 18 bc d8 20 3b 3c 5a c3 30 bc
       0.06789136 -0.009312784 0.011421405 -0.010788763
0002a0 16 66 be 3b b4 52 04 bd c8 0f 1f 39 db c0 87 bc
       0.0058105094 -0.032305434 0.000151693 -0.016571453
0002b0 45 be 83 bc 69 86 a8 3c e0 de de bc 29 11 ca 3c
       -0.016081939 0.020571904 -0.027205884 0.024666386
0002c0 a2 53 bf bb 8d b8 05 bd bb 89 f9 3c 3d 98 25 bc
       -0.005838827 -0.032646704 0.030461183 -0.010107097
0002d0 97 ce 60 3a 06 05 f7 ba 4b a5 9d 3c 96 c1 df 3c
       0.0008575706 -0.0018846102 0.019243857 0.027313989
0002e0 dc d7 7f 3c 94 73 a2 bb b7 fd f2 3c 7f 91 74 3c
       0.01561543 -0.0049576256 0.029661996 0.014927267
0002f0 c2 06 6e 3a 29 84 a4 3c 9b e7 e4 bc 2f 04 bd bc
       0.00090799865 0.02008255 -0.02794247 -0.023073284
000300 fb ca a7 bc 51 38 03 3d 40 9b 95 bc fa 9d 00 ba
       -0.02048253 0.03203613 -0.018262506 -0.0004906353
000310 9c 51 fe 3c ef 92 17 3c 55 7b 66 3c f3 94 a1 bc
       0.031044774 0.00925134 0.014067491 -0.019724345
000320 62 4c eb 3e c6 cf c0 be 63 4c 19 3e 8e 4d 7b 3d
       0.45956713 -0.3765852 0.14970545 0.06135326
000330 3d 40 0a be 6a d2 f5 3e 49 d2 5a be 2c 5a c1 3d
       -0.13501067 0.48012096 -0.2136928 0.09441027
000340 86 b7 8a 3e 6a 52 84 3b 32 e5 ff be 65 46 ab 3e
       0.27093142 0.004038145 -0.4997955 0.33452144
000350 c4 76 c1 be 54 df 13 ba 75 81 a1 3b 7c a2 14 bb
       -0.37785923 -0.00056408835 0.0049287626 -0.0022679856
000360 92 cc 38 be dc cf 01 3f 13 f6 53 3e 8a 4b 74 3b
       -0.18046787 0.50707793 0.20699339 0.003727647
000370 4c 8f 21 3e 63 54 52 bd 4d f2 c0 bc 1a 62 5e 3b
       0.1577732 -0.05135001 -0.023553038 0.0033932985
000380 f0 89 e1 be f3 72 c2 3d 78 63 c8 be 5d f2 7b bb
       -0.4405055 0.09494581 -0.3913839 -0.003844402
000390 e2 41 7e be 79 73 ba 39 a9 e7 84 bd 93 80 a1 3e
       -0.2482982 0.00035562718 -0.06489498 0.31543407
0003a0 2f f3 e0 3a c1 f1 30 bb ea 7b fd 3e 3b 81 11 bd
       0.0017162318 -0.0026999565 0.495086 -0.035523634
0003b0 15 56 c8 ba 3a 16 75 be 36 de 93 3c d0 5d e4 3d
       -0.0015284444 -0.2393426 0.018050294 0.11150706
0003c0 5e d9 14 3f 17 25 e1 bd 3a 36 ee bd 45 ab ad 3b
       0.58144176 -0.109934025 -0.11631437 0.005299958
0003d0 50 3f 5e 3b 3f 66 9d 3e 3a 7d 7a 3c ec ac 84 37
       0.003391225 0.3074207 0.015288645 1.581615e-05
0003e0 e5 e1 45 bf a3 e0 4b 3c 79 37 84 3e b1 15 db bb
       -0.7729781 0.012443694 0.25823572 -0.0066859354
0003f0 08 5f 17 bc f2 ce 08 bb f7 1d f0 bd e6 34 3d 3e
       -0.009238966 -0.0020875302 -0.11724465 0.1847721

decode.4.weight f4 [1, 100]
000000 5e b1 d3 bc 78 4b e7 37 5b 1d ff bc 4b 2f c6 bc
       -0.025841411 2.7572489e-05 -0.031141927 -0.024192473
000010 e6 cb 55 ba 60 32 45 3a c0 ce e3 bc 7a 3a 8a b9
       -0.00081556884 0.000752246 -0.027808547 -0.0002636498
000020 b8 af af 3a 95 4f 0f 3a 88 7c e0 38 e2 c4 16 b9
       0.0013403809 0.0005466876 0.00010704348 -0.0001437846
000030 02 30 04 ba 5c 33 75 39 d4 f2 9f b8 50 5a e7 3c
       -0.0005042554 0.00023384154 -7.626941e-05 0.028241307
000040 33 32 a1 b9 37 97 7f ba 75 cb 2f 3d 31 93 8d 3a
       -0.00030745714 -0.0009750011 0.04291864 0.0010801313
000050 db 46 1c 3d 20 0e ef b9 b3 60 0d 3d 5c 40 83 38
       0.03815351 -0.00045596156 0.034516048 6.258555e-05
000060 1c 0f 08 3a 3c ff f1 bc 85 9f b7 bc 4a 09 27 3d
       0.000519024 -0.02954065 -0.022414932 0.040780343
000070 97 8b 0e 3a e2 30 eb 39 76 c1 fa b9 73 c4 b9 3a
       0.00054376706 0.00044859113 -0.00047827855 0.0014172926
000080 2e f8 48 39 ef f4 ca 39 89 01 76 39 b2 ee 74 3a
       0.0001916594 0.00038710932 0.0002346096 0.00093434297
000090 c2 ea 9b bc 20 89 0e 3d 64 3f 43 39 4d fc e1 b9
       -0.01903284 0.03479874 0.00018620264 -0.00043103323
0000a0 6f 02 c9 bc 6c 42 55 3a 07 4e b5 3a ac 43 2d b8
       -0.024537293 0.0008135203 0.0013832458 -4.130944e-05
0000b0 18 9d 35 39 f1 0d 12 3a 48 e3 c6 3c 62 c5 cc bc
       0.00017320027 0.00055715354 0.024278298 -0.024996463
0000c0 10 e3 a4 bc bd 67 79 3a 3f e7 b4 39 49 18 80 bc
       -0.020127803 0.00095140544 0.00034504567 -0.01563658
0000d0 23 1f f9 b9 f7 b9 18 b8 b0 fb b6 b9 c4 52 06 3a
       -0.0004751618 -3.6412817e-05 -0.00034901267 0.00051240274
0000e0 ef c4 dd 3c 5a 43 8d 3c c3 fb 80 b9 61 f5 a6 39
       0.027071444 0.01724403 -0.0002460164 0.0003184481
0000f0 72 30 9a bc 29 af b0 3c 81 5a 32 3a 98 41 ca bc
       -0.018821929 0.021567898 0.0006803647 -0.02468948
000100 c9 e6 2b ba d0 e4 79 39 7f e1 ae bc a2 92 e1 b8
       -0.0006557522 0.0002383173 -0.02134776 -0.000107561485
000110 17 c1 b7 39 3b 13 0d 3d 6e 3f af 3c 20 9d 5c 3a
       0.00035048343 0.034442168 0.02139255 0.00084157474
000120 92 7f e1 39 aa 5a 29 39 cb 79 99 b9 96 71 ca bc
       0.00043010392 0.00016150871 -0.00029273177 -0.024712365
000130 4b ae 8e b9 48 1a cc 3c e4 63 05 3d c2 c7 d3 bc
       -0.0002721421 0.024914876 0.032565966 -0.025852088
000140 c0 0d f8 3c 11 c8 0b ba 8b ee 48 3a 85 28 c2 3c
       0.030279994 -0.00053322414 0.000766494 0.023700962
000150 c8 4c 20 3a 1e e3 2d ba 15 66 b4 39 63 d1 40 39
       0.0006114957 -0.00066332694 0.00034408332 0.0001838855
000160 7a c2 86 3a 62 f4 93 b9 2a 4a ae b9 0d d9 01 ba
       0.0010281347 -0.00028220104 -0.00033243123 -0.00049533026
000170 06 ad f9 39 7f 2d d4 3c 40 21 d4 39 27 3d de b9
       0.00047621893 0.0259006 0.00040460564 -0.00042388702
000180 4a 3f 25 3a 15 ef 36 3a 3e b7 30 3a e2 c5 0b 39
       0.00063036813 0.0006978375 0.00067411724 0.0001332979
