Quantum/2 qubit/3 dim/models/4_latent.pt (torch, 111975 bytes, 6 tensors)

encode.0.weight f4 [100, 30]
00000000: 586f b8be 0c52 07be 530d 07bf 6604 fbbe
00000010: b649 c7be 15f0 a03d 60a6 013f 3219 2a3e
00000020: b5d2 923e 86f6 8ebe 164d 4dbd 4856 34bf
00000030: d151 623e 1312 983e 37ea 9f3e 5f6c 9c3e
00000040: 10e2 c33e eabc 633f 3a07 25bd 749d 4a3e
00000050: 7fc8 923e 37e2 163e f366 2f3e ed3f ad3d
00000060: 7ef8 7b3e 72cb 80be 64fc 0cbe 0de4 2bbf
00000070: eec4 d7be 74f3 64bf 10eb b53e bcb2 463e
00000080: 413e 53be a019 853e a2dd d1be 3378 7c3e
00000090: ee66 16bf 9fd2 69be 7d3d bcbd bc22 923e
000000a0: 6198 233e 0d7f da3b 40f7 3abf 6ab4 47bf
000000b0: 226b e0be f390 18bf 55f3 99be 7e72 65bf
000000c0: 2d89 02bf 46e3 2cbf 512f 4b3d 684b f33d
000000d0: 2b0c 3fbf c71a a03e f961 32bf b203 a03e
000000e0: 5ab0 c73e 1e2f f13b 8f81 173f c484 f93e
000000f0: 2bb4 ac3d 9ef5 96bd 913c 593d 1553 00bd
00000100: 2eca 4b3d bdea 8f3d 7f07 a8bd 782c 943c
00000110: 6d3e dbbd c195 85bd 4ebe bd3d f05b 3cbd
00000120: 85f2 d43d 991a 0e3e 7d53 983c 59d7 c3bd
00000130: 0acd 93bd 4b45 bc3c 012b 19be 8f6b 9fbd
00000140: 9d27 e8b9 4fa8 1a3c ecbc 673e 0217 9fbd
00000150: 62bb 05be 55e2 59bb b6c8 a43d 8277 7abb
00000160: d431 903d 8b1e 36bd ea8a 293d d208 8d3e
00000170: 14d8 f0bf a3e8 19c0 67ca b2be 04f8 c73e
00000180: bf58 843f 23ed 43bf fe12 e13e 0f5f 293e
00000190: a0e0 f83d 2f38 81bf 1ec1 433f 794d 153f
000001a0: 6cf1 1dbf e163 8c3e 3bbb 573f 545d a23f
000001b0: 37e1 8c3e 0592 cb3e 17ee 7cbf d44a cbbf
000001c0: df6f 973e 4a0c adbd d9dc 043f 44ce b13e
000001d0: 33f2 d83d 5638 9bbf 5a97 4fbf 18a8 4bc0
000001e0: a337 c83e 833f 453f 43c6 843e d60c a53e
000001f0: 0e94 203f 041c 583e efb2 e9be dc7e 20bf
00000200: 6a38 2bbe 6562 623f 5f09 113e 48fd 3f3f
00000210: 11e6 ecbd c110 17be 4911 5bbf 4629 77be
00000220: 8eed a93e e070 cfbf 2837 233e 8866 453e
00000230: 1d29 cebf 62f1 9abf 9f16 c7bd fe07 883d
00000240: babb aa3d bb9a 793f 6645 a73e d08e 683f
00000250: ff22 353f c382 af3e 4407 28bd 7906 153e
00000260: 0b19 2bbe c5ec 06bd 2b64 38be 1b45 b2bd
00000270: 1d88 42bd 1d2f 17be fa78 d23d a0bc 063e
00000280: dd4b f13d 7bc6 9fbd e7ce fcbd 3b33 933d
00000290: 9291 b1bd b264 38bc 4fab e7bd e0c5 c6bd
000002a0: 753a 9f3d 082f 233d 0894 e0bc 4fb3 1e3e
000002b0: 837f b33d cca8 dfbd 2cd7 de3d e464 00be
000002c0: 3d62 4b3d 2c98 013e e969 fbbb fc33 113d
000002d0: 1714 9ebf 6821 98bf 6f3d 5bbe 34c0 b83e
000002e0: ba53 2ebf 92e0 70bf 83a9 b03e 756c 5e3f
000002f0: a569 95be 6a08 b9bf 03d1 8bbf 4d16 86bf
00000300: fbe6 abbb b1c9 383d f3ce 863f 64fe 81be
00000310: 6836 e6be 27f6 f63f 1d80 e2be b24e 0dbf
00000320: e9a1 1840 bb10 f93f 64dd bebe 7ac0 413f
00000330: c9c3 26be b7a6 98bf 8ec2 b93e 2103 35bf
00000340: fcb2 43be 9101 e93e 206b cfbe 445c b7be
00000350: bc9f 993e 8334 c9be 4770 8ebe ad7e 30bf
00000360: 5d2d e8bf a552 95be 522f 12bf 42c0 283e
00000370: cac0 03bf 665b a23e e24d 61bf 28e1 b2bf
00000380: b50e b4be 036f fb3d 21f3 3cbf e9cd 3ec0
00000390: 99e9 66bf a320 4abe c073 d0bf 56d7 59bf
000003a0: 6c72 65be 5461 82bf 449c 74bf b423 b9bd
000003b0: 4f72 6abf 99f2 fb3e 6372 c5be dcc2 853d
000003c0: e09b 4fbf ec6c 663f 8fd7 a3bf 42a5 17c0
000003d0: 73ab 5ebf d4c6 50be f9df cbbd b01e 963e
000003e0: 3c77 083f 9784 f53e 2dac 09bf 5f54 c3bf
000003f0: f64a 6a3f dfd4 133d e175 8d3e ecc5 3a3f
-0.3602245 -0.13214892 -0.52754706 -0.49026793 -0.38923424 0.07858292 0.50644493 0.16611174
0.28676382 -0.27922457 -0.050122343 -0.70444155 0.22101523 0.2970129 0.3123338 0.3055143
0.3825841 0.88960135 -0.040290095 0.19786626 0.2866859 0.14734732 0.17129116 0.084594585
0.24606511 -0.25155216 -0.13768154 -0.6714485 -0.42142433 -0.8943398 0.355309 0.19404119
-0.20629217 0.25996113 -0.40989405 0.24655227 -0.5875081 -0.22834252 -0.091914155 0.28542125
0.15976097 0.0066679777 -0.73033524 -0.78009665 -0.43831736 -0.59596175 -0.3006846 -0.89627826
-0.50990564 -0.6753429 0.04960567 0.11879617 -0.7462794 0.3127043 -0.69680744 0.3125282
0.39001733 0.007360353 0.59182066 0.48734105 0.08432802 -0.073710665 0.053036276 -0.031329233
0.04975336 0.07027195 -0.08204555 0.01808761 -0.10705266 -0.06522704 0.09264813 -0.045986116
0.103978194 0.13877334 0.018594498 -0.09562559 -0.072168425 0.02298226 -0.14957811 -0.07784187
-0.00044280002 0.009439542 0.22630662 -0.0776806 -0.13059762 -0.0033246477 0.08046095 -0.0038218205
0.07040754 -0.04446272 0.041392244 0.27545792 -1.8815942 -2.404824 -0.34920046 0.39056408
1.0339583 -0.76533717 0.43959802 0.16540168 0.12152219 -1.0095271 0.7646655 0.5832134
-0.61696506 0.27419952 0.84270066 1.2684731 0.27515575 0.39759842 -0.98800796 -1.5882211
0.29577538 -0.084496096 0.51899487 0.3472768 0.10593071 -1.2126567 -0.8109032 -3.1821346
0.39104947 0.77050036 0.25932512 0.32236356 0.62725914 0.21104437 -0.45644328 -0.6269357
-0.16720739 0.8843139 0.14163731 0.7499585 -0.11567319 -0.14752485 -0.8557325 -0.24136838
0.33189052 -1.6206322 0.15939009 0.19277394 -1.6106297 -1.2104914 -0.097211115 0.066421494
0.08336587 0.97501725 0.32670134 0.90842915 0.70756525 0.3427945 -0.041022554 0.1455325
-0.16708772 -0.032940645 -0.18006961 -0.08704587 -0.04749309 -0.14764066 0.10276981 0.13157892
0.11782048 -0.07801529 -0.12344151 0.07187506 -0.086703435 -0.011254476 -0.113119714 -0.097057104
0.07774822 0.039839774 -0.027414337 0.15498088 0.08764555 -0.10920867 0.108808845 -0.12538487
0.049654234 0.12655705 -0.0076725376 0.035449967 -1.2349881 -1.1885195 -0.21410154 0.3608414
-0.68096507 -0.9409267 0.34504327 0.8688424 -0.29182163 -1.4455693 -1.092316 -1.0475556
-0.005246041 0.045114223 1.0531906 -0.25389397 -0.44963384 1.929387 -0.44238368 -0.55198205
2.3848822 1.9458231 -0.37278283 0.7568432 -0.16285624 -1.1925877 0.36281246 -0.707079
-0.19111246 0.45509008 -0.40511417 -0.3581258 0.3000468 -0.39297876 -0.27820036 -0.6894329
-1.8138844 -0.29164615 -0.57103455 0.1647959 -0.5146605 0.31710356 -0.88009465 -1.3974962
-0.3516747 0.12277033 -0.73808485 -2.9813178 -0.9020019 -0.19739012 -1.6285324 -0.850942
-0.2240693 -1.0185952 -0.9555094 -0.09040013 -0.9158067 0.49208525 -0.38563833 0.06531307
-0.8109722 0.9000995 -1.2800158 -2.3694615 -0.8698036 -0.20388347 -0.09954829 0.29320288
0.5330694 0.4795272 -0.53778344 -1.5260123 0.9152063 0.03609168 0.27628997 0.72958255

encode.2.weight f4 [100, 100]
00000000: 29e3 123d 2a27 35bd ca42 ea3c b583 aabc
00000010: 11fb 953b 830d d1bc 8e4b f03b 3c69 8d3d
00000020: 4bbe d7ba 375a 6abd 8a21 843d feb7 b5bd
00000030: 9067 bfbb 7a1b d7bc 4984 db3c 3da0 aebd
00000040: 728b 50bd 58e3 d5bc f1e8 0dbd 0ada 0dbd
00000050: a615 5bbd cf7d abbc 5a70 a2bc d3f6 aabd
00000060: e982 bdbc d9bb 793d 3839 60bc 17c7 89bc
00000070: 51ec 71bc 12c2 00bd 7cde 443d dc1c 0dbd
00000080: 90ce f93c 9bd6 4b3d 19bb b33c 8bd2 8b3a
00000090: cd66 45bd 30e5 3dbd 20a5 e0bc 92d0 fcbd
000000a0: a2ea bd3c f9ec 8a3d c532 0b3e a911 75bb
000000b0: 6e3d 5b3d 81a5 18bc 4978 11bc bddb 653d
000000c0: ef37 c1ba 59d9 44bd bda3 893c 00eb 48bc
000000d0: f977 97bb 77ca 9f3b fc0e f8bc b6a0 ed3d
000000e0: a723 763b d3d3 6abd c138 e4ba 573d 4e3c
000000f0: a8e5 a6bd d02b f53d 0324 91bc 6c45 e1bc
00000100: a7df a5bd 97aa 12bd 1fd1 81bd e9bd 473d
00000110: f5ff af3d 2a91 cb3c 28ce 16bd 1ca2 03bd
00000120: 98ca d73c c4cb 673d b593 e7bb 4301 4a3d
00000130: b603 a2bd 9b85 1abd b936 c93d 1e82 03be
00000140: e7f3 2fbd 6fa7 ca3b 944f 17bb 2ef6 73bd
00000150: 0656 d4bb 0f43 bebc b8a8 63bc 4a5e 9ebc
00000160: 68f2 1fbd 6439 2d3c 9255 d23c ccea 3bbd
00000170: b873 c33c 2251 a73d ee9e 3d3d 783f 793d
00000180: e804 923d ca1c eabc 5ef5 e8bc 7ef9 ae3b
00000190: 9b5a e43d 37d2 12bc b55b 343c 0b6d c83c
000001a0: bfa1 443d b1eb 323d 6c5c b0bc 2cf1 0bbd
000001b0: dd7c cabc cf3c 09bd c621 52bc e5e7 b9bc
000001c0: ec74 af3c 348a 7abc 4854 2dbd 0ed0 cf3c
000001d0: a661 3ebc a5ae e6bd 8e2c 5abd 88d9 133d
000001e0: b470 bf3b 79cd db3b cf88 9a3b 002f 2bbd
000001f0: 245f cdbb 689d 38bd 93eb 393e 12f5 253d
00000200: 9e36 613b a3c6 efba 70b1 adbd 7f5e 123b
00000210: f3be a1bd 0a0d 8bbd 7309 87bc 27b2 a4bd
00000220: 1ccb 083d 4470 3bbc 876c 94bc c07b b8bc
00000230: 4eb9 44bd e3ad 2b3d 55b3 d43d 7b51 c3bc
00000240: c81a cd3c 2b52 d43b 3b4f f33c 32a9 8b3c
00000250: 3e5a d73b 2757 4c3d 77ba 663c fee1 5e3e
00000260: bb38 35bb 4d66 08bd 7bfd 7bbc 0b15 9f3c
00000270: 9931 1e3c 1102 ab3c 6818 863d b135 6fbd
00000280: f721 853d a90d aebc ef16 0a3d 8e91 383c
00000290: 034f c6bc 40ad d6bc 449a 9cbd 7c32 8fbc
000002a0: ad10 8a3d f4ae 4fbd 7d35 33bc 669a af3d
000002b0: beb1 9a3d d5cd e03d 6232 d6bb 37ce 02bd
000002c0: a338 d8bd fc06 863d 3015 a33d c0cd 6fbd
000002d0: e048 713c 42f7 05bc 4e3b c03c 4816 9dbd
000002e0: 06c0 063d bacd 96bd 1a59 6f3d d77a 42bc
000002f0: c00f 05bd 3e36 d33c bce7 03bd 7670 26bd
00000300: 70dc 963b 94e6 6e3d e563 c63c dd3c 48bd
00000310: 5160 113d e62e 5b3d 5e43 823d f817 8d3d
00000320: 0c40 413d 582c 7a3c 0f40 7abc b5ad 31bc
00000330: e1fe c63a 26e7 43bc c9f6 043c 7bd6 52bc
00000340: 69d7 69bd bce7 e6bc 6df1 533d cf9a 35bc
00000350: df5d f0bc 621b 1f3d 7138 27bd e975 2cbd
00000360: 6f55 82bc 165e edbd 1d04 2fbd bc09 3c3c
00000370: 1af6 66bc 809c 43bc 31b7 e93b b498 3b3d
00000380: 3c79 553d 76b0 b9bd 695c 573c 892a 84bd
00000390: 3042 bd3d da9d 903d 3e2a 983d 74c1 d9ba
000003a0: 683d 1c3d 8d38 883d 2a86 8e3b fb76 1cbd
000003b0: 2b48 8ebc 4fe7 8fbc 2bfb 0a3d db68 03bd
000003c0: 6248 703d e8b6 ddbc 0a40 873d 4dcf 12bc
000003d0: ff51 b83c 09e3 4ebc 1455 4d3d ffbe 423c
000003e0: ec94 5dbd df96 07bd 5eb0 36bd d196 123e
000003f0: d299 8cbc 52e0 f8bc 7c8e d83c 6a3c 1fbc
0.035861168 -0.044226803 0.0285963 -0.020814756 0.0045770486 -0.025519138 0.0073332256 0.069048375
-0.001645991 -0.05721494 0.064517096 -0.08872984 -0.005841203 -0.026258219 0.026796477 -0.08526657
-0.050914235 -0.026109383 -0.03464598 -0.034631766 -0.053487442 -0.020934014 -0.019828964 -0.08347859
-0.023133712 0.06097016 -0.013685517 -0.016818566 -0.014765815 -0.03143508 0.04806374 -0.03445135
0.030494004 0.04976521 0.021939801 0.0010667605 -0.04819374 -0.04636115 -0.027422488 -0.12344469
0.02318317 0.0678348 0.13593586 -0.003739456 0.05352538 -0.009316803 -0.008878776 0.056117762
-0.0014741401 -0.04805884 0.01680171 -0.01226306 -0.004622456 0.0048764306 -0.030280583 0.11602919
0.0037557872 -0.057330918 -0.0017411934 0.012587867 -0.08149272 0.11971247 -0.017717367 -0.027498923
-0.08099299 -0.03580722 -0.06338715 0.048765097 0.08593742 0.024849493 -0.0368177 -0.03213702
0.026341721 0.05659081 -0.0070671686 0.04931761 -0.07910864 -0.037725072 0.09824891 -0.12842605
-0.042957213 0.0061845104 -0.0023088204 -0.059560947 -0.0064799814 -0.023225335 -0.013895206 -0.01933207
-0.039049536 0.010572765 0.025675569 -0.045878217 0.02385889 0.08169772 0.046294145 0.060851544
0.07129842 -0.02857818 -0.028437313 0.0053398004 0.11150094 -0.008961252 0.011008193 0.024466058
0.048005816 0.043681804 -0.021528445 -0.034165546 -0.024717743 -0.033505257 -0.012825435 -0.022693584
0.021418057 -0.015291739 -0.042316705 0.025367763 -0.011619961 -0.112637796 -0.053265147 0.036096126
0.0058422927 0.006707844 0.004716016 -0.04179287 -0.006267445 -0.04507199 0.1815627 0.04051692
0.003436483 -0.0018293451 -0.08481109 0.0022334156 -0.07897749 -0.067895964 -0.016483998 -0.08041792
0.033396825 -0.01144034 -0.018118156 -0.022519946 -0.048028283 0.04191388 0.10385767 -0.023842564
0.025037184 0.0064795217 0.029700866 0.017048452 0.006572037 0.049887802 0.014082543 0.21765897
-0.0027652222 -0.033300687 -0.015380259 0.019419214 0.00965538 0.020875009 0.06547624 -0.058400813
0.06500619 -0.021246748 0.033713277 0.011265172 -0.024207598 -0.026205659 -0.07646611 -0.017480128
0.06741462 -0.050703958 -0.010938046 0.08574371 0.07553433 0.10976759 -0.006536768 -0.031934943
-0.105576776 0.06544301 0.079630256 -0.058545828 0.014726847 -0.008176627 0.023465779 -0.076702654
0.03289797 -0.07363458 0.058434583 -0.011870108 -0.032485723 0.0257827 -0.03220342 -0.040634595
0.004603915 0.058325365 0.024217555 -0.04888617 0.035492245 0.053511523 0.063605055 0.06889337
0.04718022 0.015269361 -0.015274062 -0.010844638 0.0015182161 -0.011956966 0.008115479 -0.012868519
-0.057090197 -0.028186671 0.051743913 -0.0110842725 -0.029341636 0.038844474 -0.04082531 -0.042104635
-0.015909879 -0.11590211 -0.042728532 0.01147693 -0.014096761 -0.011939168 0.007132434 0.045799926
0.05211757 -0.090668604 0.013144591 -0.064534254 0.0924114 0.07061358 0.07429932 -0.001661344
0.0381445 0.06651411 0.0043494897 -0.038199406 -0.017368397 -0.017566351 0.03393094 -0.03208242
0.05866278 -0.027064756 0.06604011 -0.008960557 0.022500036 -0.012627372 0.050129965 0.011886357
-0.0540971 -0.033102866 -0.04460179 0.14315344 -0.017163191 -0.030380402 0.02643513 -0.009718994

encode.4.weight f4 [8, 100]
00000000: 6b65 e13a b4da 6c39 853b 83b8 2b20 8339
00000010: 6427 15bd 7000 86bd ffe2 91b8 6867 12ba
00000020: 1776 863a b9cd c939 d127 dc3d 609e 293a
00000030: b800 d43a d166 f53a 614e 1b3a f8ea 2a3a
00000040: 87e9 853a ad63 453d b4ac fe37 575d 53bd
00000050: a265 603a d540 463d 5c8d 47be 4269 5fba
00000060: 3fd3 713c 352f 293e 8c52 2cbb 92f1 0d3a
00000070: 3c34 9ab8 1972 9739 8236 43bb 9286 1f3a
00000080: 06c1 723a ecda c8ba 1076 a33a 59b1 5db9
00000090: e3b0 3e3b 1404 9b3a e822 723d d322 81be
000000a0: d5a2 7039 3352 403a b44a f33a 8fee 0fbb
000000b0: 2e68 98bd afaf 003b bb64 503a 5125 73ba
000000c0: 3833 b039 0ad4 9cbe a7ef 823e f3aa 01bb
000000d0: 1327 97b9 9c51 163e 745d 4d3a d8bf 46bd
000000e0: a6b0 01bd a9b0 36b9 300c d53a a87c d739
000000f0: 871d 663d c864 f03a 058f 12bd 6b1a 90bd
00000100: d0bc 37b9 f34f 4a3a ae4f 98be b428 313d
00000110: a2f8 2ebc 5cb6 e53a a55b d5ba 5adb 2339
00000120: 6528 88bd 4cca c0ba e463 94b9 edfc 923a
00000130: d327 6f3e 776c 8eba 5b44 6f3d 18e8 33be
00000140: b5e5 62bd 2c5b 323c 8ea8 553c 77bd 943e
00000150: 94ca bd3d 9c08 5a3a ff43 91ba e417 8d3a
00000160: 0b22 303a f954 83bd 18f6 bf3c 5069 443a
00000170: 6d88 1c3a c0d5 913e 85fa 5c3e 58c8 b83a
00000180: 7dcf 28be 3a49 8fbe ee60 c23b 661e e9ba
00000190: 9c0e 7c39 f37e ab3a 0fdd f5b9 fa23 c13a
000001a0: 1aef 043c 9163 f73c 1fea 56ba 399f 5fba
000001b0: 0eb9 e939 70f2 ed39 6c14 71bc cbcd 6739
000001c0: e55c 7a3a 2a7d 47b9 716a da39 4e21 aa3a
000001d0: 0c07 96b9 447d 313d 4c87 85ba f15c 67bb
000001e0: 0b75 49ba 27e1 be3d e74a 3e3a 1014 9aba
000001f0: f9ba 1bbf 480e 223d f256 6d3a 2c07 6a3a
00000200: adec c63a 2660 caba a21a 003a 6120 13ba
00000210: 2f70 20ba 5d03 7bba 40e6 543a 7476 bc3a
00000220: 7b99 c83a 7157 df3a e101 b93d 352e 493d
00000230: 361d 42ba 8bd6 caba bdea c03a 708d ffb9
00000240: c368 e33c eb43 ce39 2932 453a fe9e 0eb8
00000250: 8fd3 16ba 5585 7c3d 4972 cabe 62c8 a038
00000260: 1fe3 6fb9 34b4 8cbd 5bde 163a cad4 bb3d
00000270: 2ee7 a33e e1dc 173a f237 3cb9 8e33 9cba
00000280: 0611 0e3c 4496 5e3a a5ab dabd 063c d7bc
00000290: 44a2 ffba be4d 71b9 eb04 033e ca2b 463d
000002a0: a109 043f ea7d 02bb 8ca5 6439 4bce 9fb9
000002b0: 5a1c bebe 504e 0abb d1d5 9038 517b 8eb9
000002c0: 4cca d8bd 9f84 d33a 1b29 0e3e 6c62 363f
000002d0: ebb8 9f3d f379 c1bd c52f b33b d78e 0abd
000002e0: 4484 aabd 39f5 3c3a 7ef5 9d3a e91b b93a
000002f0: 20e4 a9b9 ae64 0abf 1e26 b0bc 9780 073b
00000300: 539f a43a 9c2b aa3d 6c68 313e 3250 c63a
00000310: 4c8e efbd 5a95 83bb b2d9 b4bc d0d3 543a
00000320: ba47 843a c5ec 503a 35f7 013a a66e 843a
00000330: bf6c a23d afa3 383d a74f e1b9 10e5 9f3a
00000340: 2cd0 de3a 5095 b239 325f 34be ee3b 663a
00000350: b472 583a 2713 d5b9 0233 a23a ff6b d33a
00000360: 3aaf af3a 3fae 083d e1fc 19ba 7eca 80bd
00000370: da3e 1539 6a01 13bd 7326 253d 78ac beba
00000380: a07d 5a3e b8ef da3d 5a4b 983a 80d9 983a
00000390: 7c9a 883a ee71 64ba f28b c03a 7e93 2fba
000003a0: 9c3f be37 bb5c a8ba 5bb7 3d3a 1754 f43a
000003b0: 92da df3a 3e1e 1e39 464a 2d3e b43b dabd
000003c0: 7b9e 14b9 215e a4ba 6c07 4c3b 4be6 1cb9
000003d0: d1a1 26be b176 6f39 890c ab3a fcf2 34b9
000003e0: 2c4b 43ba 616a f7bc 3065 d9bd c755 ae39
000003f0: 9b82 323b e2e0 b5bd 2311 b73a 508e 86be
0.0017196363 0.00022588187 -6.257653e-05 0.00025010234 -0.03641452 -0.06543052 -6.95642e-05 -0.0005584867
0.0010258582 0.00038490983 0.10749782 0.0006470438 0.0016174531 0.0018722658 0.000592446 0.00065199984
0.0010216691 0.04819076 3.035958e-05 -0.051602688 0.00085600663 0.048401672 -0.19487518 -0.00085224595
0.014759838 0.16521914 -0.002629432 0.000541472 -7.353022e-05 0.00028885974 -0.0029787128 0.0006085421
0.000926033 -0.0015324033 0.0012471098 -0.0002114227 0.0029097132 0.0011826777 0.05911532 -0.2522188
0.00022948843 0.00073364674 0.0018561692 -0.002196226 -0.07441746 0.0019635966 0.00079495803 -0.0009275275
0.00033607497 -0.30630523 0.25573465 -0.0019785732 -0.00028830077 0.14679569 0.0007834055 -0.0485228
-0.031662606 -0.00017422684 0.0016254243 0.00041100872 0.056180503 0.0018340582 -0.035780925 -0.07036289
-0.00017522578 0.0007717602 -0.2974829 0.04325171 -0.010679396 0.0017525661 -0.0016277923 0.00015626606
-0.0664833 -0.0014708727 -0.00028303184 0.0011214294 0.23355035 -0.0010866065 0.0584148 -0.17569005
-0.055394847 0.010885995 0.013040675 0.290508 0.09267154 0.0008317323 -0.0011082886 0.0010764566
0.000671894 -0.064126916 0.023432776 0.00074924994 0.0005971257 0.2848339 0.2157994 0.0014097793
-0.164854 -0.27985555 0.005931965 -0.0017785549 0.00024038035 0.0013084098 -0.00046894743 0.0014735453
0.008113647 0.030198844 -0.0008198339 -0.0008530501 0.000445791 0.00045384793 -0.014714342 0.0002210654
0.00095505855 -0.00019024746 0.00041659505 0.0012979896 -0.0002861548 0.043332353 -0.0010187416 -0.00353032
-0.0007684982 0.09320288 0.0007259086 -0.0011755247 -0.6083217 0.0395644 0.00090537884 0.00089274603
0.0015176736 -0.0015440031 0.0004886781 -0.000561243 -0.0006120232 -0.00095753913 0.0008121468 0.0014378564
0.001530453 0.0017039609 0.090335615 0.049116332 -0.00074048655 -0.0015475316 0.0014718395 -0.0004874277
0.027759915 0.00039341985 0.0007522428 -3.400351e-05 -0.00057535706 0.061650593 -0.39540318 7.666719e-05
-0.00022877425 -0.068703085 0.00057551794 0.09171446 0.32012314 0.00057931064 -0.00017949918 -0.001191722
0.008671051 0.0008491019 -0.1067727 -0.026273739 -0.0019503315 -0.00023012512 0.12794845 0.048381604
0.5157719 -0.0019911476 0.00021805445 -0.00030480544 -0.37131006 -0.0021103807 6.9062815e-05 -0.00027176228
-0.1058546 0.0016137547 0.13882868 0.7124393 0.07798942 -0.09447088 0.005468341 -0.03382763
-0.08326009 0.0007208172 0.0012051312 0.0014122698 -0.00032404158 -0.54059875 -0.02150255 0.002067601
0.0012559689 0.08309099 0.1732499 0.0015130101 -0.11697063 -0.004015607 -0.022076461 0.0008118721
0.0010092177 0.0007969852 0.0004957796 0.0010103777 0.07930898 0.045077976 -0.0004297469 0.0012199003
0.0016999296 0.00034062052 -0.17614439 0.0008782734 0.0008256838 -0.00040640795 0.0012374821 0.0016130208
0.0013403662 0.0333693 -0.0005874169 -0.06288622 0.00014233161 -0.03589002 0.04031987 -0.0014547249
0.21336985 0.10690254 0.0011619136 0.00116615 0.0010422016 -0.00087144866 0.0014690144 -0.0006697698
2.2679385e-05 -0.0012845019 0.00072371 0.0018640783 0.0017078689 0.0001507932 0.16922864 -0.10655919
-0.00014173418 -0.001254026 0.0031132353 -0.0001496311 -0.16272666 0.00022837032 0.001305 -0.00017256656
-0.0007449861 -0.030202093 -0.10615003 0.00033251775 0.0027238491 -0.088807836 0.0013966899 -0.2628045

decode.0.weight f4 [100, 34]
00000000: e60e f93d 3497 683e c1dd d03e c5f0 043f
00000010: 80e6 fdbd 994d 323b 531f 79bf b650 e73e
00000020: 1f96 513f 501d ef3d a9f0 36bf c5f2 3e3f
00000030: c68b 953d 837d 523e 77bd cfbd f1cb 5cbf
00000040: 579c 633e 54b8 023e 0d2a 6cbf 518c 49bf
00000050: ca69 d43e 9fdc 143f 6a48 1ebf 0ee6 803f
00000060: 7ff9 85be 40ea 87be 0012 1bbf 7c00 763e
00000070: 5300 26bf 58db 033e 2ac9 acbe 6988 0e3e
00000080: e101 adbf b3ac 08bf 0168 b8be ddc2 df3d
00000090: 896f 51bf 2fd0 703e ee5e 143f e8f7 c6be
000000a0: 55d5 0bbe 3138 de3c 7d40 f6bd 1c97 ddbe
000000b0: 9ddd a13e baa4 a8bd 1e63 d13e 3c8e 06be
000000c0: 8832 e3bd f099 283d 9736 94be 1fbc a4be
000000d0: db11 2c3e 3a19 07bf e5a5 9ebd 8a0a d0bd
000000e0: d016 f93b 32bd d1be ea8a 8b3e de10 07bd
000000f0: 4b7c ca3d 7a6b a03e deea 313f 2bff a03e
00000100: 6e71 07bf d7aa e13d cfe6 debe d555 ef3e
00000110: 3e32 783e 1274 b1be a262 11be d489 093f
00000120: d454 63bd 9cd3 b5be c7c9 423f 07ce e6be
00000130: f366 5cbf 317c 8ebf 9841 253f b4e9 9abe
00000140: ee69 c7bd a2d7 cdbe 35e3 5cbe 7a05 e43e
00000150: 3405 d8be 4c61 d13d 975d 453f e638 93be
00000160: ad0c 3cbf f291 84bf 3249 f83e 7d70 92bf
00000170: 1631 de3e 98dc 8e3d 6cd0 8b3e ee91 5ebf
00000180: bf1b 39bc b004 20bf f152 b73e 5c5e 7ebe
00000190: d033 ad3f cf07 cc3d 1ef2 c9ba 03c9 603a
000001a0: 64f0 16b9 34c8 313a c02a e63d e3c7 bbbd
000001b0: cdbb 3e3c 2592 9c3b 79c5 c4bd e9b5 c63c
000001c0: c203 05be c63e 8dbd a8a1 5d3b 4494 69bd
000001d0: ef5c 2f3c d129 363d faff 543d 20aa a5bb
000001e0: c64e 423d c448 373c f591 20bd b4f9 073e
000001f0: d24a 3c3c c67f bc3d f445 653d 664b 8d3d
00000200: c1d4 38bb 9599 0bbd ed0f 00bd 54b6 99bc
00000210: 4a10 17be 717a b43c dfcf bd3c f1d2 713c
00000220: d0ad ea3d 9f9d 1e3f 86bd 073e 658f a23d
00000230: db9f cabd f03b 97be b82d e63e bb10 203f
00000240: ef12 323f 3b02 9c3e 3b1d 7bbd 3cae 82be
00000250: eb42 9b3e 4914 033f c166 88bf 31d0 a7bf
00000260: a28d 9abe c01f 32bf 9ee4 18bf 5157 c13e
00000270: 9379 8a3d 6a20 1e3e d315 9d3d 124d 3cbd
00000280: ec80 9b3e 4bbe c43e 3889 8e3d d290 4d3e
00000290: 67b8 2bbf 3edc 7e3e b81f 31bf 7aa8 4e3e
000002a0: 705c 22bf 8560 91bb 531f 943a 6e5d f539
000002b0: f201 d2b9 78f9 00ba eabf 77bc 46b7 6a3d
000002c0: 2faf babb 0f31 b03d 2dbc ef3d 5ec6 39bc
000002d0: 6655 ce3d 17bc 9e3a f11a 0ebe e147 c4bd
000002e0: 4965 773d 3d9a 0fbd 8b97 0cbd fe04 adbc
000002f0: 1ad1 d3bd 0a3e 38bd 9819 8ebc f964 31bd
00000300: 50e9 9e3c 3ce4 0ebb e090 72bd 52d1 143e
00000310: 9aee 063e 1f23 b1bc 78fe 973d 690d 1fbe
00000320: 9cb8 583d f701 ab3d 8ebc 8dbc a7c8 07be
00000330: 7006 f4be 9064 f4be 63b1 7e3e 4ac9 03bf
00000340: 0ab1 aebe 0a1d 85be 128a 153f ada7 fa3b
00000350: ff28 b7bd 3795 f03e 0442 a5be e836 64bf
00000360: eed6 7abe f20a 3f3f 2ca6 aebe afdb 8abf
00000370: ab7d 33be be98 90be e676 acbe 02a9 4d3f
00000380: 7332 0b3d b1e9 74be a8e1 a0be 2f6f a5be
00000390: 36e8 5fbe 09d5 253f 8984 5c3e 8c80 ccbe
000003a0: 33a1 c6be b677 e73d 735b 91be 22ff 80bd
000003b0: c063 39bf efd2 4fbe 5f23 bdbe b473 6c3d
000003c0: 7a12 81be f60c b43e 6250 f63d 5eeb 3d3e
000003d0: dd5d 22bf 45e0 b23c 701a 553d 8d3a 63bf
000003e0: 680b 5dbd 94ab 603f 481d 97bd a1a4 45bf
000003f0: 7a46 3cbf b4e0 12bf a423 403e bae8 06bf
0.12161045 0.2271393 0.40794185 0.51929885 -0.1239748 0.0027206896 -0.9731342 0.45178765
0.8186969 0.11675513 -0.7146097 0.74589187 0.0730205 0.20555691 -0.101435594 -0.8624869
0.22227608 0.12765628 -0.92251664 -0.7872973 0.4148696 0.5814914 -0.61829245 1.0070207
-0.26166913 -0.26545906 -0.6057434 0.24023622 -0.64844245 0.12876642 -0.33747226 0.13919224
-1.3516198 -0.5338852 -0.3601685 0.10925839 -0.81810814 0.23516916 0.5795735 -0.38861012
-0.13655598 0.027126404 -0.12024019 -0.4327935 0.3161439 -0.08234544 0.40895933 -0.13140196
-0.110936224 0.04116243 -0.289479 -0.32174775 0.16803686 -0.5277287 -0.077464856 -0.1015826
0.0076015964 -0.40964657 0.2725442 -0.03297507 0.09886988 0.31331998 0.69499004 0.31444678
-0.52907455 0.11018913 -0.43535468 0.46745172 0.24237916 -0.34658867 -0.14197782 0.53725934
-0.05550082 -0.35513008 0.7608914 -0.4507906 -0.8609459 -1.113165 0.64553213 -0.30256426
-0.09737001 -0.40203577 -0.21571048 0.44535428 -0.4219147 0.10223636 0.7709593 -0.28754348
-0.7345684 -1.0357039 0.48493344 -1.1440579 0.43396825 0.06975669 0.2730745 -0.8694142
-0.011298119 -0.6250715 0.35805467 -0.24840683 1.3531437 0.09962427 -0.001540724 0.0008574875
-0.00014394667 0.0006781847 0.11238623 -0.09168985 0.011641455 0.004778164 -0.096079774 0.024256663
-0.12989715 -0.06896739 0.0033818278 -0.057026163 0.010703309 0.044473473 0.05200193 -0.005055681
0.047438405 0.011186782 -0.039201695 0.13278848 0.011492448 0.09204058 0.055974916 0.06899147
-0.0028202983 -0.034082014 -0.031265188 -0.018763699 -0.14752308 0.02203104 0.02317041 0.014759765
0.11458933 0.6195926 0.13255891 0.079375066 -0.09893771 -0.29537916 0.44956756 0.6252553
0.6956014 0.30470452 -0.061307173 -0.25523555 0.30324492 0.5120283 -1.0656358 -1.311041
-0.30186182 -0.69579697 -0.5972384 0.3776193 0.0676147 0.15442052 0.07670178 -0.045971937
0.30371797 0.38426432 0.06959766 0.20074776 -0.6707825 0.24888703 -0.69189024 0.20181456
-0.634223 -0.004436555 0.0011300839 0.00046799652 -0.0004005577 -0.0004919986 -0.0151214395 0.05730369
-0.005697153 0.08603107 0.117058136 -0.011338798 0.10074882 0.0012110499 -0.13877465 -0.09584022
0.060399327 -0.035059202 -0.03432421 -0.021120545 -0.10342617 -0.04498104 -0.017346188 -0.043309186
0.019398361 -0.0021803519 -0.059220195 0.14532974 0.13176957 -0.021623192 0.07421583 -0.1553246
0.052910432 0.08349984 -0.017301824 -0.13260137 -0.4766116 -0.47732973 0.24872355 -0.5147902
-0.34119445 -0.25998718 0.58413804 0.007649383 -0.08943366 0.46988842 -0.32276928 -0.8914628
-0.24496052 0.74626076 -0.34111154 -1.0848292 -0.17528407 -0.28241533 -0.33684462 0.8033601
0.03398366 -0.23917271 -0.31422162 -0.3231139 -0.21865925 0.6477819 0.21534933 -0.39941823
-0.3879486 0.1130213 -0.28390083 -0.06298663 -0.7241783 -0.20295309 -0.36941049 0.05772753
-0.2520941 0.35166138 0.120270506 0.18546817 -0.63424474 0.021835456 0.052027166 -0.88761216
-0.053965956 0.8776181 -0.07378632 -0.7720433 -0.7354504 -0.5737412 0.18763596 -0.5269886

decode.2.weight f4 [100, 100]
00000000: bd30 e53a 93f1 59ba efdc 36bc 6019 843d
00000010: c97e 81bc fcaf 3abc 087c 45bc 9184 02bc
00000020: a067 0fbd dcc1 333b d357 e23a a081 5fbd
00000030: 1152 f43c 402b 943c d4de 923b 33b4 333c
00000040: b564 373c c85f 0dbc c9cc 4d3d b386 d1bb
00000050: c58a 653b 3086 babb 7eb5 89bc 4b41 11bc
00000060: 71e3 52bd e044 25bb 33f2 4abc 1c07 3b3b
00000070: 6779 5ebd b8c6 533a c47b c5bc 142b 22bc
00000080: 3cf4 4e3d def4 ecbc fbbe f73b 9824 ffbb
00000090: cf8b 3bbc 8edf 4c3a 930c 903c 0950 143d
000000a0: cf85 843b e1e0 3b3c 4d29 7bbc 7dd8 173a
000000b0: dd44 90bc 3f01 00bd bde7 a63a 60a3 943b
000000c0: 1d12 0d3d 9b4f 9ebc ce55 d7bc 17ce 1d3c
000000d0: 9da0 c7bc 27bd 31bc 2e2d 22bc 8040 d7bc
000000e0: b2d4 a1bc ce6b eebc 33b1 05bd 8151 07bd
000000f0: 220f d03b ba16 d73c 580c 35bc 0ffa 043d
00000100: 578a 3c3c 9306 383a 8ba6 debc 581b 8abc
00000110: ab12 24bd f96b 1bbc 986b 1a3b cd76 c5bc
00000120: 5bfb 573c 8b98 523d 63f4 033c 9c52 613c
00000130: 13a3 843d 03d9 99bc 12ec 723d 95d9 d0bc
00000140: 4237 c53c fc90 853c 76f4 463c 9536 0b3c
00000150: 3f8d cf3b 28cb f33b b6b5 3fbc 61d8 083d
00000160: a2ba 103c 66c5 ae3b bc32 4e3d cc19 d43c
00000170: 909d ac3a 44d5 56bc f043 42b9 07c2 b3bc
00000180: d600 d13c 9374 6c3d a0ff 3e3c cf50 08bd
00000190: 5559 98ba 25ef 9f3c 1118 673c 484c 4e3b
000001a0: 36d0 afbc f6e7 bfbc 360e 473b a7f0 0f3d
000001b0: b6a0 3a3c 6529 88bc 1485 333c 78e8 98bc
000001c0: 22d4 08bd f532 1cbc d182 09bc 83a5 43bb
000001d0: 105b 8ebc e33d 943a 71e1 1cbd 5950 1b3c
000001e0: 0b59 4fbd aeb9 563c 74dd 523c ebba b43b
000001f0: b3bc 983c f14e 78bd 3a52 85bc 6125 84bd
00000200: 674b 423c ad9a 403c 0cab 5abb 407d 593a
00000210: 3639 1c3d 338f e33a 136b 9fbc 0fdd 45bd
00000220: 0b35 acbb 3a74 0b3c 5c1d c13c 1330 be39
00000230: 8b3c 1c3b f0e1 4fbb 09a4 1dbc 9f8c dc3b
00000240: 18a8 57bc 19c4 0f3a 5519 3cbc 97a0 f9bb
00000250: 630e 2ebc 0f5e 053c 730c d6bc c3d4 943a
00000260: a18a 7c3c e46f 3cbd 7b7f 363d ce90 b439
00000270: 7e8f 22bc c4d0 363c 532d 9dbc 9cf4 073d
00000280: cfc8 1abd b2e4 eebc 9200 a63b f0ae 9c3c
00000290: 094a 483c d300 103d eb24 0cbc 6303 ab3c
000002a0: 9071 963c b924 013a de5a dd3c f61e 95bb
000002b0: 570d 993c 63f6 b03c 305d 953c 48dc e3bb
000002c0: c3a5 8abc f7ce d03b baa0 513c e4ef 76bb
000002d0: e29f a03b 0757 2e3c 929e 72bd 4462 993b
000002e0: a957 e7bc 5274 af3c 22ed 34bd 0653 98bc
000002f0: 40f2 033c 8d04 e1bc 195c 68bd d6b7 593b
00000300: 86a8 a7bc 985e 58bc 0d1e 9cbc f41b 64bc
00000310: 2cbe 9cbc 6799 beba b140 843b 31be 083b
00000320: 8728 bcbc 12d9 943c 8085 d33c 1871 45bc
00000330: aeb3 d5ba 4170 b23c b1b0 a7bc e018 ecbb
00000340: 4b59 9fbb 9a67 ccbc 8416 7c39 c640 e9bc
00000350: 54b5 afbc ee18 59bc d977 09bb 5cdb a4bb
00000360: 109e cbbb a442 2bbd a311 603c 8211 1d3b
00000370: 0ca5 a9bc 738e 8c3c 8a0e 393d 4f08 07bc
00000380: 1247 2d3d cdde 95bc afd1 0cbd 1cd2 f1b9
00000390: 58ef f2bc a857 853c 563a 32bc 434f 593c
000003a0: a5d0 6bbc e99c 40ba 3ee5 a2bc e790 0abd
000003b0: 0b57 283d 6632 53bc a100 3e3c 6194 cdbc
000003c0: d449 713c b658 78bc 398a 843d 23a3 4c3c
000003d0: fd96 c13a a0ce b4bc 55a1 3f3d 12d5 9bbb
000003e0: b851 a4bb 3801 3f3c ddb9 14bd 60ba b33c
000003f0: fc02 f93c 2a2e 803c 27cf 8b3d ae16 6538
0.0017485839 -0.00083138904 -0.011161073 0.064501524 -0.015807526 -0.011394497 -0.012053497 -0.007966177
-0.035010934 0.0027428782 0.0017268605 -0.05456698 0.029824289 0.01808703 0.0044821296 0.010968256
0.011193444 -0.008628793 0.050244126 -0.006394231 0.003502534 -0.005692266 -0.016810175 -0.008865665
-0.051486436 -0.0025218055 -0.012386846 0.0028538173 -0.054314997 0.00080786226 -0.024106868 -0.009897966
0.05052589 -0.028925356 0.0075606084 -0.0077863447 -0.011446907 0.00078152947 0.01758412 0.03620914
0.0040442715 0.0114671895 -0.015329671 0.0005792452 -0.017610962 -0.03125119 0.0012733858 0.0045360774
0.034441102 -0.019325068 -0.026286032 0.009631655 -0.024368579 -0.01084832 -0.009898467 -0.026275873
-0.019754741 -0.02910414 -0.032639693 -0.033036713 0.00634946 0.026255954 -0.011050306 0.032465037
0.011507592 0.00070200226 -0.027179023 -0.016858742 -0.040056866 -0.009486192 0.0023562666 -0.0241045
0.013182486 0.051415008 0.008053872 0.013752606 0.064764164 -0.018780237 0.059307165 -0.025494376
0.0240742 0.016304485 0.012143245 0.0084969 0.0063339765 0.0074399896 -0.011701038 0.03340948
0.008833559 0.0053335903 0.050341353 0.025891207 0.0013169516 -0.01311237 -0.0001852659 -0.021943105
0.025513094 0.05772836 0.011657625 -0.03328019 -0.0011623303 0.019523213 0.014104859 0.0031478573
-0.021461587 -0.023426037 0.003037346 0.035141613 0.011390856 -0.016621301 0.010957021 -0.018665537
-0.03340543 -0.0095336335 -0.0083930055 -0.0029853291 -0.017377406 0.0011309948 -0.038300935 0.009479606
-0.050622027 0.013105793 0.012870181 0.0055154464 0.018644666 -0.06062216 -0.01627456 -0.06452442
0.011858798 0.011755628 -0.0033366112 0.0008296557 0.038140498 0.0017361402 -0.019460237 -0.04830652
-0.0052553467 0.008511597 0.02357357 0.00036275442 0.0023839797 -0.0031720363 -0.009621629 0.0067306305
-0.013162635 0.0005484238 -0.011480649 -0.0076180208 -0.010623547 0.008140101 -0.026128983 0.0011354912
0.015413911 -0.046005145 0.04455517 0.00034440163 -0.0099219065 0.011158172 -0.019186651 0.033192262
-0.037789162 -0.029161785 0.005065986 0.019126385 0.012224683 0.035157036 -0.008553724 0.020875638
0.018364698 0.00049264316 0.027020868 -0.00455081 0.018683119 0.021601861 0.018232912 -0.00695375
-0.016924744 0.0063723284 0.012794668 -0.0037679607 0.004901872 0.010640866 -0.059233256 0.0046809036
-0.028240042 0.02141777 -0.04417146 -0.018594276 0.008053362 -0.02746799 -0.056728456 0.0033221147
-0.0204661 -0.013206147 -0.019057298 -0.01392268 -0.01913365 -0.0014541567 0.004036032 0.0020865316
-0.022968544 0.018169913 0.025820494 -0.012050889 -0.0016304159 0.021782042 -0.020469995 -0.007205114
-0.0048629395 -0.024951745 0.0002404098 -0.02847327 -0.021448769 -0.013250573 -0.0020975976 -0.0050310325
-0.006213911 -0.0418116 0.01367608 0.0023966734 -0.020708583 0.017157769 0.04517988 -0.008241727
0.042304106 -0.018294716 -0.034379657 -0.00046123646 -0.029655144 0.01627715 -0.010878166 0.013263526
-0.014393006 -0.00073476 -0.019884702 -0.033829596 0.041098636 -0.012890434 0.01159683 -0.025095167
0.014727075 -0.015157869 0.064716764 0.012490067 0.001476973 -0.022071183 0.046784718 -0.0047556246
-0.0050146244 0.011658005 -0.036310066 0.021939456 0.03039693 0.015647013 0.068266205 5.4618977e-05

decode.4.weight f4 [1, 100]
00000000: 8e68 6ab8 ced3 67b9 857c 93ba 9651 78ba
00000010: 5cc5 f83c 2409 e03c 80a8 ad3c 2796 8bbc
00000020: 563c af3c d292 663a b3bd d3bc 3bca 87bc
00000030: 80c2 b935 544f 5538 ca83 133a 1f8d 2d3a
00000040: c6fe 6438 5b38 a5bc 2ab4 ae3c ee48 a3b9
00000050: d81d b1bc d4c0 4c37 7b53 a23c efb1 95bc
00000060: 9fc0 d33c 18b0 6139 7576 b43a 6741 3ab8
00000070: 7a3a e3bc de6a 293a 6f4b c239 5971 263a
00000080: 19bc 883a 05d8 7fbc ae4e 9bbc 1a89 f03c
00000090: d939 b1bc 5fb2 29ba 6048 74bc 5f08 a6b9
000000a0: 026f 82bc e21b 283a 9c30 9bbc 800d 22b9
000000b0: 303e 3c3a c368 cb3c 3540 c538 4ef9 42bc
000000c0: 3655 87bc b10f e239 d0d8 0aba 2aa5 55bc
000000d0: 38ba 163a 2511 53bc b653 88b9 ce3b 81bc
000000e0: d2c2 72b9 c625 37ba 7d70 9cbc 2ed3 1e3d
000000f0: b367 24ba f685 47b9 8b07 363a 9307 7a39
00000100: 83c3 15ba c4ee fab9 39d1 5738 7f98 8939
00000110: 9459 71ba a0ba 24ba e8f4 1b39 8af6 d93c
00000120: 568f c13c c83b 4d3a 65b8 543a 0aef ae3c
00000130: 7ea8 d437 d839 603a f199 60b9 4438 6ebc
00000140: bb66 1bb9 2c81 c839 124e 22ba 6c29 e0b9
00000150: 612f da39 613b bf3c 9c16 7a3a 62f2 ac3c
00000160: d6a9 b5b9 1f64 e3b9 ded3 1639 9506 9bb9
00000170: 67a7 c5bc f1eb af38 4e72 a03c 1a31 29ba
00000180: ac5e 9e39 1725 87b9 f95c 8e3c b4ec 4f39
-5.588732e-05 -0.0002210878 -0.001125232 -0.00094726065 0.030367546 0.027348109 0.021198511 -0.017039372
0.021391075 0.00087956816 -0.025847292 -0.016575923 1.3840181e-06 5.0857037e-05 0.0005627243 0.0006620455
5.4596712e-05 -0.020168474 0.021326143 -0.0003114412 -0.021620676 1.2204244e-05 0.019815197 -0.018273322
0.025848685 0.00021523272 0.0013768213 -4.4406766e-05 -0.027737845 0.0006462763 0.00037058766 0.00063492876
0.0010432034 -0.015615468 -0.018958416 0.02936225 -0.02163403 -0.0006473418 -0.014909834 -0.00031668224
-0.015922073 0.0006412846 -0.018944077 -0.00015454553 0.00071808975 0.024830228 9.4056515e-05 -0.011900259
-0.016520124 0.0004311777 -0.000529659 -0.013039866 0.00057497947 -0.012882506 -0.0002600231 -0.015775587
-0.00023151495 -0.00069865247 -0.019096607 0.038775615 -0.0006271556 -0.00019028023 0.0006943873 0.0002384468
-0.00057130324 -0.0004786161 5.145485e-05 0.00026244295 -0.00092067686 -0.0006283913 0.00014873187 0.026606817
0.023627918 0.00078290375 0.0008114635 0.021354217 2.535083e-05 0.0008553541 -0.00021419652 -0.014539782
-0.00014820222 0.00038243213 -0.0006191443 -0.0004275547 0.000416155 0.023343744 0.0009540112 0.02111167
-0.00034649548 -0.0004337141 0.00014384041 -0.00029568808 -0.024127675 8.388598e-05 0.019585755 -0.0006454155
0.00030206644 -0.0002577684 0.017378317 0.00019829237
