Quantum/2 qubit/3 dim/models/7_latent.pt (torch, 115559 bytes, 6 tensors)

encode.0.weight f4 [100, 30]
00000000: 8299 9d3c 18ee 3b3e d3a3 0a3d 601c 9a3d
00000010: 9f77 f3bb d633 c13d a870 033e d773 ebbd
00000020: 22be c23d 5e09 0ebe 7f80 26be 36dc 0d3d
00000030: 95a3 043e b753 09be 96c9 86bd 6368 0d3e
00000040: e75b 893c e6cb 9dbd e354 19bd 7088 bfbd
00000050: d045 c63d c452 c43a 81a6 f7bb a61e e03c
00000060: 6cd8 0d3c f20d 1fbe a32c ccbd 48ff b63d
00000070: b5a4 3e3d 39f5 f3bd cbe0 1ebe f9eb 173e
00000080: b411 87bc 15ff 123e bfb0 8bbd 8ab0 2e3d
00000090: abed b23d 5a33 643d 15a8 913d f71c 34be
000000a0: 653c 2a3d 7230 263c 6543 c63d d327 1abe
000000b0: d8b6 653b 401f f53d 2e6a 743d d149 003d
000000c0: ba78 b13d 0d5b 9bbd 1bd8 ac3b 7a90 23be
000000d0: 975e 65bd ed04 9abd 18b2 adbd 0f5b 30be
000000e0: b712 dfbc 09fa 083e b1a2 233e 5429 95bd
000000f0: 7582 1abd ed89 1a3e 9923 b73c a40e b3bd
00000100: cb1a be3d 13bf 0b3e 2af3 52bd 97a4 2f3d
00000110: ef38 21be 918c fdbd 8d0c 2d3e a481 883d
00000120: a199 343e e543 a13d ebca ef3d 7370 84bd
00000130: 3d57 283d 6a40 2ebd 8921 b1bd 1a35 e6bd
00000140: d72d 04bd f828 ee3c 03a7 73bd 9a6e 53bd
00000150: effa 4dbd 94f1 89bd 64e6 37bc 984f 5dbe
00000160: 28a5 ab3d 6b5e 943d d097 743e 64d9 c8bd
00000170: f557 c03d 597f 32be 64ed fc3e 1953 253e
00000180: eb7c bc3e 134c 14bd d75d d73c 4ec9 d4bd
00000190: 3977 523e ec53 c03e 60b4 e93d 8e72 033f
000001a0: 580d 71be c068 18be 49bf 453e 4a28 bb3e
000001b0: a76e 123f eafd 02be 2522 65be e1ca 9ebe
000001c0: 5cdf 51bd 9fdc 3a3e e94f 003f f0dc 42be
000001d0: 4b6f 90bd a4ed 9e3d ce2b 32be e606 3c3c
000001e0: ad00 233e b9be ebbc 6ea2 e4bd 290a b23d
000001f0: fec8 d63d c87d eabd 5bb2 89bd e607 2cbd
00000200: 2efc 82bd 578f 30bd 7ed4 d33d b6b7 b2bd
00000210: b46e 123e e8a5 fbbc edaf d23d 9cb8 acbd
00000220: 01f5 91ba c7eb a4bc 3691 15be f8cc acbd
00000230: f755 863b 11e1 c53d 4f64 81bb 4251 ab3c
00000240: a5b7 183e 4620 473e 8a8a eebd 2b62 af3d
00000250: 2e71 f9bd e3bf 93bd 1a4d 31bd 1440 4e3d
00000260: 8589 773c 3923 0dbc 1ea5 c0bc 969f 21bd
00000270: ab30 fd3d c878 f33d 68aa c13c 7fd4 f13d
00000280: ffa3 2fbe 1b7f 793d 0d82 0ebe 5723 023e
00000290: 6a92 9cbd f0d4 9fbd fdfd 493d 4e67 723d
000002a0: 6dca 86bd b168 b63d 8a3c 3bbd 9592 a5bd
000002b0: 829d ffbc 44a0 74bd 93ef 74bd 3014 253d
000002c0: aff5 283c 2822 37bd ca31 acbd db65 343e
000002d0: 2942 463c 16b7 13be 9b99 863d 2c3e 813d
000002e0: f211 103d 5350 f9bb def4 2b3d a6f6 7cbd
000002f0: 5f5e b13c 2f59 35be e65b 093e 891c 693c
00000300: 4c22 033e 7e8e 453c 61fb 773d 3bf4 8b3d
00000310: dde0 203d 8d35 8f3c 5164 1dbe f12c efbc
00000320: 8125 42be 2b55 183d 1f4e 57bd 470d 2e3e
00000330: aab0 8fbd e3b5 e43d 3ab1 99b9 8b02 a4bd
00000340: b118 04be 0246 7f3d f3af 09be 76c5 863d
00000350: fd68 4dbd e274 73bb 358d 2bbe 7d08 6e3c
00000360: 5f4c 05be cf73 3b3e 2a08 3e3e 7f89 61bd
00000370: c49b 9b3d 0c97 963c 2321 c93d 3dd8 ce3d
00000380: 920f c5bd 8ca8 32be 7014 15be e816 80bd
00000390: 2cbe 053e e582 90bd 6218 28bd 1ebd 2a3d
000003a0: fe76 fa3d 91df 763b fcf5 783d d1f7 b0bd
000003b0: b6ea 8f3b 7c1d c63c 461e 003e 192e bbbc
000003c0: 2295 d23d d293 2cbe eb46 3c3e d73b e6bd
000003d0: ca78 3f3d d5d6 2f3e 17aa 83bd 2eb8 1b3d
000003e0: 7291 b73d 78de d0bd eb6e 84bd f782 3b3d
000003f0: 317a fe3d ab6f 6bbd eb88 3bbe 9b4b 8d3d
0.019238237 0.18352544 0.03384764 0.07524943 -0.0074300314 0.09433715 0.12835944 -0.11496704
0.09508921 -0.13870761 -0.16259955 0.034633838 0.12953027 -0.13410841 -0.06581418 0.13809352
0.016767455 -0.07704906 -0.03743447 -0.09352195 0.096812844 0.0014978279 -0.0075576906 0.027358364
0.008657556 -0.15532663 -0.09969451 0.0893541 0.046543796 -0.11912007 -0.15515439 0.1483611
-0.016487934 0.14355119 -0.06820821 0.04264883 0.08736738 0.055713035 0.07112137 -0.17589174
0.041561503 0.010143386 0.09680823 -0.15054254 0.003505161 0.11968851 0.059671573 0.031320397
0.08665605 -0.07585726 0.005274785 -0.15973082 -0.05599841 -0.07520471 -0.08481234 -0.17222236
-0.027230604 0.13376631 0.1598003 -0.07283273 -0.03772207 0.15091677 0.022355841 -0.08743027
0.09282454 0.13647108 -0.05150143 0.042881574 -0.15744375 -0.123803265 0.16899319 0.06665352
0.1763673 0.07874278 0.117086254 -0.064667605 0.041098822 -0.0425419 -0.086489744 -0.11240597
-0.03227028 0.02907227 -0.059485447 -0.05161915 -0.050288137 -0.067355305 -0.011224363 -0.21612394
0.083811104 0.07244571 0.23886037 -0.09807089 0.093917765 -0.17431392 0.49399865 0.1614498
0.36814055 -0.036205363 0.026289864 -0.10389958 0.20553292 0.37564027 0.11411357 0.5134667
-0.23540246 -0.14883709 0.19311251 0.36554176 0.5720009 -0.12792173 -0.22376306 -0.3101416
-0.051238403 0.18248223 0.50121933 -0.19029593 -0.070524774 0.0776017 -0.17399523 0.011476254
0.15918227 -0.028777467 -0.111637935 0.08693344 0.10487555 -0.11449772 -0.06723472 -0.04199972
-0.06395756 -0.04310545 0.10343264 -0.08726446 0.14300042 -0.030718759 0.102874614 -0.08433649
-0.0011135639 -0.020131959 -0.14606175 -0.08437532 0.0040996033 0.09662069 -0.0039487253 0.02091277
0.14913805 0.19445905 -0.11647518 0.08563646 -0.121797904 -0.07214334 -0.04328642 0.05035408
0.015108471 -0.008614355 -0.023516234 -0.039458834 0.12362798 0.118882716 0.023640826 0.118081085
-0.17152403 0.060912233 -0.13916798 0.12708794 -0.07645114 -0.078042865 0.049314488 0.05918055
-0.065815784 0.08906687 -0.04571203 -0.08084599 -0.031203035 -0.059723154 -0.05979879 0.040302455
0.010312482 -0.04471031 -0.08407934 0.1761698 0.012100735 -0.1442531 0.06572267 0.063106865
0.035173364 -0.0076084523 0.04198157 -0.06175866 0.021651445 -0.17709802 0.13413963 0.014227995
0.12806052 0.012057899 0.060542468 0.06833693 0.039276946 0.01748159 -0.15370299 -0.029196234
-0.18959619 0.037190598 -0.052564736 0.16997252 -0.07016118 0.11167505 -0.00029314478 -0.080082975
-0.12900044 0.062322624 -0.13446026 0.065806314 -0.050148953 -0.0037148525 -0.16753085 0.014528391
-0.13017415 0.18305896 0.18557802 -0.055062767 0.07598069 0.018382572 0.098207735 0.10099838
-0.096221104 -0.17447108 -0.14558578 -0.06254369 0.13060826 -0.07056216 -0.04103888 0.041684262
0.12229727 0.0037669877 0.060781464 -0.08641017 0.0043919934 0.024183981 0.12511548 -0.02284913
0.10282351 -0.16853264 0.18386428 -0.11241882 0.046746053 0.17171796 -0.064289264 0.038017444
0.08963288 -0.101986825 -0.064664684 0.045779195 0.1242565 -0.05747954 -0.18313949 0.06899186

encode.2.weight f4 [100, 100]
00000000: fcbf e5bb 761d 003d 2ed4 1fbb f05d 60bd
00000010: c705 8a3b f7d5 803c d6d1 ae3c d9a4 8cbc
00000020: b577 d9bb 47cc 523d 86ec d1bb 29ef 79ba
00000030: 6a16 d03c 8a7f 523b fab7 5fbc d341 9d3c
00000040: 5e93 1d3c f726 c13b 778e 033e ce18 bebc
00000050: 31c4 62bc 056c 023e 3f94 dabb 75f7 9b3b
00000060: 4a6a cdbb 54a7 f93b 2812 13bd 7105 3f3c
00000070: 2671 21bb a9c9 0cbd 7076 b0bc 480e fd3b
00000080: 0199 473d addc acbc 3e00 e8bc d697 083d
00000090: 0b37 0ebd fde2 21bd 79dd 96bc 5187 8bbc
000000a0: f083 8abc 4e9d 043c c245 cc3b 4da0 2e3b
000000b0: 45c7 83bc 628d d9bb 8f5a 313c edca 04bd
000000c0: 912c 0bbc d879 733a 3df3 463c 13ef 423d
000000d0: 83ff ffbc 9a31 ca3b daef 863c 93e0 ee3c
000000e0: 2f82 4bbe d98e b1bb ad39 c6bb 2082 fe3c
000000f0: 8f13 0c3d 6ad4 49bc e197 0fbd 3d3b 3a3c
00000100: ef22 9fbc 2800 36bd 0780 b2bd 2a5f 59bc
00000110: a8c0 a33c ae7b f43c 6611 803c 9464 3f38
00000120: c21c 9a3d 80c9 1bbb 257e c8bb 3f80 123c
00000130: 1255 81bb cfb0 613d 322f 3dbc 1472 9ebc
00000140: c39e 93bc fc7f 83bd e9f5 f53c 0253 fbbc
00000150: d6cb 593d 22dc 493c 628b 29bc 0f1d efbd
00000160: c209 91bc ab4d 00bd 481b b43b 26bd adba
00000170: a421 dd3b 6336 41ba 142e 1c3c 4760 4ebd
00000180: b05a 173d 6eb9 4ebc 1965 4f3c 3ff6 243d
00000190: 5ec0 0b3a b422 cbbb f6a6 833a f940 dcbe
000001a0: 6040 323b 21c8 2c3c 6fb0 a13b 0a2b 403b
000001b0: 4bcb bf3a 2ad1 bebe 1ae0 d739 303e 9dbb
000001c0: 1cf3 3eba dd9b 6dbe 81d4 cbbb 3734 f43a
000001d0: 207b 61bb 3b8a c4bb 8164 0a3e 3583 b8ba
000001e0: aad3 74b8 7df3 ec3d df40 77be c652 04bc
000001f0: 9e6d 75bb 8083 adbb c1bc b83e 9e12 c43a
00000200: b826 193c f593 9f3c d8d0 4ebc 3d5a 2b3b
00000210: 2b89 d1be 9631 4bbb 6842 103c e30f 0bbf
00000220: e593 a13b 7d37 a039 9081 413f 7229 c03a
00000230: 3494 733b de1c 93bb 4f48 27bb 79f0 613d
00000240: 6dd1 303c cd7a e03b 6d96 1e3c 225b cabb
00000250: 4816 fdbb 9939 f8bb 4f9d 99bb 2684 80bb
00000260: b3ae deb9 a07d e73c a6cc 973b f804 1cbc
00000270: 9674 c2bd 2e9d eabb 63e2 dcbb 138f 67be
00000280: 2127 a3be 8804 9cbd 3a39 85ba 3ef0 eebb
00000290: fba1 353b c22d ffbb 48e7 2dbe 0fd4 573e
000002a0: 6232 123b bb12 49bc eff3 0a3c e4f3 773a
000002b0: 1d24 a3be 5338 d4bb cb24 71bc c92b 01bc
000002c0: ca9b b8bb c1ac 9f3b 6341 b13b bef1 c03e
000002d0: 5d99 373c ae12 6f3e 488e fe3a 825b 603b
000002e0: e1d8 bcbc 2e17 5cbc c8c8 b03e 4c0a 89be
000002f0: 9f24 d23b a25d 6dbc 14d5 c63b b4b4 97bb
00000300: 64a7 a0bb a530 f2ba 3871 f1bb a4f9 80bf
00000310: e49f eabd bc3c 78bb 7b5d 61be 53ce c53a
00000320: 9912 96bd 388a 5b3d 3cb3 63bb 8712 733d
00000330: baa3 fb3c cd0a 913c 4f34 a5bb bb57 353d
00000340: c500 bc3c 2f39 793e 1285 00bb d8b0 cf3b
00000350: 03fe 863c 6d92 603d f145 0f3d fa05 e8bc
00000360: f10b 653c 8d9f 88bc 420a 233e 4996 f8bc
00000370: b66d 1a3c 2602 903c 40dc b1bc 0a89 72bc
00000380: bcb2 323c 43f1 9b3b 1a56 1fbe 2574 53bc
00000390: c79a 41bd b97c 3d3d 4aef 08bd 26a8 f0bc
000003a0: 67f6 5f3d f783 ef3c 4ac1 74bc 6e81 3f3d
000003b0: 5e98 1a3d 1201 8a3d c2a5 03be dc86 733c
000003c0: 2868 2f3d b154 49bd e0d0 e93c 7e92 1ebd
000003d0: fb36 533c 60f0 acbc fed8 be3b e053 c93c
000003e0: ee23 983c 0869 08bb 81ef eebb 0a5f 853c
000003f0: a8c8 04bd d4e5 e5bd 85d2 39bd 68d4 a5ba
-0.0070114117 0.031278096 -0.0024387944 -0.054777086 0.0042121145 0.015727026 0.021340292 -0.01716845
-0.0066365846 0.051464345 -0.0064063696 -0.0009534234 0.025401313 0.0032119476 -0.013654703 0.019196426
0.009617655 0.0058945375 0.12847315 -0.023205187 -0.013840721 0.12736519 -0.0066705043 0.004759724
-0.006268774 0.007618824 -0.035905987 0.011659012 -0.0024634092 -0.034372006 -0.02154085 0.0077226497
0.0487299 -0.02110132 -0.028320428 0.033347927 -0.03472046 -0.039523114 -0.018416153 -0.017032297
-0.016908616 0.008094145 0.0062339017 0.002664584 -0.01608623 -0.0066391686 0.0108248135 -0.032420088
-0.008494512 0.00092878705 0.012142953 0.04759128 -0.031249767 0.0061704637 0.016471792 0.02915982
-0.1987388 -0.00541864 -0.006049356 0.031067908 0.03419834 -0.01231871 -0.035056952 0.011366663
-0.019425837 -0.044433743 -0.087158255 -0.013267318 0.019989327 0.029844131 0.015633296 4.563162e-05
0.07525016 -0.0023771226 -0.006118553 0.008941709 -0.0039469087 0.05510026 -0.011546897 -0.019341506
-0.01802004 -0.064208955 0.030024486 -0.03067923 0.05317291 0.01232055 -0.010348173 -0.11675464
-0.017704848 -0.03132407 0.0054964162 -0.0013255223 0.006748395 -0.000737047 0.00953247 -0.050384786
0.03695172 -0.012617452 0.012658381 0.0402739 0.0005331094 -0.0061992053 0.0010044265 -0.4301832
0.0027199015 0.010545761 0.0049343626 0.0029322528 0.001463273 -0.37268955 0.00041174964 -0.004798673
-0.0007284151 -0.23203988 -0.006220401 0.0018631284 -0.0034405664 -0.0059979237 0.13514902 -0.0014077189
-5.837126e-05 0.11569879 -0.2414584 -0.008076375 -0.003744937 -0.005295217 0.36081508 0.0014959162
0.00934761 0.019479731 -0.012623034 0.0026146316 -0.40924963 -0.0031004897 0.008804895 -0.54321116
0.0049309605 0.0003055892 0.7558832 0.0014660789 0.0037167193 -0.004489525 -0.0025525277 0.055160973
0.0107921185 0.0068505765 0.009679419 -0.0061754147 -0.0077236034 -0.0075752256 -0.004687942 -0.0039220033
-0.000424733 0.028258145 0.0046325503 -0.009522669 -0.09494893 -0.0071598506 -0.0067408546 -0.22613172
-0.3186579 -0.07618052 -0.001016415 -0.0072918227 0.0027714956 -0.007787437 -0.16982758 0.21076988
0.0022307863 -0.012272532 0.00848101 0.0009458645 -0.3186349 -0.006476441 -0.014718245 -0.007883974
-0.005633806 0.004872889 0.005409406 0.37684435 0.011205998 0.2334697 0.0019421065 0.003423423
-0.023052635 -0.013433261 0.34528184 -0.26765668 0.006413057 -0.014487656 0.0060678814 -0.004629696
-0.004902767 -0.0018477632 -0.007368233 -1.0076184 -0.11456278 -0.0037877997 -0.22008316 0.0015091397
-0.07327766 0.053598613 -0.0034744283 0.05934384 0.03071772 0.017705346 -0.005041636 0.04427312
0.022949586 0.2433822 -0.0019610566 0.00633822 0.016478544 0.054827143 0.03497881 -0.028323162
0.013979898 -0.016677642 0.15921882 -0.030345099 0.009425571 0.01757915 -0.021711469 -0.0148031805
0.010906871 0.0047589852 -0.15560189 -0.012906109 -0.047266748 0.046261523 -0.03343133 -0.029377054
0.054678347 0.02923773 -0.014938662 0.046754293 0.037742965 0.067384854 -0.128562 0.014863696
0.04282394 -0.049153034 0.028541982 -0.038713925 0.012891526 -0.021110713 0.0058242073 0.024576128
0.01857182 -0.0020814557 -0.0072917347 0.01628067 -0.032417923 -0.11225477 -0.045366783 -0.0012651803

encode.4.weight f4 [14, 100]
00000000: 3bf3 733b 4b92 8f3d e98c 90bb a911 813a
00000010: 7a61 1fbb afa7 d739 73e0 a83a a09e ec37
00000020: 8ec6 c9b9 eb6e 9bbd 20e9 1b3e e2dd 1cbb
00000030: fb85 9dba 5849 ffba 5580 9bb8 5945 97be
00000040: fecf d7bb 2d72 cbb7 8d87 0fbc 4522 ee3e
00000050: b2d8 443b a857 08bb 33cb 4ebe 075d 2fbd
00000060: 9ab4 6dbe 0166 83ba b723 7cba 2372 553e
00000070: 049d f9b9 670e 85bd 265a bdbd 1971 51bc
00000080: 8ddd 00bb 420f d839 bc86 1a3a 8c6d b9bc
00000090: 2712 e0ba 338f 5e3b f4a5 a336 8b89 043b
000000a0: 4f57 23bb ef2d 97ba ac50 9b3e 31ab 2dbd
000000b0: 8bd0 58bb e5e7 cb3e 9212 1a3b 0148 a8ba
000000c0: fdf5 363a 6174 12bf a1b0 d8ba e9e3 22b8
000000d0: a9d6 b2b9 f911 af3a c34d fdb9 4416 dbbd
000000e0: d444 ecba 1edc 383e 9bc8 c6ba 6e21 8d3a
000000f0: d890 11ba c7ef 0d3b 2c2a 8d3b d3e4 8bbd
00000100: 8b5c 153b cf2b ab3e 1743 533d 4cf5 2a3b
00000110: aab4 d5ba b785 28bb 71f2 893c ed9f fdbd
00000120: 1ec7 35ba c931 9fba 3532 2bbb dda0 faba
00000130: 5a65 8dba ee9e 12bd 91dc 27be e6ac 4dbb
00000140: cab3 273d a157 563d b8f7 0ebc 7496 ab3d
00000150: b2d1 aaba 4ea3 d3b9 1ae5 16ba 2b55 173e
00000160: eadd b2ba cda9 803b 63b1 dfbd 19ac abba
00000170: 3362 3abb 67eb 1ebb 30b3 693a 95a2 18be
00000180: d457 513e c09f 093b f8a6 53be 845a 293b
00000190: 8552 033a 196a 0cbf decd 4138 0764 7e3a
000001a0: f700 c7ba 0cb9 0d3a ff16 46ba 7f8c ae38
000001b0: 000f 3eba 2711 c0be 20c1 9fbd df96 82ba
000001c0: 9475 163a 6315 f3ba 5c23 2dba db4e 503d
000001d0: 3736 283d a7bf 023b f2d4 c3bb 6dba 4abb
000001e0: e187 053a 6bd5 c7b8 dbd8 5a3e 158a 093e
000001f0: caa2 30be d4c3 9637 212f 9dba 9a0d c13e
00000200: 6825 37b9 a740 033e 2116 e3bc 1e79 04bd
00000210: 6e12 bcb9 2d68 aeb9 e672 9338 3b53 0a3c
00000220: 04f9 4eba a742 543a 2347 a03a 931c ab3a
00000230: 10a3 1fba cd38 6f39 8115 b33c fe41 0cbd
00000240: 8bee 3eba 439a 053d 094d d1b8 2336 06ba
00000250: 0e54 1c3a 31b6 ba3e 5a73 6eba 2ba4 4eba
00000260: a7b4 6fb9 461e 1cba ad7e 2aba 3229 573d
00000270: bc0b 98b9 b51b 01bd 3fd8 f9b9 e29e 41b9
00000280: f79c 08ba 4ad9 423a f36e e939 2fa0 4c3d
00000290: 36a4 b839 f89b 873b e9bd 8fbc 9370 5bba
000002a0: c023 043a f898 a5ba ce0a efbd 2ade bbbe
000002b0: dba6 96ba cf20 bfb9 088b b4ba a5e7 bbba
000002c0: d8e7 76b9 adac ffbd 2cf3 3d3d 14b9 bdba
000002d0: eacf 903d 83a8 1fbd f5be ecbd 7026 9e3d
000002e0: b79d 78b9 aad0 4bba f185 43ba 89ac d9be
000002f0: b980 2cba 1a1a ef3a 5758 d93d fbd4 a8b9
00000300: 00c4 0bba aa54 2937 6d74 de39 716a 213b
00000310: 1351 253c ab87 ca39 b2f0 f43e 40ad b63a
00000320: 844b b0ba 634a 373e cd9f 2cbb 8431 c338
00000330: a15b 993a 29cf 4639 f8ca d8b6 6980 053a
00000340: c80c a339 e51e eebd 090e f93d 7985 763a
00000350: 5fe4 3bb7 3973 a33a b5d1 03ba 8d10 32be
00000360: 98df 82bd cfe1 02ba 2583 bfbb f118 75bd
00000370: 9b76 ddba d5f2 ff3a a94f 343e b33f d73d
00000380: d19b 59bd 489e 633a fa6f e638 52e5 173c
00000390: 599e 4a3a 7861 573e 38ed 4fbe 1b41 87be
000003a0: ee63 1c3b ce6c 253b a707 82b9 2437 6d3d
000003b0: 4f98 963a 449d 58ba 3691 973a 897d 8fba
000003c0: 6705 9a3a edd4 6839 0eea 81bd c05d b63c
000003d0: 0d3a ea39 6cfb 7ebd 351e acba aa0b 9b3a
000003e0: 9c39 473a 3dbe a5be 0c4f 023b 44d5 20bb
000003f0: 7aea 863a fea6 2cba 71ce 743a 10e0 de3d
0.0037223834 0.07010325 -0.004411329 0.0009847182 -0.0024319575 0.0004113293 0.0012884274 2.8207258e-05
-0.00038485642 -0.07589515 0.15225649 -0.0023935963 -0.0012018079 -0.0019476814 -7.41488e-05 -0.29545096
-0.006586074 -2.4252653e-05 -0.008760345 0.4651052 0.0030036387 -0.00208042 -0.20194702 -0.042813327
-0.23213425 -0.0010024906 -0.0009618359 0.20844321 -0.00047609967 -0.06496888 -0.0924571 -0.012783312
-0.0019663305 0.00041210098 0.0005894711 -0.022635244 -0.0017095254 0.0033959865 4.877098e-06 0.0020223584
-0.0024923866 -0.0011534075 0.30334985 -0.04239959 -0.0033083286 0.3982536 0.0023509604 -0.0012838842
0.0006979404 -0.5720883 -0.0016532132 -3.8836068e-05 -0.0003411074 0.0013356797 -0.00048313857 -0.10697606
-0.0018025883 0.18052718 -0.0015165986 0.0010767409 -0.00055528944 0.002165781 0.004308006 -0.06830754
0.0022790756 0.3343186 0.051577654 0.002608615 -0.0016304452 -0.0025714466 0.016839238 -0.12384019
-0.0006934273 -0.0012145574 -0.0026122455 -0.0019121427 -0.0010787651 -0.0357961 -0.16392733 -0.0031383573
0.040942945 0.052329663 -0.008726053 0.08378306 -0.0013032465 -0.00040366728 -0.00057561847 0.14778583
-0.0013646458 0.003926492 -0.10922506 -0.0013097554 -0.002843988 -0.0024249197 0.00089149456 -0.1490577
0.2044366 0.002099976 -0.20669162 0.0025841305 0.000500955 -0.5484939 4.6206515e-05 0.0009704236
-0.0015182783 0.0005406297 -0.0007556527 8.323136e-05 -0.000725016 -0.37513086 -0.078005075 -0.0009963176
0.00057395664 -0.0018545802 -0.0006604695 0.050856452 0.04106733 0.001995066 -0.005976313 -0.0030933872
0.0005093795 -9.528812e-05 0.21371786 0.1343158 -0.17249599 1.7972583e-05 -0.0011992195 0.3770569
-0.00017466175 0.12817632 -0.027720513 -0.03234207 -0.00035871885 -0.00033265483 7.030908e-05 0.008442695
-0.00078953826 0.000809709 0.0012228232 0.001305478 -0.0006089667 0.00022813976 0.02186084 -0.034242623
-0.00072834705 0.03261782 -9.9802455e-05 -0.00051197613 0.0005963453 0.36467126 -0.0009096168 -0.00078827393
-0.00022860114 -0.0005955439 -0.00065038615 0.05252952 -0.00029000442 -0.031520564 -0.00047654097 -0.00018465103
-0.0005211378 0.0007432891 0.00044523887 0.04995745 0.00035217562 0.004138466 -0.01754661 -0.0008370962
0.00050407276 -0.0012634089 -0.11671983 -0.36692935 -0.0011493819 -0.00036454803 -0.0013774345 -0.0014336003
-0.00023546757 -0.12484107 0.046374485 -0.0014474713 0.070709065 -0.038979065 -0.1155986 0.07722175
-0.00023709876 -0.0007774929 -0.00074586185 -0.42514446 -0.00065804605 0.0018242032 0.106125526 -0.0003220214
-0.00053316355 1.0092897e-05 0.00042429884 0.0024630094 0.01009013 0.00038629523 0.47839886 0.001393713
-0.001345024 0.1789947 -0.0026340366 9.3075476e-05 0.0011700281 0.00018959925 -6.4609303e-06 0.0005092682
0.00031099305 -0.116269864 0.1216088 0.0009404044 -1.119924e-05 0.0012470252 -0.0005028502 -0.17389126
-0.063903034 -0.00049927545 -0.005844491 -0.05983824 -0.0016896309 0.0019527326 0.17608513 0.105101965
-0.053127114 0.00086829485 0.00010988112 0.009270983 0.0007729284 0.21033275 -0.20305336 -0.2641686
0.0023863274 0.0025241855 -0.00024801234 0.057913914 0.0011489483 -0.00082631805 0.0011563662 -0.0010947447
0.0011750878 0.00022204565 -0.063434705 0.0222615 0.0004467521 -0.062251493 -0.0013131561 0.0011829038
0.0007599832 -0.32371703 0.0019883541 -0.0024541179 0.0010293268 -0.0006586163 0.00093386235 0.1088258

decode.0.weight f4 [100, 37]
00000000: 9ddc cabd 4912 b5bd f222 de3d c709 ca3d
00000010: 4cc5 a33d 9ca8 56bf 0f47 a53b e601 45bf
00000020: 25cd fe3d 3200 3a3f 837b c4be 7852 adbe
00000030: 9f53 ff3e 2554 a9be a672 77bf 9492 5ebf
00000040: 680c fc3e 478b 64be 8063 5dbf 9e64 6fbe
00000050: 0037 11bf bf44 60bd 6938 7d3f af3f c53b
00000060: 1b8b 95bd b5a9 7dbd 7f6e f9bd 0cac 4ebf
00000070: 48b6 193e 3de4 debd 2e8e 20bf 33dc 76bf
00000080: 52f2 87be 3ffc 9cbe 94a3 94be c2b7 263d
00000090: 8192 89be 4eb4 a939 809c 0537 0933 e93a
000000a0: 3d97 84bb f1f1 eebb 679f 14b9 401d 7f3c
000000b0: a3eb 063e af51 25bd 490a a6bd c5c5 0c3d
000000c0: 8d3e 50bd 0cb8 6f3d 4e64 193e 1b7d 92ba
000000d0: 10cf 8dbd 5826 62bd 70a4 8b3c 9a42 68bd
000000e0: 4a85 bcbc bcff 783d af87 78bd 8e68 193d
000000f0: 3d78 c13c 02ea ba3c e9cb 9dbd 97ad 873d
00000100: 524f 99bd 354e 003d 4791 923d bf4b 353d
00000110: 06d3 6dbd e5a8 7dbd 9445 00bd 006c 1bbd
00000120: 67cd 393d 19af 743b 8fbc 8b3e 3eaa 3ebe
00000130: 7026 27be a3ce 653d 92be c83e 492f 7d3e
00000140: eb79 4dbc cb61 bdbe 720e 9c3d 2d8c 93bc
00000150: 6808 bdbe 2fe1 fabc 4ca0 debd 3e57 1abf
00000160: 867d cf3e b8db 1fbf 893d c7bd abf5 8c3e
00000170: 56aa 3d3e bfdb ac3e 6078 063f c80a 05be
00000180: 6d4c e73e 49db f2be cea4 b6bd 2970 fcbd
00000190: 55b4 0a3f 31a9 16be aeea e5be 8431 f0bd
000001a0: 89c3 48bf 46e6 0dbf 88ac 53be 1c6f 6f3f
000001b0: 7bb2 94be 6c2c 3c3f 4512 c9be 59e9 1ebe
000001c0: 65ef 12be b59e 15bd c191 873e 79e2 f83d
000001d0: 8321 db3e 1b22 8dbc ef60 423f 939c d5bd
000001e0: 81a2 3ebf c69a d63d 6cda a13e a444 06bf
000001f0: 01c2 443e f4c6 123f f727 643e 4fd0 68bf
00000200: 0680 2f3e 7bbc 863e 1441 cdbd 447c 7d3d
00000210: e65a efbe 2dc4 04bf 2815 5f3c 034c 3c3f
00000220: f0ae d8be a423 55bd b8f6 b8bd 6c22 82bf
00000230: ae2e ecbe adc2 bb3d a047 3e3f e228 193f
00000240: 0d7e 09bf aaca 87bd ccf8 22bf 0fdb f9be
00000250: 937d 353b 50d1 c437 a880 4c39 45a7 063b
00000260: 1c3f 9339 9800 1e3a eea9 b0b8 16e0 643d
00000270: 94d2 cb3c d5ba a73c b17a 1ebe c52c 243e
00000280: a474 103c 2bcb 8c3d ae20 a0bd 6118 33bb
00000290: 9a8c c13d c07f 37bc 7b7f a73d 4bd4 5ebc
000002a0: dbf8 c5ba b1cc 44be cabd bfbd 1016 7e3d
000002b0: 9c42 a93d a707 8fbc 4c23 85bd a21f 34bd
000002c0: 1b2b b4bc 2cd1 a63d 3913 bbbd 5b4f 5bbc
000002d0: d740 08be 0058 35bb ea63 f53d d767 943d
000002e0: 0241 a13b f446 0238 acc9 743a a9ea 823a
000002f0: 5785 28bb d89b a7bb 0747 843a 2307 523c
00000300: ccad ccbd f8d6 82bb 2914 b2bc 532d 503d
00000310: f81f 22bb 0d83 fc3b 49d1 22be f3c2 19bd
00000320: f745 69bd 0b68 41be 8447 0fbd aaef 44bd
00000330: 6aff 723c 5818 16bc ff95 053e 0be1 d8b9
00000340: 49b6 ac3d 49c4 de3d 31d7 2cbc 5c8c e4bd
00000350: c074 963d 443c ef3d c8f4 333d f0f1 0ebd
00000360: edb0 b53d bf1c 2ebc e60b fb3d a4d3 003e
00000370: 9bb7 87bd 54b2 5cbd cd38 a2bd 1265 143d
00000380: 71af dc3d ab34 80bd a86b 4fbf f4b4 ce3d
00000390: f06f ef3a faec 70bd 4764 b03e a81a abbd
000003a0: ed11 0b3d 1cc2 db3e 0009 2abe 1409 23be
000003b0: b886 073f 2f31 843e 5a72 5dbe c34e 6cbf
000003c0: 59bb 0ebf 9add 033f c74c d5be 81b2 0cbe
000003d0: ca32 a13b 74b8 fdbd cfca b13e 30c0 07bf
000003e0: b40e eb3c 1189 0bbe 256c 49bd 9386 9cbe
000003f0: a0f8 ab3e 214e ffbc ccd3 21be 09c5 37be
-0.0990536 -0.08841378 0.10846509 0.09865146 0.07996616 -0.8385103 0.0050438712 -0.7695602
0.12441472 0.7265655 -0.38375482 -0.3385198 0.49868485 -0.3307201 -0.96659315 -0.8694241
0.49228215 -0.22318755 -0.8647995 -0.23378226 -0.5672455 -0.05475306 0.989142 0.0060195546
-0.07301923 -0.061929423 -0.121792786 -0.8073127 0.15010941 -0.10883377 -0.6271695 -0.9642975
-0.26552063 -0.30661198 -0.2903105 0.04070259 -0.26869586 0.0003236853 7.963856e-06 0.0017791699
-0.0040463493 -0.0072920253 -0.00014173762 0.015570939 0.13175826 -0.040361103 -0.081074305 0.034368295
-0.050840903 0.05852513 0.1497967 -0.00111762 -0.0692426 -0.05521235 0.017046183 -0.05670414
-0.023012776 0.060790762 -0.060676273 0.037453227 0.023616904 0.022816662 -0.077049084 0.066249065
-0.07485832 0.031324584 0.07156616 0.04426169 -0.058062576 -0.06192865 -0.031316355 -0.037944794
0.045361903 0.0037335812 0.27292296 -0.1861963 -0.16323256 0.056105267 0.39207894 0.24725069
-0.012541275 -0.36988673 0.07619943 -0.018011177 -0.36920476 -0.030624954 -0.10870418 -0.6028937
0.40525454 -0.6244464 -0.09728534 0.2753118 0.18522009 0.33761403 0.5252743 -0.12992394
0.45175496 -0.47432926 -0.08918153 -0.1232608 0.54181415 -0.14712979 -0.4490561 -0.11728194
-0.7842336 -0.55429494 -0.20671284 0.93528914 -0.2904242 0.7350528 -0.3927175 -0.15518703
-0.14349134 -0.036528308 0.2647839 0.12152571 0.42799005 -0.017228177 0.7592916 -0.10430255
-0.7446671 0.104787394 0.31611955 -0.5244849 0.19214632 0.5733483 0.2228087 -0.90942854
0.17138681 0.26315674 -0.10022178 0.061886087 -0.46749038 -0.5186184 0.013615884 0.73553485
-0.42320967 -0.052035943 -0.09031433 -1.0166755 -0.46129364 0.09167991 0.7432804 0.5982801
-0.53707963 -0.06630452 -0.63660884 -0.4879994 0.0027693256 2.346249e-05 0.00019502884 0.0020546478
0.00028085045 0.000602731 -8.423986e-05 0.055877768 0.024880685 0.02047483 -0.1547649 0.16032703
0.008816872 0.06874689 -0.07818733 -0.0027327763 0.09450646 -0.011199892 0.08178612 -0.013600419
-0.0015104072 -0.19218709 -0.09362371 0.06203276 0.08264658 -0.017459704 -0.06500873 -0.04397548
-0.02199321 0.08145365 -0.09134526 -0.013385619 -0.13305984 -0.002767086 0.11981948 0.072463684
0.0049210796 3.1060496e-05 0.0009337913 0.0009988147 -0.0025714242 -0.0051150136 0.0010091969 0.012819084
-0.099940866 -0.0039929114 -0.021738129 0.050824475 -0.0024738293 0.007706052 -0.15900148 -0.037539434
-0.05695149 -0.18887345 -0.034980312 -0.048080124 0.014831403 -0.009161077 0.130455 -0.000413664
0.08433206 0.10877282 -0.0105493525 -0.11159584 0.07346487 0.11681417 0.043934613 -0.0348987
0.088716365 -0.010626971 0.12258129 0.12580734 -0.06626817 -0.053881004 -0.0792099 0.0362292
0.1077565 -0.062600456 -0.81023645 0.10093108 0.0018267613 -0.05881975 0.34451506 -0.08354694
0.033952642 0.4292153 -0.16604996 -0.15921432 0.5293994 0.25818774 -0.21625653 -0.9230768
-0.5575462 0.5151001 -0.4166014 -0.13739969 0.0049193846 -0.12388697 0.34725043 -0.5302763
0.028693534 -0.13626505 -0.0491754 -0.30571422 0.33588123 -0.031165184 -0.1580345 -0.17946257

decode.2.weight f4 [100, 100]
00000000: 468f 13bd 0627 e9bc 4aa0 c0bc 2792 c0bb
00000010: c908 963a d930 dabc 7257 00bc 49dd 05bc
00000020: 1d43 97bc 296d 60bb d4b3 e4bc d9a4 b9bc
00000030: a234 0f3c 47ca 093c 6471 1a3d effd b2bc
00000040: db7d 81bc fdcf 843c 6102 5ebc 89f7 dc3b
00000050: 55b6 c3bc b1a8 4dba d252 0f3d 7e19 cebc
00000060: 3aad 5f3c 1ff4 903c 4132 acbc c55b b33c
00000070: cb19 663c e44a 51b9 9155 913c fcea a0bc
00000080: a925 e63c 1272 e23c 5919 9bbc c5a9 a5bb
00000090: b1a9 8c3c 77db 983c 0a11 b83c fd13 07bd
000000a0: 2f5c 843c 4a6b 09bd 5cb7 7e3b 5ddd 153d
000000b0: bd66 0ebc f723 94bc b63a 8e39 d253 c9bb
000000c0: 9992 4fbd d4e2 86bc e449 513c 742f 85bb
000000d0: 8ae8 ae3c d384 31bc 3529 563a f1fe b63b
000000e0: 0595 6f3c 1f8a e93c e95a cf3b 1afd 1b3c
000000f0: 6fae 463c 6d41 a33b 57d9 af3c 1336 15bc
00000100: 157c 1dbd c96f acbc 06f1 023a 0777 f6bc
00000110: 0124 4c3c e8e5 bdbb 47b4 4bba 9af8 0bbc
00000120: 4d80 abbc 9f53 e9bc 28f4 84bc 3984 073d
00000130: 1360 4ebc 02ee 82bb de57 9b3c b2be d53c
00000140: bda6 41ba 0882 3a3c ac90 f7bc d001 4a3c
00000150: 5cff caba e221 d93c 9c80 8ebc f6c0 e93c
00000160: c851 123d 4270 01bd 0110 8dbb 0492 1b3d
00000170: 575f 97bb 95ad 66bc 28c4 a43c 7830 d3bb
00000180: 8172 57ba c989 b8bc 5e92 e53b 7f06 6e3b
00000190: c609 1bbd 9985 403c 6688 9b3e 72f3 c2bc
000001a0: 7224 83ba 2b40 853b 9ef8 a23e 2b61 0b3d
000001b0: 3b95 0b3b a664 993e 52a1 f8ba d5c1 703b
000001c0: 0c1b fdb9 47a3 033e d5a6 70bd 0f04 8a3c
000001d0: ea62 4d3e 5d26 d8bb 1105 cabe fe67 903d
000001e0: 5519 50bd 46e7 ef3e b7e2 a1bd c603 3b3e
000001f0: cbca a63e 5049 98be 538c 48bd a34c ccbe
00000200: a76f 11be 5015 2cbe e120 d53d 46c5 1ebf
00000210: 4226 d9be ee2d 70bd 4ae2 653e 9a73 f03d
00000220: ac62 983e c917 01bd 850a 6ebd 0d52 fb3c
00000230: ff7f 493e 8d62 bbbd ace1 b2be c25f 953b
00000240: d141 36be 1b09 17be b242 0fbe 50bc 623e
00000250: 2761 bdbd bb44 1cbd ed0c 673d f825 163e
00000260: 28f5 5b3e 94d1 1abf d296 c33e e83b 58bd
00000270: 3c89 c43b 1b1b c53e dd23 2dbd b990 273f
00000280: ceed 98bb 7891 fb3d b518 48be 38e1 70be
00000290: 530f f9bb 2e18 13be 5feb f1bb 157f 933e
000002a0: dddd bbbe b622 2b3f c489 163e f8e7 343e
000002b0: eaae 2ebe a807 80be 5166 9f3e b05f fe3a
000002c0: cd13 783e cebd 303e e8a7 c0bd 5f89 113e
000002d0: 2bd7 bc3e 745e a4bd 99e9 efbd 26ce c8bd
000002e0: c23e 233e 6efc 233c adc1 d63b 78d1 a7bb
000002f0: e715 d6ba 7a23 bc3d 38e8 483c b985 9fbe
00000300: 58df 6c3e 7b21 1dbc dbe6 483b 3334 153e
00000310: 3986 693d 3f7d 1b3c 7d98 663e ac5b 4e3b
00000320: 4930 9bbc 8842 933d 719c a4bb 2d22 ec3a
00000330: 3e73 b4b9 bb35 4b3c a026 54bb 32d1 a23c
00000340: cbd4 c53c e00f e03c 6b80 583c 40da 283d
00000350: d7c7 b63c 360c 25bc 8eb2 a2bc f82a 483d
00000360: bbeb 073b e8d9 a1bc 91cc e13c 24b6 b2bc
00000370: 4b38 883c d485 94bc 43c6 063a dccb 4ebb
00000380: afde 7139 8cda 58bc 0dde a83c 0110 e0bc
00000390: f6a9 8abc 241f 9ebc 04cf 83bc a502 8fba
000003a0: 59ab 69bd 543f 833c 8eec 9cbb 4d8b aeb9
000003b0: 1d13 0bbd 351c 7b3c 2cfd 9fbc 2628 243d
000003c0: 0629 873b 8e9d ff3b 7cca 3abd e478 34bd
000003d0: a583 e33b 8d8c 7b3c 887c 97bc 57bf 823c
000003e0: 1a4a e73c 12a6 a4bb 91bd babc e64b f73b
000003f0: 45cc 403b c65d 05bc 5b70 253c 875c 173d
-0.036025308 -0.02846099 -0.023513932 -0.0058767977 0.001144671 -0.02663462 -0.007833349 -0.008170434
-0.01846462 -0.0034244752 -0.02791778 -0.022661613 0.008740576 0.008410043 0.037705794 -0.0218496
-0.015807083 0.016212458 -0.013550372 0.0067433757 -0.023890654 -0.00078452664 0.034991093 -0.02515864
0.01365214 0.017694531 -0.021020057 0.021894345 0.014044235 -0.00019959692 0.017740997 -0.0196433
0.02809413 0.027642284 -0.018932985 -0.0050556385 0.017170759 0.018659336 0.022469062 -0.032978047
0.016157238 -0.033549584 0.0038866615 0.03658806 -0.008691487 -0.018083556 0.00027128094 -0.0061440254
-0.050676916 -0.016465582 0.012773965 -0.0040644947 0.021351118 -0.01083489 0.00081695925 0.0055845906
0.014622931 0.028508244 0.006327976 0.009520793 0.012126549 0.0049821646 0.02146594 -0.009107131
-0.038448412 -0.021049397 0.0004995022 -0.030086054 0.012459756 -0.005795229 -0.0007770699 -0.008543158
-0.020935202 -0.028482256 -0.016229704 0.03308508 -0.012596148 -0.003995658 0.018962797 0.026091907
-0.00073872117 0.011383541 -0.030220352 0.012329534 -0.001548748 0.026505414 -0.01739531 0.028534394
0.035722524 -0.031601198 -0.0043048863 0.03798105 -0.0046195197 -0.014079471 0.020113066 -0.006444987
-0.00082186615 -0.022526639 0.0070059737 0.003631979 -0.037851118 0.011750602 0.303775 -0.023797724
-0.0010005368 0.0040664873 0.31830305 0.034028213 0.0021298665 0.299596 -0.0018968976 0.0036736627
-0.00048276072 0.12855254 -0.058752853 0.016847638 0.20057264 -0.00659637 -0.3945699 0.07051085
-0.05080541 0.46856135 -0.079045705 0.18263158 0.32576594 -0.29743433 -0.04896195 -0.3990222
-0.14202748 -0.16805005 0.10406662 -0.62019765 -0.42412 -0.058637552 0.22449604 0.11740799
0.2976278 -0.031516824 -0.0581155 0.030678773 0.19677733 -0.091496564 -0.349378 0.0045585344
-0.17798544 -0.14749567 -0.13990286 0.22142148 -0.09247046 -0.038151484 0.05640881 0.14662921
0.21480238 -0.6047604 0.38201004 -0.052791506 0.005997805 0.38497242 -0.04227053 0.65455204
-0.0046670204 0.12283605 -0.19540675 -0.23523414 -0.0076007037 -0.14364693 -0.0073827947 0.28807893
-0.36692706 0.6684984 0.14700991 0.17666614 -0.17058912 -0.2500584 0.3113275 0.0019407179
0.24226303 0.17259905 -0.094070256 0.14212559 0.3688291 -0.08025828 -0.11714477 -0.09804945
0.15941909 0.010008914 0.0065538497 -0.005121406 -0.0016333432 0.09186454 0.0122623965 -0.3115671
0.23132074 -0.009590502 0.0030655179 0.14570694 0.05701277 0.00949031 0.22519107 0.0031487746
-0.018943923 0.07190424 -0.005023532 0.0018015556 -0.00034418138 0.012402947 -0.0032371655 0.019875143
0.02414932 0.02735132 0.013214211 0.041223764 0.022312088 -0.010073712 -0.019860532 0.048869103
0.0020739872 -0.019757226 0.027563365 -0.021815367 0.016628405 -0.01813022 0.00051412376 -0.0031554615
0.00023066507 -0.013235699 0.020613695 -0.027351381 -0.016926747 -0.019301958 -0.016089924 -0.0010910822
-0.057048175 0.016021408 -0.0047889417 -0.00033291653 -0.033953775 0.015326549 -0.019529901 0.04007735
0.0041247634 0.0078007644 -0.04560326 -0.044060603 0.0069431835 0.015353334 -0.018491998 0.015960379
0.028233577 -0.00502468 -0.02279547 0.0075468896 0.002941863 -0.008140033 0.010097588 0.036953475

decode.4.weight f4 [1, 100]
00000000: a5c9 37ba 65fa a1bc e6df 9a37 b1b6 59b8
00000010: 1aa0 1eb9 a332 50ba 0a49 9339 0704 4f3a
00000020: a25d 6bba d82e f0b9 5964 e839 06e9 f439
00000030: 9f38 953a 9e20 77b9 10f3 a239 fb7b 5dbc
00000040: 08de 8138 c37f adb9 e48a 38bc 6faf 423a
00000050: 4c3b a2b9 c82a 84b9 e2eb 57bc 8224 4439
00000060: b443 6ebc 7ea8 fd38 e59c a93c b18b 86bc
00000070: 8023 b539 7a23 65bc d85b a63c ca08 a93c
00000080: 59b5 e639 876d 8cba 3ed7 94ba 3c91 d4b7
00000090: 0f0f 5238 e1a5 843a bacd 6eb7 efea d63a
000000a0: b6c0 c1b9 fc4c 8abc 7b02 3139 7259 b93c
000000b0: 278b 7ebc 74e7 62b7 a628 7abc 98e1 bd3a
000000c0: d3f1 e23a ef4a ffb9 c271 93bc 382b 27ba
000000d0: 86d0 81bc d9f4 91bc 4b7a a2ba 277b b0b9
000000e0: 4b48 6ebc 0f5f 75bc a487 cf3c 6053 c83c
000000f0: 32c7 7cb9 6886 1eba d78d e73c edff 12b9
00000100: b44e a8ba 12f9 4abc 6076 81bc 20c2 d9ba
00000110: 4333 9b39 3e7f 92b9 99d8 84ba 4727 9bba
00000120: a07c 73bc 9b71 b43a 97f2 bc39 20b7 9ab9
00000130: d95d 6db8 b311 3cba cc26 afba 511b c13c
00000140: b8ab ac3c ac3f b83c 9fab 86b9 b079 223a
00000150: 412c 0bba 18d6 c53c dc56 3639 9814 4d37
00000160: 62da 98b9 b657 ac3c 6221 f039 918e 75bc
00000170: fa36 e938 11ca e1b9 5e6c 4cba b3c7 8ab9
00000180: cf4c b83c f5b2 b93c 1e9c 8d3a 91a7 4fbc
-0.00070109434 -0.019772718 1.8462491e-05 -5.1906976e-05 -0.00015127697 -0.0007942116 0.00028092443 0.00078970235
-0.0008978491 -0.00045811269 0.00044325253 0.00046712923 0.0011384672 -0.00023567906 0.00031080144 -0.013518329
6.192556e-05 -0.0003309232 -0.011263583 0.00074266543 -0.00030943227 -0.00025208876 -0.013178797 0.00018705617
-0.014542509 0.00012095364 0.020704696 -0.016424032 0.0003454946 -0.013985509 0.020307466 0.020634074
0.00044004133 -0.0010713794 -0.0011355651 -2.534e-05 5.0081926e-05 0.0010120237 -1.4233805e-05 0.001639692
-0.0003695541 -0.016882412 0.0001688096 0.022625659 -0.015536106 -1.3524539e-05 -0.01526848 0.0014486788
0.0017314501 -0.0004869322 -0.01799858 -0.00063769845 -0.015846502 -0.017816948 -0.0012396065 -0.00033661092
-0.014543603 -0.014976277 0.025333233 0.024453819 -0.00024106799 -0.000604725 0.028265877 -0.00014018985
-0.0012840838 -0.012388485 -0.015803516 -0.001661364 0.00029602097 -0.00027942093 -0.0010135352 -0.0011837267
-0.014861256 0.0013766767 0.00036038898 -0.00029509608 -5.6592606e-05 -0.0007174268 -0.0013363003 0.023572596
0.021077976 0.022491299 -0.0002568634 0.00061979424 -0.00053090235 0.02414994 0.0001738923 1.2223747e-05
-0.00029154407 0.021037918 0.0004580124 -0.014987604 0.00011120546 -0.00043065895 -0.00077981304 -0.000264702
0.022497563 0.022668341 0.0010803973 -0.012674228
