Quantum/incomplete/models/0_latent.pt (torch, 91111 bytes, 5 tensors)

encode.0.weight f4 [100, 10]
-0.11097026 -0.19776434 -0.14088316 -0.12126385 0.011276305 -0.30946034 -0.051449567 0.20133385
-0.1831214 -0.007373601 0.23892382 -0.19348645 -0.24232766 0.28596607 -0.1050528 -0.2137888
-0.014114201 -0.14334789 0.00021150708 0.19710425 -0.11813089 0.25499 -0.03250569 -0.117072955
-0.12294081 0.23822275 -0.07814711 0.22376797 -0.03273654 -0.028330952 0.29905733 -0.21839693
0.050665706 -0.275971 0.2523968 0.27347067 0.23314103 0.16202354 -0.08015232 -0.08145547
-0.09549062 0.24156252 -0.13156414 -0.275556 0.25821212 -0.18409477 0.030122697 0.140818
0.1771676 0.19422802 -0.114837095 -0.18672839 -0.1773349 -0.19850057 0.2518154 0.01282531
0.035824835 -0.1320424 -0.18708813 0.056908727 -0.2244518 0.076426655 0.18072793 0.26787356
0.047906905 0.14877701 -0.22803476 0.05447054 -0.09720336 -0.24975637 0.018904924 -0.08406839
0.2108343 -0.11860098 -0.30434215 0.29912606 -0.019093752 0.121946305 -0.31523934 0.13382396
-0.16201416 -0.09331812 -0.29335624 0.19490597 0.29494587 -0.20049721 -0.18420011 0.22079709
0.23690227 -0.19060831 -0.13610236 -0.29939836 0.23992994 0.19870558 -0.068235904 -0.1518587
0.31322518 -0.15691386 -0.046373785 0.16343278 -0.01649031 0.042490125 0.20346275 -0.10390541
0.08292058 -0.03812945 0.063405186 0.24105445 -0.22529042 -0.25802442 0.059268355 -0.033609837
0.087274015 0.09467378 -0.1018022 0.30699643 0.31506482 -0.0010151863 -0.19945201 -0.2536479
-0.06364316 0.09788078 0.21055433 -0.2180843 0.11442891 -0.29245427 -0.18237288 0.28768495
-0.2921406 0.19861975 -0.046052277 -0.23330048 0.24310932 0.2438468 -0.27512133 0.122484475
0.20326313 -0.16596465 -0.022176951 -0.14325851 -0.09857313 0.11009395 -0.017328829 -0.13109982
-0.2018393 -0.2413738 0.099119484 -0.19441965 -0.23366682 0.06092906 0.10377264 0.25339964
0.07778841 0.28026345 0.2555773 0.019912392 0.07601115 0.2859647 -0.049524873 -0.13388821
0.16924965 0.25569966 0.06789568 0.17642415 -0.125143 -0.16651691 0.037436396 0.21879974
0.012775034 -0.3008502 0.21326646 0.112027586 0.1009998 -0.2888019 0.10059601 0.19908318
0.124378115 -0.26034534 0.15071061 -0.24186116 -0.09300113 -0.2662681 -0.06738146 0.13627246
-0.031782925 0.049121708 -0.04725772 0.28816506 0.23996565 -0.24661082 -0.17570917 -0.3048272
-0.0050335824 -0.12824768 -0.1915122 -0.11027564 -0.09615587 0.18967202 0.3111454 -0.23714343
0.05520323 0.24809524 -0.13501047 0.15697578 -0.044331133 -0.047900587 0.06373185 0.19123986
0.09338665 0.08730888 0.17812058 -0.15516049 0.22616735 -0.1960598 0.15517718 0.17565373
0.17768368 0.07258269 -0.25945467 0.161506 -0.22382915 0.26884237 0.28467104 -0.2544475
0.07092947 -0.01293081 -0.22168407 0.106744885 0.25141248 0.2518793 0.2768344 -0.20077349
-0.12578872 0.25011942 0.051662028 0.21628585 -0.23147325 -0.30597624 -0.16616806 -0.05338195
0.009106606 0.25482896 -0.31390372 0.11294401 0.029521167 -0.14671656 -0.0061374903 0.19195661
-0.22488916 -0.30800405 -0.0086146295 -0.26085502 -0.15798254 0.005913526 -0.25426403 0.13034055
00000000: 6044 e3bd bc82 4abe ad43 10be 2e59 f8bd
00000010: 40c0 383c 9671 9ebe c8bc 52bd 762a 4e3e
00000020: 2d84 3bbe 409e f1bb 72a8 743e 5021 46be
00000030: be24 78be 256a 923e ec25 d7bd 74eb 5abe
00000040: 403f 67bc cac9 12be 00c8 5d39 b2d5 493e
00000050: 9cee f1bd 0d8e 823e b024 05bd f2c3 efbd
00000060: 64c8 fbbd aaf0 733e 980b a0bd 6e23 653e
00000070: c016 06bd 5016 e8bc 0b1e 993e 72a3 5fbe
00000080: d886 4f3d 124c 8dbe 273a 813e 5904 8c3e
00000090: 86bc 6e3e 80e9 253e e626 a4bd 20d2 a6bd
000000a0: 9690 c3bd 2a5c 773e c0b8 06be ad15 8dbe
000000b0: 6134 843e 5783 3cbe e0c3 f63c 9832 103e
000000c0: 6c6b 353e b6e3 463e b62f ebbd ba35 3fbe
000000d0: 4897 35be bc43 4bbe f3ed 803e 4021 523c
000000e0: 10bd 123d 1f36 07be 0894 3fbe 2019 693d
000000f0: b1d6 65be 9485 9c3d be10 393e b926 893e
00000100: 083a 443d 0059 183e f281 69be 801c 5f3d
00000110: 8e12 c7bd 22c0 7fbe 80de 9a3c 0c2c acbd
00000120: f2e4 573e 12e5 f2bd bcd2 9bbe 0d27 993e
00000130: 806a 9cbc fcbe f93d 0d67 a1be 2609 093e
00000140: 0ae7 25be 921d bfbd ca32 96be 6e95 473e
00000150: 2503 973e 244f 4dbe f49e 3cbe a218 623e
00000160: 8296 723e d32e 43be 6b5e 0bbe be4a 99be
00000170: 32b0 753e 7a79 4b3e 44bf 8bbd d980 1bbe
00000180: 0d5f a03e 07ae 20be 70f2 3dbd ec5a 273e
00000190: b016 87bc 200a 2e3d 8a58 503e 5ccc d4bd
000001a0: 44d2 a93d a02d 1cbd 94da 813d fad6 763e
000001b0: 88b2 66be c71b 84be 60c3 723d 78aa 09bd
000001c0: b8bc b23d 54e4 c13d ac7d d0bd a32e 9d3e
000001d0: 2d50 a13e 0010 85ba 263d 4cbe 23de 81be
000001e0: 5857 82bd b875 c83d 8e9b 573e 7e51 5fbe
000001f0: b459 ea3d 91bc 95be f5bf 3abe 714b 933e
00000200: 7493 95be fa62 4b3e 50a1 3cbd 52e6 6ebe
00000210: a6f1 783e fab2 793e b4dc 8cbe 24d9 fa3d
00000220: 3624 503e a3f2 29be 70ac b5bc 5cb2 12be
00000230: b6e0 c9bd f078 e13d 30f5 8dbc 083f 06be
00000240: f6ae 4ebe b22a 77be 28ff ca3d f215 47be
00000250: 5b46 6fbe c090 793d c086 d43d 99bd 813e
00000260: 884f 9f3d b17e 8f3e 07db 823e 501f a33c
00000270: bcab 9b3d f769 923e 98da 4abd fe19 09be
00000280: c84f 2d3e 11eb 823e e40c 8b3d 88a8 343e
00000290: 7d25 00be 6983 2abe e856 193d 0a0d 603e
000002a0: 604e 513c 0a09 9abe 8662 5a3e b86e e53d
000002b0: fcd8 ce3d d8dd 93be 4805 ce3d 76dc 4b3e
000002c0: f4b9 fe3d fc4b 85be e253 1a3e 74aa 77be
000002d0: 6077 bebd 4b54 88be 4aff 89bd 028b 0b3e
000002e0: d02e 02bd d833 493d 5091 41bd 5f8a 933e
000002f0: 8eb9 753e 8c87 7cbe 1bed 33be 5012 9cbe
00000300: c0f0 a4bb 5c53 03be c61b 44be 32d8 e1bd
00000310: 5eed c4bd 6239 423e 734e 9f3e bad5 72be
00000320: c81c 623d ae0c 7e3e 2f40 0abe 42be 203e
00000330: 9094 35bd 6833 44bd d885 823d 62d4 433e
00000340: 8041 bf3d 00cf b23d 3e65 363e 64e2 1ebe
00000350: 6a98 673e e6c3 48be c4e6 1e3e 92de 333e
00000360: b6f2 353e 3ca6 943d 3ed7 84be d461 253e
00000370: 7833 65be b5a5 893e 67c0 913e f146 82be
00000380: 7843 913d c0db 53bc 2601 63be 109d da3d
00000390: 23b9 803e 53f6 803e 3dbd 8d3e 9197 4dbe
000003a0: c2ce 00be a70f 803e 909b 533d 0a7a 5d3e
000003b0: 5307 6dbe eba8 9cbe f627 2abe 08a7 5abd
000003c0: e033 153c f178 823e fdb7 a0be 304f e73d
000003d0: 60d6 f13c de3c 16be 001d c9bb 4690 443e
000003e0: 5849 66be b5b2 9dbe 6024 0dbc ca8e 85be
000003f0: 2dc6 21be 40c6 c13b e52e 82be fe77 053e

encode.2.weight f4 [100, 100]
0.05391801 -0.03634914 -0.06494172 0.0726007 0.06945347 -0.036449715 -0.058906317 -0.038674127
0.043771632 -0.07992755 0.05970309 0.05058012 -0.023672268 -0.05231419 -0.0029829144 -0.094212465
0.07043331 -0.011991762 -0.043130934 0.040481277 -0.03440331 0.09862619 -0.075367175 -0.030025877
-0.051200546 0.07715615 -0.024191365 0.006528951 0.069059215 0.06742384 0.034147702 0.06401012
0.08307391 0.08477152 -0.086189665 0.06825707 0.05699522 0.069436245 -0.01715032 0.06937849
-0.021496795 -0.047448125 -0.04019288 0.08783878 -0.0020959526 -0.087629296 0.074130334 -0.017609194
-0.08644032 -0.09378177 -0.099584475 0.0841903 -0.082800366 0.05961997 0.02149544 0.030542351
0.09980712 0.0076474547 -0.06259245 0.07915232 -0.029748574 0.066076346 0.052329265 0.095154695
-0.046806872 -0.06638406 -0.0458946 -0.09083366 0.058931403 0.07343405 -0.07550669 -0.043130636
-0.04164927 0.06314684 0.018465087 0.07568807 0.0038563758 0.08605755 -0.080956936 -0.07690798
-0.04816016 0.07357425 -0.051466085 0.03102053 0.043399 0.08802254 0.08376751 -0.08123386
-0.0093727335 -0.0050192326 0.07540057 -0.08687828 0.051359005 0.07801419 0.037531592 0.08602174
0.07539139 -0.032401323 0.07802475 0.04355506 -0.093299165 0.0058775395 0.045351095 0.05841676
0.0878151 0.046863146 0.019068144 -0.040732514 -0.06359388 0.016224563 0.07434382 -0.05060153
-0.07090163 -0.047372248 -0.043736864 -0.054399576 0.07758766 -0.0425735 -0.051581312 -0.08698187
0.030957527 0.03241139 0.0144186765 -0.08183859 -0.09080497 -0.07841538 -0.07521435 0.042435534
0.057352953 -0.016674876 -0.09956715 -0.03681372 0.025367357 0.044722833 0.013090707 0.0024009794
0.05234375 -0.030128159 -0.020908192 -0.067106545 0.07796756 -0.041074157 0.09827072 -0.041749682
-0.06796084 0.032048233 0.034963347 -0.069213256 -0.053155124 0.030848555 -0.0017258674 -0.07754111
-0.08005722 -0.09939706 0.086934574 -0.082218684 0.04436093 -0.05468608 0.06090551 0.015852138
-0.036857784 -0.057887733 -0.009394661 -0.028966948 -0.020023286 0.043284528 0.087563954 0.026299082
0.039061137 0.091495104 -0.043842282 -0.038436092 0.07859651 0.046173118 0.05695557 0.07805803
-0.09338788 -0.06402371 0.057830863 -0.06012542 0.041675724 -0.052634727 0.01855129 0.021877564
-0.001984574 -0.048135318 0.07707567 -0.033981636 0.046361424 0.08519938 0.09551879 0.038512446
-0.022979297 -0.082468554 -0.09678844 0.07981021 0.008500181 0.05929842 -0.040903307 0.087636314
-0.07875456 -0.026368678 -0.033820868 -0.092623614 -0.0763916 -0.010251008 -0.0694286 0.070544116
-0.07104628 -0.094690464 0.05410812 -0.07346772 -0.021144375 -0.068572976 0.052752204 -0.06414637
-0.06927705 0.041527174 -0.050511576 -0.041029047 -0.03238704 -0.03154733 -0.027518772 0.041379474
-0.077239916 -0.033536054 -4.5977533e-05 0.010739997 0.013821088 -0.020782806 -0.051227786 0.014976978
0.02560427 -0.09825369 -0.07405627 0.0012932867 -0.056145635 -0.04827131 -0.072852515 -0.065574855
-0.030720308 -0.038757063 0.051485114 -0.047009386 0.019446671 0.07656198 -0.032899484 0.06282417
-0.030655801 -0.06544797 0.05634261 0.041218273 -0.077771805 -0.0459008 0.035439916 -0.087371126
00000000: 22d9 5c3d d6e2 14bd 2a00 85bd adaf 943d
00000010: 9f3d 8e3d 4c4c 15bd c047 71bd c368 1ebd
00000020: e249 333d 0eb1 a3bd 3a8b 743d 1a2d 4f3d
00000030: 58ec c1bc 6747 56bd 007d 43bb 77f2 c0bd
00000040: 573f 903d 1879 44bc 10aa 30bd b2cf 253d
00000050: 7cea 0cbd 87fc c93d 1b5a 9abd d4f8 f5bc
00000060: aab7 51bd 0b04 9e3d f82c c6bc d0f0 d53b
00000070: eb6e 8d3d 8315 8a3d 76de 0b3d bd17 833d
00000080: a722 aa3d b19c ad3d 3584 b0bd 5dca 8b3d
00000090: d273 693d 9734 8e3d d47e 8cbc 4f16 8e3d
000000a0: 0c1a b0bc f758 42bd 4aa1 24bd d1e4 b33d
000000b0: 405c 09bb fd76 b3bd a5d1 973d 2841 90bc
000000c0: 9f07 b1bd a810 c0bd f2f2 cbbd f76b ac3d
000000d0: 3d93 a9bd 1234 743d 3417 b03c f433 fa3c
000000e0: ad67 cc3d 8097 fa3b 7830 80bd 9d1a a23d
000000f0: 48b3 f3bc 0953 873d 3657 563d 77e0 c23d
00000100: 90b8 3fbd 5ef4 87bd fafb 3bbd ff06 babd
00000110: 0e62 713d 9764 963d 40a3 9abd c0a9 30bd
00000120: 6d98 2abd 2153 813d 1844 973c 5902 9b3d
00000130: 40bb 7c3b f13e b03d c0cc a5bd ee81 9dbd
00000140: 9743 45bd 19ae 963d 1ace 52bd c41e fe3c
00000150: 26c3 313d 2945 b43d 4d8e ab3d f05d a6bd
00000160: 1890 19bc 6078 a4bb 9d6b 9a3d 3ded b1bd
00000170: d25d 523d e7c5 9f3d baba 193d 2b2c b03d
00000180: cd66 9a3d 40b7 04bd 71cb 9f3d ca66 323d
00000190: a213 bfbd 6098 c03b 12c2 393d 6a46 6f3d
000001a0: 67d8 b33d 92f3 3f3d cc34 9c3c 23d7 26bd
000001b0: 823d 82bd 60e9 843c 9341 983d 8d43 4fbd
000001c0: e034 91bd 6709 42bd 6d25 33bd 17d2 5ebd
000001d0: 47e6 9e3d 8d61 2ebd ed46 53bd 8d23 b2bd
000001e0: a49a fd3c cec1 043d 503c 6c3c fe9a a7bd
000001f0: f5f7 b9bd 3e98 a0bd fb09 9abd e2d0 2d3d
00000200: eeea 6a3d c099 88bc dde9 cbbd fcc9 16bd
00000210: 34cf cf3c 4a2f 373d 687a 563c c059 1d3b
00000220: 6666 563d 54cf f6bc a847 abbc 286f 89bd
00000230: 75ad 9f3d 603d 28bd 2942 c93d b701 2bbd
00000240: 0e2f 8bbd 0245 033d ba35 0f3d aebf 8dbd
00000250: 30b9 59bd 1cb6 fc3c 8036 e2ba e0cd 9ebd
00000260: 0af5 a3bd b090 cbbd c10a b23d 4562 a8bd
00000270: ceb3 353d 83fe 5fbd 0e78 793d 58dc 813c
00000280: 30f8 16bd b01b 6dbd 10ec 19bc 184c edbc
00000290: e007 a4bc 1e4b 313d bb54 b33d 2c71 d73c
000002a0: 92fe 1f3d c961 bb3d f793 33bd 2a6f 1dbd
000002b0: 35f7 a03d 0620 3d3d 3e4a 693d e3dc 9f3d
000002c0: 2542 bfbd dd1e 83bd 0ee0 6c3d 1346 76bd
000002d0: 2ab4 2a3d 8397 57bd e0f8 973c 9438 b33c
000002e0: a00f 02bb 8a29 45bd d9d9 9d3d 5430 0bbd
000002f0: 7ae5 3d3d 037d ae3d 5b9f c33d 3abf 1d3d
00000300: 143f bcbc 46e5 a8bd 0539 c6bd 8973 a33d
00000310: 5844 0b3c e6e2 723d 3a8a 27bd ab7a b33d
00000320: 124a a1bd 2003 d8bc c087 0abd 73b1 bdbd
00000330: 3373 9cbd d8f3 27bc 9530 8ebd 6f79 903d
00000340: b680 91bd 13ed c1bd 7aa0 5d3d 3e76 96bd
00000350: f836 adbc fd6f 8cbd b212 583d 2c5f 83bd
00000360: 20e1 8dbd 6618 2a3d 3ae5 4ebd 130e 28bd
00000370: 46a8 04bd c637 01bd 0c6f e1bc 867d 293d
00000380: f62f 9ebd 1a5d 09bd 00d8 40b8 d0f6 2f3c
00000390: d871 623c b440 aabc 3ad4 51bd 0062 753c
000003a0: 0cc0 d13c 3b39 c9bd d0aa 97bd 8083 a93a
000003b0: f7f8 65bd 23b8 45bd b333 95bd 1c4c 86bd
000003c0: 28a9 fbbc babf 1ebd 0ee2 523d ea8c 40bd
000003d0: a04e 9f3c 87cc 9c3d 9cc1 06bd f5a9 803d
000003e0: e021 fbbc 9609 86bd 82c7 663d 7ed4 283d
000003f0: d346 9fbd 7a02 3cbd 7229 113d a2ef b2bd

decode.0.weight f4 [100, 10]
-0.10028078 -0.15586472 -0.03474022 0.22563267 -0.028752469 0.15887982 0.035068914 0.031129362
-0.1607196 0.03747259 -0.12362486 -0.1420791 -0.10703895 0.21033889 -0.14852619 0.20592195
0.16618134 -0.06006779 -0.1502508 0.15641828 -0.045500495 -0.07038731 0.10453551 -0.06916688
0.14908706 0.16491504 0.11826903 -0.15740308 -0.19970018 -0.011422835 -0.08815827 -0.023852782
-0.00684835 0.045712337 -0.13060084 -0.1121284 0.057819817 0.05866908 0.18488853 0.009142317
-0.408014 0.07018979 -0.081879556 0.062383406 0.17040826 0.21172519 0.22034134 0.3819297
-0.3093631 0.24329302 0.1298648 0.08384696 0.019487992 -0.11511021 0.0785138 -0.053033624
-0.08645351 0.0005748972 0.021876562 -0.07349674 0.18559724 -0.013035648 -0.077798784 -0.07971229
0.031963468 -0.09241268 0.079991676 -0.072409935 -0.2672877 0.30604407 0.02671003 0.08476277
-0.021640752 -0.16338344 0.059410516 0.116176404 0.082895815 -0.13579915 -0.054376256 0.0024856294
-0.050440338 0.009838478 0.13565527 0.090306014 0.03496198 -0.004356489 -0.20673616 0.087356836
0.08427926 -0.19049865 -0.1976743 0.0022314554 -0.15117551 0.043729905 -0.20039876 0.1778932
0.21627672 -0.011607672 0.2349476 -0.10959692 -0.13795951 -0.10750986 0.19501197 -0.14656222
0.16304232 0.1497971 0.2584753 -0.2890186 -0.06941238 -0.010750567 -0.06517685 -0.17215285
-0.04541116 0.16563828 0.20402716 0.32798243 -0.07838512 0.12577932 -0.20320642 -0.2684771
-0.049015895 -0.45748353 0.17147891 0.09869423 -0.4050803 -0.26950192 0.030119834 -0.039878264
-0.21523614 -0.35170287 0.0979399 0.15346074 -0.19783118 -0.22894688 -0.19621162 -0.25218812
0.2192081 -0.06164552 0.103073984 0.3571814 -0.19368048 0.021226749 -0.06622151 -0.14827086
-0.64442563 0.15469241 0.02852797 -0.15606558 -0.4782571 -0.43214375 -0.11860628 -0.07797171
0.2849978 0.050655313 0.1477134 0.099168204 -0.09230712 -0.076181516 0.06898995 -0.28398138
-0.03549326 0.077395275 0.08407636 -0.023856848 -0.13426271 -0.18623342 -0.04427284 -0.009596442
0.22290303 0.054188132 0.025792042 -0.10978381 0.0024065697 -0.015834147 -0.034837883 -0.20548326
0.18711227 0.0026040485 -0.0019575292 0.18284637 0.10927054 -0.01458661 0.16616406 -0.22547239
0.13258791 -0.2262682 0.1280405 -0.18088807 -0.06878051 0.1778885 0.09185976 0.07969759
-0.2254978 -0.25470164 -0.007789995 -0.18492593 -0.11805265 0.27142033 -0.022476211 -0.2519267
0.20539024 0.10152294 -0.1360363 0.06763494 0.08121829 0.2045717 -0.26105005 0.08646582
-0.30192798 -0.048949685 0.121246494 0.15382151 -0.06779668 -0.31907564 0.19430733 0.1321717
0.040186696 -0.11718599 -0.07709904 -0.06334714 0.031975683 0.2303579 -0.2848251 -0.012171252
-0.26053157 0.18530118 0.0035844278 -0.0025036114 0.05700769 0.051429946 0.16320895 -0.44797245
-0.24495627 0.25692853 0.032451432 -0.07856795 0.06967222 -0.21049586 0.36099496 -0.13835387
-0.38815752 0.23867089 -0.007346728 -0.15170912 -0.019878862 0.25988808 -0.0002944155 0.137734
0.0005140264 -0.026415603 0.15818927 -0.04516241 -0.14016992 0.03618049 0.03955727 -0.17641416
00000000: 0260 cdbd 009b 1fbe c34b 0ebd 400c 673e
00000010: 4c8a ebbc 64b1 223e 6ca4 0f3d 0103 ff3c
00000020: ae93 24be dc7c 193d 082f fdbd 2f7d 11be
00000030: 3d37 dbbd 1463 573e 4017 18be 34dd 523e
00000040: 712b 2a3e a509 76bd 59db 19be 1d2c 203e
00000050: ba5e 3abd 3927 90bd b716 d63d 5da7 8dbd
00000060: 47aa 183e 7ddf 283e 0837 f23d 462e 21be
00000070: 347e 4cbe d826 3bbc 538c b4bd e966 c3bc
00000080: 2068 e0bb dc3c 3b3d 3abc 05be 93a3 e5bd
00000090: 79d4 6c3d fd4e 703d 6b53 3d3e a8c9 153c
000000a0: 36e7 d0be aabf 8f3d 78b0 a7bd be85 7f3d
000000b0: 817f 2e3e 7dce 583e 29a1 613e 4a8c c33e
000000c0: d764 9ebe ce21 793e 47fb 043e f4b7 ab3d
000000d0: 48a5 9f3c e7be ebbd d8cb a03d c939 59bd
000000e0: 8a0e b1bd b3b4 163a 7a36 b33c 7585 96bd
000000f0: 340d 3e3e 7893 55bc f854 9fbd 3240 a3bd
00000100: 20ec 023d dc42 bdbd add2 a33d a94b 94bd
00000110: efd9 88be cfb1 9c3e fece da3c 1a98 ad3d
00000120: f247 b1bc fd4d 27be 7158 733d e5ed ed3d
00000130: 48c5 a93d ef0e 0bbe a3b9 5ebd f1e5 223b
00000140: 879a 4ebd 9131 213c 37e9 0a3e 5cf2 b83d
00000150: 4b34 0f3d e1c0 8ebb a5b2 53be 24e8 b23d
00000160: 9b9a ac3d 1412 43be 226b 4abe 9c3d 123b
00000170: c1cd 1abe 211e 333d 5535 4dbe a329 363e
00000180: a577 5d3e 1b2e 3ebc 1b96 703e 5a74 e0bd
00000190: 4245 0dbe 212e dcbd 38b1 473e 6814 16be
000001a0: 91f4 263e 6964 193e e056 843e 3ffa 93be
000001b0: 1428 8ebd 2523 30bc 717b 85bd d648 30be
000001c0: 0d01 3abd 159d 293e 7fec 503e 50ed a73e
000001d0: 6188 a0bd 4bcc 003e 5815 50be d575 89be
000001e0: e4c4 48bd 483b eabe 2b98 2f3e 3320 ca3d
000001f0: af66 cfbe 28fc 89be dfbd f63c 6457 23bd
00000200: dd66 5cbe 6612 b4be b794 c83d d024 1d3e
00000210: 4294 4abe 0d71 6abe b3eb 48be cd1e 81be
00000220: 1778 603e 0380 7cbd 7418 d33d 7be0 b63e
00000230: 2d54 46be b8e3 ad3c 259f 87bd 51d4 17be
00000240: 14f9 24bf b067 1e3e 7db3 e93c a8cf 1fbe
00000250: 1dde f4be f241 ddbe d9e7 f2bd a2af 9fbd
00000260: 3beb 913e f27b 4f3d 2e42 173e b318 cb3d
00000270: 840b bdbd 0e05 9cbd 9a4a 8d3d 0266 91be
00000280: 6161 11bd 6a81 9e3d 3a30 ac3d 706f c3bc
00000290: 2a7c 09be f9b3 3ebe 7057 35bd 653a 1dbc
000002a0: b140 643e 60f4 5d3d d549 d33c 56d6 e0bd
000002b0: 8ab7 1d3b 9db6 81bc 2bb2 0ebd 346a 52be
000002c0: 5c9a 3f3e afa8 2a3b e449 00bb 143c 3b3e
000002d0: 3cc9 df3d adfc 6ebc e926 2a3e 3ce2 66be
000002e0: 20c5 073e dab2 67be 0d1d 033e b93a 39be
000002f0: ccdc 8cbd 6728 363e f820 bc3d 7d38 a33d
00000300: e5e8 66be 4168 82be 3743 ffbb 395d 3dbe
00000310: 96c5 f1bd 9bf7 8a3e 0820 b8bc 89fc 80be
00000320: d251 523e 42eb cf3d 1a4d 0bbe 3084 8a3d
00000330: c655 a63d 3e7b 513e 5aa8 85be fe14 b13d
00000340: 4e96 9abe 777f 48bd 1550 f83d 6383 1d3e
00000350: fcd8 8abd e25d a3be 80f8 463e 0558 073e
00000360: ce9a 243d 35ff efbd 1ae6 9dbd 25bc 81bd
00000370: eff8 023d f1e2 6b3e 98d4 91be ee69 47bc
00000380: 6564 85be 98bf 3d3e b8e8 6a3b a113 24bb
00000390: e580 693d 35a8 523d 3f20 273e a55c e5be
000003a0: d1d5 7abe 238c 833e cbeb 043d 3ce8 a0bd
000003b0: 4fb0 8e3d 3a8c 57be 55d4 b83e a3ac 0dbe
000003c0: 95bc c6be 2466 743e d2bc f0bb a359 1bbe
000003d0: ffd8 a2bc 0d10 853e c85b 9ab9 240a 0d3e
000003e0: babf 063a 8965 d8bc 5efc 213e 38fc 38bd
000003f0: b488 0fbe fe31 143d ce06 223d eaa5 34be

decode.2.weight f4 [100, 100]
0.0070767067 -0.004456403 -0.0097527765 0.0055806716 0.052114084 0.019795977 -0.0011585748 -0.013844115
0.029812803 0.014710578 -0.0013705553 0.01645968 0.08740711 0.0057787574 -0.038344566 0.03019012
-0.037330586 0.006678033 -0.004040719 -0.050172836 0.003731519 -0.009086152 0.0012911574 -0.036415186
-0.07255732 -0.0018748965 -0.002491018 -0.0025570008 0.015282554 0.0023523066 0.004351399 -0.0056158905
-0.021270264 0.0056097014 -0.034179933 0.012180689 -0.012028911 0.047223378 -0.019296594 0.009407683
0.009566747 -0.04111205 -0.0065954104 -0.016678322 0.049134508 -0.018568829 0.0024385627 -0.010784383
-0.024818152 0.0061871824 -0.0367849 -0.0010083064 0.0104649095 -0.011595616 -0.021832012 0.065311745
0.0034725505 0.017746225 0.014929977 -0.010433208 -0.012107662 -0.023119716 -0.0020606772 0.049434733
-0.0050755427 -0.059819043 -0.054208938 -0.05587586 -0.0047960826 -0.030915763 0.005404794 -0.014645662
-0.0009775555 0.012673928 0.003597884 0.014014516 -0.032052957 0.029901888 -0.09245613 0.005692699
-0.020264862 -0.008786938 -0.05815209 -0.0022925558 -0.03159111 0.033732157 -0.0061988025 -0.0009146051
-0.0015367391 0.0024270203 0.040665492 -0.021599168 -0.035597604 -0.02014669 -0.022802435 0.010398851
0.10143924 -0.058032826 0.009294393 -0.011494569 0.0057129445 -0.044443913 0.0038502954 0.0076685087
0.06291198 0.029947044 0.018719593 0.032704033 0.0024819218 0.03112851 0.0017377213 0.005758068
0.022013474 -0.020975227 0.01822283 -0.0099546295 -0.009932638 0.014974677 0.02324894 -0.0077627194
0.019442208 -0.0015683379 0.021184232 0.03321018 -0.026287923 -0.04514437 -0.022743512 0.009736043
-0.0013283399 -0.013990786 -0.004600209 -0.047467068 0.046573292 0.0072328406 0.11191951 0.026962385
0.001252922 0.047283936 -0.008083602 -0.028522067 -0.050751574 0.06173933 -0.015129731 -0.045061834
0.004622678 -0.0077388883 -0.017938754 0.01475292 0.021800108 -0.05302925 -0.025216298 0.009877234
-0.026974304 0.041343994 0.008726842 -0.0601002 -0.0421992 -0.00893817 -0.038317364 -0.01275839
0.014724425 0.034062788 -0.009827382 -0.020336397 -0.074013084 0.09240446 -0.05849397 0.004376277
-0.023841513 0.054687675 0.0136076445 -0.0018119836 -0.0057715503 0.015039513 -0.008226565 -0.0009110624
-0.03800121 0.02351857 0.0619924 -0.011884378 0.0013082897 -0.020105213 -0.05972703 -0.0116281705
-0.0047662463 -0.0012529203 -0.025958678 0.013303651 -0.046013616 -0.022099534 0.03937537 -0.032206733
0.028858038 0.017796835 -0.024238247 -0.0041909334 -0.07184972 0.048015352 0.035129454 0.057907697
0.054568585 -0.011144381 -0.010964207 -0.021976333 -0.032527603 0.0015532799 -0.027383711 0.012953645
0.0044833934 -0.0072393585 -0.010142702 0.010434381 -0.10299685 0.0069698575 0.063919224 -0.005847813
-0.01444698 -0.013610194 0.016069552 0.04454572 -0.012542948 0.037966046 -0.0027719785 0.0086669
0.04909819 0.009195096 -0.010865191 0.01897725 -0.026472483 0.01512997 0.0066850814 0.02622879
0.018021243 -0.012202781 -0.02891803 0.0019331089 0.012523872 0.020258114 0.00046800956 -0.017516924
0.021379294 -0.019778764 0.021028563 0.024646435 0.040797424 -0.09757596 0.08476463 -0.013475248
0.035096265 0.024029663 -0.006299221 0.008996024 0.038133994 -0.015486531 -0.01087357 -0.008711005
00000000: b8e3 e73b 0507 92bb 1cca 1fbc 11de b63b
00000010: 9475 553d 2c2b a23c 52db 97ba 6dd2 62bc
00000020: fb39 f43c a304 713c 34a4 b3ba 73d6 863c
00000030: 8002 b33d bb5b bd3b 310f 1dbd 4551 f73c
00000040: f5e7 18bd 67d3 da3b 0268 84bb 0882 4dbd
00000050: 808c 743b 15de 14bc 0e3c a93a 1728 15bd
00000060: ef98 94bd 16bf f5ba 5940 23bb 5b93 27bb
00000070: ad63 7a3c 2829 1a3b 2e96 8e3b 8105 b8bb
00000080: fa3e aebc 96d1 b73b 4200 0cbd 8391 473c
00000090: e914 45bc 4d6d 413d e413 9ebc af22 1a3c
000000a0: d8bd 1c3c 1c65 28bd 501e d8bb faa0 88bc
000000b0: 4441 493d a81d 98bc 4bd0 1f3b fbb0 30bc
000000c0: 704f cbbc d9bd ca3b c3ab 16bd 2629 84ba
000000d0: 0375 2b3c 8afb 3dbc 0cd9 b2bc 2ac2 853d
000000e0: bb93 633b 8860 913c dd9c 743c 0cf0 2abc
000000f0: 375f 46bc 8f65 bdbc 6d0c 07bb 137c 4a3d
00000100: bd50 a6bb d004 75bd 310a 5ebd 16de 64bd
00000110: 7528 9dbb 0e43 fdbc b31a b13b 5cf4 6fbc
00000120: 5221 80ba 4fa6 4f3c 7aca 6b3b 249d 653c
00000130: f649 03bd cef4 f43c a459 bdbd d289 ba3b
00000140: 7f02 a6bc 17f7 0fbc e330 6ebd b43e 16bb
00000150: ae65 01bd bb2a 0a3d 531f cbbb 1cc2 6fba
00000160: 686c c9ba a50e 1f3b dc90 263d bdf0 b0bc
00000170: cbce 11bd ac0a a5bc 2ccc babc f15f 2a3c
00000180: 60bf cf3d d4b3 6dbd 8247 183c b753 3cbc
00000190: a733 bb3b d20a 36bd 3d55 7c3b 1d48 fb3b
000001a0: ffd7 803d 8153 f53c d559 993c aaf4 053d
000001b0: bda7 223b 3801 ff3c 40c4 e33a 2dae bc3b
000001c0: 9a55 b43c 3dd4 abbc 0b48 953c be18 23bc
000001d0: 81bc 22bc 5958 753c 9074 be3c 695e febb
000001e0: 4445 9f3c b090 cdba 8e8a ad3c 6607 083d
000001f0: c559 d7bc 4ee9 38bd 9a50 babc ed83 1f3c
00000200: b11b aeba 9c39 65bc 5abd 96bb d46c 42bd
00000210: a3c3 3e3d 7701 ed3b 0e36 e53d 38e0 dc3c
00000220: 1639 a43a cdac 413d 1671 04bc 1ca7 e9bc
00000230: e2e0 4fbd 61e2 7c3d b1e2 77bc c292 38bd
00000240: d579 973b 8096 fdbb 4bf4 92bc 3bb6 713c
00000250: 2496 b23c 3335 59bd 6992 cebc 1fd4 213c
00000260: 37f9 dcbc 5258 293d 07fb 0e3c a12b 76bd
00000270: 11d9 2cbd 6771 12bc abf2 1cbd 9108 51bc
00000280: b73e 713c 6c85 0b3d 0703 21bc 8498 a6bc
00000290: 2c94 97bd 8d3e bd3d 6097 6fbd df66 8f3b
000002a0: 474f c3bc 2f00 603d 99f2 5e3c 1580 edba
000002b0: 461f bdbb 4a68 763c b7c8 06bc 5dd4 6eba
000002c0: 28a7 1bbd 04aa c03c beeb 7d3d b2b6 42bc
000002d0: eb7a ab3a b0b3 a4bc 55a4 74bd 1584 3ebc
000002e0: 2c2e 9cbb 0739 a4ba 4ba7 d4bc 8ef7 593c
000002f0: c678 3cbd 150a b5bc 1148 213d 35eb 03bd
00000300: b167 ec3c abca 913c 4a8f c6bc 1954 89bb
00000310: f225 93bd bfab 443d e7e3 0f3d 9f30 6d3d
00000320: 4f83 5f3d ec96 36bc 38a3 33bc b607 b4bc
00000330: aa3b 05bd 6d97 cb3a ce53 e0bc 863b 543c
00000340: 6ee9 923b 2438 edbb 932d 26bc f7f4 2a3c
00000350: 03f0 d2bd 6763 e43b 15e8 823d 039f bfbb
00000360: 07b3 6cbc 4bfd 5ebc 4ba4 833c 9375 363d
00000370: f080 4dbc 4982 1b3d 15aa 35bb 9dff 0d3c
00000380: 2f1b 493d 07a7 163c ea03 32bc 2e76 9b3c
00000390: d2dc d8bc b2e3 773c 870e db3b c2dd d63c
000003a0: 49a1 933c 2cee 47bc 81e5 ecbc 5f60 fd3a
000003b0: ed30 4d3c 58f4 a53c 2e5f f539 a77f 8fbc
000003c0: a123 af3c 1307 a2bc 1844 ac3c 52e7 c93c
000003d0: 331b 273d e8d5 c7bd 1499 ad3d 49c7 5cbc
000003e0: 1ac1 0f3d dbd9 c43c b269 cebb 0f64 133c
000003f0: 6432 1c3d 38bb 7dbc 0f27 32bc 9ab8 0ebc

decode.4.weight f4 [1, 100]
-7.662417e-05 4.1445355e-06 2.1042644e-05 0.00022459163 7.141605e-05 0.00010603838 0.00038607852 0.00018546902
0.0002279907 -0.020943433 0.00010968428 -0.00020169644 -0.0001357696 -0.089757204 -0.00017065922 -0.00017220876
-0.00016623398 -1.1640024e-05 -7.510513e-05 -0.0001785198 -0.00010679945 5.0968916e-05 2.7919239e-05 -0.00023713637
-0.113385856 -3.654341e-05 6.1290093e-06 0.00015568467 0.00019508429 0.00021635268 0.00022442044 -0.00018069879
-7.385004e-05 -0.00020647136 0.00013027883 -0.00025915628 -0.00015433459 0.00014157117 0.00010037672 0.0003979166
3.449815e-05 -0.00020513883 0.00010879879 0.00010301231 0.00011033641 -2.4450579e-05 0.0002718518 -3.682907e-06
0.00037691364 0.00022333908 -0.00023447284 2.8250153e-05 0.00022998628 -0.00028946056 -0.12500885 -2.4832014e-05
0.00015355687 -0.00025658074 0.00013842876 -0.0001052653 -0.00019367335 -3.1677657e-05 -0.04101924 0.00034796054
-0.00020051347 6.5287546e-05 -4.478328e-05 8.979075e-05 0.00024856854 -0.000101685575 -0.00016401721 -4.5430443e-05
-0.00023742855 0.00011606278 2.9573026e-05 -0.0001971583 4.2341544e-06 8.971928e-05 7.227467e-05 -0.000102280865
2.947335e-06 -5.1905965e-05 7.110876e-05 0.00022823246 4.9620226e-05 0.000104126666 0.00010464522 -8.391083e-05
-0.00013588044 0.00032611395 -0.00025376573 -0.00018134582 5.167397e-05 0.00012726274 -0.00020930343 0.0002065359
-0.0001677481 -8.898401e-05 -2.4213794e-05 0.00018706558
00000000: 4ab1 a0b8 4a11 8b36 bc84 b037 5b80 6b39
00000010: 33c5 9538 ec60 de38 956a ca39 767a 4239
00000020: ca10 6f39 9091 abbc 4d06 e638 7a7e 53b9
00000030: 605d 0eb9 a0d2 b7bd fcf2 32b9 f092 34b9
00000040: 184f 2eb9 8649 43b7 c281 9db8 0b31 3bb9
00000050: 85f9 dfb8 75c7 5538 1c34 ea37 cfa7 78b9
00000060: d836 e8bd 3046 19b8 caa7 cd36 493f 2339
00000070: 8a8f 4c39 bbdc 6239 6752 6b39 f679 3db9
00000080: f0df 9ab8 3c80 58b9 759b 0839 5edf 87b9
00000090: e0d4 21b9 b972 1439 5781 d238 769f d039
000000a0: 1bb2 1038 891a 57b9 e82a e438 5008 d838
000000b0: 6964 e738 381b cdb7 5587 8e39 dc27 77b6
000000c0: 7e9c c539 2130 6a39 d3dc 75b9 befa ec37
000000d0: 7928 7139 bdc2 97b9 5202 00be 584e d0b7
000000e0: 1c04 2139 af85 86b9 3027 1139 e1c1 dcb8
000000f0: cb14 4bb9 a0dd 04b8 ca03 28bd 796e b639
00000100: ed40 52b9 fcea 8838 aed5 3bb8 0b4e bc38
00000110: 4e52 8239 0740 d5b8 09fc 2bb9 918c 3eb8
00000120: 3ef6 78b9 bb66 f338 9713 f837 47bc 4eb9
00000130: 1c13 8e36 ac27 bc38 2b92 9738 9f7f d6b8
00000140: d4ca 4536 9bb5 59b8 3a20 9538 af51 6f39
00000150: 501f 5038 945e da38 fa74 db38 49f9 afb8
00000160: 217b 0eb9 46fa aa39 dc0b 85b9 a627 3eb9
00000170: 81bc 5838 d571 0539 7678 5bb9 8f91 5839
00000180: 8ae5 2fb9 ed9c bab8 ba1e cbb7 0927 4439
