Quantum/incomplete/models/2_latent.pt (torch, 93607 bytes, 6 tensors)

encode.0.weight f4 [100, 10]
-0.06592661 -0.12736446 0.12408874 -0.15929694 -0.15599504 -0.0041552195 0.050239645 -0.031140458
0.09680402 0.28014562 -0.13514452 0.20235045 -0.49531043 -0.38728845 -0.3290028 0.18405959
0.31625122 -0.18676034 -0.6354993 -0.4425353 -0.4134171 0.01674115 0.12575087 0.093897685
0.292633 -0.22261916 -0.13039742 -0.017477904 0.111529194 0.37391585 -0.18765965 -0.37423733
0.26480445 0.25953093 -0.102344416 -0.48193407 -0.6671841 -0.24772538 0.11404857 -0.007091278
-0.21490557 -0.06906283 0.32231042 -0.105793886 0.020790305 0.14975186 -0.22449455 0.19707566
-0.04295574 -0.028943883 -0.0071497983 0.30095598 0.065863475 -0.09566388 0.37839535 -0.3501626
-0.3446155 -0.17812571 0.2764835 0.29644027 0.13876618 -0.2724898 0.3416991 0.3241902
-0.067847565 -0.35526705 -0.40812278 0.28948438 0.35347274 0.0687224 -0.30917343 0.24180952
0.27428424 -0.35395685 0.2547122 -0.03567536 0.12696066 -0.3035123 -0.0968628 0.20280059
-0.17889272 -0.4063419 0.038585406 -0.17097363 0.12828296 0.20784964 0.35290593 -0.19189695
-0.11413527 -0.3416583 -0.18513094 0.08018095 0.18483679 -0.28099933 -0.07819116 0.11102915
-0.036356147 -0.1977501 0.15306324 0.2518754 -0.26322326 0.13187115 -0.028170355 -0.1749386
0.29531658 -0.18837287 0.2944755 -0.12079932 0.11523173 -0.058055725 -0.013198871 -0.13636485
-0.15171288 0.158217 0.062094856 0.13074507 0.0004409771 -0.038023014 0.017073814 -0.031386457
-0.20473845 -0.045751337 0.2845843 -0.37915847 -0.21388812 0.34805846 0.37036285 -0.14459947
0.14397259 0.12757127 0.2614385 0.028290795 -0.14595895 -0.10697229 0.044870917 -0.16108496
0.046303622 0.018814895 -0.13905233 0.15039383 -0.12512703 0.24314415 -0.33813024 -0.2851736
-0.18662947 0.30393827 0.3900117 -0.101345785 0.2565544 0.22583035 -0.51934725 -0.046210907
-0.1950968 0.29695258 -0.16663982 -0.3154556 -0.5139623 0.04678032 0.12536068 0.2791311
-0.017420987 0.27833456 0.1586845 0.36713764 -0.33253837 -0.4556108 0.04687394 0.2682217
-0.2275545 0.26122263 -0.074572004 -0.08030388 -0.13298537 -0.31905663 -0.0802365 0.18924251
0.4123994 0.179568 -0.08312463 -0.043734685 0.37229097 -0.08551606 0.25027674 -0.3022837
-0.14697525 -0.09188465 0.15649115 -0.23270757 -0.072047174 -0.48729107 -0.42339373 0.3339178
-0.12255836 -0.17238101 0.110795766 -0.30975336 0.2955981 0.023920907 -0.28352594 0.009886586
-0.03846425 -0.19040361 0.08052574 0.22911976 -0.16046244 0.10943636 -0.07425872 -0.010569839
0.056055773 0.027615597 -0.46787372 0.061788514 -0.45735544 0.42264974 -0.15999499 -0.09512351
-0.37164354 0.12766485 -0.15563415 0.17461371 -0.15085982 -0.015734753 0.003146839 -0.0005636475
0.076432556 0.012711758 0.078129075 -0.04844031 0.0794118 -0.03480517 0.31476972 0.0841231
0.43289813 -0.27535975 -0.15079874 0.224054 0.21449599 -0.24495958 0.23394781 -0.24550858
0.078443505 0.032600116 -0.23896573 -0.06545829 -0.08046227 -0.11014244 0.03174212 0.14312238
0.34524873 -0.13466352 0.14002085 -0.03720755 -0.024094705 0.21548565 0.19024931 -0.43652475
00000000: 8804 87bd d46b 02be 3d22 fe3d bd1e 23be
00000010: 2abd 1fbe 8228 88bb 16c8 4d3d 461a ffbc
00000020: 3041 c63d 3f6f 8f3e 5363 0abe f534 4f3e
00000030: 5499 fdbe ac4a c6be 0e73 a8be 1e7a 3c3e
00000040: aeeb a13e 1a3e 3fbe 15b0 22bf fd93 e2be
00000050: 68ab d3be bc24 893c d6c4 003e 6e4d c03d
00000060: fed3 953e 47f6 63be e786 05be d22d 8fbc
00000070: 6b69 e43d e671 bf3e da29 40be 099c bfbe
00000080: 7394 873e 3de1 843e f399 d1bd 10c0 f6be
00000090: 94cc 2abf b9ab 7dbe 4c92 e93d f45d e8bb
000000a0: 3510 5cbe d070 8dbd df05 a53e 77aa d8bd
000000b0: 6e50 aa3c 8d58 193e e6e1 65be 34ce 493e
000000c0: 5cf2 2fbd b91b edbc db48 eabb e716 9a3e
000000d0: 6ee3 863d 6deb c3bd 09bd c13e 8348 b3be
000000e0: 7171 b0be 9666 36be 3f8f 8d3e 05c7 973e
000000f0: b918 0e3e c883 8bbe 2ff3 ae3e 42fc a53e
00000100: aaf3 8abd 90e5 b5be 78f5 d0be 4c37 943e
00000110: 61fa b43e 54be 8c3d fb4b 9ebe ea9c 773e
00000120: fc6e 8c3e d539 b5be a369 823e 5420 12bd
00000130: fa01 023e f765 9bbe 0160 c6bd f5aa 4f3e
00000140: a72f 37be 0c0c d0be bb0b 1e3d b613 2fbe
00000150: 9c5c 033e 89d6 543e 16b0 b43e a280 44be
00000160: c1bf e9bd d6ed aebe f792 3dbe e935 a43d
00000170: db45 3d3e 25df 8fbe b022 a0bd 4063 e33d
00000180: 2fea 14bd 017f 4abe 9cbc 1c3e d0f5 803e
00000190: 33c5 86be 3b09 073e 84c5 e6bc 1b23 33be
000001a0: bc33 973e d1e4 40be 7ec5 963e a265 f7bd
000001b0: 9dfe eb3d d7cb 6dbd 1440 58bc 3aa3 0bbe
000001c0: 9f5a 1bbe a303 223e 2d57 7e3d 09e2 053e
000001d0: f232 e739 05be 1bbd 62de 8b3c 168f 00bd
000001e0: f5a6 51be c165 3bbd 09b5 913e 0f21 c2be
000001f0: 7d05 5bbe b834 b23e 33a0 bd3e e211 14be
00000200: 8d6d 133e 0ba2 023e 44db 853e 19c2 e73c
00000210: 4376 15be 4a14 dbbd 91ca 373d 75f3 24be
00000220: dea8 3d3d b221 9a3c bc63 0ebe d700 1a3e
00000230: 4d21 00be c8fa 783e 681f adbe 4602 92be
00000240: cc1b 3fbe cc9d 9b3e 9daf c73e 618e cfbd
00000250: 195b 833e 1240 673e f1f3 04bf a647 3dbd
00000260: 75c7 47be 2b0a 983e a1a3 2abe 6583 a1be
00000270: 0993 03bf b99c 3f3d 8d5e 003e 46ea 8e3e
00000280: 75b6 8ebc de81 8e3e 317e 223e 77f9 bb3e
00000290: 7842 aabe d245 e9be e3fe 3f3d 5b54 893e
000002a0: 0c04 69be f9be 853e 35b9 98bd 5c76 a4bd
000002b0: 512d 08be 645b a3be 0953 a4bd cac8 413e
000002c0: 0426 d33e ace0 373e 3f3d aabd 2423 33bd
000002d0: ec9c be3e 0b23 afbd 4624 803e eec4 9abe
000002e0: ae80 16be 052e bcbd 373f 203e e54a 6ebe
000002f0: 788d 93bd 377e f9be 10c7 d8be 46f7 aa3e
00000300: e1ff fabd a684 30be e4e8 e23d fe97 9ebe
00000310: a258 973e c7f5 c33c 502a 91be 59fb 213c
00000320: b08c 1dbd 2af9 42be aeea a43d 5f9e 6a3e
00000330: 4450 24be 2c20 e03d f514 98bd 1e2d 2dbc
00000340: bd9a 653d 1b3a e23c 258d efbe f415 7d3d
00000350: 7e2a eabe 8c65 d83e bad5 23be 1dd0 c2bd
00000360: 1048 bebe 93ba 023e 8f5e 1fbe f0cd 323e
00000370: ff7a 1abe 2be6 80bc 333b 4e3b bec1 13ba
00000380: ac88 9c3d fa44 503c 2302 a03d 5969 46bd
00000390: a7a2 a23d de8f 0ebd 7f29 a13e bb48 ac3d
000003a0: d3a4 dd3e f4fb 8cbe fc6a 1abe 696e 653e
000003b0: d6a4 5b3e afd6 7abe 0490 6f3e 9a66 7bbe
000003c0: fda6 a03d b387 053d 6fb3 74be ff0e 86bd
000003d0: 67c9 a4bd 5c92 e1bd 0604 023d ac8e 123e
000003e0: 71c4 b03e 3ce5 09be a061 0f3e f266 18bd
000003f0: 4262 c5bc 45a8 5c3e b7d0 423e 2c80 dfbe

encode.2.weight f4 [100, 100]
-0.021735832 0.0775981 0.006799946 0.032775387 0.007474768 -0.11121815 0.045756467 -0.03134347
0.012616507 -0.028163463 0.010581283 -0.047726776 0.04061627 0.016978756 0.0944521 0.044117864
0.062144246 -0.07622672 -0.059980504 0.034145363 -0.054895468 -0.07057809 0.063004285 0.06807984
0.07001587 0.051443614 0.00041716502 0.05071484 -0.008878056 -0.07131269 0.062699564 0.04216444
0.027258659 0.10457092 0.012289123 -7.528652e-05 -0.058222584 0.0276222 -0.008516545 -0.05716355
-0.027327163 -0.030704193 -0.034857128 -0.060520165 -0.08206217 -0.015631152 0.03629579 -0.11181858
-0.026042666 -0.013159308 -0.11917399 -0.015922446 0.006440747 -0.04779951 -0.005484315 -0.07794027
-0.035718903 -0.068152055 0.08870516 -0.016636282 0.040839892 -0.056000616 0.040728163 0.03428275
0.026569279 0.0059744413 0.03932983 0.02292687 -0.113874055 0.019795582 0.020323917 0.01847154
-0.060600024 -0.0100761615 -0.037336312 0.0354542 0.056481063 0.020227658 0.01920822 -0.041543268
-0.054970764 -0.036670078 0.09868398 -0.10979886 -0.08268383 0.039496303 -0.047421407 0.1169033
0.024673384 0.02023766 0.008753729 -0.028866118 -0.015954025 0.0058913506 -0.051033936 -0.008705216
-0.03517651 0.018546252 -0.004267784 -0.06209428 -0.013339822 0.31506237 -0.3732843 -0.024259552
0.053634565 -0.61194396 -0.6373245 -0.011417151 0.34790477 0.029281234 -0.0075231045 -0.034859065
0.066897154 -0.025305126 0.17049901 -0.13151044 -0.12922093 0.42395824 0.019400151 0.2005525
0.017462756 -0.033357807 0.015398225 0.06725232 0.020095618 -0.37328774 0.022398487 -0.107053
0.013111995 -0.25969023 0.02239765 -0.0797857 0.26168784 -0.38749382 0.030054132 0.023472425
-0.016138816 -0.001781215 0.048839252 -0.01026913 0.052476 0.0201228 -0.020911949 0.11647501
0.23064733 -0.05889435 0.20423232 -0.03338903 -0.05133254 -0.035238035 0.12335352 -0.0066277375
-0.102304764 0.038358554 0.029278953 0.27987754 -0.024198275 -0.1329461 0.0662741 -0.23806621
-0.0062257512 -0.03245919 0.015672596 -0.023522167 0.009712874 -0.047141712 0.03379056 -0.006870396
0.08122286 -0.022919243 0.4746796 0.013661457 -0.055633016 -0.0023269493 0.027328784 0.015695564
0.042157877 -0.04013433 -0.0039055205 -0.26280704 0.13808383 0.0028906604 0.020766279 0.16026692
0.017062664 0.24241224 0.011923119 -0.23006962 -0.013063627 -0.20116131 -0.071704336 0.0012858454
-0.019566063 0.05240839 0.0022793028 0.09498919 0.015930112 0.16911618 -0.02766528 -0.16706377
-0.05034071 0.04955947 -0.03527312 0.074418664 0.01639381 0.0020343286 0.03377341 -0.0002677473
0.02058287 0.0209952 0.020875895 -0.008922185 0.040201344 -0.034418203 0.07625781 0.027456196
-0.084875755 -0.06401203 -0.01604476 -0.08469266 0.02108102 0.057876952 0.051382717 0.047250386
0.03720564 0.07652421 -0.026026528 -0.042382482 0.040211394 0.037003916 -0.085244164 -0.010505924
0.008495628 0.051797938 -0.058618437 -0.021963947 0.010193701 0.026389977 0.015160446 -0.0025701148
0.0504183 -0.0300381 0.03914732 -0.04102618 -0.057029128 -0.07699856 0.013089414 0.035863046
0.0048266524 -0.047927286 -0.023984358 0.01411061 0.047272597 -0.07975285 -0.008364301 -0.022325
00000000: 580f b2bc c1eb 9e3d 15d2 de3b 7c3f 063d
00000010: e6ee f43b 57c6 e3bd 226b 3b3d 0362 00bd
00000020: 77b5 4e3c 10b7 e6bc 1e5d 2d3c 277d 43bd
00000030: 3f5d 263d 0817 8b3c 1a70 c13d efb4 343d
00000040: f78a 7e3d c11c 9cbd 1eae 75bd 02dc 0b3d
00000050: 12da 60bd 3f8b 90bd 6408 813d 716d 8b3d
00000060: 7b64 8f3d 8ab6 523d f1b6 da39 5dba 4f3d
00000070: 4475 11bc 630c 92bd a168 803d 9fb4 2c3d
00000080: 8d4d df3c 4729 d63d 5158 493c 25e3 9db8
00000090: ce7a 6ebd f447 e23c fb88 0bbc 5424 6abd
000000a0: 37dd dfbc 5c87 fbbc 59c6 0ebd fee3 77bd
000000b0: 3610 a8bd e70c 80bc e5aa 143d 2401 e5bd
000000c0: 6e57 d5bc 239a 57bc 7e11 f4bd ca6f 82bc
000000d0: e70c d33b 6bc9 43bd c5b5 b3bb 269f 9fbd
000000e0: fc4d 12bd 4e93 8bbd 0dab b53d d048 88bc
000000f0: bb47 273d e760 65bd 93d2 263d 126c 0c3d
00000100: d1a7 d93c 3fc5 c33b 5118 213d 22d1 bb3c
00000110: cd36 e9bd 582a a23c 587e a63c a151 973c
00000120: bb37 78bd 7c16 25bc f6ed 18bd 6c38 113d
00000130: b058 673d 79b4 a53c 8f5a 9d3c 4629 2abd
00000140: 0629 61bd 5d33 16bd d41a ca3d 3ade e0bd
00000150: 2456 a9bd e0c6 213d f33c 42bd ff6a ef3d
00000160: d61f ca3c 73c9 a53c cd6b 0f3c a378 ecbc
00000170: 04b2 82bc 3b0c c13b f608 51bd 53a0 0ebc
00000180: 3f15 10bd 4fee 973c c4d8 8bbb 9256 7ebd
00000190: 458f 5abc db4f a13e 1f1f bfbe f8bb c6bc
000001a0: ebaf 5b3d 5ca8 1cbf b327 23bf 010f 3bbc
000001b0: 9320 b23e 33df ef3c 6084 f6bb 61c8 0ebd
000001c0: 6001 893d b24c cfbc 4b97 2e3e acaa 06be
000001d0: 7e52 04be 0e11 d93e 11ed 9e3c a25d 4d3e
000001e0: 0e0e 8f3c 32a2 08bd d648 7c3c 96bb 893d
000001f0: 919f a43c 921f bfbe 087d b73c 9a3e dbbd
00000200: b1d3 563c 1ef6 84be 477b b73c af66 a3bd
00000210: f3fb 853e 9765 c6be 1534 f63c 3e49 c03c
00000220: 8d35 84bc a877 e9ba ab0b 483d da3f 28bc
00000230: 13f1 563d 92d8 a43c 894f abbc 738a ee3d
00000240: d02e 6c3e 343b 71bd 4722 513e efc2 08bd
00000250: 1242 52bd c255 10bd c5a0 fc3d 7e2d d9bb
00000260: 2985 d1bd dc1d 1d3d 6ada ef3c 1c4c 8f3e
00000270: 763b c6bc 0623 08be b7ba 873d a1c7 73be
00000280: 6301 ccbb edf3 04bd d163 803c 8fb1 c0bc
00000290: bf22 1f3c ab17 41bd f867 0a3d 0f21 e1bb
000002a0: 2c58 a63d 23c1 bbbc 3409 f33e 4ed4 5f3c
000002b0: 72df 63bd bb7f 18bb 9de0 df3c fc93 803c
000002c0: bdad 2c3d e563 24bd c3f3 7fbb a58e 86be
000002d0: d965 0d3e 3c71 3d3b 0b1e aa3c 031d 243e
000002e0: 00c7 8b3c ea3a 783e 3059 433c 5f97 6bbe
000002f0: d308 56bc 3bfd 4dbe b9d9 92bd d089 a83a
00000300: 0249 a0bc 2eaa 563d 5b60 153b b189 c23d
00000310: de7f 823c cb2c 2d3e 4ca2 e2bc c412 2bbe
00000320: 0f32 4ebd dffe 4a3d 8c7a 10bd d068 983d
00000330: 504c 863c 5f52 053b fd55 0a3d 6f60 8cb9
00000340: 689d a83c 20fe ab3c ed03 ab3c 5b2e 12bc
00000350: 2aaa 243d 1afa 0cbd 0e2d 9c3d d1eb e03c
00000360: 57d3 adbd bd18 83bd 4d70 83bc 5873 adbd
00000370: 1ab2 ac3c 6210 6d3d af76 523d 9f89 413d
00000380: f164 183d bab8 9c3d 9635 d5bc 4199 2dbd
00000390: b4b4 243d 6b91 173d 7e94 aebd 0a21 2cbc
000003a0: 3f31 0b3c 132a 543d e319 70bd bced b3bc
000003b0: 7b03 273c cb2f d83c 8563 783c 5f6f 28bb
000003c0: 6b83 4e3d 7612 f6bc f158 203d 110b 28bd
000003d0: 6097 69bd 6cb1 9dbd fb74 563c 21e5 123d
000003e0: e528 9e3b 674f 44bd d87a c4bc 3030 673c
000003f0: e9a0 413d 7655 a3bd 6c0a 09bc ebe2 b6bc

encode.4.weight f4 [4, 100]
-8.6942666e-05 0.11741896 -0.00022274145 -7.9279926e-05 -0.19259699 0.00023868597 0.0011391897 0.19471128
0.00017945282 -0.00011080253 3.1913914e-05 0.08532684 4.3502332e-05 -0.16337955 -1.0152944e-06 -0.0040772697
0.21141113 0.00044601492 -1.4185935e-05 0.0004211762 0.18356225 -0.062330324 -2.7195065e-05 -0.21411853
7.840792e-05 0.00017050149 -0.0003506379 0.040300045 0.0005724598 -0.0002256383 -0.0002538147 -5.344923e-05
0.0403136 -0.11035699 0.00041650853 -0.00012447708 0.13973944 0.0003754285 -0.00010349706 0.00016949445
0.041109387 -0.10592686 -1.6387949e-05 4.827686e-05 0.00019363727 -0.011993899 0.035735063 -0.00011835164
-0.0034114898 -0.0006377391 0.00017153702 -0.000119986566 -0.120271035 2.5875768e-05 -0.072971754 -0.00024295688
0.12956718 -3.398279e-05 0.00032661727 -0.10337916 -0.00010745343 -1.1515225e-05 0.00014751656 -0.25059828
-0.01947944 -0.00026639592 0.00012709618 0.03838754 5.213981e-05 1.2963224e-05 -0.00025459408 -9.644266e-05
-9.26686e-06 -0.0004533382 -0.014557889 0.0034622822 8.801619e-05 -0.00054729986 -0.00022915467 -0.16254845
5.6122597e-05 -0.07803519 -0.00022348996 0.09025727 0.08055357 -0.00028416154 0.00018338609 -0.009032297
9.646548e-06 0.0003814918 -0.00040534977 -0.07271069 0.0003625266 2.2776665e-05 0.15415205 9.227659e-05
-0.00035588312 0.14720026 -0.042479888 -0.010351897 -0.0005407247 0.19741812 -4.8934173e-05 -0.00040174148
-0.12005559 0.00030611487 -0.0019768586 0.10854647 0.00017655188 -4.552048e-05 -6.3945045e-05 -0.10806775
-0.00018423761 -0.16525462 -0.00055784045 0.11048406 0.033803225 0.00038308886 0.0005810196 0.00014549049
-0.022952897 0.05742423 0.00073620636 0.08465515 -5.79228e-05 0.0003639719 -0.00060649257 -0.08301325
0.0010174306 -0.00070895854 -0.00014035807 0.0001625776 0.06352462 0.007480341 0.00044218785 -0.00082414
-0.046141095 0.0001348112 -0.00041906582 0.000374394 -0.24098867 0.14725645 -0.0005180443 6.2564595e-07
0.00022744718 0.13747545 0.08715648 -0.00018699805 -0.09325478 -0.0003359066 -0.00027068105 0.0001951257
0.10633222 -0.0006067541 0.013072568 0.00056893873 -0.10105452 -0.00027584622 -0.00039906029 -0.031110307
-9.961945e-05 -2.108239e-06 -1.9845924e-05 -0.054630976 -0.037073728 -0.00025584668 0.00013258503 0.17414649
3.122523e-05 6.834696e-05 -0.00023562594 0.00021469074 0.000521893 -0.00035695336 -0.17085797 -0.0033873182
0.0006684677 0.00016910874 -0.0008187276 0.12944072 -0.0005112613 0.016434822 -0.00023305172 0.059373002
-0.017254377 -0.0005540264 0.00025308802 0.2327859 0.00044956838 0.0002489641 -0.0005415507 0.07449247
-0.00056867255 0.00040416507 -0.031874318 0.00081879826 0.0003793699 -0.11377388 -0.074804 -0.17965853
-0.008045513 0.07652107 -0.013243726 -0.0033224951 0.3882858 0.0021540152 -0.25372246 0.2796578
0.008548092 0.0036185398 0.009849405 0.25891134 0.009581755 0.026816223 -0.0051729144 0.106815375
0.30665523 0.007960557 0.0027957568 0.0032776 0.36582506 -0.38002563 0.0006234625 0.34734568
0.008708385 0.0015131475 -0.010516695 0.14821398 0.009348315 -0.010179884 -0.0051689344 -0.009385937
0.39622933 0.47943333 0.015107852 -0.007071618 0.26316386 0.012715819 0.000712065 0.008052218
0.0056457366 0.1897945 0.0018737202 0.0050209085 0.00820429 -0.030254507 -0.21587087 -0.013870363
-0.27172863 -0.002929029 -0.009584706 0.008683133 -0.25333786 -0.0074914545 0.3699647 0.0027691813
00000000: fd54 b6b8 5a79 f03d b48f 69b9 1643 a6b8
00000010: 2538 45be c747 7a39 dd50 953a 6562 473e
00000020: 802b 3c39 a85e e8b8 4edb 0538 d7bf ae3d
00000030: 4676 3638 f84c 27be 4045 88b5 9e9a 85bb
00000040: 297c 583e 1cd7 e939 2000 6eb7 50d1 dc39
00000050: bef7 3b3e 154e 7fbd f520 e4b7 e341 5bbe
00000060: ee6e a438 a5c8 3239 d3d5 b7b9 a911 253d
00000070: 2011 163a 5299 6cb9 6f12 85b9 ac2e 60b8
00000080: e01f 253d d802 e2bd d45e da39 1086 02b9
00000090: db17 0f3e 29d5 c439 900c d9b8 52ba 3139
000000a0: 5162 283d 2ef0 d8bd da78 89b7 e27c 4a38
000000b0: 1c0b 4b39 0f82 44bc ee5e 123d 8e33 f8b8
000000c0: 4d93 5fbb f22d 27ba 9ede 3339 4ca1 fbb8
000000d0: a950 f6bd ca0f d937 3772 95bd 3ec2 7eb9
000000e0: 42ad 043e be88 0eb8 d43d ab39 74b8 d3bd
000000f0: 9f58 e1b8 8431 41b7 adae 1a39 6b4e 80be
00000100: 5993 9fbc 0eab 8bb9 1f45 0539 413c 1d3d
00000110: b2b0 5a38 a07c 5937 0a7b 85b9 4241 cab8
00000120: dc78 1bb7 06ae edb9 3684 6ebc 75e7 623b
00000130: 5595 b838 ac78 0fba 3d49 70b9 1a73 26be
00000140: 2e65 6b38 ead0 9fbd a158 6ab9 ced8 b83d
00000150: 45f9 a43d 84fb 94b9 544b 4039 33fc 13bc
00000160: 9cd7 2137 f602 c839 2085 d4b9 58e9 94bd
00000170: 7f11 be39 8410 bf37 09da 1d3e 9e84 c138
00000180: d395 bab9 aabb 163e 64ff 2dbd 019b 29bc
00000190: 6cbf 0dba fa27 4a3e ab3e 4db8 d4a0 d2b9
000001a0: b5df f5bd 0b7e a039 2f8e 01bb 9d4d de3d
000001b0: c920 3939 3eed 3eb8 3c1a 86b8 a052 ddbd
000001c0: e82f 41b9 8238 29be 0a3c 12ba 7845 e23d
000001d0: 4075 0a3d 51d9 c839 914f 183a ce8e 1839
000001e0: b707 bcbc ab35 6b3d f9fd 403a ae5f ad3d
000001f0: 22f2 72b8 7bd3 be39 07fd 1eba da02 aabd
00000200: 4e5b 853a 67d9 39ba 152d 13b9 9879 2a39
00000210: 3219 823d a61d f53b 73d5 e739 190b 58ba
00000220: 72fe 3cbd 1b5c 0d39 10b6 dbb9 504a c439
00000230: bcc5 76be 65ca 163e 5dcd 07ba 10f2 2735
00000240: e37e 6e39 5dc6 0c3e 197f b23d e814 44b9
00000250: 5dfc bebd 9f1c b0b9 32ea 8db9 a89a 4c39
00000260: b5c4 d93d 940e 1fba 532e 563c d524 153a
00000270: acf5 cebd 749f 90b9 f738 d1b9 0bdb febc
00000280: c9ea d0b8 457b 0db6 cc7a a6b7 bbc4 5fbd
00000290: 9fda 17bd 2923 86b9 8606 0b39 7553 323e
000002a0: d6f7 0238 7f55 8f38 5b12 77b9 9b1e 6139
000002b0: a5cf 083a 7825 bbb9 64f5 2ebe c5fd 5dbb
000002c0: 1c3c 2f3a c852 3139 e19f 56ba 1c8c 043e
000002d0: 2a06 06ba 52a2 863c 585f 74b9 1b31 733d
000002e0: 0d59 8dbc 153c 11ba e6b0 8439 6d5f 6e3e
000002f0: 0cb4 eb39 6587 8239 daf6 0dba 828f 983d
00000300: f812 15ba 1ee6 d339 a58e 02bd 9fa4 563a
00000310: 2be6 c639 4802 e9bd d732 99bd 68f8 37be
00000320: 54d1 03bc 14b7 9c3d 37fc 58bc 38be 59bb
00000330: 65cd c63e 612a 0d3b e9e7 81be 4f2f 8f3e
00000340: 4c0d 0c3c 0625 6d3b 665f 213c 0790 843e
00000350: cbfc 1c3c b2ad db3c 8d81 a9bb 05c2 da3d
00000360: ea01 9d3e ff6c 023c 0439 373b 01cd 563b
00000370: 6c4d bb3e b892 c2be dc6f 233a 4bd7 b13e
00000380: 9dad 0e3c ce54 c63a 374e 2cbc 68c5 173e
00000390: ad29 193c 87c9 26bc 2a60 a9bb 79c7 19bc
000003a0: 92de ca3e 4978 f53e ed86 773c 08b9 e7bb
000003b0: 6abd 863e 0356 503c e0a9 3a3a 73ed 033c
000003c0: dfff b83b 7d59 423e 9e97 f53a 6f86 a43b
000003d0: 496b 063c 4dd8 f7bc 410d 5dbe 8540 63bc
000003e0: 0420 8bbe f4f4 3fbb 2c09 1dbc b343 0e3c
000003f0: 80b5 81be e07a f5bb 036c bd3e 277b 353b

decode.0.weight f4 [100, 12]
0.20571108 -0.34922522 -0.23408954 0.046497844 -0.19152354 0.020260187 -0.21112989 -0.2720273
0.038576655 -0.25443274 -0.1031609 -0.22807652 -0.31761464 -0.09290566 -0.29333603 -0.31267548
0.14345975 -0.60374206 -0.40054718 -0.07662322 -0.11859598 0.30150023 -0.0077785687 -0.1364011
-0.0072126104 0.3985736 -0.5034477 0.37464958 0.101222865 -0.05307868 -0.2021843 0.0952977
0.1048151 0.22899967 -0.52001673 -0.18298315 0.05779217 -0.0012879644 -0.40169656 0.2542785
-0.30711532 -0.24317627 -0.062519275 0.21327344 0.19063851 0.32821196 -0.10269523 0.11328896
-0.0012598453 -0.0015002114 -0.1410825 -0.3075852 -0.05299696 0.20022734 0.11629069 0.1493426
0.13405247 0.12644142 -0.10938634 -0.11413108 0.044142727 0.19202578 0.13240767 0.031828072
-0.19142443 0.15523188 0.034876056 -0.16101041 0.040756546 -0.05087909 0.11429944 -0.19555742
-0.31239715 -0.04511083 -0.42678076 0.091901414 -0.27119124 -0.4239493 -0.23176922 0.28875074
-0.25299096 -0.11370254 -0.09355627 0.4242822 0.0020813565 0.0002579004 0.07504634 -0.07310329
0.026113167 -0.04448981 0.19873479 0.0322704 -0.041619655 0.029666608 -0.09521549 -0.11209593
-0.0067109023 0.0037840689 -0.36374715 0.21495128 0.2452623 -0.009627346 -0.020337095 -0.05183795
-0.23045903 0.15170868 -0.103974044 0.18881278 -0.0013510364 -0.00033158064 0.086308606 0.058845274
-0.012952408 0.031475015 -0.02753155 -0.13628945 -0.16348568 0.12349332 0.04760281 -0.0025077607
0.2966918 -0.1366535 0.04034371 0.14814766 -0.17031722 0.059823982 -0.13139097 -0.28642824
0.13196494 -0.09045673 -0.19388849 -0.29939243 -0.011189612 -0.019065611 0.05020719 -0.1290206
-0.30462566 0.07062995 -0.09525995 0.12586983 0.21144485 0.0011043784 0.26218677 -0.20594889
-0.009411082 -0.0009983195 -0.2703716 -0.051687554 0.111263335 0.051711068 -0.068009205 -0.073466174
0.07326909 0.07441394 -0.025534317 0.1388326 0.10996131 -0.021171194 0.43800128 -0.048394576
-0.1856919 0.38599885 -0.34173527 0.16462676 0.1341856 -0.5057126 0.26069394 -0.26628375
-0.0007276355 -0.00085171417 0.02178068 0.092964694 -0.057880882 -0.1517032 -0.121362336 -0.22059979
0.115884885 -0.021724647 0.21914493 0.11865854 0.049924206 0.40418452 0.376939 -0.30103993
-0.05435191 0.01873015 0.20383541 0.08811852 -0.30820155 -0.39978638 0.21918662 0.12066459
-0.0012196568 -0.038227484 0.24983628 -0.013464062 0.13438684 -0.023084972 0.11987781 0.017204084
-0.11085741 -0.23651992 0.11679532 -0.26458162 0.45449102 -0.08126715 -0.31809136 -0.42299145
0.15082337 -0.3932306 -0.072921515 0.1865545 -0.34151873 0.21472003 -0.18531433 0.10581919
-0.028355246 -0.26070946 0.34367767 -0.27443564 0.09912196 0.20457356 0.16470525 0.03152108
-0.25287363 -0.19339846 -0.024432119 -0.16615352 0.046004403 -0.016918471 -0.13450211 0.09734148
-0.29972512 0.024841925 -0.020673292 0.12067953 0.08619168 0.20543432 0.11128786 -0.18423651
-0.35971162 0.357372 0.21248335 -0.21571684 0.19303203 -0.097591005 -0.08691157 -0.14750877
-0.31381476 0.059156742 0.11744838 0.12477189 -0.022598805 -0.09892983 0.37669617 -0.06312921
00000000: eda5 523e a6cd b2be 2bb5 6fbe 8674 3e3d
00000010: bf1e 44be b1f8 a53c 6f32 58be 2a47 8bbe
00000020: 8e02 1e3d 0245 82be 0646 d3bd e48c 69be
00000030: 639e a2be 5345 bebd 2430 96be 0017 a0be
00000040: 1de7 123e d78e 1abf 8514 cdbe a3ec 9cbd
00000050: 73e2 f2bd 3d5e 9a3e 5de3 febb bbac 0bbe
00000060: c357 ecbb d711 cc3e f3e1 00bf 12d2 bf3e
00000070: ef4d cf3d 0869 59bd 6709 4fbe 712b c33d
00000080: 4da9 d63d e47e 6a3e d11f 05bf ef5f 3bbe
00000090: 7cb7 6c3d ead0 a8ba 2cab cdbe cb30 823e
000000a0: 383e 9dbe 3303 79be 1b0a 80bd 5a64 5a3e
000000b0: be36 433e 660b a83e e051 d2bd 0b04 e83d
000000c0: 6521 a5ba bea2 c4ba ee77 10be cf7b 9dbe
000000d0: 5713 59bd 6508 4d3e d029 ee3d 44ed 183e
000000e0: 0d45 093e dc79 013e f205 e0bd 8ebd e9bd
000000f0: 01cf 343d 68a2 443e e095 073e 275e 023d
00000100: c404 44be 1bf5 1e3e 32da 0e3d eadf 24be
00000110: 56f0 263d 9866 50bd d315 ea3d 3440 48be
00000120: 85f2 9fbe 22c6 38bd 0283 dabe cf36 bc3d
00000130: 94d9 8abe e20f d9be e954 6dbe 23d7 933e
00000140: 0888 81be e1dc e8bd 6e9a bfbd 843b d93e
00000150: 5e67 083b ce36 8739 e5b1 993d 2db7 95bd
00000160: 48eb d53c f23a 36bd 2281 4b3e f82d 043d
00000170: 5f79 2abd 6307 f33c 5700 c3bd 8d92 e5bd
00000180: 21e7 dbbb 24fe 773b 113d babe 301c 5c3e
00000190: 0a26 7b3e 04bc 1dbc fb99 a6bc 0854 54bd
000001a0: 74fd 6bbe 8559 1b3e 58f0 d4bd 2358 413e
000001b0: 4215 b1ba 00d8 adb9 91c2 b03d be07 713d
000001c0: 5636 54bc f2eb 003d d889 e1bc 768f 0bbe
000001d0: ca68 27be 11ea fc3d 2afb 423d 3e59 24bb
000001e0: fde7 973e e5ee 0bbe 723f 253d 05b4 173e
000001f0: a367 2ebe fe09 753d 5b8b 06be b9a6 92be
00000200: d121 073e 6141 b9bd b48a 46be f749 99be
00000210: a254 37bc 7c2f 9cbc 0ea6 4d3d fa1d 04be
00000220: e5f7 9bbe 6fa6 903d a617 c3bd 05e4 003e
00000230: 0085 583e cac0 903a 583d 863e 44e4 52be
00000240: f030 1abc 0bda 82ba 256e 8abe 54b6 53bd
00000250: 08de e33d fcce 533d 6948 8bbd 6f75 96bd
00000260: 1b0e 963d 5666 983d 582d d1bc 222a 0e3e
00000270: 6533 e13d 366f adbc b441 e03e 6439 46bd
00000280: 0426 3ebe a4a1 c53e edf7 aebe eb93 283e
00000290: f367 093e 6276 01bf ad79 853e 5856 88be
000002a0: cbbe 3eba 9245 5fba 666d b23c 4664 be3d
000002b0: 8114 6dbd 1558 1bbe d18c f8bd e9e4 61be
000002c0: 0e55 ed3d e3f7 b1bc 8767 603e 4003 f33d
000002d0: 537d 4c3d 46f1 ce3e 26fe c03e e821 9abe
000002e0: 1ca0 5ebd f96f 993c 3bba 503e 7c77 b43d
000002f0: 98cc 9dbe cdb0 ccbe 7572 603e ff1e f73d
00000300: e4dc 9fba 6c94 1cbd 15d5 7f3e 5e98 5cbc
00000310: b49c 093e b21c bdbc 7f82 f53d 94ef 8c3c
00000320: 3609 e3bd 4732 72be 6232 ef3d 3e77 87be
00000330: 0cb3 e83e 646f a6bd dfdc a2be 5692 d8be
00000340: 7171 1a3e 8555 c9be e057 95bd 2508 3f3e
00000350: 8bdb aebe 91df 5b3e 0ac3 3dbe bbb7 d83d
00000360: 4349 e8bc b67b 85be 85f6 af3e d482 8cbe
00000370: 7400 cb3d bb7b 513e 7ea8 283e 3f1c 013d
00000380: a778 81be 3f0a 46be de25 c8bc 2624 2abe
00000390: 1d6f 3c3d 9b98 8abc ecba 09be f85a c73d
000003a0: 9275 99be 4b81 cb3c 095b a9bc d426 f73d
000003b0: 4385 b03d 605d 523e e4ea e33d 7fa8 3cbe
000003c0: 1f2c b8be 76f9 b63e 3c95 593e e0e4 5cbe
000003d0: 30aa 453e cbdd c7bd b1fe b1bd 8a0c 17be
000003e0: 54ac a0be 574e 723d c788 f03d 6888 ff3d
000003f0: 2121 b9bc b99b cabd 52de c03e e349 81bd

decode.2.weight f4 [100, 100]
0.0807192 -0.029694026 -0.016459897 0.009540277 -0.019080445 -0.093031615 -0.0031067627 0.0077225673
-0.072420865 0.0065682656 -0.07637126 0.0025670328 -0.11326887 0.021524154 0.060713258 -0.02190728
-0.01968649 -0.032259077 0.012328987 0.027242107 0.051893875 -0.036851443 -0.0024822934 0.068226226
-0.08850252 0.030779341 -0.056543473 0.026294613 0.08674665 -0.017778095 -0.1122187 -0.025912112
-0.050578143 0.080857545 0.021713661 -0.050611585 -0.0032803263 -0.13406998 0.043464508 -0.033196535
-0.0215759 0.09817789 0.055504337 0.0577814 -0.04858219 -0.004856866 -0.03169821 -0.03602924
0.04840712 -0.074384466 -0.07660761 -0.07561777 -0.041317835 0.09492489 0.051557068 -0.033681065
0.02892525 0.05121835 -0.017451933 -0.013173466 -0.009313815 0.062430825 -0.012936402 -0.018175008
-0.016438102 -0.0029792439 0.033709157 0.07450637 0.005031083 -0.029681131 -0.1005195 -0.03887301
-0.01894306 -0.039501455 0.014907238 -0.0053328592 0.011908937 -0.06028391 0.10534233 0.099021405
0.01766696 -0.011487502 0.049670223 -0.004724767 -0.1076288 -0.026292086 -0.089802824 -0.098067805
0.07794746 -0.06596808 -0.0111067165 -0.037049286 0.090507396 -0.022950498 0.11869873 -0.041804757
0.0015679019 0.028134108 -0.030395722 -0.016795227 -0.020898018 0.024695694 0.054268435 0.045968853
0.016179604 -0.095350124 -0.024166504 0.0052870144 -0.043916866 0.0024173753 0.023502806 0.036976743
-0.045491938 0.0059605124 0.015540565 -0.034778245 -0.03966378 -0.033997387 -0.07963391 0.03518758
0.076547146 -0.037646394 0.04186476 0.018447686 0.049255263 -0.034712613 0.026530635 -0.013253574
0.014835765 -0.045412876 -0.044839732 -0.09116191 -0.03999413 0.07470967 -0.027235635 0.0007421768
0.0017207046 0.021900073 -0.008358615 -0.018369732 -0.048875555 0.013537653 0.029109687 0.071859285
-0.009667599 0.013265344 -0.027032366 0.03195197 0.0754585 0.026340071 -0.014030859 -0.016394865
0.032160886 -0.012680902 0.023319531 0.017920647 0.042600133 0.09605219 0.01610887 0.03241873
-0.065879546 -0.08634009 0.09779889 0.13315113 0.05338066 -0.056827288 -0.021799283 0.12124964
-0.07215975 0.0807335 -0.03234121 -0.04404251 -0.009646668 0.016919682 -0.021778267 0.012187265
-0.015809542 -0.12523468 0.025759429 0.0128527945 -0.07373907 -0.031200603 0.0301559 0.08642913
0.026473373 0.019053442 -0.011078273 0.029555298 0.0016339269 -0.034711145 -0.0023999661 0.05453897
-0.045017477 -0.07554917 0.064766325 0.015265666 0.0063793054 0.0010071482 0.06706532 -0.04634186
0.052443538 0.08530928 0.02867756 0.08844339 -0.046168573 -0.039987404 0.0014800286 0.04962733
0.08596073 -0.014451903 -0.00521729 -0.039434638 0.011059344 0.03237265 0.0012335894 -0.030283967
0.021983603 -0.0017763801 0.05685023 -0.02037186 -0.0035707464 0.056064513 0.010406526 0.06347472
-0.062294945 0.04230015 0.000508736 -0.02935974 -0.052916866 -0.03727154 -0.050942916 0.00800943
-0.04491675 -0.0031559705 -0.009975562 -0.06193807 -0.07838777 0.057529956 -0.04264455 -0.017433548
0.043826308 0.03703836 0.0016474528 -0.027820993 0.054484483 -0.028749457 0.053692304 -0.055712096
0.025512576 -0.035980728 -0.0964236 -0.12000951 -0.057706647 -0.05318575 0.022165205 0.015247331
00000000: 1c50 a53d e340 f3bc e8d6 86bc d24e 1c3c
00000010: 984e 9cbc 5c87 bebd d49a 4bbb 970d fd3b
00000020: 6451 94bd 9b3a d73b 8968 9cbd aa3b 283b
00000030: 82f9 e7bd 6c53 b03c 77ae 783d e576 b3bc
00000040: 9045 a1bc 1822 04bd 85ff 493c d72a df3c
00000050: ac8e 543d 8af1 16bd f9ad 22bb 31ba 8b3d
00000060: cf40 b5bd f524 fc3c 219a 67bd cd67 d73c
00000070: 3aa8 b13d 5ea3 91bc ebd2 e5bd a345 d4bc
00000080: 072b 4fbd a498 a53d d9e0 b13c 184e 4fbd
00000090: befa 56bb a449 09be d707 323d 17f9 07bd
000000a0: f1bf b0bc 7d11 c93d 8458 633d 30ac 6c3d
000000b0: 1efe 46bd 5826 9fbb fbd5 01bd 6593 13bd
000000c0: 8b46 463d e256 98bd 73e4 9cbd 7ddd 9abd
000000d0: e43c 29bd fb67 c23d 812d 533d 28f5 09bd
000000e0: a5f4 ec3c 55ca 513d 5bf7 8ebc 85d5 57bc
000000f0: f998 18bc 77b7 7f3d 34f3 53bc c1e3 94bc
00000100: 33a9 86bc 6b3f 43bb 9d12 0a3d cc96 983d
00000110: c8db a43b d825 f3bc 2bdd cdbd 4e39 1fbd
00000120: 7a2e 9bbc 47cc 21bd 7d3d 743c 44bf aebb
00000130: b41d 433c 43ec 76bd b8bd d73d bccb ca3d
00000140: 4dba 903c 1336 3cbc 0173 4b3d 38d2 9abb
00000150: 7d6c dcbd 8062 d7bc 8bea b7bd c6d7 c8bd
00000160: eba2 9f3d 461a 87bd f2f8 35bc fec0 17bd
00000170: f15b b93d af02 bcbc 5218 f33d 773b 2bbd
00000180: 0f82 cd3a 8079 e63c 7300 f9bc 2596 89bc
00000190: 5232 abbc a04e ca3c 9448 5e3d d649 3c3d
000001a0: 178b 843c ed46 c3bd d5f8 c5bc b13e ad3b
000001b0: 2ce2 33bd d46c 1e3b f588 c03c ed74 173d
000001c0: c155 3abd 6750 c33b db9d 7e3c a273 0ebd
000001d0: 7d76 22bd d840 0bbd 1a17 a3bd da20 103d
000001e0: c0c4 9c3d 1b33 1abd 627a 2b3d 9a1f 973c
000001f0: e3bf 493d d02e 0ebd c656 d93c 8525 59bc
00000200: b511 733c da02 3abd dea9 37bd 18b3 babd
00000210: e3d0 23bd 6201 993d 441d dfbc a48e 423a
00000220: 4489 e13a c867 b33c 93f2 08bc 1f7c 96bc
00000230: bc31 48bd 08cd 5d3c 7077 ee3c f62a 933d
00000240: d964 1ebc e356 593c fb72 ddbc 12e0 023d
00000250: fc89 9a3d 22c7 d73c b0e1 65bc 864e 86bc
00000260: 22bb 033d 8fc3 4fbc 9a08 bf3c 52ce 923c
00000270: 7a7d 2e3d 03b7 c43d c0f6 833c 81c9 043d
00000280: dbeb 86bd 13d3 b0bd c94a c83d c558 083e
00000290: aea5 5a3d bbc3 68bd 6994 b2bc bb51 f83d
000002a0: 7ec8 93bd 9b57 a53d 3778 04bd eb65 34bd
000002b0: 0f0d 1ebc 259b 8a3c 5668 b2bc 18ad 473c
000002c0: 0383 81bc 853d 00be 7005 d33c 8794 523c
000002d0: 8204 97bd 6898 ffbc 8209 f73c c101 b13d
000002e0: b0de d83c f715 9c3c a581 35bc f41d f23c
000002f0: 7d29 d63a 462d 0ebd c048 1dbb 4164 5f3d
00000300: 3f64 38bd 86b9 9abd 35a4 843d d81c 7a3c
00000310: 7e09 d13b 4902 843a 8b59 893d f6d0 3dbd
00000320: 09cf 563d a2b6 ae3d 34ed ea3c cf21 b53d
00000330: 421b 3dbd d5c9 23bd 85fd c13a 0746 4b3d
00000340: 2e0c b03d adc7 6cbc cdf5 aabb 3786 21bd
00000350: 4032 353c 2f99 043d 64b0 a13a 1516 f8bc
00000360: f516 b43c 6dd5 e8ba c9db 683d e3e2 a6bc
00000370: 2f03 6abb e7a3 653d 2280 2a3c 09ff 813d
00000380: fc28 7fbd ec42 2d3d b25c 053a d683 f0bc
00000390: 5bbf 58bd 0baa 18bd 85a9 50bd fc39 033c
000003a0: a0fa 37bd 66d4 4ebb 8a70 23bc c6b2 7dbd
000003b0: c489 a0bd 88a4 6b3d 0dac 2ebd cdd0 8ebc
000003c0: 3783 333d 89b5 173d 58ef d73a dae8 e3bc
000003d0: 1f2b 5f3d fb83 ebbc 76ec 5b3d 5e32 64bd
000003e0: c0ff d03c 8760 13bd bd79 c5bd 8cc7 f5bd
000003f0: ce5d 6cbd 4dd9 59bd ce93 b53c f1cf 793c

decode.4.weight f4 [1, 100]
0.00025005903 -0.00010160649 0.00023783412 3.0651878e-05 0.00080152944 2.7557446e-05 -6.936329e-05 5.8349764e-05
0.00020513889 -5.9850536e-05 -0.00028451777 0.00010113751 0.0003571415 0.00044484827 3.294365e-05 -0.054374564
3.725423e-06 0.00048605306 -0.0003938051 1.4725543e-05 -0.07280817 0.0003569284 -0.0003892123 0.00014259317
-0.09022192 -0.0665833 0.00034201692 -0.056164477 5.441667e-05 1.6451428e-05 0.07173229 0.00036209184
-0.00018174025 0.04906301 -0.068478 -7.795743e-06 0.05902434 0.09113729 7.539664e-05 0.00015171667
-0.080774 -1.6089074e-05 6.6473876e-05 0.0004912822 1.5815918e-05 -0.00013075305 0.0004384048 0.00012620096
-3.6636735e-05 0.045855694 0.00019043719 0.00012738112 -0.00031658952 -0.00035936545 -0.0004783707 2.1065702e-05
-5.7423105e-05 0.07512036 -0.00042961328 -0.053502757 0.0005322829 0.00034299173 -0.00047180147 0.00023571271
-0.000441365 0.000358894 -7.779687e-05 -0.00011044218 9.99285e-06 -0.058128007 0.00020840143 -0.05849733
0.00018335474 2.6629572e-05 -5.779627e-05 6.1651575e-05 0.06518106 0.0001914371 0.0003808469 -0.00018609948
0.01342702 5.0924722e-05 0.054816097 0.00020104396 0.00021535161 -0.00017153156 0.042317033 0.00011952962
-0.0794003 0.053730484 0.00023619646 0.020526836 -0.00043824 0.00025499807 -0.00013482005 0.00010263856
4.1165065e-05 -0.00019967048 -0.00023394238 0.00045809397
00000000: 5b1a 8339 9215 d5b8 1c63 7939 3490 0038
00000010: bb1d 523a 2a2b e737 2277 91b8 95bc 7438
00000020: 8d1a 5739 0608 7bb8 542b 95b9 ca19 d438
00000030: b93e bb39 863a e939 fa2c 0a38 ddb7 5ebd
00000040: 4802 7a36 f0d4 fe39 a077 ceb9 ba0d 7737
00000050: 731c 95bd 1e22 bb39 310f ccb9 1085 1539
00000060: 45c6 b8bd d35c 88bd bc50 b339 b90c 66bd
00000070: 743d 6438 2c01 8a37 61e8 923d 25d7 bd39
00000080: 8791 3eb9 4bf6 483d 323e 8cbd 76ca 02b7
00000090: 82c3 713d 30a6 ba3d 431e 9e38 2216 1f39
000000a0: d76c a5bd 06f7 86b7 e467 8b38 64c9 003a
000000b0: 6dac 8437 c11a 09b9 b2d9 e539 d054 0439
000000c0: 65aa 19b8 2ed3 3b3d 18b0 4739 9c91 0539
000000d0: edfb a5b9 3769 bcb9 d4cd fab9 40b6 b037
000000e0: 97d9 70b8 b4d8 993d b83d e1b9 b525 5bbd
000000f0: e788 0b3a 92d3 b339 1f5c f7b9 a629 7739
00000100: 0267 e7b9 f029 bc39 e026 a3b8 329d e7b8
00000110: f7a6 2737 a217 6ebd 5586 5a39 e59a 6fbd
00000120: ea42 4039 9262 df37 466a 72b8 f04a 8138
00000130: a67d 853d 81bc 4839 68ac c739 b323 43b9
00000140: 01fd 5b3c 0198 5538 d886 603d 54cf 5239
00000150: 02d0 6139 27dd 33b9 a054 2d3d faab fa38
00000160: a09c a2bd 7f14 5c3d 81ab 7739 e527 a83c
00000170: 94c3 e5b9 43b1 8539 7b5e 0db9 a83f d738
00000180: a7a8 2c38 a35e 51b9 6e4e 75b9 552c f039
