Quantum/incomplete/models/3_latent.pt (torch, 94759 bytes, 6 tensors)

encode.0.weight f4 [100, 10]
00000000: 6974 aabe f378 71bd d133 99be 6643 1cbe
00000010: a571 ddbe 4dfe 953e 3267 b23e 1853 15be
00000020: 4272 80be 06b8 52be 2b96 40be 3b72 3b3e
00000030: 29ba 5d3e 6b7f a1be d281 38be a79b c1bc
00000040: 85db 96bc 8712 89bd 62f8 9f3e 200b b73d
00000050: e348 cebe e8fa f5bb 1ba2 223e 1ca0 c4bb
00000060: ab18 81be 595d a0bd a667 0e3e b22e af3e
00000070: 233c 7c3d 35fd edbc 5b58 84be 6e3a 713e
00000080: 3f75 89be 5c8c c03e 5059 fb3d 05ee 133e
00000090: 922e b0be b943 4f3e e63f 9f3e fb6a ff3e
000000a0: f0c0 2dbd 020f d53d 9bd0 98bd be97 cebd
000000b0: f076 26be 30ca 403e a7d0 d3bd 023c 36be
000000c0: 5c6c a33e 51be 573d 8ed5 a23e d603 223e
000000d0: 102d b5bd 09c6 e1bd eee9 aebe b606 01be
000000e0: b339 b83e a540 793e ba4a 5a3c 8ce9 b1be
000000f0: 3d90 76be e19c 10be c782 0c3e c0b0 8cbc
00000100: 0de2 143e 937e f8bc db59 373e 8a9c 78bd
00000110: 269e adbd 458e f53d f874 1cbd 3ee4 d23e
00000120: 8f92 aebe 3d40 823e 3f11 ff3d 0928 11be
00000130: f3bf a0be df26 ecbd 77ba 783e 0b39 ba3e
00000140: e281 cabe e748 243e 3c34 d03b 7ef5 b03e
00000150: 0722 9ebd 93fa a73d 6972 8138 f361 603e
00000160: d2e8 84be 4608 3bbd 9bcc 95be d1ae 993e
00000170: 6a48 4a3d 4e73 1d3d 0302 4d3e ffb8 ebbe
00000180: 39bb c4be 5583 b7bd 725e 61be 1779 373e
00000190: cea2 8dbe 2d20 973e c561 a9be a37b 173e
000001a0: ee21 813e 2947 2bbe 101e c8be e468 94bd
000001b0: 66a7 603e 1522 293d a74e b0be 8347 a2bc
000001c0: d31e c8be 306d 953e 8534 5cbe 7546 4c3d
000001d0: c3ee 7c3e b44d 2f3e 23fe 53be f1da e43e
000001e0: a320 bc3e 6855 2dbe db5e 033e edca 543e
000001f0: 6abb b8bd b66d e2bd ab32 b93e 96b4 59bd
00000200: b0e0 83be 4ef0 9cbe eb2c 0cbf 3d41 6a3e
00000210: 00c8 0bbf 466b c5be d36a 91be 7e58 aa3e
00000220: 9d72 48be c0b4 c53e b645 1dbe b34c 55be
00000230: ee77 db3e 4184 843e e53d 40be 9c06 e3be
00000240: fa3f 403e 16ac 113c 4028 df3e d9d3 87bd
00000250: 1191 9b3b a97e 53be 7c47 66be 41b6 7cbc
00000260: c5be 19bd 4aea 00be db8b a73d 8f6a d0bd
00000270: a6fd 883e 7e01 27be a050 613e 808f c53d
00000280: 4d19 bcbc 595d 26bc d227 31be cbdf edbe
00000290: aecc 533b a0b2 753e db60 1a3e 52be 71be
000002a0: 41a0 e93d a93a a9be 4bc0 fa3e dc20 babe
000002b0: 18a5 9f3d 4588 58be 651c 91be b6d7 f43e
000002c0: a193 c23d 5f3c 0d3e 824c bc3c 03c6 a53d
000002d0: 912a 48be 4def 69bd 43d8 08be 78a9 2d3e
000002e0: 7e42 e73d b2a2 3e3e 50ae 213e 2a6e a2be
000002f0: 8c46 953d 103c 003c 356e 7f3d dae0 88be
00000300: cc84 063e 4c69 803e 099d 1b3e 6e5a 0ebf
00000310: 64e0 e8be d306 c5be a929 533d a8c2 60bd
00000320: 1863 993e 4818 653e ab2d 63be 4d87 21be
00000330: b701 053d a2b8 dabd 6da3 43be ba69 663e
00000340: 1574 aa3d c0bd 3ebe a41f 1f3e dc09 9cbe
00000350: c69b ba3d 75a0 b9bd cbf6 d93d 9dbf ab3e
00000360: 6bda 693e 96a5 663e b875 3abe 49ad 8abe
00000370: 6edc 403d 9932 cd3d 98dd 8cbe 1481 903d
00000380: 550c b23d 5d32 9abe 67dd bebe 0343 183e
00000390: cd77 22be c65c b33e 04ed 38be fd76 b93b
000003a0: 9a6f d1be 8c79 a93e b5e6 78be 2c7f fabc
000003b0: 5d2a 513d d37b 423e da9d 1fbe fb7b d4bc
000003c0: 0852 7a3d a729 80be 9333 4abe 65c0 8f3e
000003d0: 8872 873e 6ebd b8be c3aa e4bd 092d 933e
000003e0: a42d 83bd 2afa 72bd 9c58 7fbb a9c5 e1be
000003f0: 09f4 5d3b 6eca 3f3e ed39 3d3c 585e 2cbf
-0.3329194 -0.058953237 -0.29922345 -0.15260085 -0.43250766 0.2929558 0.34844357 -0.14582479
-0.25087172 -0.20578012 -0.18807285 0.18305294 0.21653046 -0.31542525 -0.18018273 -0.023633791
-0.018415222 -0.06692987 0.3124419 0.08937669 -0.40289983 -0.007506717 0.15882151 -0.006000532
-0.25214133 -0.07830305 0.13906726 0.34215313 0.06158079 -0.029051403 -0.2584866 0.23557445
-0.26847264 0.37607086 0.122728944 0.14446266 -0.3441053 0.20240678 0.31103438 0.49886307
-0.042420328 0.10403253 -0.07461663 -0.10087536 -0.16256309 0.18827128 -0.10342532 -0.17796329
0.3191861 0.052671734 0.31803554 0.15821776 -0.088464856 -0.110241 -0.3416285 -0.12600216
0.3598152 0.24341066 0.01332348 -0.34748495 -0.2407846 -0.14122345 0.13721763 -0.017174125
0.14539357 -0.030333793 0.17905371 -0.060696162 -0.0847743 0.119900264 -0.038197488 0.4118976
-0.3409619 0.25439635 0.12454461 -0.14175428 -0.31396446 -0.115308516 0.2428988 0.36371645
-0.39552218 0.16043435 0.006353883 0.34562296 -0.07721334 0.0820209 6.17251e-05 0.21912365
-0.25958878 -0.045662187 -0.29257664 0.30016187 0.049385466 0.03844004 0.20020299 -0.46039578
-0.3842409 -0.089605965 -0.22008684 0.17917286 -0.27663273 0.29516736 -0.33082405 0.14793257
0.252212 -0.16726364 -0.39085436 -0.07246569 0.21938857 0.04129227 -0.34435007 -0.01980949
-0.39086017 0.29184866 -0.2150441 0.04987188 0.24700455 0.17119485 -0.20702414 0.4469829
0.3674365 -0.16927111 0.12829153 0.20780535 -0.090201214 -0.11056082 0.3617147 -0.053150736
-0.2575736 -0.30652088 -0.5475604 0.22876449 -0.5460205 -0.38558406 -0.28401813 0.3327064
-0.19574971 0.38614464 -0.15358624 -0.2083004 0.42864937 0.25882152 -0.18773611 -0.4434098
0.18774405 0.008891126 0.43585396 -0.066322036 0.004747518 -0.20653786 -0.22488207 -0.015424312
-0.037535448 -0.12589374 0.08180972 -0.101765744 0.26756018 -0.16309163 0.22003412 0.09646511
-0.022961283 -0.010154092 -0.17300346 -0.46459803 0.0032318044 0.23993921 0.1507601 -0.23607758
0.11407519 -0.33052567 0.48974833 -0.36353195 0.07795161 -0.21145733 -0.28341976 0.47820824
0.09500814 0.13792561 0.0229857 0.08094408 -0.19547488 -0.05711298 -0.13363747 0.16959178
0.11291979 0.18616751 0.15789151 -0.31724674 0.072888464 0.00782682 0.06236096 -0.26734048
0.13136595 0.25080335 0.15196623 -0.55606735 -0.45483696 -0.3848177 0.051553402 -0.05487314
0.29958415 0.22372544 -0.2218539 -0.1577427 0.03247234 -0.10679747 -0.1910531 0.22501269
0.08322922 -0.18627071 0.15539414 -0.30476272 0.09111743 -0.09063808 0.10642775 0.33544627
0.22837226 0.22524104 -0.18208969 -0.2708533 0.047085218 0.10019416 -0.27512813 0.0705587
0.086937584 -0.3011655 -0.37278292 0.14869313 -0.15866013 0.35031718 -0.18059164 0.0056599365
-0.40905458 0.33100545 -0.24306758 -0.030578218 0.05106579 0.18992548 -0.1558756 -0.025938025
0.061113387 -0.25031778 -0.19746237 0.28076473 0.26454568 -0.36082023 -0.11165383 0.28745297
-0.0640519 -0.059320606 -0.0038962727 -0.44096115 0.003386738 0.18729565 0.011549455 -0.6733146

encode.2.weight f4 [100, 100]
00000000: 76e2 2e3e f637 f03d adaf 64bd 113b 24be
00000010: da01 a6bc 7ffe e93d 783b 8cbd 0163 49be
00000020: eecf d4bd fcd4 8abc 0704 a13c ab4e 3abd
00000030: 96d8 5d3d ed57 913d 1119 023e 6691 afbc
00000040: d876 123e b5ca 003e 8ad3 8d3d 3e39 86bc
00000050: 943c 323d f074 f53c befe c3bd 7cf5 eb3a
00000060: f735 48bd 21fc 3f3c ca20 6bbd 9496 b7bd
00000070: 2179 13bd 0fd0 a0bd 29f0 543d f36f 84bd
00000080: 9121 78bd 2aaa cb3d 6c9a 273e 7341 0b3c
00000090: 316d 143d d0e9 9abd f60d 7fbd e88c 593e
000000a0: 7232 ebbd aa7f cc3c 7134 0a3d 1cd6 df3c
000000b0: 89f1 663d 96a5 f23d 5285 62bd 029e 303e
000000c0: 7071 123e 49c2 55bd 912f 0c3e aef2 cb3d
000000d0: 3d6d ba3d d108 df3c 44fe 12be f352 483d
000000e0: 21e1 65bd 98e4 5cbc b556 023d 01a4 303d
000000f0: 0ef2 b1bc fec5 663d 5386 5d3d e594 c03c
00000100: 2ac5 273d 2900 29be 73ae 7d3d a362 b7bd
00000110: 4509 8cbd 05b2 d43d 4437 6fbd c141 8bbd
00000120: c2f8 0ebc ae11 dbbd f279 e33c ca45 cabd
00000130: 81ac 0fbd 9137 bcbc f0cc 0c3e 48d5 09bd
00000140: 8697 09be 2aa4 f4bc 4f0e d73d d583 86bd
00000150: 73cf 153e 28b3 6b3d a318 6a3d 96e2 01bd
00000160: 6534 5d3c e03d 84bd e05d dfbc caf1 cc3b
00000170: 9c38 cf3d 994c babd 1d6f 77bc 7b73 bebd
00000180: 31f0 943d e26b 853d 41fe 013d 48b2 4f3c
00000190: c922 31be e407 f1bb 1823 47be 088a b63d
000001a0: 5af9 d33c 6f76 2abe 12ad b9bc cc8b cc3d
000001b0: 5904 58be 2c66 d43c 8914 ea3c 35cd bebe
000001c0: df0d b63d 5960 b4be e833 113d 54ea 9b3c
000001d0: 0294 07be 21d5 e93d 8201 cebc adcc 893e
000001e0: 9a2a 5e3d 55a4 303d 9fc6 21bc c741 61be
000001f0: 6334 9a3d 143f 6c3e 2f6d 26bd f06c 183d
00000200: 624e ccbd c8db 483e ee99 6b3d 4260 943c
00000210: e07b 423e aa96 16be 5509 5dbe fd87 6dbe
00000220: 6976 873c 714b 59bd dfe8 3bbe 597e 0ebe
00000230: 74e3 b43d 20ad 24bc 6343 243c 7e60 bfbc
00000240: d9f5 5dbc 3586 34be 51c9 19bc 6df4 31bd
00000250: e3bd be3b 04ac 2bbc dab6 173e 0f07 8fbe
00000260: 32fb 87be 5f04 f6bc a191 6cbd 55a6 193e
00000270: a1e2 ac3d 0773 a7bd 6eba cf3e 880c e6bd
00000280: be88 26be c49d 433d 449a 733d 38af 1cbd
00000290: abaa 28bc f290 2bbe e0e5 9e3d 152f 723e
000002a0: 0802 eebd 91ff 1a3c e8ca 2c3c ae51 debb
000002b0: b055 60be 8537 0c3d 1ccf 363c 60ad 71bd
000002c0: 48f7 96be 03ab 2b3d be24 04be 5fe1 7dbd
000002d0: 0593 0c3d d8b0 b03c 5f1a 30bd 3ea3 87bd
000002e0: e5fc b83d 9f4d 5d3c ea97 8c3a 9c98 693e
000002f0: 4b14 b5bc c6f8 32bd 74a6 61bd 23a4 a1be
00000300: b7c8 173e 5e7e 843e 745e c1be 6a25 66be
00000310: af81 3c3d 52cf 36bc a8b6 a13c 11c0 943c
00000320: 963a d63c a706 c03c f5f1 3cbd deee 0b3d
00000330: cd9c 28bb 8fe5 9e3d c2d4 c33b f9ee f73c
00000340: 02ab cb3d 920b b33c e1db dbbc 2f87 1fbd
00000350: f4ce b0bd 3f50 9f3d 0441 72bd a18a cc3c
00000360: 3a78 4dbd f877 33bd 0ac2 323d 1826 9a3d
00000370: 1bda 9eba 6e70 a13d 4967 f3bc abb8 813c
00000380: 4892 a63d 30c7 c4bd 3d39 bc3b 1827 813c
00000390: bde2 17bd 0e65 a5bc ee3b d43c fc2a 423c
000003a0: fefd 83bd dbd8 51bb ba71 e23d 4cf3 babc
000003b0: 5d3d aa3c c5e4 b23d ca51 4abc 7637 efbb
000003c0: 1866 e53c 37f5 10ba e942 02bc 31e5 f039
000003d0: 8530 12bd c2e8 14bd 7e97 3f3c a195 d53c
000003e0: c1ec 353b 010e 7bbc 2631 b63c 18a1 0bbd
000003f0: ffa2 09bc bd7b 8bbc 6bda c5bd 6f03 813d
0.17078575 0.11729424 -0.0558316 -0.16038157 -0.020264555 0.114254944 -0.0684728 -0.19666673
-0.10391222 -0.016947262 0.01965524 -0.04548518 0.05416163 0.07096849 0.12704875 -0.021431636
0.14303148 0.12577327 0.069251135 -0.016384717 0.043514803 0.029962987 -0.095700726 0.0018002237
-0.04887959 0.011717827 -0.057404317 -0.089642674 -0.03600419 -0.07852184 0.051986847 -0.06466665
-0.060578886 0.099445656 0.16367501 0.008499491 0.036236946 -0.075641274 -0.062269174 0.21245158
-0.11484231 0.024963219 0.03374142 0.027323775 0.05638269 0.11847989 -0.055302925 0.17247775
0.14301085 -0.052187238 0.1369002 0.09958397 0.09102867 0.027225884 -0.14354807 0.04890723
-0.056122903 -0.013482235 0.03182097 0.043125156 -0.021721866 0.056341164 0.05408318 0.023508498
0.040959515 -0.16503967 0.061933946 -0.0895436 -0.068377055 0.10385517 -0.058402315 -0.06799651
-0.008726301 -0.106967315 0.027768109 -0.098765925 -0.035076622 -0.022975715 0.13750052 -0.033650666
-0.13436708 -0.029863436 0.10500776 -0.06568114 0.14629917 0.057543904 0.0571524 -0.03171023
0.013501261 -0.06457114 -0.027266443 0.0062544094 0.10118219 -0.09096641 -0.015102175 -0.0929937
0.072723754 0.06514718 0.031736616 0.012676783 -0.17298426 -0.007355677 -0.19446981 0.08913046
0.025875736 -0.16646741 -0.022665534 0.09987602 -0.21095408 0.025927626 0.028574245 -0.37265936
0.088893645 -0.35229757 0.035449892 0.019032635 -0.13240054 0.11417604 -0.025147203 0.26913968
0.054239847 0.04312547 -0.009874015 -0.21997748 0.07529523 0.23070937 -0.04063147 0.037213266
-0.09975888 0.1961509 0.057519846 0.018112306 0.18992567 -0.14705911 -0.21585591 -0.23196407
0.016535955 -0.053050462 -0.18350552 -0.13915385 0.08832446 -0.010051042 0.010025832 -0.02336144
-0.013547384 -0.17629321 -0.0093863765 -0.043445993 0.005820976 -0.010478023 0.14815846 -0.27935073
-0.26558834 -0.030031381 -0.05775607 0.15004857 0.084416635 -0.081762366 0.40571922 -0.11232859
-0.162631 0.04775788 0.05947329 -0.03825304 -0.010294597 -0.16754511 0.07758689 0.23650773
-0.11621481 0.009460346 0.0105464235 -0.0067846393 -0.21907687 0.034232635 0.011157777 -0.059003234
-0.29485536 0.041911136 -0.12904641 -0.06198251 0.034319896 0.0215687 -0.0429939 -0.06622933
0.09032611 0.013507276 0.0010726426 0.22812122 -0.022104403 -0.04369428 -0.055090383 -0.3157054
0.1482266 0.2587766 -0.37767375 -0.2247521 0.046022113 -0.011157827 0.019740418 0.01815799
0.026150983 0.023440672 -0.046129186 0.03416335 -0.0025728226 0.077586286 0.0059762904 0.030265318
0.099447265 0.021856103 -0.026838245 -0.03894728 -0.08633223 0.077789776 -0.059144035 0.024968447
-0.050163485 -0.043815583 0.04364208 0.07526797 -0.0012119444 0.078827724 -0.029712336 0.015835127
0.0813337 -0.096083045 0.005744128 0.015765712 -0.03708147 -0.020189788 0.025907483 0.011851069
-0.064449295 -0.0032020125 0.11056848 -0.022821091 0.020781213 0.087350406 -0.012348602 -0.0073003126
0.028002784 -0.0005529704 -0.007950523 0.00045947128 -0.035690803 -0.036354788 0.011693833 0.026072325
0.0027759525 -0.015323163 0.022240233 -0.034089178 -0.008400678 -0.017026776 -0.096608005 0.06299483

encode.4.weight f4 [6, 100]
00000000: 492c 203c 99ae 83be a577 a53a 37e9 23bb
00000010: 625d 1b3d 100c 2bba 33ae cab9 7803 4abd
00000020: f4a5 7038 7e82 0dbd 9e1e 18b9 2561 7aba
00000030: 32fe 40ba 470b 7bbd e5f7 ddbd ceb7 d3bc
00000040: 1809 1ab6 0559 113d f6e3 4d38 189c 7e38
00000050: 544e a539 bea5 8f3d 79b6 04ba efd6 9838
00000060: 0fe7 f539 76ce 9b3a e819 8fb7 cc6f 5539
00000070: 59c5 ca3d fd98 413a 3a8f e237 9c68 e4b8
00000080: 4b35 9eba a83d d638 fa5c 833e 77ed 14ba
00000090: f9db 82ba 98e4 de3a ce16 0fb8 fda7 3038
000000a0: 0067 e739 4ea2 d5ba 2619 3d3e 09b0 913a
000000b0: bc2f 09ba f072 a23d d85b 0a3c ea03 29be
000000c0: 1f28 93ba e4af 11be 0325 a639 dffe d5b9
000000d0: faa9 2139 f438 b039 19e4 463a 7ef5 8a3d
000000e0: 9ffa 213e e2d7 bebd 2fbf 373a 993a 33ba
000000f0: bd88 c4bd 017f 1bbd 5e1b 393a 62c6 c1ba
00000100: 6a1f 80b9 ef80 59b9 c280 983a 902d a83a
00000110: 6c6f cc3a cb54 08bd 9d81 50bd 3a77 92ba
00000120: 9169 9b39 ed3c 7fbe 08f7 793a b8b2 01ba
00000130: 2538 913a a9f1 a5ba 717b 2dba 3484 7fba
00000140: 17b7 0bb8 9bed 5ab9 5903 42bb 726e 443e
00000150: e82b 33ba de7c d13a 765c fbb9 cef0 513d
00000160: d0d2 4ebe 714b fc39 940f 4fba 0f4d c838
00000170: 1c6a b037 4e48 fb3c b4db a83a 07c3 f139
00000180: 1d22 923d 3804 43b9 3dd2 f0b9 83db 62b9
00000190: 411e 103c 1c69 28bd 446d de3b 7cb7 f03c
000001a0: 7a6d 4cbd eb9e 06bc f613 083c 6899 e6bb
000001b0: 7cf9 a0bb ddcc 993d 61eb 21bb 6a73 e4bb
000001c0: 077f 22bc b844 85bc 41f8 e0bc 3d46 243d
000001d0: 90f3 493c ea86 19bd a214 3fbc 5b6d a5b8
000001e0: a024 c73b e97b 4cbd 5ef5 1c3c 8793 12bb
000001f0: beec 0fbc be3e b7bb df24 b73b c7ce 8c3b
00000200: 3ad8 743d d527 0cbc fd48 a23b fec2 3a3c
00000210: 5bd8 dbba dad3 a4bb 6c0e dd3c d629 f13b
00000220: 4a5d 513b ade7 c3bc e939 a1bb a669 663b
00000230: be3a 7e3b 935d 74bb 11e4 8abc 98af 9abb
00000240: dc1d 6e37 ff83 053d 2e50 12bb 0958 7abd
00000250: dc84 85bb d16e 6d3d 8113 0cb9 6f66 f8ba
00000260: 7522 173c 753c c13b cd5e a6bb 0a07 583c
00000270: b0de 08bd f69d 1b3d 777e 78bb 8da7 f83b
00000280: e09a 84bc 67a7 28bd fd39 033b aa44 0fbc
00000290: 25e7 80bb eb1a 093c 13df 17bb cf14 463b
000002a0: 2de2 173c ec99 6f3d f6c4 8cbb 82c6 063b
000002b0: b23e 3c3c f14a 103d f0f5 0dbc d35d 0e3c
000002c0: cf3e fcba ad9c 073d d644 1b3c dc59 78bb
000002d0: e985 feba b3a3 78bb 29ef 59bc 542c febb
000002e0: 0f4c a4ba a12c c83a f419 0e3c 9320 113d
000002f0: 6645 52bd fdd1 b8ba 1c58 283c dca7 bcba
00000300: 86ee a53a 6a55 28bc ff11 94bd cc2a e8bb
00000310: d0e6 aa3c d010 0bbc fe6d 5f3a 87a3 26b9
00000320: 33c1 d4bc c49e d53c e27c ffba 8c60 07bb
00000330: cade 013e 318b 6a3a 3eaf 883a 00f3 3dbd
00000340: 9717 4fb9 cf5a 0a3e a669 2e3a 055a a63a
00000350: 748c b43a 0421 81be 04c5 b53e 7c6c 8cbd
00000360: aef0 94b8 0cc9 cc3c 6ff5 8739 c5d6 6539
00000370: 7bba 9d39 3a69 8cbd 4852 f239 369d 0cba
00000380: d6b0 93ba 7ea0 e4ba d2ee 1e3a 27b1 d1b9
00000390: 63f9 253e 0c93 81ba 66d0 a4b8 3f28 0eba
000003a0: 65b1 ae3a fa12 ee38 368f c33c 2d14 393a
000003b0: 7eec e03a 89e6 67be 0911 48ba 076a 6d3a
000003c0: c2b1 69ba 52c3 233b 9ad4 783e 189f 57ba
000003d0: e66e 2d3a 111d 83bd 7580 573d 5826 293d
000003e0: 1e6d c53a f2a8 82bd 16de 92b9 51ba 333a
000003f0: d0a7 3236 a455 45b9 eb28 60ba 3dea 73bd
0.009776183 -0.25719145 0.0012624158 -0.0025010833 0.037930854 -0.000652493 -0.0003865823 -0.049319714
5.7375015e-05 -0.034548275 -0.00014507255 -0.0009551219 -0.0007362097 -0.06129005 -0.10838298 -0.02584448
-2.2953081e-06 0.035485286 4.9088114e-05 6.0703693e-05 0.0003152961 0.07014035 -0.0005062591 7.287959e-05
0.00046902194 0.0011887092 -1.7058992e-05 0.0002035491 0.09900922 0.0007385163 2.7007995e-05 -0.00010891372
-0.0012070326 0.000102157996 0.25656873 -0.0005681137 -0.000998377 0.0017005382 -3.4115095e-05 4.211812e-05
0.00044136494 -0.0016298981 0.18466625 0.0011115085 -0.0005233248 0.07932079 0.008444749 -0.165054
-0.0011227167 -0.14227253 0.00031689563 -0.0004081642 0.00015417478 0.0003361177 0.000758709 0.06785105
0.1581826 -0.0931852 0.00070093846 -0.000683704 -0.09596393 -0.037962917 0.0007061268 -0.0014783854
-0.00024437468 -0.00020742764 0.0011635053 0.0012830961 0.0015597171 -0.03328399 -0.05090486 -0.0011174448
0.00029642557 -0.24925585 0.0009535407 -0.00049475906 0.0011079354 -0.0012660521 -0.00066178205 -0.0009747178
-3.33107e-05 -0.00020878615 -0.0029604046 0.19182757 -0.00068348506 0.0015982648 -0.0004794334 0.05125504
-0.20197606 0.00048121394 -0.00078987447 9.5510964e-05 2.1030246e-05 0.030674126 0.001288286 0.0004611241
0.07135413 -0.00018598221 -0.00045933007 -0.00021634814 0.008796276 -0.041115865 0.006787928 0.029384367
-0.049909092 -0.0082166 0.00830554 -0.0070373304 -0.0049125534 0.07509778 -0.0024706947 -0.0069717662
-0.009917981 -0.01626812 -0.027462127 0.040106047 0.012326136 -0.03748218 -0.011662634 -7.888182e-05
0.006077364 -0.049922857 0.0095799845 -0.0022365765 -0.008784471 -0.0055921962 0.005589112 0.0042971107
0.059776522 -0.008554419 0.0049525485 0.011399029 -0.0016772853 -0.0050301375 0.026984416 0.0073597236
0.0031946474 -0.023914183 -0.0049202335 0.0035158186 0.0038792337 -0.003728722 -0.016954454 -0.0047206394
1.4192858e-05 0.032596584 -0.0022325623 -0.061119113 -0.004074676 0.05796701 -0.00013358706 -0.0018951426
0.009224524 0.0058970996 -0.005077219 0.013185272 -0.033415496 0.03799244 -0.0037917176 0.007588333
-0.016187131 -0.041175272 0.0020023577 -0.008744398 -0.0039338046 0.008368234 -0.0023173734 0.0030224805
0.009270233 0.0584964 -0.0042959405 0.0020565097 0.011489557 0.03522772 -0.008664593 0.008689362
-0.0019244793 0.033108402 0.009476861 -0.0037895357 -0.001941857 -0.003793937 -0.013301649 -0.007756749
-0.0012534874 0.001527209 0.00867318 0.035431456 -0.051335715 -0.0014100667 0.010274913 -0.0014393288
0.0012659587 -0.010274271 -0.07229995 -0.00708518 0.020862013 -0.008487895 0.0008523165 -0.00015891912
-0.02597103 0.026076682 -0.0019492174 -0.0020656912 0.12682644 0.0008947133 0.0010428203 -0.04637432
-0.00019749846 0.13511203 0.0006653316 0.0012691623 0.0013774768 -0.252205 0.35501873 -0.06856629
-7.10202e-05 0.02499821 0.0002593207 0.0002191915 0.00030084312 -0.06856008 0.0004621914 -0.00053640024
-0.0011267911 -0.001744285 0.00060628087 -0.00039995575 0.16208415 -0.0009885742 -7.8589466e-05 -0.0005422867
0.0013328014 0.00011352259 0.023872 0.00070601964 0.0017160324 -0.22646536 -0.0007631933 0.0009056632
-0.00089147326 0.0024988246 0.24299851 -0.0008225306 0.00066159514 -0.06402028 0.05261274 0.041296333
0.0015062427 -0.0637988 -0.00028012757 0.00068560714 2.6621747e-06 -0.00018819288 -0.0008551019 -0.05954956

decode.0.weight f4 [100, 13]
00000000: 7da4 863d beed 083c 96f8 a5bd 19cc 193d
00000010: 06b0 8abe 8950 b9bc 5324 77be ff98 9a3d
00000020: c9d3 a7bd 9c34 213e 968c 503e 2234 b33d
00000030: 44f4 903c a74e 623d 0f7d 9e3a 75c2 42bd
00000040: 65f9 d3be 5213 1cbe 1075 bc3b 937d 3bbe
00000050: 888d 3c3e 22ac da3c e2d7 323e 8432 343d
00000060: 950c adbd f0e8 ae3e a8d0 35be 1fcc 22bc
00000070: 2c1a 063d f015 c4bc dffa 3dbd 5cbf 20be
00000080: 0790 69be 3440 6abe 3501 903e 1147 523e
00000090: 74cc 06be 9721 0a3d 4197 453e 11d4 1bbd
000000a0: 9926 3abc 5295 2b3d 0039 2f3e 7f6f c3be
000000b0: 6f8b 3abe e26f c33e 7406 a7bd aa76 ed3d
000000c0: f5f5 523e 346a 45be c1f2 0d3e 91a3 8ebe
000000d0: a79b a6b9 7e88 d939 3156 613a dc12 0a3e
000000e0: 1384 c53d 5745 57be 4308 4fbe 730c 13bd
000000f0: fb64 45bd eeaf 283e 44f5 7ebd bc5d 27bd
00000100: 2c91 523e ba40 68be b815 0fbc 4db2 733e
00000110: de93 26be 737e 19be b3f7 c0be 72b1 f43e
00000120: 8de6 843e eacd b0bd fc9a 27bd 6403 16bf
00000130: 2161 213e 3e6c 313e 2e98 533e 91a1 013d
00000140: a31f 0fbd 6268 d03e b911 c0be 2d9c 1b3e
00000150: 2450 fdbd b8f8 80bd 3b2d 7d3e b30c ee3d
00000160: fe87 dbbe 1b7f 3cbd f484 17bd 4aca 363a
00000170: 1534 a0b9 980c 0cba 4857 03bc a323 31bd
00000180: d79f 273e 9783 533d 02aa f53d 2cb8 893d
00000190: ae11 d8bd dbfa 3ebd effc 00be 2551 99bd
000001a0: cc81 88be 7347 723b dbe9 28be 102e 693e
000001b0: 8a80 93be 0b27 1bbe 1089 d13d 4f1e cfbe
000001c0: 45f0 653e 431e 71bd 3fda 93be a3c4 353e
000001d0: 1039 183e 14dd a0bd a05e 963d c4f6 a03e
000001e0: 90c1 3a3d b717 453e 66e8 3fbe 93d1 4b3c
000001f0: ef75 5a3d 8a8a 7fbc 6f3f 353e 4e6f f73d
00000200: e010 e9bd c924 bbbe a9b3 a83c 6166 21ba
00000210: 9ad7 ea3b 55fc 36be d380 b83a 77db e6bd
00000220: cc11 e4bd 8eb0 483e 1c0b 30be a7df 793b
00000230: 8e81 bc3e c186 2ebe 5981 503e b46a 773d
00000240: a132 063c 97f2 b13d ca62 f7be ff44 e23e
00000250: 7bae 343e a778 9ebd 203f 40be 06f7 f03d
00000260: dbfa 6abe 9ee4 b43e 129d bfbc 6db0 5d3a
00000270: ae02 523a 8034 a5ba 78d9 0238 3e51 bebd
00000280: 07d3 f43d 8216 91bd 2a91 303e d4de 8bbe
00000290: 3f06 0f3e 11ad 9fbd 2ebc 65bc 8672 f23c
000002a0: 9e8c 873d dbf9 6e3d 7039 163d 373c cf3e
000002b0: f751 4d3d e5d6 9ebe 8273 fcbd 9d58 08bf
000002c0: 6fcf 32be 0961 043e 0177 c6be 8073 44be
000002d0: bbab 2d3c 1154 063e 8b9c 32bb 3088 48ba
000002e0: 2c7a 9cb9 7cf3 e0bb 3b9a f2bd cd45 92bd
000002f0: 74fa 30be 4f21 273e a244 af3c dcb2 6f3e
00000300: 701a 0a3b 7801 c73b 8694 87bd 152a a0be
00000310: e0c2 ffbb d228 583c 10fe b4be 1aba 36be
00000320: 3b31 0cbe f6f4 04be 10bb 21bd 7bdd babe
00000330: 99d1 99bc 6665 25be 89ff 9ebe 63d7 4dbe
00000340: 8415 28bb 93e6 7b3b ac99 a4bb e31e 293c
00000350: d4df 543d 4868 863d e445 b0bc a3c6 0b3d
00000360: 13aa 0bbd a638 0ebe 25db 8d3d 0814 0e3e
00000370: cb21 3cbe 26f8 493e a859 b13b 00fb 403e
00000380: 867d ce3e 9c0d 42bd 9076 97bc 24c1 6f3e
00000390: 3b2e e4bd 18ea 7bbe c5e8 e63d c625 82be
000003a0: 49b4 913e d4db de3c 9453 ee3c e971 7dbb
000003b0: 0d87 c43c b8f3 b83e 65c9 d93d 9053 28be
000003c0: 4968 0abd c567 3b3d a2da 82be 5f6d 43be
000003d0: 774a c8bc d280 173e c732 10bc 6453 b73e
000003e0: 42e6 a4bc ddff f1bd 4c47 623e 07dc b0be
000003f0: 5448 2abe 208c d03e fee6 a93d df5c 2e3e
0.065743424 0.008357463 -0.08104055 0.03754816 -0.2708742 -0.02262141 -0.2413495 0.07548713
-0.08194692 0.15742725 0.2036613 0.08750178 0.0176946 0.05525079 0.0012091714 -0.04754873
-0.4140121 -0.15241745 0.0057512596 -0.18309622 0.18413365 0.026693407 0.17465165 0.043993488
-0.084496655 0.34162092 -0.17755377 -0.009936362 0.032739803 -0.023936242 -0.046381827 -0.15697998
-0.22808848 -0.22876054 0.2812592 0.20534922 -0.1316393 0.03372344 0.1929598 -0.03804404
-0.011361741 0.04189045 0.17111588 -0.38171002 -0.18217252 0.38171297 -0.08155528 0.11594899
0.20601638 -0.19278795 0.13862135 -0.27859166 -0.00031777957 0.0004149116 0.00085959124 0.13483757
0.09644332 -0.21022545 -0.20217995 -0.035900544 -0.048192006 0.16473362 -0.062245622 -0.040860876
0.20563191 -0.22680941 -0.0087332055 0.23798485 -0.16267344 -0.14989643 -0.3768898 0.4779163
0.25957146 -0.08633025 -0.04091929 -0.58598924 0.15759708 0.17326447 0.2066352 0.031648222
-0.03494228 0.40704638 -0.3751352 0.15196295 -0.12368801 -0.06297439 0.24724285 0.11623516
-0.4287719 -0.046019655 -0.03699203 0.00069728924 -0.00030556382 -0.0005342453 -0.008016415 -0.043246876
0.16369568 0.051639166 0.11995317 0.06724581 -0.10550247 -0.046625953 -0.12596487 -0.0748618
-0.26661527 0.0036968857 -0.16495459 0.22771478 -0.28809005 -0.15151612 0.10231221 -0.4045281
0.22454937 -0.05886675 -0.28877446 0.17750792 0.14865518 -0.07854667 0.07342267 0.31438267
0.04559475 0.19247328 -0.18740997 0.012440103 0.053335126 -0.015596995 0.17699979 0.120817766
-0.11380172 -0.36551502 0.020593481 -0.0006156918 0.007166815 -0.17869695 0.0014076479 -0.11272328
-0.11136207 0.195986 -0.17191738 0.0038127692 0.36817592 -0.17043592 0.20361842 0.060404494
0.008190782 0.086888485 -0.48317558 0.44193265 0.17644684 -0.07737856 -0.1877408 0.11765866
-0.22947256 0.3533067 -0.023390327 0.00084567704 0.00080112636 -0.0012604147 3.119695e-05 -0.092928395
0.11954313 -0.07084371 0.17242876 -0.27318442 0.13967226 -0.07796682 -0.014021916 0.029595625
0.066186175 0.05834375 0.03667587 0.40475628 0.050126996 -0.31023327 -0.12326719 -0.53260213
-0.17461942 0.12927641 -0.38762668 -0.19184685 0.010600026 0.13118006 -0.0027253951 -0.0007649688
-0.00029845664 -0.006864963 -0.118458234 -0.0714222 -0.1728304 0.163213 0.021395031 0.23408073
0.0021072887 0.006073173 -0.066201255 -0.31282106 -0.0078052133 0.013193326 -0.35350084 -0.1784443
-0.13690655 -0.1298407 -0.039485037 -0.364971 -0.018776702 -0.16151962 -0.31054333 -0.20101695
-0.002564759 0.0038436993 -0.005023202 0.010322305 0.05197127 0.06562859 -0.021517701 0.03412498
-0.034097742 -0.13888797 0.06926564 0.13874829 -0.18372266 0.19723567 0.005412299 0.18845749
0.40330142 -0.04737626 -0.018489152 0.23413521 -0.1114163 -0.24601018 0.11274866 -0.25419444
0.2845786 0.027204432 0.029092588 -0.0038672632 0.023990178 0.36123443 0.10634116 -0.16438127
-0.03379086 0.04575326 -0.2555743 -0.1908469 -0.02444957 0.14795235 -0.008801169 0.3580581
-0.020129327 -0.1181638 0.2209751 -0.34542868 -0.16629153 0.40731907 0.082960114 0.17027615

decode.2.weight f4 [100, 100]
00000000: d7b2 95bd b70e 1a3b dc66 78bd b063 8f3d
00000010: 70fc eb3b 0297 47bd 6189 87bc 2f70 ddba
00000020: d471 05ba cfa3 e1bb 7499 eabb c3cb 973a
00000030: ad71 fcba a5d9 9fbc 5e3f 80bd c53d e03d
00000040: 13da 603d 5cd1 373d 16c1 18bb 3437 7cbd
00000050: f0d2 333d 49a1 92bd 3e10 9e3c c192 e03c
00000060: e479 b1bd 25a9 30bc 154a 43bd c088 07bc
00000070: 6c11 25bd 1138 04bd c602 b83c d7a6 b2bd
00000080: 765b 183d 5355 413d 957c ea3c 2029 a03c
00000090: 9a85 ec3c cb55 9dbd f523 67bd 0d5b 613c
000000a0: 7aed 4cbd a161 173c 35b5 99bc 3b3b bf3c
000000b0: 6088 e8bc 6b60 b6bc 67a7 67bd d63f f139
000000c0: 4138 073e d8bb dd3c bf8e 5bbc 145b 61bd
000000d0: 33ef 47bd e13a 463d 211e a53b 9476 543d
000000e0: 4228 78bc 242f 06be 5285 60bc 8240 ccbd
000000f0: fe3f 443d 3f6c f33c 326b a2bb b610 b0bd
00000100: f517 4ebc c8cf 09bd 13e0 0dbc dbe7 19bd
00000110: bc80 a53d c5aa 97bd 17b6 9a3d e6ac 9f3d
00000120: fe14 9ebd dedc 4b3d 021a 523d 2747 943b
00000130: ad41 873d 4637 e2bb 743c 81bd 8b60 01bd
00000140: 8577 d1bc e3ce 5fbd d726 553d 361b ce3a
00000150: 6035 a0bd beaf 8a3d 391b 24bc 79a3 61bd
00000160: deec 6abd c133 ae3d ac72 61bb 3a15 01bd
00000170: 82df a83a 1df7 89bc ab6c c0bd 1932 713c
00000180: ded9 cbbb 6536 483c 3e61 14bb 8d65 d93c
00000190: 6b36 72be 5331 803d fc72 793c 0651 133d
000001a0: 4b37 b23c 06bc 753e 3a3a cebe 5149 01bd
000001b0: 8355 70bd 8585 083c d576 353c 3d31 32be
000001c0: 0c2c 073c 5a23 b43d 2077 21bc 0baf 1b3c
000001d0: ba00 d6bc 166a 72be 760e b93d cc9f 9cbe
000001e0: f72a 06bd 2616 833d 6bf8 ce3d 0c3e 553d
000001f0: 5a83 cc3c 77be 043e c18b 27be 1d83 b03c
00000200: 1204 093e d907 103c b724 74ba 17fd 413e
00000210: aacd 9dbc 11b6 9dbe 4b1d 953d c77d dabd
00000220: e77c 0d3d 66f6 33bc 922e 24be 4335 333e
00000230: 5115 3c3d 6ba4 03be 83b7 d1bc 19ae ecbb
00000240: 3712 5cbd 2296 1abd 4128 ff3b 4657 2a3c
00000250: 8cf2 24bd 4d87 88bc 3e0f 6bbe d91d 0e3e
00000260: 8004 abbc 957d 83be 333f 1b3c 5fe9 b13d
00000270: f3be 23bd 4116 04be e870 0fbc 58b0 b339
00000280: 6499 5ebd dc7b ba3d 24b2 87bd 7702 9fbd
00000290: 1e83 95bd 4514 cbbd 8434 bfbd 667f 883c
000002a0: 62ec 243d 05ca 9dbd c948 45bd d9a7 c6be
000002b0: 505b c73d 1368 e8bd 1d56 1fbe 03ac 8cbe
000002c0: c0dc e23d c7d0 2d3d b768 1cbb ada0 bcbe
000002d0: a6db ccbe e31c 1abe 343e c93d df03 a53d
000002e0: d6e0 70bc 5d7d 42be 55f3 73bc 8a9c f0bd
000002f0: aa4a 7a3d 6296 82bd 26d0 1ebb 151b af3b
00000300: 693a 48be 1c10 723e f5f1 debd 3298 4fbe
00000310: d2e4 84be 412f abbd db41 35bd 8a4f 283d
00000320: 2c68 62bd 9132 863c e1a5 6c3c 064b 03be
00000330: 6f51 6f3c a466 f7bb 1f40 18bd 0aca 123b
00000340: 3986 3cbd e7c5 053d f0a8 993d 8cec d63c
00000350: cc77 68bd f677 54bd 233e 523d e202 bebb
00000360: 718b 843c 68ce 9abd b8f5 973d cb56 123d
00000370: 4aa8 5a3d c692 b53d 28db 0d3d 1df1 c73c
00000380: c059 5cbd 20c8 d33b f2cb b33d 8b04 2a3c
00000390: 4f5a 35bd 556b 363d 8125 26bd 454c a93b
000003a0: 74d6 c93c 46f9 f6bb de82 d93c 8790 f83a
000003b0: 4db0 f73c 1aa1 fcbc 67c5 6ebb c3c1 53bd
000003c0: 7e4f 1abb c0f0 03bd b90c 8bbc 9623 1dbd
000003d0: 9b57 7a3d a73b 93bc 960f b1bd e1ec 10bd
000003e0: aef9 cbbc 0089 54bd cbb0 11bd f49e f9bc
000003f0: e363 963c ff16 213d 5dff ca3c 8705 59bd
-0.073095016 0.0023507306 -0.06064497 0.07001436 0.0072017238 -0.048727997 -0.016545 -0.0016894395
-0.0005090509 -0.0068859826 -0.0071594063 0.0011581111 -0.0019259952 -0.01951296 -0.06262086 0.109492816
0.05489547 0.044877395 -0.0023308448 -0.061576083 0.043902338 -0.07159669 0.019294854 0.027413728
-0.08665827 -0.010782515 -0.047678072 -0.00827235 -0.040299818 -0.03228003 0.02246226 -0.087232284
0.0371966 0.047200512 0.028623858 0.01955086 0.0288723 -0.07682379 -0.056430776 0.013754618
-0.050031163 0.009239585 -0.018763164 0.023343673 -0.028385341 -0.022262773 -0.05655613 0.00046014664
0.13205053 0.02706711 -0.013400733 -0.0550185 -0.048812103 0.048395995 0.005038992 0.051870897
-0.015146317 -0.1310392 -0.013703661 -0.099732414 0.04791259 0.029714702 -0.0049566263 -0.08596937
-0.012578954 -0.03364542 -0.0086593805 -0.03757463 0.08081195 -0.074056186 0.07554262 0.0779665
-0.07718848 0.049771182 0.051294334 0.0045250836 0.066043235 -0.0069035618 -0.06310359 -0.03158621
-0.025569687 -0.054640662 0.052038994 0.0015724662 -0.078226805 0.067718014 -0.010016256 -0.05508754
-0.0573548 0.08505965 -0.0034400625 -0.031514384 0.0012883993 -0.016841466 -0.09395727 0.014721417
-0.00622104 0.01222 -0.0022640969 0.026537681 -0.23653571 0.06259408 0.015225168 0.03596594
0.021754881 0.23997506 -0.40278798 -0.03156406 -0.0586753 0.008332615 0.011075695 -0.17401595
0.008250248 0.08795805 -0.009855062 0.009502183 -0.026123393 -0.23673281 0.09035961 -0.30590665
-0.03275582 0.06400709 0.10105976 0.052061126 0.024964977 0.12963282 -0.16361906 0.021546895
0.13380459 0.0087909335 -0.0009313332 0.18944202 -0.019263107 -0.30802968 0.07280978 -0.106685214
0.034542944 -0.010984039 -0.1603339 0.17500786 0.045918766 -0.12855689 -0.0256002 -0.0072229025
-0.05372831 -0.037740834 0.007786781 0.010396784 -0.040270373 -0.016666079 -0.22955033 0.13878573
-0.02087617 -0.2568175 0.009475517 0.0868709 -0.039977025 -0.12899114 -0.008754946 0.00034272927
-0.054345503 0.091056556 -0.066257745 -0.07764142 -0.07300399 -0.099159755 -0.093361884 0.01666231
0.040264495 -0.07704548 -0.048165116 -0.38799933 0.09734213 -0.113479756 -0.15560193 -0.27474985
0.11077261 0.042435434 -0.0023866126 -0.36841336 -0.40011328 -0.15050082 0.098263174 0.08057379
-0.014702043 -0.18993135 -0.014889558 -0.117486075 0.06110636 -0.063763395 -0.0024232953 0.0053438046
-0.19553532 0.23638958 -0.108859934 -0.20272902 -0.25955826 -0.08358622 -0.044252258 0.04109148
-0.055275127 0.016381534 0.0144438455 -0.12821588 0.014606818 -0.0075500775 -0.037170526 0.0022398257
-0.046026442 0.032659438 0.075029254 0.026235841 -0.056754872 -0.051872216 0.05132879 -0.0057986835
0.016179772 -0.075589 0.07419914 0.035727303 0.05338315 0.088658854 0.03463283 0.024406964
-0.05379653 0.0064630657 0.08779134 0.01037706 -0.044275578 0.044535954 -0.04056311 0.0051665627
0.024638392 -0.00753704 0.02655166 0.0018963971 0.030235434 -0.030838538 -0.003643358 -0.051698457
-0.0023545916 -0.03221202 -0.01697384 -0.038364016 0.061118703 -0.01797278 -0.08645551 -0.035382155
-0.02489933 -0.051888466 -0.035568994 -0.030471303 0.018358177 0.03932857 0.02477997 -0.052983787

decode.4.weight f4 [1, 100]
00000000: 8cb2 9fb9 128c 4bbd 44f2 7eb9 efc0 2f39
00000010: 5107 31b9 3a3c e5b9 50e5 db39 7eea a33d
00000020: 5c58 cfb6 bead ce37 7989 d4b9 35d2 f439
00000030: 9901 c4b9 57aa 8038 491d 8fb9 c2f8 02ba
00000040: 92ca 943d 2446 9c3d 51cb e539 541e b1b9
00000050: d1de 4dbc 30c8 01b9 427a 083a 3cbc 0eb8
00000060: 2336 72b9 03f8 56b9 c0e9 063a da2a 8039
00000070: 1b5d ceb8 3847 a139 2560 34ba b242 5dba
00000080: ffaa 0fb8 fabf 4d3a 0bf5 8cbd 475a 5f39
00000090: c065 b2b9 53e6 0e3a a77a bb3c 7d0e 003a
000000a0: fd11 403a 35c2 1e39 095d 26ba 2158 41ba
000000b0: 4505 29ba fe33 4ebd d5dc eab9 dec3 adb9
000000c0: ee52 38b7 c826 68bd cfb8 4139 1c5a 4eba
000000d0: c627 2739 985f 43b6 0c2a 5a39 bf40 e83c
000000e0: f183 d7b9 bb4e c6bd 3f4d 4fbd 1524 4c3a
000000f0: 7f36 913d 7328 b139 67f6 7dbd a0ae 4e3d
00000100: 192a 733d fd83 7139 e148 5cb9 9ce8 46b9
00000110: b6c3 1bba afff 6f3d 087b b6ba 214b 21b9
00000120: b43e f0b8 2bcb 773d 0b54 8eb9 cc3e acb9
00000130: cc97 9939 5cbc 1139 a336 133a c19f 93bd
00000140: 9c9f 4ab9 a58a 1fbd 18f7 fd36 174c 28ba
00000150: 74cb 513a ea04 283a 430f dc39 27ef dfb9
00000160: fe38 3939 172f 24b9 94d1 c83d f77c 1bb9
00000170: 295c 9b38 3609 3fba ac1e 8bbd 07d0 bc38
00000180: 656d 0339 c51d 2f3a 3419 91b9 94b1 adb9
-0.0003045987 -0.04969413 -0.00024313579 0.00016761174 -0.00016882761 -0.00043723156 0.00041941786 0.0800371
-6.179367e-06 2.4638019e-05 -0.00040538216 0.00046695923 -0.00037385224 6.135244e-05 -0.00027296905 -0.0004996174
0.072652 0.07630566 0.00043829766 -0.00033782667 -0.012565331 -0.00012376974 0.0005206206 -3.4030745e-05
-0.00023099086 -0.00020501022 0.0005146526 0.0002444599 -9.840188e-05 0.00030761375 -0.0006880782 -0.00084404193
-3.425311e-05 0.0007848736 -0.06882676 0.00021300568 -0.00034026615 0.0005451191 0.022885634 0.00048849714
0.0007326899 0.00015140402 -0.0006346261 -0.0007375498 -0.00064476236 -0.050342552 -0.0004479649 -0.00033143064
-1.0986563e-05 -0.05667761 0.00018474761 -0.0007871704 0.00015941178 -2.9112907e-06 0.00020805764 0.028351186
-0.000411063 -0.096829854 -0.050610777 0.0007787359 0.070904724 0.00033790208 -0.062002566 0.050459504
0.05936632 0.0002303272 -0.00021007984 -0.00018969405 -0.0005941944 0.05859345 -0.0013922164 -0.00015382144
-0.00011455771 0.06049649 -0.00027146967 -0.00032853184 0.00029295532 0.00013898447 0.00056157465 -0.07208205
-0.0001932368 -0.03895058 7.568753e-06 -0.00064200297 0.0008003034 0.00064094237 0.0004197304 -0.00042712057
0.00017664206 -0.00015657801 0.09805599 -0.00014828505 7.408142e-05 -0.00072874443 -0.067929596 9.003287e-05
0.00012533886 0.0006680156 -0.00027675333 -0.00033129437
