Quantum/2 qubit/complete/models/1_latent.pt (torch, 108327 bytes, 6 tensors)

encode.0.weight f4 [100, 30]
000000 5c 63 65 bf 84 5b 6f bf 1f f7 3c be 3e ac 13 40
       -0.89604735 -0.93499017 -0.18453644 2.3073878
000010 46 ac e4 bf 73 86 15 c0 3f 94 ae 3d 71 1b 69 be
       -1.7865074 -2.3363311 0.085243694 -0.22764374
000020 e8 a0 eb 3e 00 ba 52 c0 77 e0 4f be dd 74 5c 3f
       0.460212 -3.2926025 -0.2030047 0.8611582
000030 06 d4 23 bf b8 ca 95 bf ea 50 09 be 00 a9 9d 3f
       -0.639954 -1.170249 -0.13409773 1.23172
000040 10 05 b1 be d4 b6 95 3f 9f 60 49 bf 73 cb d4 3e
       -0.34574175 1.169642 -0.7866306 0.4156147
000050 ab a0 27 3e 95 92 d8 3e 54 6d 4d bf 89 06 4e be
       0.16369884 0.42299333 -0.80244946 -0.2011968
000060 30 a0 f4 bf 45 c1 10 3f 60 dc 8a bf ef 2a b0 3f
       -1.9111385 0.56544906 -1.0848503 1.3763102
000070 be 3a 24 3f a9 2b 4a bf 88 6a 90 bf 0a ca 94 bf
       0.64152133 -0.7897287 -1.1282511 -1.1624157
000080 39 96 fe 3e 3f f8 71 3f 60 79 f3 be 5c 76 08 bf
       0.49723986 0.9451942 -0.4755354 -0.533056
000090 a0 c9 4d 3e 00 08 40 3e 8f 4f 06 3f b1 f4 1e c0
       0.20096445 0.18753052 0.52465147 -2.4836848
0000a0 4a ba d7 3d 93 5b a1 3f 8d f4 01 3f cf 11 83 bf
       0.10533579 1.2606071 0.5076378 -1.023981
0000b0 2e 02 33 bf 72 cb 35 3f 14 42 6e bf 7f 77 74 3f
       -0.699252 0.7101356 -0.9306958 0.95494837
0000c0 d8 1c 5a 3d ed db d8 bd c1 66 d4 3e 47 05 76 be
       0.053250164 -0.105888225 0.41484645 -0.2402545
0000d0 92 18 15 bf 61 47 c9 3e b8 07 ff bf 32 23 37 3f
       -0.58240616 0.3931227 -1.992423 0.7153808
0000e0 01 e9 1c 3f 0e c7 a9 3d 13 e8 bd bf 2f 6f 00 bf
       0.61293036 0.0828992 -1.4836448 -0.5016965
0000f0 91 5d 1a be 40 ae 87 3f ac 4f e5 be f0 1f 87 3f
       -0.15074755 1.0600052 -0.44787347 1.0556622
000100 e6 f2 f7 3d b1 62 1b bf ce 8c 91 be 23 77 0b bf
       0.12106876 -0.60697466 -0.28427738 -0.54478663
000110 cc 64 44 3e ee b0 8e 3e 68 fa 3d bf d3 9c 17 3e
       0.19179076 0.27869362 -0.74210215 0.14805917
000120 72 53 c5 be e7 1b 4b be 8f 57 d5 bd 82 56 4a 3f
       -0.38540226 -0.19834863 -0.10417091 0.7903825
000130 4b 9a ba 3e ee 16 be 3c c2 d1 df be 01 21 03 3f
       0.3644584 0.023204293 -0.4371472 0.51222235
000140 60 3e 2a bd 8e 67 06 3f ac 76 cd be 98 d6 2b be
       -0.04156339 0.5250176 -0.40129602 -0.1678108
000150 76 b1 89 bf af 96 fd 3d 61 ce 33 bf fe c6 5e 3f
       -1.0757282 0.12382256 -0.70236784 0.8702239
000160 47 f6 a6 3f 7d c3 d2 bf 36 1c b0 bd 5f ac 9b bf
       1.3043908 -1.6465908 -0.08599131 -1.2161978
000170 fd 04 24 3d a4 4f 11 3f 22 4a 18 3f 4e 0e da bf
       0.04004382 0.56762147 0.5948812 -1.7035615
000180 c6 5a 21 3f b6 d1 9b 3f 6a 98 0c bc 99 0d 78 3f
       0.63029134 1.2173374 -0.00858126 0.9689575
000190 a9 95 d0 be ff c8 7c be b5 40 04 be b9 72 dd 3e
       -0.40739182 -0.24686049 -0.12915309 0.4325159
0001a0 6d 58 89 c0 d1 07 3d 3f 75 d8 e8 be 1e ce 77 3f
       -4.292044 0.7384005 -0.45477644 0.96798885
0001b0 ac 76 3b 3e 43 76 1d be 6c 9f 09 c0 63 b5 44 bf
       0.18306988 -0.15377145 -2.1503553 -0.76839274
0001c0 f4 b8 0f 40 10 c9 57 3d 66 74 43 3f 6c 1d 4a bf
       2.2456636 0.052681983 0.76349485 -0.78951144
0001d0 bb f7 6b 3f f4 bd f9 be 66 b9 92 bf fb cf d4 3f
       0.9217488 -0.48777735 -1.1462829 1.6625971
0001e0 80 af 8e be 7a fa 3a 3f 1b b1 8e be 90 77 c5 3f
       -0.2786827 0.73038447 -0.27869496 1.5427113
0001f0 00 3d 43 be f5 31 4e bf cd 10 a5 bd 35 4e 40 bf
       -0.19066238 -0.8054498 -0.08059845 -0.75119334
000200 ff 90 8c 3e fd 2b 76 bd 4c 9b 34 bf 19 f4 51 3d
       0.27454373 -0.060100544 -0.70549464 0.05125818
000210 0a 79 90 be a6 44 38 3d ed 0c 5e 3e d5 50 15 3f
       -0.28217345 0.044987343 0.21684618 0.58326465
000220 76 5f 53 3e 26 d0 e9 3e e6 9b da be b8 d6 89 3d
       0.20641884 0.45666617 -0.42697066 0.067304075
000230 4a 81 0f be 20 e2 5f 3f af d6 89 bf 8a b9 0d bf
       -0.14014164 0.87454414 -1.0768641 -0.55361235
000240 f9 38 9c bf 1f 66 d5 3d ad 36 47 bf 64 1b 29 3f
       -1.2204887 0.10419869 -0.77817804 0.6605742
000250 f4 b8 cc 3f d3 c9 b1 bf 98 19 78 3d b2 00 dd be
       1.5993943 -1.3889717 0.060571283 -0.43164593
000260 dc 30 84 3f ca dc dd bf b5 94 37 be ae 57 39 bf
       1.0327411 -1.7333004 -0.17927821 -0.72399414
000270 f6 5b 8e 3f a1 72 f0 be 18 5c 5d 3f d8 31 8f bd
       1.1121814 -0.46962455 0.8646865 -0.06991929
000280 9b b4 28 bf c5 55 3e 3e 25 89 f2 3f 7f 7b ed bd
       -0.6590058 0.18587406 1.8948103 -0.11595821
000290 7e 31 38 3f 16 1f fa be 5c 6a 9a 3e 17 1f 9b bf
       0.7195052 -0.48851842 0.3015927 -1.2118863
0002a0 ea f6 8b bf 15 5f 38 bf 99 4d 87 3f dd 04 d2 bf
       -1.0934727 -0.72020084 1.0570556 -1.6407734
0002b0 08 b6 05 c0 fc a4 c6 3f ef 07 44 bf 40 2b a8 bf
       -2.0892353 1.5519099 -0.76574606 -1.3138199
0002c0 88 e0 8f 3f 00 bd 42 bf f8 47 d2 bf 7d c3 43 c0
       1.1240396 -0.7606964 -1.6428213 -3.0588067
0002d0 9b 85 2b 3f 06 9a 68 bf 74 85 ed 3d cf 93 c3 bf
       0.6700074 -0.9086002 0.1159772 -1.5279483
0002e0 8e d9 c6 be 8c 0b 8d 3e 1d a2 88 3e 65 a4 18 3f
       -0.38837856 0.27547872 0.26686183 0.59625846
0002f0 0c 87 a2 be 64 34 41 3d 96 8a 02 3f a9 c2 a7 3d
       -0.31743658 0.047169104 0.50992715 0.08191425
000300 d5 70 29 3f dc d3 13 be ca a5 07 3f a5 c6 50 be
       0.66187793 -0.14436287 0.5298735 -0.20388277
000310 1c 47 5b 3e dc 23 82 bc 6e 02 0f 3f 24 9d aa be
       0.21413845 -0.01588624 0.5586308 -0.33323014
000320 13 4a f4 3e eb 63 c2 be 0e 43 8a 3d 07 a8 4b 3f
       0.47712764 -0.37966856 0.06751071 0.79553264
000330 18 07 60 3f 3f f4 4a bf f6 b0 b7 3e 35 cd 84 be
       0.87510824 -0.7927894 0.35877198 -0.2593781
000340 16 06 bc bf 23 37 7d 3f f1 e9 98 3e 67 31 06 bf
       -1.4689357 0.98912257 0.29865983 -0.5241913
000350 9f 8f ba 3e 42 48 9a bf 25 5f 8f bd 95 81 1a be
       0.364377 -1.2053301 -0.07000569 -0.15088494
000360 7d dd df 3e ea 33 79 be c9 99 d1 3e ef 17 ba 3d
       0.4372367 -0.2433621 0.4093764 0.09086596
000370 c9 4c 9c bd 8b 5e 42 be 82 74 8d 3f 9e 02 3c 3d
       -0.07631833 -0.18981378 1.105118 0.045900933
000380 a5 75 b0 bd 49 70 03 bf e2 b3 0a 3e 20 12 51 bf
       -0.08616189 -0.5134321 0.13545182 -0.8166828
000390 71 9f 83 be d7 d5 34 bf 99 6e cf 3e ea 4d 5e bf
       -0.25707582 -0.70638794 0.40514067 -0.8683764
0003a0 ce 1d 7c bf e3 4d 7b 3f 5d 87 5c be 1b 7e 76 bf
       -0.9848298 0.9816572 -0.21536012 -0.9628617
0003b0 7d a4 26 3f 63 0a e3 be d0 4d a6 bf 8c 31 fc be
       0.6509474 -0.44343862 -1.2992496 -0.4925655
0003c0 44 0f 01 bf a0 9b 3b bf e7 f6 03 bf c1 38 0b 40
       -0.5041392 -0.7328434 -0.5154862 2.175339
0003d0 5a cb bd bf 39 2c 0a c0 ef 8c 22 3e 4c 6d ea be
       -1.4827683 -2.1589491 0.15874074 -0.45786512
0003e0 21 30 92 3e 26 93 42 c0 70 93 3b 3e 4d 67 23 3f
       0.28552344 -3.0402312 0.18317962 0.638295
0003f0 1d 81 27 bf 8e 33 c4 bf 0e fd 3f bf 1c 50 7d 3f
       -0.65431386 -1.5328233 -0.74995506 0.9895036

encode.2.weight f4 [100, 100]
000000 52 49 b0 bc 3b 2a 27 3c e6 17 75 3d 43 04 65 bc
       -0.021519337 0.01020294 0.059837244 -0.013978067
000010 f7 55 06 be 06 e3 2b 3d 65 07 8f 3a 11 b3 02 3d
       -0.1311873 0.041964553 0.0010912238 0.031909052
000020 37 6d 3f bd a6 ce 80 bd 8d e7 89 bc f8 3c 4c bd
       -0.046735015 -0.06289415 -0.016834045 -0.04986283
000030 4a 20 9f 3d 2e f8 18 bb 72 b3 40 3c 39 7f 8a bc
       0.077698305 -0.0023341286 0.011761533 -0.016906368
000040 77 09 9e 3d a4 51 81 3d 90 81 9d 3d ae d3 35 3e
       0.07716649 0.063144 0.07690728 0.1775653
000050 f8 b4 87 bc b7 5f 66 bd 80 93 23 3c 89 73 08 3d
       -0.016565785 -0.056243625 0.009983897 0.033313308
000060 5d f2 05 3d 95 92 ca bc 0d ac d8 3c ec 70 63 bc
       0.03270184 -0.024728099 0.026449228 -0.013881903
000070 9a 62 f6 bd de 65 4c bd f1 9a 5f bd 70 17 65 3d
       -0.120305255 -0.049901836 -0.054591123 0.055930555
000080 a8 fc 9f bd 5a c2 20 3e 9b 46 8a bd 29 cb 81 3d
       -0.07811862 0.15699139 -0.06751748 0.06337578
000090 a0 70 0c 3b 11 65 3f 3d 3b ca 56 bc 05 a7 97 bb
       0.0021429434 0.046727244 -0.013109739 -0.0046280646
0000a0 37 ec e2 bc d5 5c 8e 3c c7 27 21 bd 59 54 53 3d
       -0.027700527 0.01737825 -0.039344575 0.051594112
0000b0 b5 ca d9 3d 21 68 59 3c 6f 33 46 bb 28 9d fd 3d
       0.106343664 0.013269455 -0.003024306 0.12383491
0000c0 e4 15 fa bb c8 70 16 be 95 36 0b 3d 29 d0 0d be
       -0.007632004 -0.1469146 0.0339876 -0.13848938
0000d0 ee e4 15 3d a1 80 9e bd ed d3 4e bc d9 02 11 bd
       0.036595277 -0.07739378 -0.012623769 -0.035403106
0000e0 7f 2e 38 3d 47 6e 16 bd 75 13 08 be 29 38 73 3d
       0.044966217 -0.036726262 -0.13288672 0.05937973
0000f0 f2 b2 d7 bb 1a 38 56 3d 47 24 98 bd a9 31 e5 3b
       -0.0065826112 0.052299596 -0.07428794 0.0069944453
000100 ba bc 54 bd c7 35 9b 3c 1d 7f 92 3d 6a 1a c1 bd
       -0.051937796 0.018946541 0.07153151 -0.09428866
000110 a3 5e 57 3c 5e 57 dd 3d ae 7e 64 3d b9 57 6b bb
       0.013145122 0.108076796 0.055784874 -0.003591044
000120 d0 25 5e bd 8c c3 0f bd 43 2d 3f bd 4e 96 31 bc
       -0.05423528 -0.035098597 -0.046674024 -0.010839058
000130 29 78 0e bd b1 0c d4 bd c6 a7 b8 bd d4 aa c8 3c
       -0.034782562 -0.10353983 -0.09016375 0.02449552
000140 4b 71 e3 3d f0 64 5c 3a 0a 09 9e bb 14 36 38 bd
       0.11105593 0.0008407375 -0.004822855 -0.044973448
000150 2c 3d f8 bd 18 97 1f bc 9c c8 68 bd b0 71 4b be
       -0.121210426 -0.009740613 -0.05683194 -0.19867587
000160 08 f4 e6 bb 34 21 54 3d 98 57 db bd 32 7d 74 bd
       -0.0070481338 0.051789477 -0.107100666 -0.059689708
000170 1a 27 e9 3c c0 15 99 3d e7 a3 f8 3d d6 fb 86 3d
       0.028461028 0.074748516 0.12140637 0.06591003
000180 9b 10 9d bd 3a 1a 33 3d 40 68 23 3e 7b 04 a6 bd
       -0.07669183 0.043726183 0.15957737 -0.08106323
000190 23 da ee 3b 1a 70 bc 3d 5d 2d 87 bd 41 3b 3c 3c
       0.0072891875 0.09201069 -0.06600449 0.011488737
0001a0 9c 0a ec bc 50 c7 3e 3d 7d f9 1a bd 2a cc fc 3c
       -0.028813653 0.046576798 -0.037835587 0.030859072
0001b0 5f 3c b6 bd 90 66 86 bc c7 80 86 3d 90 e5 af 3c
       -0.088982336 -0.016406327 0.06567531 0.021471769
0001c0 ed 3e 54 3d 0b fc 16 3d 47 0e 7b 3d 21 cf 5b bc
       0.051817823 0.03686146 0.061292913 -0.013416083
0001d0 5d 9e 58 bc ae c5 eb bd 25 c6 97 3d 33 93 c7 3d
       -0.0132213505 -0.11512314 0.0741084 0.09744873
0001e0 52 8e 6a 3c 79 2f 8d bd 32 fd ae bd b6 72 3d 3d
       0.014316158 -0.0689382 -0.08544387 0.046251975
0001f0 a6 47 0b 3d 68 9a 29 bd 99 e5 83 3d f5 79 40 bd
       0.034003876 -0.04140702 0.06440277 -0.046991307
000200 19 cf a6 bd d0 86 e6 bd 41 75 5e bd 4d 2e f8 bc
       -0.081449695 -0.11256182 -0.05431104 -0.030295515
000210 1d 02 c8 3c c7 da 12 bd 25 35 d4 bd 9c e7 83 3b
       0.02441507 -0.035853174 -0.10361699 0.0040254127
000220 2f e4 f0 3a 57 7a 35 3d bc e7 a5 bd f0 07 29 3e
       0.0018378551 0.044306125 -0.081008404 0.16506934
000230 6f 5d e9 3c 0b 7d a0 3d a2 e6 dc bc b7 a0 88 bc
       0.028486935 0.0783635 -0.026965443 -0.016678197
000240 2a d9 94 3d c2 6a cd 3d c8 e0 0e bd d8 42 00 3e
       0.07267983 0.10030128 -0.034882337 0.12525499
000250 4a bf 96 3d f6 99 c2 bd e9 5f 77 bc 6f 8f 8e 3c
       0.07360704 -0.09502022 -0.01509855 0.017402379
000260 23 9b 25 3d e2 cd 84 bc d7 d1 5c bd a3 26 79 bc
       0.040431153 -0.016211454 -0.053911056 -0.015206966
000270 b5 1f ea 3c 8b 12 ee bc 7e 4f fd 3d 78 79 1e 3d
       0.028579572 -0.029061576 0.123686776 0.03869006
000280 98 22 59 bd 81 52 79 3d b0 5c e3 3c a5 c7 c7 bd
       -0.053011507 0.060869697 0.027754158 -0.09754876
000290 f0 25 fc bc 5d 35 c2 3c ff b0 ff bb dc de 39 bd
       -0.030779809 0.023707086 -0.007803082 -0.04537855
0002a0 98 b9 0d bd 3d 65 af bd 56 7d 8c bd 1e c5 c4 3c
       -0.034600824 -0.085642315 -0.068598434 0.024019774
0002b0 9c aa 4c bd 57 4e 77 bd 6c 3d 31 3e f9 64 03 bd
       -0.049967393 -0.060377445 0.17308587 -0.032078717
0002c0 3f c7 56 bd 25 be a1 bd 8a b5 e5 3d 75 78 5c bc
       -0.05243611 -0.07897595 0.112162665 -0.013456454
0002d0 41 c2 3c bd b9 10 62 bd 7e 4b 2a bd 0b 1a 8a bd
       -0.046083692 -0.05519173 -0.0415759 -0.067432486
0002e0 06 65 03 3d 17 fe 0d bd cf 09 25 bc ab ae 23 bd
       0.032078765 -0.034666147 -0.010073139 -0.0399615
0002f0 7c be 72 3c f9 65 43 3e 12 71 94 3c 94 72 8d 3d
       0.014815923 0.19081868 0.018120322 0.0690662
000300 f7 33 dc bd 33 13 b7 3c 85 a2 70 3d b1 4f 98 bd
       -0.10752099 0.022348022 0.05874874 -0.07437075
000310 4f 1d 46 3d 07 3f 13 3c 88 d1 95 3d b6 eb c8 3c
       0.048367795 0.008987195 0.073153555 0.024526458
000320 6c 64 97 3e 4f 64 c2 3f 5a 5e ec bd 8e 16 0c 3f
       0.29568803 1.5186862 -0.11541434 0.54721916
000330 9f 70 15 be d5 fb 11 be d9 95 95 bf 62 b3 9c bd
       -0.14593743 -0.14256223 -1.1686355 -0.07651402
000340 19 bc dc 3e cf 91 fc be 8f c4 0f 3f 1c 88 d2 bd
       0.43112257 -0.49329993 0.561593 -0.10279867
000350 b8 b8 77 be 9c b7 b5 be 0b 19 f5 be 1a 56 30 3f
       -0.24191558 -0.35491645 -0.4787067 0.6888138
000360 d4 b8 f4 bd e0 0c 21 3f be df ec be 53 45 ff 3d
       -0.11949316 0.6291027 -0.46264452 0.124643944
000370 1e 31 8f bf 18 63 83 3f a4 09 55 bd 81 da 90 bf
       -1.1186864 1.0264616 -0.052011147 -1.1316682
000380 24 8a 15 3f b7 a4 de be c6 ae cf bd bf 4b 17 be
       0.5841391 -0.43485042 -0.10140757 -0.14774989
000390 1b f3 3e 3f 06 df fe 3b f1 21 00 bf f6 f4 a2 bb
       0.745897 0.0077780513 -0.5005179 -0.0049730493
0003a0 53 76 65 be 71 37 75 bf 51 ff 11 3d 1c 39 5e bf
       -0.22408418 -0.9578772 0.03564388 -0.8680589
0003b0 2c 23 6a bf 5e 98 51 3e 91 ed dd be 1f 92 8a 3e
       -0.9145992 0.2046828 -0.4334531 0.27064607
0003c0 83 5c e9 bc be e0 83 3c 0c ad 89 bf a4 17 92 be
       -0.028486496 0.016098376 -1.0755935 -0.2853366
0003d0 64 f0 2c 3e 00 53 ef bd 86 34 81 be d9 2c 97 be
       0.16888577 -0.11685753 -0.25235385 -0.29526404
0003e0 10 cd e1 be bf 79 87 be c0 14 91 3c f2 5a 6d 3e
       -0.44101763 -0.26460072 0.01771009 0.23179224
0003f0 39 95 d2 be 02 72 8c bf 55 04 00 3e 8a a8 5e be
       -0.41129473 -1.0972292 0.12501653 -0.2174398

encode.4.weight f4 [2, 100]
000000 8f d9 17 ba 0c 8d 27 3a 6f 2a df 3e aa 72 72 be
       -0.00057926116 0.0006391562 0.43587062 -0.23676553
000010 f5 74 75 3e ba 7c 58 39 a0 7d 82 ba e9 64 7b 3d
       0.23970397 0.0002064583 -0.0009955652 0.061375532
000020 4c d9 54 3e a8 0a 6c 3e 33 30 0c be 9c c5 92 3a
       0.20786017 0.2305094 -0.13690262 0.0011197808
000030 ed 3d 0c bc c4 13 7b be 95 9a ac 3d 99 0c c9 3e
       -0.008559686 -0.24519259 0.08427922 0.39267424
000040 c1 4d 65 be 48 34 fa 3d 96 c4 6f 3e 53 ed 01 3e
       -0.22392942 0.12217003 0.23414835 0.12688188
000050 d7 f6 a8 3e 15 37 50 3a 91 bd b8 3d 13 96 a5 3a
       0.33000824 0.0007942778 0.09020532 0.0012633227
000060 b7 f6 04 3a 72 32 c0 b9 32 eb e6 39 47 c8 77 3a
       0.0005072164 -0.00036658678 0.00044044253 0.0009452146
000070 3b c6 d3 39 e2 0e 77 be 05 cb b4 3a 3c ab d8 be
       0.0004039275 -0.24126771 0.0013793415 -0.4231814
000080 16 e7 e1 3e 4f f2 4e ba a7 12 90 3a 4d 0b e2 bd
       0.44121617 -0.0007894383 0.0010991887 -0.11037312
000090 10 60 3a b9 c2 ad a3 ba 0c 36 0c be 23 6d db bd
       -0.00017774128 -0.0012487697 -0.13692492 -0.107141756
0000a0 24 fc cb 3e 35 58 ab 3a 79 c7 3e be 5e fc e4 bd
       0.39840806 0.0013072552 -0.1863078 -0.11180948
0000b0 63 ae bd 3d 60 f2 0e 3e b3 70 a5 39 57 60 ef ba
       0.09261777 0.13959646 0.0003155522 -0.0018262964
0000c0 10 ef 17 3e 5d 09 8a ba f5 b8 43 ba 52 be 22 39
       0.14837289 -0.0010531355 -0.00074662204 0.00015520424
0000d0 23 41 12 3b 49 28 b2 be 54 25 c6 b9 80 7f dc 3a
       0.0022316657 -0.3479636 -0.00037793315 0.0016822666
0000e0 be d5 fd be 2d 78 a0 3e 1f 14 be be 67 cd 7a 3a
       -0.49577135 0.31341687 -0.37124726 0.00095673505
0000f0 b8 0a 30 bd 80 6d cd be 82 8a 55 be ff 01 03 3f
       -0.042978972 -0.40122604 -0.20853618 0.5117492
000100 fd 89 65 ba 58 7c 15 bd 5c 81 d8 b9 f2 05 1d bd
       -0.00087562186 -0.036495537 -0.0004129511 -0.038335748
000110 96 eb 97 b8 08 9a b0 39 f5 06 12 3d 0c 07 02 b9
       -7.2441224e-05 0.00033684098 0.035651166 -0.00012400391
000120 54 38 7d 3e 5f 8d fe b9 d7 b5 18 be 9b 89 00 bd
       0.24728519 -0.00048551985 -0.14913116 -0.03138123
000130 48 73 e3 be d7 d2 13 3a 64 f7 10 bf fe 45 42 39
       -0.4442389 0.00056390226 -0.5662749 0.00018527356
000140 8e 9f a3 b6 df d7 4b 3d d7 87 d0 3e 94 13 5f 3a
       -4.876353e-06 0.049766418 0.40728638 0.0008509692
000150 79 51 34 39 94 82 63 ba be 54 1f 3a 50 44 42 36
       0.00017196489 -0.00086788204 0.0006077996 2.8948016e-06
000160 ff a1 19 be f6 5d 8c 3e d0 93 99 b9 b2 91 9e bd
       -0.15003203 0.27415437 -0.00029292563 -0.07742633
000170 7c 9e ce 3e 82 6e 11 39 b6 0a b6 b8 00 32 f7 be
       0.4035529 0.00013869445 -8.680431e-05 -0.48280334
000180 93 60 93 39 1d 0f 2b 3e 0a d0 ab be 7c 10 a7 b9
       0.00028109978 0.16704984 -0.3355716 -0.00031865004
000190 7d ff 25 3d 70 53 ac 3a 63 3a d1 bd b2 f7 47 3e
       0.040526856 0.0013147425 -0.102162145 0.19528082
0001a0 cc 2a 05 3e 3b 8b a0 3c 8d cd 2d bc 24 84 a6 bd
       0.13004607 0.01959764 -0.010608089 -0.081306726
0001b0 5c 36 98 3e fd 56 a6 bb 63 04 61 3f 69 a5 79 be
       0.29728973 -0.005076288 0.8789732 -0.24379505
0001c0 c6 5d 94 be 23 4e 47 3c 8e db 02 3f 40 d7 20 3e
       -0.28977793 0.012164625 0.51116264 0.15707111
0001d0 57 3a b1 3e 86 a5 96 3d 5e e0 b3 bd f4 51 86 3e
       0.34614822 0.0735579 -0.08783029 0.262344
0001e0 5a 87 45 3e 3e c8 a3 ba b1 55 cf 3d bd 2a 85 bd
       0.19289914 -0.001249559 0.10123766 -0.06502292
0001f0 7d 4a 21 bd 59 46 9f ba 66 e2 51 bd 37 aa 1d bd
       -0.03937768 -0.0012151703 -0.0512413 -0.038492408
000200 71 01 49 3c f8 9d 07 3e 73 d6 a9 ba 08 b1 4a be
       0.01226841 0.13243854 -0.0012957588 -0.19794095
000210 28 0f 23 be a7 47 8e 3d 0a 34 38 bd 5a 9f 1c 3d
       -0.1592375 0.0694726 -0.044971503 0.038237907
000220 0e bd bd bd b3 3d f5 3c e1 10 24 3d 5f f0 58 3f
       -0.09264575 0.029936647 0.04005516 0.8474178
000230 c8 ff 01 3c a4 24 d8 bc 3c fd 05 bd 27 33 a5 3e
       0.007934518 -0.02638466 -0.032712206 0.3226559
000240 62 b9 c2 3f 12 f1 78 3c 13 6e 81 bd ff bf 75 3c
       1.5212824 0.015194194 -0.06319823 0.014999389
000250 5a f3 c1 3f 14 02 c1 3b ae 3e 71 bc 22 d8 2f bb
       1.515239 0.0058901403 -0.014724417 -0.0026831706
000260 9a c6 ae bc 4b 34 a0 3d fb b6 29 3c 01 9a 4b bd
       -0.021334935 0.07822474 0.010358567 -0.049707416
000270 b9 44 91 be 19 0b f7 bd 37 32 80 be 7b 4f 12 bd
       -0.28372744 -0.120626636 -0.2503831 -0.03572033
000280 80 ff 64 be f1 00 33 be be 56 39 3d 82 54 a6 3d
       -0.2236309 -0.17480828 0.04524874 0.08121587
000290 40 9b cc 3b 62 49 04 3f 9e b7 f3 b9 ea ba 37 be
       0.006244093 0.51674473 -0.00046485377 -0.17942396
0002a0 7a d7 46 bc d0 b1 aa bc fb bf 5c bb ca 5f 7d bc
       -0.012136335 -0.02083674 -0.0033683765 -0.015464732
0002b0 1a 9c 94 bd 24 43 4a bd b6 88 0d be 36 11 fe 3d
       -0.072563365 -0.049380437 -0.13821682 0.124056265
0002c0 40 ae cf 3d c6 25 a9 bd ba dd 8d 3d f7 0f b1 3c
       0.101406574 -0.08259158 0.069270566 0.021614058
0002d0 39 20 ad bd 56 67 fe bb 35 5a b6 be db aa 03 bb
       -0.084534116 -0.0077637834 -0.35615698 -0.0020090851
0002e0 85 82 fc 3c 9d c0 20 3d d9 0f 8c 3b 51 7f 9f 3c
       0.030823955 0.03924619 0.00427435 0.019469889
0002f0 e1 5a 67 3e b3 b0 33 be be ad 9c bd c1 99 a2 bc
       0.22593261 -0.17547874 -0.07650326 -0.019848706
000300 9c 58 52 be ee 53 ab 3d f4 54 15 3c bc a0 b3 3d
       -0.20541614 0.08365618 0.009114493 0.08770892
000310 8e f4 08 3d 62 4f 0c 3e 27 ef 87 3e e8 6c e6 3c
       0.03343635 0.13702157 0.26549646 0.028128102

decode.0.weight f4 [100, 31]
000000 f6 d4 65 bb ae 7f ee bd f3 73 2c bd c9 8b 96 3d
       -0.0035069562 -0.11645447 -0.042102765 0.07350881
000010 8c d8 e1 bd da 1f a4 bd 8c 3f 30 3d b8 92 ed 3d
       -0.11027631 -0.08013888 0.043029353 0.1160025
000020 6a f3 04 bd 7d bc f4 bd 13 68 37 3d fb d9 87 bd
       -0.0324587 -0.11950014 0.044776987 -0.06633373
000030 04 cb a7 3b 08 13 bc 3d 99 98 37 3e 82 9b 71 bd
       0.005120637 0.091833174 0.17929305 -0.058986194
000040 3d c1 6a 3d 26 14 37 3c 21 41 21 bd 41 f9 08 bd
       0.057313193 0.011174237 -0.039368752 -0.033440832
000050 0c c3 d3 3c dd 16 91 3c 47 e9 d8 3c 48 e4 45 3d
       0.025849842 0.017711097 0.026478423 0.04831341
000060 14 50 fb 3b b2 59 3c bd 97 ec 93 3d e6 aa 88 3d
       0.007669458 -0.045983978 0.0722286 0.06673221
000070 0c a7 8f 3c b6 4c 9d bd 85 22 bc bd 67 3e d3 3e
       0.017535709 -0.07680647 -0.091862716 0.41258547
000080 19 ca 0b be aa 56 0e 3e dd 69 da be 28 f3 51 3e
       -0.13651313 0.13900247 -0.42658892 0.20502913
000090 0e 02 0e be 7f 3a 92 be 36 65 9d be fb 4a bb 3e
       -0.13867971 -0.28560254 -0.3074128 0.36580643
0000a0 7e 07 c8 bd 7e 98 92 be 54 67 85 bf 8d bd 1e be
       -0.09767054 -0.28631967 -1.0422158 -0.15501995
0000b0 29 87 d2 3d e1 5e 85 3e b7 ae ed 3e c6 97 dd 3d
       0.10279686 0.2604895 0.4642236 0.10819964
0000c0 03 05 b5 bd fb c9 08 3e 72 86 17 bf ac cb d4 3e
       -0.088388465 0.133583 -0.5918952 0.4156164
0000d0 9a 45 81 bf 56 a9 4a bf 13 48 f8 3e be 7e 8d 3e
       -1.0099366 -0.79164636 0.48492488 0.2763576
0000e0 46 0a ad be d8 03 ad be 04 f3 f1 bd 94 84 99 3e
       -0.337969 -0.33791995 -0.1181393 0.29983962
0000f0 9e 16 3a bf cb 85 82 bd 30 91 ce 3d 08 68 4d be
       -0.7269076 -0.06373175 0.10086286 -0.20059216
000100 f1 43 dc 3d 9a 6f df 3d 73 d6 25 3e e8 61 6c be
       0.10755146 0.10909958 0.16195087 -0.23084223
000110 e8 60 c7 3d 9e e5 09 be c6 e6 46 be 80 f2 40 3d
       0.0973528 -0.13466498 -0.1942397 0.047106266
000120 66 46 4b be bf b3 74 3e 67 c6 33 be 11 66 8a be
       -0.19851074 0.23896693 -0.17556153 -0.27030995
000130 6a e7 b0 bd 03 dc 73 3c a7 d7 56 3d 59 90 af bd
       -0.08637889 0.014883998 0.052451756 -0.08572454
000140 be c7 b7 be 05 f6 5f be 23 47 7f 3e 24 1f ab bd
       -0.3589458 -0.21871193 0.2492948 -0.08355549
000150 a7 1c f9 3d 0c e3 57 3e 05 7d 07 3e 75 00 de 3e
       0.12163668 0.21082705 0.13231285 0.43359724
000160 40 1b 1f 3e 58 6b a4 bd 8e fc 81 bd 39 bf c3 3c
       0.15537739 -0.08028287 -0.06346999 0.023894893
000170 be a8 1d be fa 84 37 be 4c 45 89 3e 2a 59 b9 be
       -0.15396401 -0.1792182 0.26810682 -0.3620084
000180 4f 3a 77 3e 2a f4 9a 3d f1 0a 87 be d8 6a 4f 3c
       0.24143337 0.07566102 -0.26375535 0.012659751
000190 8d 0c 14 bd 2f a6 9a bd f1 b7 35 3c 1d a5 40 bf
       -0.03614478 -0.07551228 0.011091218 -0.7525194
0001a0 de b5 ad be 1b 9c 2c bd dd b7 dd 3e 5a 48 9c 3d
       -0.33927816 -0.04214106 0.4330434 0.076309875
0001b0 77 3b 2c 3f d4 35 42 bd e0 d6 b2 3c 4c f4 08 bf
       0.67278236 -0.047414616 0.021830976 -0.5349777
0001c0 b4 38 a1 be bd 1a fc 3d 1d 6f e6 be 5c 6c 2b be
       -0.31488574 0.123097874 -0.45006648 -0.16740555
0001d0 99 15 8a 3d 5f e2 46 3e 93 47 24 be 92 c3 92 be
       0.06742401 0.19422291 -0.16042928 -0.28664833
0001e0 94 e3 33 3f e5 31 0f bf e7 6f ee bd eb 84 be 3e
       0.7026913 -0.5593551 -0.116424374 0.37210783
0001f0 4d ab 9f 3c 75 16 ac 3d b4 ae 00 3e f6 bf 8c bd
       0.019490862 0.08402721 0.12566644 -0.06872551
000200 87 c6 80 3d 35 fd f2 ba ca 51 98 3d 30 96 02 be
       0.06287866 -0.0018538596 0.07437475 -0.12752604
000210 00 31 02 3d 32 f2 39 3c 0e 34 71 bd a0 8d 54 bd
       0.03178501 0.011349248 -0.058887534 -0.051892877
000220 80 c4 bf ba 4d a8 93 bc 7f 48 76 bd 22 fa 81 bd
       -0.0014630705 -0.018024588 -0.06012773 -0.06346537
000230 3d dc 6c bd d4 3c b0 bd 5f 21 e6 bd 97 70 84 be
       -0.057827223 -0.08605352 -0.11236834 -0.2586715
000240 51 59 3e bd fd 90 b8 3d e7 41 4c 3c dd 07 14 bb
       -0.046471898 0.09012029 0.012466884 -0.0022587695
000250 37 15 c0 3d b8 6b 82 bd 7a 07 d1 3c 54 63 3c 3d
       0.093790464 -0.06368202 0.02551626 0.045993164
000260 30 47 61 3d 34 ea 82 3e 3f 81 42 3d dc 70 c5 3e
       0.05499953 0.25569308 0.04748654 0.38562667
000270 18 54 87 3e 4b 66 82 3f 5c f1 8b 3e a0 82 9a 3e
       0.26431346 1.0187467 0.2733258 0.30177784
000280 d5 ed 10 be 02 a3 3c bf e8 1f 3a 3c fa 5c 00 3f
       -0.14153226 -0.7368623 0.011360146 0.5014187
000290 38 0c 4e be 49 b3 5b be 28 17 42 bf 11 d6 00 bf
       -0.20121849 -0.2145511 -0.75816584 -0.5032664
0002a0 56 2c 3e 3e d6 62 0d be ab cb 83 3c ba b8 d6 3e
       0.185716 -0.13807234 0.016088327 0.4193781
0002b0 b2 a7 c6 3c 1f 82 a6 be 24 0d 02 be 4d bd 41 be
       0.024249885 -0.3252115 -0.12700325 -0.18919869
0002c0 d6 56 d2 be 8e 98 51 bf 84 a3 c3 3e 4e 96 b7 3e
       -0.41081876 -0.81873405 0.3821069 0.3585686
0002d0 05 11 09 bf 88 2d 15 bf 7d 14 c8 be 30 81 85 3e
       -0.53541595 -0.582726 -0.3907813 0.26075125
0002e0 33 87 18 bf 2d 2c ac 3d 17 71 05 b8 c3 82 8b 3d
       -0.595813 0.08406863 -3.1814994e-05 0.0681205
0002f0 53 96 46 be 11 28 88 3d a9 10 8f bd 09 cf e7 bd
       -0.19393282 0.06648267 -0.069855995 -0.11318786
000300 bc ea 3a 3d 09 86 4e 3e e1 84 e9 bd ec 94 58 bd
       0.045634016 0.20168318 -0.11402298 -0.052876398
000310 e8 b7 44 3e 80 1e 09 3d 8a 8f b4 bd f8 c6 53 3d
       0.1921078 0.033476353 -0.088164404 0.051703423
000320 54 84 cf 3c 93 16 01 3e a7 4d d8 3d fa 72 ab bd
       0.025331654 0.12606268 0.10561686 -0.083715394
000330 65 a0 a8 3d c3 ec 07 3e eb 58 7d bd 9c e0 11 bd
       0.08233718 0.13273911 -0.061852377 -0.035614595
000340 3f bd 25 bd 52 46 fc 3d 81 aa 1f 3e b9 1a 2c be
       -0.040463682 0.123181 0.15592386 -0.16807069
000350 88 05 5b bd f5 94 32 bd 07 70 9b bd f7 20 02 bd
       -0.053472072 -0.043599088 -0.07589727 -0.03176972
000360 c7 89 1e be be 78 2f 3d b2 5d 88 3e 56 88 a9 3e
       -0.15482245 0.042839758 0.26633984 0.3311183
000370 d5 b3 e7 3c 74 9d 66 bd 0d aa 89 3d 11 a5 6d be
       0.028283993 -0.056302503 0.06721888 -0.23207499
000380 3b d5 ab bd b7 f0 02 3e 83 a0 0d 3e cb cd d0 3e
       -0.0839028 0.12787138 0.13830762 0.40782008
000390 36 8a 85 be a5 42 e4 bd 71 2c 67 be 42 f4 3b 3e
       -0.2608201 -0.11145524 -0.22575547 0.18354896
0003a0 71 60 33 be 8d 5a 95 bc a1 89 8b be 9e 81 6d be
       -0.17517258 -0.018231655 -0.2725344 -0.23193976
0003b0 2c 53 0b 3c 5a 70 e4 be 0e 9b 2b 3e 43 20 d8 bd
       0.008503716 -0.44616967 0.16758367 -0.105530284
0003c0 d9 1b 0b 3e da 3d 0c 3d bc b3 8b 3d 75 6f b0 bc
       0.13584842 0.034238674 0.06821391 -0.021537522
0003d0 d7 41 a0 bd d3 ee cd 3c b9 df b5 3d 22 9c fe 3d
       -0.07825058 0.025138294 0.08880562 0.12432124
0003e0 3d 16 50 ba da 80 6a 3d fc 32 99 3d a9 0f da bd
       -0.0007937884 0.05725179 0.074804276 -0.10647518
0003f0 78 ba fd bc 6b 48 33 3c 0e d0 85 bc 5d 3f 79 bd
       -0.030972704 0.010942559 -0.01633456 -0.060851444

decode.2.weight f4 [100, 100]
000000 3b 4c e9 3c c6 56 3b bd 91 c6 ef 3a 37 b9 11 3d
       0.028478732 -0.04573705 0.001829343 0.035577025
000010 19 fe 44 3d 4e 5f db bb e6 8d e6 bc fc 51 76 bc
       0.04809389 -0.006694711 -0.028143834 -0.015034195
000020 85 6e 04 bb 06 35 a5 bc 89 43 96 3a a7 6f 41 3c
       -0.0020207476 -0.020166885 0.0011464219 0.011806405
000030 6e c2 8c 3c 2b b2 c8 3c ed db 36 3d 72 c0 19 bc
       0.017182555 0.02449902 0.04464333 -0.009384261
000040 4a ac e6 bb f4 d3 da bb f7 23 e4 3b 6a a5 84 3d
       -0.0070395814 -0.006678099 0.006962295 0.06476863
000050 a5 35 37 3d 7d f4 32 bb 43 34 b3 bc 25 ac 5f bd
       0.044728894 -0.002730637 -0.021875506 -0.05460753
000060 f8 e3 94 bd 87 57 8e 3c 9e a4 1b bb fe 6e fb 3c
       -0.07270044 0.01737572 -0.0023749243 0.030692574
000070 e2 55 1f bd bb 1c b1 3c 83 29 cc bb 66 0e 5e bc
       -0.038900264 0.021620145 -0.0062305345 -0.013553238
000080 4d c8 ae bd 28 0d 09 3c f6 49 6d 3b f7 6b 47 bc
       -0.08534298 0.008364953 0.0036207414 -0.012171737
000090 98 e5 c0 3d 91 69 8b bc 5b f3 4e bc 3b 4a 41 bc
       0.094187915 -0.017018111 -0.012631263 -0.011797483
0000a0 3c ba b2 3c 30 95 6b bd e0 e4 3a 3c f5 1b e3 ba
       0.02181732 -0.057515323 0.011407107 -0.0017327057
0000b0 78 44 0c bd 2b 44 9a bb f1 81 42 bd 76 91 83 bc
       -0.034244984 -0.0047078333 -0.047487203 -0.016060572
0000c0 6c 20 5d 3d a0 35 9c bc 4f fc 5b bc 62 73 e8 3c
       0.053985998 -0.01906854 -0.013426854 0.028375331
0000d0 9a 0f 20 bd 4a e1 c1 3d f7 ce ad bc 85 92 f4 3c
       -0.03907738 0.094667986 -0.021216853 0.029855022
0000e0 bd 7a ab bc 6d 43 31 bd 5e 42 86 bb 55 2e 8a bd
       -0.02093255 -0.043277193 -0.004097267 -0.067471184
0000f0 e2 74 56 3d 96 f8 2d bd 5b a4 8f 3c 9a ea e3 3c
       0.052357562 -0.0424734 0.017534425 0.027821828
000100 d1 59 2d bd 8a 2c 38 3c 9e bc 49 3a 93 16 e9 3c
       -0.042321984 0.011241088 0.00076956477 0.028453147
000110 e3 4c 9e bc 05 d7 1f bd e4 a7 71 bc 00 b0 69 bd
       -0.019323772 -0.039023418 -0.014749501 -0.057052612
000120 92 ce 73 3d f7 3b 33 ba f3 5a 4b 3c 5c 8c 12 3c
       0.059523173 -0.00068372436 0.012411821 0.008944597
000130 91 12 59 bd 12 f8 d3 bc 02 8f ab 3b 8b 51 97 bd
       -0.052996222 -0.025875125 0.0052355537 -0.073886
000140 da 8d 23 bd 8e 1b bb bb 57 81 4c 3c 82 ad 03 bc
       -0.039930202 -0.005710072 0.012482009 -0.008036973
000150 3e 82 9c bb ee 33 8c bb 9a c5 69 3c e1 a7 b9 bc
       -0.0047762683 -0.0042786514 0.014268303 -0.022663059
000160 a8 bd 13 bd 52 02 3f bd a3 73 76 3b 02 1a 45 3c
       -0.036069542 -0.046633072 0.0037605546 0.0120301265
000170 26 94 50 bc 3a d5 5c 3d fe 4f 96 3c fd 50 a5 bc
       -0.012730634 0.053914286 0.01834869 -0.02018022
000180 cb f9 14 bc 3e fa 9a bd f3 ad 7b bc c2 f1 be bc
       -0.009092758 -0.07567261 -0.015361297 -0.023308638
000190 42 46 fb bc 67 18 f1 3b 26 9c f4 bc 41 33 81 3b
       -0.03067315 0.0073576453 -0.029859614 0.0039428775
0001a0 f0 2d 18 bc 9d 50 05 bd 43 10 04 3c fb a6 2c 3d
       -0.009288296 -0.032547582 0.008060518 0.042151432
0001b0 c8 22 12 3d b0 90 fe 3c ca 06 1c ba f5 c1 de 3a
       0.0356777 0.031074852 -0.00059519394 0.001699506
0001c0 d2 3d 08 bd 79 2c 04 3d 8e 63 a5 3c 35 39 a2 bc
       -0.03326208 0.032268975 0.020189073 -0.019802669
0001d0 08 39 db 3c 98 50 29 3d 06 01 9b bc b7 ee 16 3d
       0.026760593 0.041336626 -0.018921386 0.03684875
0001e0 63 f1 9e 3c dc 98 16 3c 9e 6b 03 bd ba 48 96 bc
       0.019402212 0.009191718 -0.032085054 -0.018345226
0001f0 8d f7 3c 3d fb 9e ea 3c b8 d9 08 3d ad 40 94 3d
       0.04613452 0.02864026 0.033410758 0.072388984
000200 e2 5a 0a bc a9 fe b5 bb 83 4b f8 bc 71 58 c0 3c
       -0.00844452 -0.0055540395 -0.030309444 0.023479672
000210 dd 80 70 3c de 0b ab bc fb a2 38 bd d8 ba 83 bc
       0.014679161 -0.020879682 -0.045077305 -0.016080305
000220 0c 78 24 3b 07 ad 4f bc 8d af 67 bb 6a d2 59 3c
       0.0025095968 -0.01267553 -0.003535244 0.0132947955
000230 e0 4e b3 bb fd 45 ce 3c 88 64 58 bc b5 a6 6f bc
       -0.005472049 0.025179857 -0.013207562 -0.014627148
000240 07 d0 75 bc 57 60 62 3d 99 b4 32 3d bd 91 94 3c
       -0.015003211 0.055267658 0.043629263 0.0181359
000250 1a 21 ad bc 85 62 3c 3d fa a5 84 3c 7a 7f b8 bb
       -0.021133948 0.045992393 0.016192425 -0.0056304308
000260 25 87 70 bc ac e2 ef 3b e5 fa a0 3c 53 f5 81 bb
       -0.0146806585 0.0073207226 0.019650886 -0.0039660125
000270 70 fc de 3c 47 89 74 bc fb ee 6f 39 ab 33 4f bd
       0.027219981 -0.014925308 0.00022881843 -0.050586384
000280 18 62 78 3a ac 4d 34 3d 09 ad 76 3b 71 95 56 3a
       0.00094750663 0.044019386 0.0037639758 0.00081857207
000290 91 4c ec bc 8e ab 6e 3d ea e2 9c bd 01 57 8b bd
       -0.028845103 0.058269076 -0.07660468 -0.06803704
0002a0 0a f6 af bb b6 c9 73 bc 6b bb ae 3c 28 bc f6 3c
       -0.0053699063 -0.014879635 0.021329602 0.030119017
0002b0 99 f3 18 bd 42 b9 43 3d a1 fa cc 3c 3f c3 bc bb
       -0.037341688 0.047784097 0.025021853 -0.00576058
0002c0 ef 2a 8d 3a 7d 1e 51 3c 84 37 25 3c cf a8 e4 3c
       0.0010770241 0.012763617 0.010084037 0.027912525
0002d0 6a 06 02 3d 10 3e e2 bc a1 51 53 bd e2 8b 48 bd
       0.0317444 -0.027617484 -0.05159152 -0.048961528
0002e0 db 3b d3 bc 13 73 74 3c 1d 75 33 bc 65 5e 92 3c
       -0.025785377 0.014920014 -0.010953215 0.017867276
0002f0 3c 79 9f bb 3c f6 9e 3c 46 e6 17 bd 2f a1 89 bd
       -0.004866747 0.019404523 -0.03708484 -0.067201965
000300 2a d9 91 3d 3b 23 32 bd 2a 3d 92 3c c2 67 41 3d
       0.07121499 -0.04349063 0.01785143 0.04721809
000310 a6 8d 44 3b 7b de fc bb 30 20 9c 3b 3c 05 31 bc
       0.0029991656 -0.0077169514 0.0047645792 -0.010804471
000320 24 52 c4 3c 78 ad 99 3c 75 49 41 bc b6 d8 2d bc
       0.023964949 0.018759474 -0.011797299 -0.01061075
000330 55 27 ad bc b0 5f 0f bc 5b 70 e6 bc 43 e7 0e 3a
       -0.021136919 -0.008750841 -0.028129747 0.0005451331
000340 4c 82 24 bd fc cf 3d bc ab be ec bc 67 39 34 bc
       -0.040163323 -0.011585232 -0.028899511 -0.011000014
000350 94 3b d9 bb ff f7 9f bc 15 20 de bc 46 41 15 3d
       -0.0066294167 -0.019527433 -0.027114907 0.036439203
000360 54 40 68 bb ae 8b 4e 3c a9 4e d3 3c 67 79 73 3c
       -0.0035438733 0.012606544 0.025794344 0.014860488
000370 59 84 36 3d 79 52 fa 3b 37 ad 5a 3d fa c3 2c bd
       0.04455981 0.007639226 0.053387847 -0.042179085
000380 3e 90 ba bb 93 71 7f b9 f6 32 35 3d dc 6b a8 bd
       -0.0056934645 -0.00024361005 0.044238053 -0.082236975
000390 63 6b 1f 3c ef 46 16 3d 10 1c b3 bc 97 76 c3 bc
       0.009730193 0.03668874 -0.021863967 -0.023860259
0003a0 9b e0 97 bd c4 13 7f bc d9 74 5d 3d 0c 2b 1d ba
       -0.07415887 -0.015568677 0.054066513 -0.0005995489
0003b0 f8 c0 54 3b a7 1a 91 3c ca 75 03 3c 89 08 4b bc
       0.003246365 0.017712904 0.008023689 -0.012392172
0003c0 60 4d 20 3d 9a d4 12 bd dc 60 51 ba d5 53 8b 3c
       0.03913629 -0.035847284 -0.00079871505 0.017007748
0003d0 ca 61 9e 3c bd 9d 25 3d de 0a d2 bc d9 e8 81 bc
       0.019333739 0.040433634 -0.025639948 -0.0158581
0003e0 00 3d 31 3d 5f d5 9a bb df 86 1c bd ff f1 3e 3d
       0.043271065 -0.004725143 -0.03821456 0.046617504
0003f0 4b e9 ee 3c a6 1f c6 bc 96 cb a2 3c 5a e3 04 ba
       0.029163977 -0.024185013 0.019872468 -0.00050692784

decode.4.weight f4 [1, 100]
000000 6f 2d 10 ba 79 c0 54 b9 52 7d a8 38 2e 47 95 b8
       -0.0005499934 -0.00020289597 8.034207e-05 -7.118132e-05
000010 6a 14 21 38 c4 ab 1e 38 d1 1b f4 39 91 27 dc b7
       3.8404403e-05 3.7830105e-05 0.00046560031 -2.6244468e-05
000020 76 ee 34 ba a4 71 91 39 dd 4e 84 39 07 43 1c 3a
       -0.00069019885 0.00027741224 0.0002523576 0.00059609156
000030 eb 6e c1 b9 6b 6e e5 3d 8d 6d b2 b9 1d 53 ed bd
       -0.0003689447 0.11202701 -0.00034032427 -0.11588118
000040 c5 12 da 39 e5 cb 01 3e ca 8b 5f b9 d3 29 e3 39
       0.00041594185 0.12675436 -0.00021319013 0.00043327975
000050 6e ac b6 3d e7 df fe b8 17 78 56 39 8a a0 af b9
       0.08919607 -0.00012153369 0.00020453367 -0.00033498212
000060 63 e0 ae b9 39 f7 88 39 e1 ad 7a b9 d6 88 37 3a
       -0.00033355047 0.00026124137 -0.00023906633 0.0007001286
000070 a2 ea 88 3a 1d a8 61 b9 9a 93 4e b9 44 80 ea b9
       0.0010445903 -0.00021520299 -0.00019700677 -0.00044727523
000080 86 bb 2b 3a fb a5 ff 39 4f c7 9b b8 f0 ad 03 be
       0.00065510755 0.00048761055 -7.4281e-05 -0.1285932
000090 83 39 c5 39 84 04 d2 b9 b1 2c 18 3a 8c b3 52 39
       0.00037617618 -0.00040057686 0.00058049994 0.00020094047
0000a0 37 c4 c5 b9 82 5f 21 b8 7d 3a 20 3a 32 a7 23 ba
       -0.0003772096 -3.847434e-05 0.0006112231 -0.00062428706
0000b0 f3 f3 b1 b8 d2 da c2 b8 b5 df 1f 3a 02 19 25 3a
       -8.485457e-05 -9.291399e-05 0.00060987036 0.0006297977
0000c0 39 67 86 b8 29 e7 ad bd 90 92 b4 39 cb f0 0a ba
       -6.408845e-05 -0.08491356 0.00034441473 -0.0005300163
0000d0 72 35 ea 39 a4 29 b2 37 e3 68 2c b9 e6 03 08 ba
       0.00044671778 2.1238644e-05 -0.00016442272 -0.0005188569
0000e0 75 a1 2f ba 56 a4 03 b7 c1 98 0e be 66 3c 23 ba
       -0.0006699779 -7.846471e-06 -0.13925458 -0.00062269566
0000f0 49 fa c0 bd 12 85 42 39 28 29 59 3a a2 16 72 38
       -0.09422738 0.00018550854 0.0008284026 5.7718375e-05
000100 69 bd 10 ba e9 7a 01 be 89 41 fb 39 60 ce 31 ba
       -0.00055213884 -0.12644543 0.00047923278 -0.00067827664
000110 d3 67 a5 b9 eb 80 40 3a 5b d0 ed 3d 8f 60 09 3e
       -0.00031548608 0.0007343429 0.11612006 0.1341574
000120 fe 17 c3 b8 f0 eb 21 37 61 c4 18 3a 49 8f 32 3a
       -9.3027935e-05 9.651281e-06 0.00058276026 0.0006811512
000130 9e 22 af bd 52 3f 8a 39 05 e1 54 ba 81 72 21 3a
       -0.085515246 0.00026368588 -0.0008120689 0.0006158725
000140 f9 eb e8 b7 87 22 13 3a b4 73 4b 39 39 45 82 3a
       -2.7766439e-05 0.000561275 0.00019402691 0.0009938843
000150 8e 40 fa b9 b6 3c 12 3e ea 74 21 ba a8 d4 23 3e
       -0.00047731813 0.14280972 -0.0006159084 0.1599909
000160 c7 02 8f b9 8b 09 b7 39 53 f7 05 ba 60 7f 19 3a
       -0.00027277155 0.0003491159 -0.00051104015 0.0005855467
000170 43 79 90 39 1c d0 19 3a 59 65 9e 39 48 e1 ca b9
       0.00027556167 0.00058674975 0.00030211618 -0.0003869629
000180 85 a0 bf b9 82 3b c3 37 06 42 82 b9 52 51 8f b9
       -0.00036549955 2.3273522e-05 -0.00024844724 -0.00027335674
