Quantum/2 qubit/complete/models/4_latent.pt (torch, 111975 bytes, 6 tensors)

encode.0.weight f4 [100, 30]
000000 1a 85 16 bf c2 14 95 be aa a1 cb bd 78 b5 07 40
       -0.58796847 -0.291174 -0.09942944 2.120451
000010 93 96 09 c0 ce f2 9d bf d1 0f 77 3f 04 f7 24 3f
       -2.1498153 -1.2339723 0.9650851 0.64439416
000020 7f 82 8a 3f 3a 98 fa bc 68 d8 4c bf bd ae 3a be
       1.0821074 -0.030590165 -0.8001771 -0.1823072
000030 ff d6 1c bf 66 28 d1 be b4 7a b6 3e 8f 62 e0 be
       -0.6126556 -0.40851134 0.3564049 -0.43825194
000040 0e 2f a3 be f5 4b 77 3e 7c 31 12 bd c2 ba 03 bf
       -0.31871837 0.24150069 -0.035691723 -0.51456845
000050 4c bc d5 3e 81 fc 8c 3f 7a 29 a0 bf 41 33 1b bf
       0.41745222 1.1014558 -1.2512658 -0.6062508
000060 30 60 35 bf 25 71 2a bf 38 d3 d9 3e 9d 91 af 3e
       -0.70849895 -0.66578895 0.4254396 0.34290782
000070 52 11 1c 40 8e c8 c5 be 28 f5 21 3f 68 d5 57 bf
       2.4385571 -0.38629574 0.63264704 -0.8431001
000080 45 0b 32 3d 00 88 1e 3f ec f8 c1 be cc 25 af bf
       0.04346778 0.6192627 -0.37885225 -1.368341
000090 90 98 01 3f 1c b4 3e be ad 2f b9 bf e1 98 1a be
       0.50623417 -0.18623394 -1.4467674 -0.15097381
0000a0 8c 95 75 bd 31 86 d0 3e 20 75 a2 3f 5a 22 c7 bf
       -0.059957072 0.4072738 1.2691994 -1.5557358
0000b0 1a 37 93 3e c7 b2 18 3f b5 41 95 bf 2a a3 c0 3e
       0.28752977 0.5964779 -1.1660677 0.37624484
0000c0 69 4c e4 3e a5 20 ef be 76 89 86 3d c7 6b c9 bd
       0.44589546 -0.46704593 0.06569187 -0.0983501
0000d0 a6 b3 44 3e 99 9a 23 bf c7 f0 e8 be e8 ce 88 be
       0.19209155 -0.6390777 -0.454962 -0.26720357
0000e0 e6 ed 71 bd 9b 1b a0 bf 22 b3 12 bf c3 af 08 3f
       -0.05906477 -1.2508425 -0.57304585 0.5339319
0000f0 0b 0c 74 3f 15 93 03 3f 9c 9f c4 3d 4f 57 54 c0
       0.95330876 0.51396304 0.096007556 -3.317829
000100 b4 58 5d 3f 16 d1 d1 3d 01 e6 a3 bf e7 b9 1a be
       0.86463475 0.10244958 -1.2804567 -0.15109979
000110 63 2d 6f bf 01 ae 78 3f 0d ac da bd b8 c2 00 3e
       -0.9342863 0.9714051 -0.10677347 0.1257428
000120 8e 5a 92 3f de 00 5e 3f 7e 0d 64 3f dd 00 e7 be
       1.1433885 0.86720073 0.8908309 -0.45117846
000130 68 bb a8 3f 9a 59 a1 be 71 75 c3 be b6 a7 e6 3e
       1.3182192 -0.31513673 -0.38175538 0.45049828
000140 6b 30 00 bf 7d 2f 73 be b5 00 3b 3f 6e b2 31 bf
       -0.5007388 -0.23748584 0.73047954 -0.6941289
000150 e3 be 1e 3b f7 2f 98 be 55 d1 64 bf 33 a6 b6 3e
       0.0024222664 -0.29724094 -0.89381915 0.35673675
000160 7b 6e ae bf 44 78 96 bf c8 ff a2 3e bc 2b 21 3e
       -1.3627466 -1.1755452 0.3183577 0.1573934
000170 d9 39 47 be 18 15 0c bf ae 30 50 3f e0 60 67 3f
       -0.19455661 -0.54719687 0.8132428 0.90382195
000180 67 0d 2f bf 2b b5 e3 bd 15 7c 5a 3f 8f cc a8 be
       -0.68379825 -0.111185394 0.85345584 -0.32968566
000190 7d 64 ef bb 80 39 34 3f 7d df a2 3e 26 0a 75 3f
       -0.0073056803 0.7040024 0.31811133 0.9571861
0001a0 cf 83 9d bf 91 cd a9 be 6f b7 67 3d e9 2c 9e 3e
       -1.230585 -0.33164647 0.05657142 0.3089364
0001b0 48 88 01 bf 33 27 9b bd 34 a1 3c bf b4 a2 55 3c
       -0.50598574 -0.07575836 -0.73683476 0.01303928
0001c0 6a 8d 87 3e cf 77 90 be 6b 33 56 bf 9f 1a 54 3d
       0.26475078 -0.28216407 -0.8367221 0.0517832
0001d0 31 bd 83 be d5 e3 dd 3e d3 89 19 bf cb b1 c5 be
       -0.2573028 0.43337885 -0.5997593 -0.38612208
0001e0 76 47 9b 3d c8 f3 c2 be 6e 1e ac bf 17 e2 7e 3f
       0.075819895 -0.38076615 -1.3446786 0.99563736
0001f0 f4 63 6c bf 54 27 8e 3d cf 59 f4 bf 8c e7 c4 3e
       -0.92340016 0.06941095 -1.9089907 0.38457906
000200 f5 ba 28 bf f4 15 8e 3f f4 aa 80 3f 86 26 a0 3f
       -0.65910274 1.110045 1.0052171 1.2511756
000210 dc 9f 06 bd 97 be 97 3e 76 bf 01 be f8 56 16 3f
       -0.032867298 0.29637596 -0.12670693 0.58726454
000220 f8 24 03 c0 e7 fc ce be ab 1c 9c 3f f9 ec 37 bf
       -2.0491314 -0.40427324 1.2196249 -0.71845967
000230 f8 96 30 bf 86 b7 6b be f3 de 01 3f 15 e6 06 c0
       -0.6898036 -0.23019227 0.5073082 -2.107793
000240 18 f7 94 bf cc 5a 5b bf d8 83 f9 be 31 e1 95 be
       -1.1637907 -0.8568542 -0.487334 -0.2927337
000250 91 f9 02 3f 01 91 b7 3f 97 8e 34 3f c8 88 c3 bd
       0.5116206 1.4341127 0.70530075 -0.09547573
000260 18 67 c4 3e 13 cb 8c 3f 2f 2b 58 3e 90 57 c5 bf
       0.38359904 1.0999473 0.21110223 -1.5417347
000270 f1 d9 32 3f 3e 95 ed bf 10 a8 6d be 3b 69 da bf
       0.698638 -1.856117 -0.23208642 -1.7063364
000280 cc 8c 30 bf 14 12 03 3f f0 0c 3f 3f fe 05 68 bf
       -0.6896484 0.5119946 0.74629116 -0.90634143
000290 5a 4e d5 bd 6f d4 3d bd db 11 bb bf 50 29 3e 3f
       -0.10415335 -0.04634517 -1.4614824 0.7428179
0002a0 6e 72 d5 bf 67 3d 56 bd a3 e6 a8 be fd 00 23 3e
       -1.6675546 -0.05230465 -0.32988462 0.15918346
0002b0 b8 48 23 3f d8 43 3b bf a5 fd 09 3f 77 4f 81 3d
       0.63782835 -0.73150396 0.53902656 0.06313985
0002c0 d6 bb 64 3f cd 92 c3 bf 28 a0 e2 3d 95 0c 85 be
       0.89349115 -1.5279175 0.11065704 -0.25986162
0002d0 e5 dc 65 be 15 90 8c 3e 8e 27 b8 bf d2 ac 23 c0
       -0.22447546 0.27453676 -1.4387071 -2.557423
0002e0 fc e9 ab 3e 98 98 82 bf 3a 13 cb bf 0e e5 9f 3d
       0.33576953 -1.0202818 -1.5865242 0.078073606
0002f0 d4 ae d1 be 13 2a 79 3f eb a0 24 3d 8a 00 dc 3e
       -0.40953696 0.97329825 0.040192526 0.4296916
000300 da 26 45 3e 5e a4 20 bf f6 05 b3 be bb b0 24 40
       0.19253102 -0.62750804 -0.34965485 2.5732868
000310 47 c7 59 3f 7e 98 b3 3e 05 2f 31 3f e5 d5 a5 3f
       0.850697 0.3507728 0.6921237 1.29559
000320 c8 75 52 bf 62 12 84 3e 9b c4 85 3f ed ed c6 3e
       -0.8221097 0.25795275 1.0450624 0.38853398
000330 a9 3a 25 bf 1b 31 66 3d 49 d3 64 bf e2 1c 4f 3f
       -0.64542633 0.056199174 -0.89384896 0.80903447
000340 dc 27 68 bf 39 58 9e be 40 b2 8e 3f 4e ac b2 3f
       -0.9068582 -0.30926684 1.1148148 1.3958833
000350 b0 6b 2c bf b2 70 f6 be 91 23 57 3f 53 26 07 40
       -0.6735182 -0.48132855 0.84038645 2.1117141
000360 a6 7a 3f bd 3e 1a cb be c2 8b f3 3e d9 6f 29 3f
       -0.046747826 -0.3966846 0.47567564 0.6618629
000370 e5 e6 6d 3e 67 89 30 3f 49 2b ce 3e b5 5f 8c 3e
       0.2323261 0.6895966 0.402674 0.2741677
000380 e4 4e 3f bf 2f d0 95 bf 4c cd d9 3e dd c8 2f bf
       -0.7472975 -1.1704158 0.42539442 -0.6866587
000390 22 4a 96 be a8 4a ba be d2 a7 88 be 04 2b 09 bf
       -0.29353434 -0.36385083 -0.26690537 -0.5358126
0003a0 11 cf 8a 3e 01 07 d7 be bf 64 39 bf 46 69 cf be
       0.27111104 -0.4199753 -0.7241935 -0.40510005
0003b0 cc fe 87 be 0c 43 d0 3e fe c9 31 bf 2a d1 01 bf
       -0.26561582 0.40676153 -0.6944884 -0.50709784
0003c0 e4 71 c0 3f c3 15 69 3f 99 0b 0e c0 5e 76 65 3f
       1.5034757 0.9104883 -2.2194579 0.8963374
0003d0 c8 22 d2 be 10 a0 88 3f 14 92 dd 3e a6 6c 27 c0
       -0.4104216 1.0673847 0.4327551 -2.6160064
0003e0 25 22 11 3f f4 d2 db 3f 23 bd 1b bf 90 01 2a 3f
       0.56692725 1.7173753 -0.60835475 0.66408634
0003f0 ee 89 6c 3e 0c cf b5 3e 12 4c 72 be 47 17 b8 bf
       0.23099491 0.35509527 -0.23661831 -1.4382104

encode.2.weight f4 [100, 100]
000000 30 b4 60 3e 63 89 03 bf ad 96 84 3e 39 d9 ed bd
       0.21943736 -0.5138151 0.25896206 -0.116136976
000010 4a 46 84 3e 4a 7a 87 bc dc 75 92 3e 4e 2f 70 3e
       0.25834876 -0.016537804 0.28605545 0.23455545
000020 46 69 16 3e ae 67 6b be f7 5d 9c 3e f4 b5 a0 bd
       0.14688596 -0.2298877 0.3054044 -0.07847205
000030 8f 91 85 3d 53 d0 bf 3e e4 6d 02 3f a0 97 53 bd
       0.06521904 0.37463626 0.5094893 -0.051658273
000040 5d 5f 2c bd e3 fb 3c 3d 87 b1 1e bc f3 07 ca bc
       -0.042083133 0.046138655 -0.0096858805 -0.024661994
000050 d3 49 45 3e 34 c3 53 3e 67 24 62 3d a5 0d eb bd
       0.19266443 0.20679933 0.055210497 -0.11477212
000060 97 d0 30 be 90 be 98 3e dd 01 0d 3e 6f 80 c8 3c
       -0.1726707 0.29832888 0.13770242 0.024475304
000070 9e 9a 5c 3e 06 1b 0f 3e f4 50 8a be f4 92 a8 3e
       0.21543357 0.13975152 -0.27014887 0.32924616
000080 95 60 fd bd 9c 3b 31 be 6e d7 58 3e 1b 33 88 3d
       -0.12371937 -0.17307895 0.2117593 0.066503726
000090 41 79 66 be 7d bd 49 bd df e8 ac be 10 bb 89 be
       -0.22507192 -0.049252976 -0.33771417 -0.2690053
0000a0 71 db 63 3e d0 69 53 be 37 23 9e be 73 fc 62 be
       0.22251679 -0.20645833 -0.30886242 -0.22166614
0000b0 46 18 2c be 09 55 09 3e cf 68 ab be 48 f2 f7 bd
       -0.16806135 0.13411345 -0.334784 -0.12106758
0000c0 07 05 21 be e0 60 10 bf 15 18 82 be 74 44 a3 be
       -0.15724574 -0.5639782 -0.25408998 -0.31888163
0000d0 c1 7f b9 3e 9d b7 b8 bc 3f dc 97 3d 13 0e 1e be
       0.3623028 -0.022548491 0.074150555 -0.15435056
0000e0 37 75 95 bc df 3e 83 3d 25 34 ff bd a0 a6 6f 3e
       -0.018244369 0.06408476 -0.12461118 0.23403406
0000f0 e7 d4 02 be 65 b2 8b be ef de 99 bd 3b 11 97 bd
       -0.12776528 -0.27284542 -0.07513224 -0.07376333
000100 a3 cb 11 3e d8 e4 5c 3e 45 49 81 be 80 75 50 be
       0.14237837 0.21571672 -0.25251213 -0.20357323
000110 7e a1 15 3d f3 c5 66 3e bb fc 81 bd 55 62 99 be
       0.036530964 0.22536449 -0.06347033 -0.29957834
000120 6a 89 fc 3d 7b a6 16 3d 3f a5 f5 bd 37 bd b5 3d
       0.12330897 0.036779862 -0.11994409 0.088739805
000130 fe e9 9d 3e 9f 3b 85 bd 2f 03 f4 bd 4d 1b d3 be
       0.30842584 -0.065055124 -0.1191467 -0.41231766
000140 32 93 27 be 56 44 9d be 24 48 71 3e 27 ec 35 bf
       -0.16364744 -0.307162 0.23562676 -0.71063465
000150 33 ce 4a be d1 3c 39 3d 51 38 93 3e dc b9 30 3e
       -0.19805221 0.045224015 0.28753904 0.172584
000160 79 b4 7e 3e 97 3a 31 3e 9c 9c b9 3c 67 de ae be
       0.24873532 0.17307507 0.022657685 -0.34154055
000170 15 ed 36 3e 65 a7 09 be c1 68 9c bd 2a d0 66 3b
       0.17863877 -0.13442762 -0.07637168 0.003521929
000180 a3 79 27 bf 09 de 9b 3d cc 3c fe 3d 0c c7 03 bd
       -0.6541998 0.07610709 0.1241394 -0.032172248
000190 d7 ad 88 bc 27 e4 93 bb 9a 86 bc bd a1 4f d1 bb
       -0.016684456 -0.004513282 -0.09205361 -0.0063876663
0001a0 d5 e5 92 bc 6f f2 18 3d 37 3b f1 bc 4b 95 d4 3c
       -0.017931858 0.037340578 -0.029447181 0.025950095
0001b0 4b cb 95 3b 0c ec e3 bd 1a 79 51 3d f6 23 14 3d
       0.0045713536 -0.11129007 0.051140882 0.036167108
0001c0 74 7d ec bd 0a bf 45 3c 7f c7 32 bd 54 30 2a bc
       -0.11547366 0.012069473 -0.043647286 -0.010387499
0001d0 e3 2c a2 3c d2 cf c0 3d ff cb 77 bd f7 6d aa bd
       0.019796794 0.094146386 -0.06049728 -0.083217554
0001e0 8d e5 14 bc 1b 13 05 bd df ba c7 bd c6 69 72 bd
       -0.009087932 -0.032488924 -0.0975244 -0.059182905
0001f0 cb 90 79 3c 1c 83 57 bd c2 b8 12 3d 0a aa a5 3d
       0.015232275 -0.05261527 0.03582073 0.08089073
000200 1a 7b 3b bc b6 84 a6 bc 64 a6 31 ba 6a f0 de bc
       -0.011442924 -0.020326953 -0.00067768083 -0.027214248
000210 3a bf 8a 3c 84 ff 44 3c 81 70 5f bb 7b ce 51 3d
       0.016936887 0.01202381 -0.0034094157 0.051222306
000220 02 01 1a bd 32 b5 73 3d 4a 8a 6b 3c 4a 9a 29 3d
       -0.037598617 0.059498973 0.014376232 0.041406907
000230 36 53 f9 bc 8e aa 30 3b 89 7a 47 bd d9 20 8b 3b
       -0.030435186 0.0026957127 -0.048700843 0.004245859
000240 cd c6 06 bd 32 04 25 3c 84 73 2d 3d df 0b 5a bc
       -0.032904435 0.010071801 0.042346492 -0.013308494
000250 7d e1 c2 bc 3c bd 8d bd 52 fb 65 bd 5d 94 f0 3b
       -0.023789162 -0.06920859 -0.05614788 0.007341905
000260 1e a4 80 3d 61 b0 17 3d 1b 17 07 ba 2f 94 57 bd
       0.06281303 0.037033442 -0.00051532843 -0.052631553
000270 1d f8 2d bd c8 3f f1 3d c2 18 d9 bc fd 5c ea 3a
       -0.042472947 0.117797434 -0.026501063 0.0017880496
000280 6e 6b 6e 3d 19 4c 4b bd d8 04 93 bc fa d6 dd 3b
       0.05820792 -0.04963312 -0.017946646 0.006770012
000290 71 93 51 bd f8 81 64 3d 3d 5c b7 bb 87 a6 07 3c
       -0.051166 0.05578801 -0.0055957125 0.008279449
0002a0 40 56 5a 3d c1 83 98 bc 50 af 02 3e 5e 5e 2a bd
       0.05330491 -0.018617513 0.12762189 -0.0415939
0002b0 7b 0d 60 bd 39 b3 91 bd 60 09 ed bc dc 81 35 bc
       -0.054700356 -0.07114262 -0.028935134 -0.011078324
0002c0 01 58 bb bd cc b9 83 3b e5 9f d1 3c 9f 7e b1 bd
       -0.09147645 0.0040199514 0.025588939 -0.08666729
0002d0 c7 f0 d3 3d d6 01 50 3e 55 72 1b 3d d8 df 96 bd
       0.10348659 0.203132 0.037950832 -0.073669136
0002e0 f8 98 c1 3b 01 ac ec bc 7a 7e a2 3b 1b bb 42 bc
       0.005908128 -0.028890612 0.004958925 -0.01188543
0002f0 7a 3e b7 bd 18 46 22 3d 0a 72 6a bd 1a 87 ed ba
       -0.08947463 0.039617628 -0.057237662 -0.0018121928
000300 d3 8c 04 3d 70 91 ca 3c 4a 6b ca bc 6d 3c 75 bd
       0.032360863 0.024727553 -0.024709363 -0.05987208
000310 aa c8 17 3d 67 aa 5c bc 08 bb a3 3c 86 3e 85 3d
       0.037056603 -0.013468361 0.019986644 0.06506066
000320 52 32 1b bf 56 92 63 3e 61 ff 23 3c be f8 bb bd
       -0.6062366 0.22223791 0.010009618 -0.09178303
000330 cd b2 15 3f f9 75 64 3f fd bf d9 be 07 e7 03 3e
       0.58475953 0.8924251 -0.42529288 0.12881099
000340 b3 28 65 3f 51 8d 81 3e db 25 21 3f ea df 25 be
       0.8951523 0.25303128 0.6294839 -0.16198698
000350 5b 1a 21 3f 6f ce db be 84 5d 2c bf e3 be 92 3d
       0.6293084 -0.42930934 -0.67330194 0.07165315
000360 f7 85 d2 3c ad 59 76 3e 57 38 0d bf aa ed 13 bf
       0.025698645 0.24057646 -0.5516409 -0.5778452
000370 e0 8b 89 3f 3f 39 39 bd 91 9c 24 3e d5 ea 56 bf
       1.0745811 -0.04522061 0.1607535 -0.83952075
000380 86 34 2d 3f 93 86 48 3e e8 5d 0d be 8c 60 b2 3e
       0.6765827 0.19582586 -0.13805354 0.34839284
000390 b9 52 e7 bd 9e d9 41 bf a0 4e 7f be 13 8b 76 be
       -0.11295075 -0.7572268 -0.24932337 -0.2407649
0003a0 cb 13 89 be 1b 0a e9 3d 30 b4 16 3f fd ed 1e 3e
       -0.26772913 0.113788806 0.58868694 0.15520473
0003b0 94 56 5f 3e 16 30 3f bf 0f 2d 50 3f 5e 2b b9 bd
       0.2181037 -0.7468275 0.81318754 -0.09041475
0003c0 cb e7 1b 3e 79 58 06 bf 36 d4 0c be f8 e8 0e 3e
       0.15225141 -0.5247875 -0.13752827 0.13956058
0003d0 b8 b2 3c 3f 60 2d 7b bd c6 1b 2c be 80 b7 68 bf
       0.73710203 -0.06132257 -0.1680747 -0.90905
0003e0 bf 91 0a 3f a1 a1 8b 3e 0c 8b 2a bd ac 36 a4 3d
       0.5412864 0.2727175 -0.04163651 0.0801824
0003f0 13 a0 91 bd f4 09 74 bd c1 43 73 3e 28 09 15 bf
       -0.0711061 -0.059579805 0.23756315 -0.58217096

encode.4.weight f4 [8, 100]
000000 04 97 65 bd 00 6e b1 39 da 10 e8 3e ed ab 13 bc
       -0.056052223 0.00033842027 0.45325357 -0.009013158
000010 f6 75 3c 3c c6 79 a2 bc 2c b2 fe 3b a9 45 3b bf
       0.011502733 -0.019833457 0.0077727046 -0.7315317
000020 8d 19 d2 3a 73 86 6f be 96 d3 a9 bc ef 44 9e b9
       0.0016029343 -0.23391132 -0.020730775 -0.00030187468
000030 ea 2b a7 3e 6b 07 72 be f1 66 4d be 8c b0 49 3b
       0.3265069 -0.23635642 -0.200588 0.0030775396
000040 15 d3 96 bc 4d 22 13 3e 12 38 05 3e 03 b9 38 be
       -0.018411199 0.14368553 0.1300967 -0.18039326
000050 c4 ae e6 ba bc 40 98 bc 7e 4b 8d 3e 9f 73 10 ba
       -0.0017599692 -0.018585555 0.27596658 -0.0005510393
000060 28 46 84 bd cf 12 4f 3e 9e e8 d3 3e 4e ec da bd
       -0.06458694 0.20222019 0.4138841 -0.10689603
000070 86 13 86 bd 76 6d 2c 3d cf 9a 0d 3d 0b a7 70 be
       -0.065466926 0.042096578 0.034571465 -0.23501222
000080 fb 40 5d 3e 7d b8 02 3e 95 ee d2 ba 44 c8 88 3d
       0.2160682 0.12765689 -0.0016092832 0.06678823
000090 15 03 23 3e 13 0c a0 3c 33 8c 05 be 1f 39 a7 bd
       0.15919144 0.019537007 -0.13041763 -0.08165192
0000a0 46 89 85 3e 1e 68 b2 bc cf 02 73 bb 7e a1 01 3e
       0.26081294 -0.021778163 -0.0037080531 0.1265926
0000b0 7f cd 06 3f 4d b6 7c 3e 9b b6 ce 3e c9 5a 56 3d
       0.5265731 0.24678917 0.40373692 0.052332673
0000c0 73 c2 94 be e2 ec 2e bd a5 1b d7 3d 0a 66 25 bd
       -0.29054603 -0.042706378 0.1050332 -0.040380515
0000d0 e3 92 14 be ae fc 42 be c5 3b 22 3d a4 e6 8e bc
       -0.14509158 -0.19041702 0.039607782 -0.017443962
0000e0 eb 15 aa bc 0b 9e b7 be e0 57 ac bd c9 e3 a6 bc
       -0.020762404 -0.35862765 -0.08415198 -0.020372288
0000f0 45 ce ad 39 b4 ef da 3d c6 7e a6 bd bd 12 a2 3d
       0.00033150814 0.10690251 -0.08129649 0.0791373
000100 34 47 8d be 0b d6 72 bd 0d 44 91 be e8 e0 63 3e
       -0.27593386 -0.05928616 -0.2837223 0.22253764
000110 4c 61 f8 3c 37 cb d0 be f4 da 41 3d 28 b8 f5 3c
       0.030319832 -0.4078004 0.04732795 0.02999504
000120 24 a4 42 3f cb 43 fb 3d fe 56 4b bd 80 12 6e be
       0.7603171 0.1226879 -0.04964351 -0.23249245
000130 f7 f2 08 bf c0 ac a7 3d 32 8c c6 3d ba 05 66 3d
       -0.53495735 0.08187246 0.09694709 0.056157805
000140 76 a1 b3 3d 9d 8a 56 bd 45 34 6e be 40 04 c5 be
       0.087710306 -0.052378286 -0.23262127 -0.38479805
000150 37 89 c9 b9 42 6c 34 3b 93 1b 2d 3d b8 cb 02 3e
       -0.0003843994 0.0027530347 0.042262625 0.12773025
000160 c4 75 51 bb 79 98 8e 3e c1 7f 17 bd 68 13 39 be
       -0.0031961063 0.27850702 -0.03698707 -0.18073809
000170 87 8b 13 bd 8c 0d 6d bd d5 7a 4f 3e 6a 00 d0 bd
       -0.036021736 -0.057874247 0.202617 -0.10156329
000180 e7 f0 10 bd ff 83 f6 3c c9 88 13 3d c8 c5 a6 bc
       -0.035385992 0.030092238 0.03601912 -0.020357981
000190 c9 a3 17 3e 75 22 4d 3a d5 a7 02 3f 42 59 95 ba
       0.14808573 0.0007825264 0.5103734 -0.0011394399
0001a0 1d 85 e1 3a 29 64 f7 bd 12 44 3c b9 9b bd 9c 3e
       0.0017205809 -0.12079651 -0.00017954435 0.30613407
0001b0 55 4a 02 bb 6a 83 a5 3e 00 be 84 be ff 8c 70 39
       -0.001988073 0.32326823 -0.25926208 0.00022940709
0001c0 03 36 b7 3e 3a 6a ea 3d bf 15 18 bf ec 88 c9 b9
       0.35783395 0.11446042 -0.5940818 -0.00038439722
0001d0 41 dd d4 3b f5 5f 09 be 61 fb ce bd a9 a1 da bc
       0.006496102 -0.13415511 -0.101065405 -0.026688414
0001e0 91 de a9 3a d3 7e df 3d aa 88 38 bd 74 30 9e 3a
       0.0012960007 0.10912862 -0.045052208 0.0012068884
0001f0 6f 68 17 be b2 ad ab 3d 8c cf 2d 3e 7d e9 05 be
       -0.14785932 0.08382739 0.16973704 -0.1307735
000200 aa c1 5e 3d 1f 62 90 3d da 66 37 bd 5a 5b 3a bf
       0.05438391 0.07049965 -0.04477582 -0.7279564
000210 ba b3 6c be 9f 5c af 3c b2 28 e8 39 4a 7d 3a 3d
       -0.23115435 0.02140647 0.0004428081 0.04552964
000220 d1 2a 4a 3f 71 56 87 3c 87 5f 8c 3d 88 3e cd 3e
       0.7897158 0.01652071 0.06854158 0.4008677
000230 53 7b 74 bd d5 6a 5f be e5 f7 00 39 24 86 f9 bb
       -0.059687924 -0.21818097 0.00012299379 -0.0076148678
000240 a7 36 ee bd d2 76 3e 3e 66 97 a7 3e 46 bf 91 bd
       -0.11631518 0.18600014 0.32732695 -0.07116561
000250 6d f8 59 be f0 10 a4 bd 72 76 8e 3d 71 e4 b7 3d
       -0.21286173 -0.08011043 0.069561854 0.089791186
000260 a6 89 a3 3e e0 0e df 3d 24 18 d4 3d 4d a4 72 3c
       0.31940955 0.10891509 0.10356167 0.01480968
000270 b9 94 05 3d 7d 8b 60 be 77 ff 83 3d 2f 3e b3 3d
       0.032612536 -0.2192821 0.064452104 0.08752095
000280 0a ee a9 3a 7f 4a 3f bd 72 c3 42 3c 55 ff f3 bd
       0.0012964618 -0.046701904 0.011887418 -0.11913935
000290 2c 58 fa bd dd af c4 bd 33 3d ab 3c d2 31 e6 bc
       -0.12223849 -0.09603856 0.020903205 -0.028099928
0002a0 71 10 f4 bd 65 72 35 be 20 5b bf 3e 69 24 ba be
       -0.119171984 -0.1771942 0.3737421 -0.36355904
0002b0 c1 fd a2 be d1 04 86 be d5 73 6c bd 8e 8d e9 3c
       -0.31834224 -0.2617555 -0.057727654 0.028509881
0002c0 77 52 a9 3d 09 ea 63 3e 12 ea 8e 3d 95 f2 87 bd
       0.08267682 0.22257246 0.06978239 -0.06638066
0002d0 f8 f2 28 bd ed 4c 1c be f9 bb 12 3e 63 6e f7 3e
       -0.041247338 -0.1526372 0.14329518 0.48326406
0002e0 fe 48 4c ba 5a 9e bc 3a c7 f3 a0 bd 73 6c 32 3d
       -0.0007792859 0.0014390454 -0.07858997 0.043560456
0002f0 c2 d5 40 3a 46 48 49 bf 83 56 87 be 68 9a 4e 3f
       0.0007356071 -0.78625906 -0.2643319 0.80704355
000300 10 08 ad be 57 e1 43 3d f3 47 70 be b7 34 f1 3d
       -0.33795214 0.047822323 -0.23464946 0.11777633
000310 f2 d6 a2 bc fd 94 1a bd c5 71 72 3d 58 56 01 bb
       -0.019877885 -0.037739743 0.05919053 -0.0019735303
000320 92 73 d1 3b 0c 19 31 b9 5b 7f a8 3b 53 0d 97 ba
       0.006391951 -0.00016889366 0.005142135 -0.0011524357
000330 8f dd 19 bc 8c 73 ef 3e 17 0a db ba 70 de 8a 3e
       -0.009391203 0.46767843 -0.0016711381 0.2712283
000340 ab 57 87 3b e9 fd 5c 3e 0c 07 8b bd 1a ed 04 bb
       0.004130324 0.21581234 -0.067884535 -0.0020282925
000350 79 be b6 3c 71 e7 85 be 7d a8 17 bf 07 77 67 3b
       0.022307621 -0.26153138 -0.5924147 0.0035318749
000360 9e 9f a0 3c 47 60 5e 3d 0a 8f 64 3d b4 1a e4 3c
       0.019607361 0.054291036 0.055800475 0.027844764
000370 0c 9e 10 b8 ea 10 70 bd 15 f4 fc bd 30 ff eb b9
       -3.4479468e-05 -0.05860988 -0.123512425 -0.00045012822
000380 d3 25 b6 be a9 aa f5 bd 77 72 f0 be f5 22 9c 3c
       -0.35575733 -0.119954415 -0.4696233 0.019059638
000390 83 f8 cb 3d 36 07 f5 3d ed 40 a1 bc d9 0a ba be
       0.09959509 0.11964266 -0.01968428 -0.363364
0003a0 f1 35 86 3f 63 a9 9e bd a6 10 e6 b9 2d 06 48 bd
       1.0485212 -0.07747152 -0.00043881423 -0.048834015
0003b0 c6 c4 bd 3e 67 83 84 bc ce 4a 45 be 77 93 a8 be
       0.3706419 -0.016175939 -0.19266817 -0.32925007
0003c0 37 59 c6 bd cc 2d 4b bc 7d ed 17 bb 4d 5f b6 bd
       -0.09684985 -0.012401056 -0.0023182326 -0.08904896
0003d0 f0 1f 87 be b2 ad 06 3e b0 c2 3b 3e 05 fb 50 bd
       -0.26391554 0.13152197 0.18335986 -0.05102064
0003e0 9b d6 db 3e ee 4e d0 3d be c6 57 3d 72 ee 03 be
       0.42937168 0.10171305 0.05267977 -0.12883928
0003f0 76 5e cc be e4 3e b9 3b 47 ce e9 be ad 4b ac 3b
       -0.39915818 0.005653249 -0.4566519 0.0052580447

decode.0.weight f4 [100, 34]
000000 91 a3 dd bd cd dc 18 3d ad 60 9a 3e 15 fc 5b bf
       -0.108222134 0.037319947 0.30151883 -0.8593152
000010 bb f8 f7 3d 79 1d 07 be 4b 4f 03 3f b2 a2 b3 3d
       0.121079884 -0.13194837 0.51292866 0.08771266
000020 b6 e8 37 be 66 b4 f5 bb 35 ea 23 3e 99 bb 76 3e
       -0.17959866 -0.007498312 0.16007312 0.24095
000030 a0 0d 06 be fd 25 f5 be 45 68 18 3f 8e 17 4b 3e
       -0.13091135 -0.47880545 0.595341 0.19833204
000040 e9 31 68 3e 68 37 80 3e 42 f8 14 be 54 9c 86 be
       0.22675289 0.25042272 -0.14547828 -0.26291144
000050 9e c4 95 3c 30 ba 84 3e 9e e8 18 bf 7f f3 a9 3e
       0.018282231 0.259233 -0.59729946 0.33193585
000060 9e 93 61 bf b5 e7 af be 6e 45 2c 3d 6a 4b 90 3d
       -0.8811587 -0.34356466 0.0420584 0.07045634
000070 16 ad 11 be b1 bd f0 be 56 ae 3a 3f 7c 08 aa 3e
       -0.14226183 -0.47019723 0.72922266 0.33209598
000080 6e 8d f2 3e f9 47 a7 bd 62 c3 58 bc 88 29 0a 3f
       0.47373527 -0.081680246 -0.013230177 0.5396962
000090 d2 a0 4b bf 6b 7b 21 bf ec 1c 03 3f 23 a0 38 3e
       -0.7954227 -0.63078946 0.51216006 0.18029837
0000a0 5c 51 e0 3d 05 d4 ae be af 6e 19 be 67 9e 9c 3f
       0.10953018 -0.34146133 -0.14983629 1.223584
0000b0 c0 e3 a7 3e 47 32 0d bf f1 d1 52 3f 5b 17 30 bf
       0.32790947 -0.5515484 0.82351595 -0.6878564
0000c0 aa 48 84 3d 17 92 8c be 50 47 9e 3e 3d 15 33 3e
       0.06459172 -0.27455208 0.30913782 0.1748857
0000d0 5a cf 70 3d 9a 40 bb 3c 80 af db ba d8 80 b9 be
       0.058791496 0.022857953 -0.0016760677 -0.36231112
0000e0 a2 fd 8e be d6 e3 39 3f f2 57 bc 3e 5b bb 16 bf
       -0.2792788 0.72613275 0.36785847 -0.5887963
0000f0 33 e7 f0 be 07 a8 19 3e 73 8d 0c be 2e c3 36 be
       -0.4705139 0.15005504 -0.13725834 -0.17847893
000100 57 8f 83 be c4 18 9e be 5b 46 f4 bd a6 c2 53 be
       -0.25695297 -0.3087827 -0.11927482 -0.20679721
000110 a3 74 d4 3e 85 cb b9 be c5 56 9c be db e4 0e bf
       0.41495237 -0.36288086 -0.3053495 -0.55817956
000120 5c d0 d8 be 6d d5 11 bf 62 c8 70 bf 4f 75 fb bc
       -0.42346466 -0.56966287 -0.9405576 -0.030695586
000130 8f b4 ee be 13 ee da be fc 2a c6 bd 8f 6a af be
       -0.4662213 -0.4275976 -0.09676167 -0.34260985
000140 ef 36 b2 be 72 c8 27 3e 3f d1 17 bc 94 cc 0d bd
       -0.34807536 0.16385058 -0.009266197 -0.03461893
000150 8c ed fc be 35 54 3e 3e cf 82 aa be 7a c5 05 be
       -0.49399984 0.1858681 -0.33302924 -0.13063613
000160 59 57 93 be 10 dc 66 bf 18 a2 d9 be c6 ad 07 3f
       -0.28777578 -0.9017954 -0.4250648 0.5299953
000170 d6 c6 11 bf c8 db 46 be 6e 2b 8a bd fe de f6 bd
       -0.56944025 -0.19419777 -0.06746565 -0.12054251
000180 72 37 8b 3b 17 93 3d 3d 4f 1e 1a 3f 86 c9 d1 be
       0.004248553 0.046282854 0.602025 -0.40974063
000190 ea c3 6d 3e 65 e1 2f be 51 ab 0a bf c0 bd e0 3e
       0.23219267 -0.17175825 -0.5416766 0.43894768
0001a0 bc 90 76 3e 0d f4 0d 3d a2 26 14 3e 0e e7 65 3d
       0.2407865 0.034656573 0.14467862 0.056128554
0001b0 85 f8 83 3e c6 29 11 3d b6 a3 4d bf fd 00 ba bd
       0.25775543 0.03544023 -0.8032793 -0.0908222
0001c0 91 d2 04 be 05 69 43 3e f5 e1 ea 3b b3 55 a2 3e
       -0.1297095 0.1908303 0.0071680495 0.31706008
0001d0 91 22 93 3d e8 67 22 bf 03 48 2d bf 61 7b 5e 3d
       0.071843274 -0.634398 -0.67688006 0.054316882
0001e0 a5 b3 8e be 5e 6e 2a bf 6f 66 d7 3d b4 c8 95 3d
       -0.27871433 -0.66574657 0.105175845 0.07313672
0001f0 b1 11 0d 3e 73 a6 45 3e 75 f7 c6 be 53 52 ca bb
       0.1377628 0.19301777 -0.3886067 -0.0061743646
000200 61 e5 bc bd b8 1c c6 3d 83 d5 bf bb 5a 1e 9d 3e
       -0.09223438 0.096734464 -0.00585431 0.3068722
000210 9b fe 88 3b 7f 80 c2 3e b1 5e 15 be 13 e7 09 be
       0.004180742 0.3798866 -0.14586903 -0.13467054
000220 39 70 05 3e 04 9a 9b 3e d0 2a 6f be 76 8f 26 be
       0.13031091 0.30390942 -0.23356175 -0.16265664
000230 00 48 9a 3c fb e5 02 be c2 d1 90 bd 92 69 70 3d
       0.01883316 -0.12783043 -0.07071258 0.05869443
000240 40 97 0c 3e eb 42 9f 3e e7 1c 01 3c 4b 79 cc bc
       0.13729572 0.31105742 0.007880426 -0.02496018
000250 13 f6 c6 be 6b a0 6c 3f a1 45 a2 be d7 fb 8b 3e
       -0.38859615 0.9243228 -0.31693748 0.27340576
000260 e3 d8 7c bf 53 23 17 3f 0c 14 d6 be 14 76 2e be
       -0.9876844 0.59038275 -0.4181217 -0.1703723
000270 a5 41 8b bf 8e f0 97 bf 11 52 53 bf 56 a6 c2 3c
       -1.0879408 -1.1870286 -0.825471 0.023760956
000280 d5 a0 3f 3f fa 32 91 3e 2b d5 b0 3e b6 5c 78 be
       0.74854785 0.28359205 0.34537634 -0.24254116
000290 f2 0d 0a 3f 61 82 3c 3e 3a bc 25 3f 8a 6d b6 be
       0.5392753 0.1840911 0.64740336 -0.35630447
0002a0 b8 8a 8a 3e eb 28 22 bc b4 b5 39 be 5b 3d 72 3e
       0.2705896 -0.009897451 -0.1813572 0.23656218
0002b0 54 e4 c8 3e 6c 45 48 3f 2d eb 19 bf 45 f6 4f be
       0.392367 0.7823093 -0.60124475 -0.20308788
0002c0 98 e6 ab 3e 21 7f 07 bd 6a 47 19 bf e4 ca 03 3f
       0.33574367 -0.033080224 -0.59874594 0.5148146
0002d0 7f 4c 60 3f 86 b6 8a be 7f a2 96 3f f4 ba 88 bf
       0.87616724 -0.2709238 1.176834 -1.0682054
0002e0 29 05 a8 3e fc db 09 3f 39 05 f2 3e 05 5a bc be
       0.32816437 0.53851295 0.4726961 -0.3678743
0002f0 43 27 b0 3e e0 e5 43 bf ce 41 59 bf af 65 2c bf
       0.34404954 -0.76522636 -0.84866035 -0.67342657
000300 92 e3 38 be fb e1 a5 3f 05 24 03 bf 07 74 4d bf
       -0.18055561 1.2959589 -0.51226836 -0.8025517
000310 c3 eb 20 bf a4 6a 46 3e 61 44 3c bf 7f 0d 4f bd
       -0.62859744 0.19376618 -0.7354184 -0.05054998
000320 20 87 ab 3e 32 9c 8a be 3b 66 79 bd 61 3d 46 3e
       0.3350153 -0.27072293 -0.06088851 0.19359352
000330 47 5f af 3e f2 d2 2b bd e6 2f a4 bf 86 03 17 3f
       0.34252378 -0.04194922 -1.2827117 0.5898975
000340 43 1a 43 bf 42 6d 26 bf 3d b5 1b bf 03 0b 6b 3e
       -0.7621195 -0.65010464 -0.6082342 0.2295342
000350 e7 73 65 3e 52 b5 f5 be 54 42 ad be 84 4c 4f be
       0.22407494 -0.479899 -0.33839667 -0.20244032
000360 a2 ac e1 be d8 82 09 3d a4 18 52 3f 9b 01 2d bd
       -0.4407702 0.033572048 0.8206885 -0.04223786
000370 42 3f ee be e3 54 7c 3e fb 60 3e bd a8 69 68 3e
       -0.46532637 0.24641757 -0.046479207 0.22696555
000380 79 29 25 bc ea 93 17 be da 19 77 be b4 97 5f 3d
       -0.010080689 -0.14802518 -0.24130955 0.054588035
000390 57 83 0f be 2e f5 62 3f 7e b6 97 bd 98 73 10 bf
       -0.14014946 0.88655365 -0.074078545 -0.5642638
0003a0 3d 4c c3 3e 30 ee aa 3e 4b 98 2a 3f 46 17 9d be
       0.38144103 0.33384848 0.6663863 -0.3068182
0003b0 1d 3d 14 3f c1 1d ca bd f1 a9 b6 be 64 bf b1 3e
       0.5790575 -0.09868956 -0.3567653 0.34716332
0003c0 4f 09 5d 3e fe 3a 0d bf 1a 7e 6c 3d c5 22 82 bd
       0.21585582 -0.5516814 0.057737447 -0.06354288
0003d0 85 32 cb be 15 fc b1 bd df a4 c3 3e ba 15 d8 3e
       -0.3968698 -0.08690659 0.38211724 0.42204076
0003e0 ce 09 e5 bd 64 fa dc be 51 4c ef 3e dc 04 de 3d
       -0.11183511 -0.43159783 0.46737912 0.108407706
0003f0 a1 cf 7b be b6 d2 18 3e 09 86 c9 3e 62 e4 82 3d
       -0.24590923 0.1492413 0.39360073 0.06391217

decode.2.weight f4 [100, 100]
000000 c5 5f 0a 3e 9f b2 ee bd 2e 13 39 be 3a c1 21 be
       0.13513096 -0.11655163 -0.18073723 -0.15796366
000010 79 00 91 be 60 52 2f be 56 ac 85 bf 5f 48 44 be
       -0.28320673 -0.17121267 -1.0443218 -0.19168232
000020 cd 91 c7 be fc 9f c3 3e 5c 55 59 bd 81 66 07 bf
       -0.38978425 0.38207996 -0.05305992 -0.52890784
000030 38 45 bf be f9 4f 02 3f c8 ec 54 3c 09 ff 5b 3e
       -0.37357497 0.5090328 0.012995906 0.21484007
000040 32 3e 01 bf 97 58 05 be 40 fc 51 bd 67 7a 88 bc
       -0.5048553 -0.13022076 -0.051265955 -0.016659928
000050 ad 11 9b be 9d d8 71 3e 7c 7f 2b 3e ae 30 2a 3d
       -0.30286923 0.23617788 0.1674785 0.04155033
000060 97 80 cb bd 32 bb 6a be b3 ad 2a bd 85 7a af 3e
       -0.09936636 -0.22922972 -0.04166956 0.34273162
000070 21 e8 5a bd 4e ff ba bd 56 79 32 be 51 d7 04 3f
       -0.05344403 -0.09130727 -0.17429098 0.51891047
000080 d6 63 18 bd 49 72 09 be 1c de 6d 3e 92 f9 93 3d
       -0.037204586 -0.13422503 0.23229259 0.07225336
000090 f1 ae 40 bd 22 eb 6b 3e 13 96 39 be a1 b6 f3 bd
       -0.047041837 0.23038915 -0.18123655 -0.11900068
0000a0 09 e1 91 be 49 5d 4b bd 80 cc 2f 3d 31 6b 13 be
       -0.28492 -0.04964951 0.042919636 -0.14396359
0000b0 b4 8f db 3d 41 79 14 3e 92 fc 71 be 53 c1 80 bd
       0.107207686 0.1449938 -0.23631504 -0.06286874
0000c0 46 ce 44 be 25 03 04 bf ba 3d 8c be 02 ac 94 3d
       -0.19219312 -0.515673 -0.27390844 0.072593704
0000d0 f8 b7 80 be 2f 2d 4d be 7e 07 bb 3d 35 6c a9 be
       -0.25140357 -0.20036767 0.091322884 -0.33090368
0000e0 81 71 4c bd 21 81 72 be 0f 26 c7 be 50 3e cb bc
       -0.049912933 -0.23682071 -0.38896224 -0.024809986
0000f0 24 07 70 bd fa 30 85 3d 1b 5c 17 be af c4 e5 be
       -0.05860056 0.06503482 -0.14781229 -0.4487662
000100 64 ce 94 3e 26 be e5 3c 3c 40 d4 bd 71 be 90 3e
       0.29063714 0.028044771 -0.10363814 0.28270295
000110 68 69 47 be f4 47 1f 3e ac e7 9a 3d b0 b1 96 3e
       -0.19473803 0.15554792 0.07563719 0.2943244
000120 78 0f 1d bf 23 7b f6 be e6 70 e3 be 34 32 a3 bd
       -0.6135173 -0.4814082 -0.44422072 -0.0796856
000130 26 85 78 3d 2c f8 e5 3c 1a e4 06 3e cf d0 01 bf
       0.060673855 0.02807244 0.13172951 -0.5070924
000140 28 69 a3 3e 20 7a 0a bf 78 7e cb 3c ba dc 1c 3e
       0.31916165 -0.540926 0.024840578 0.15318576
000150 22 ec 33 be 74 87 59 3e da 48 f1 be 56 fb e7 bb
       -0.17570546 0.21243078 -0.47125894 -0.007079522
000160 2f e9 0d 3f 91 73 80 3e ce 12 4d 3d 18 3f a4 be
       0.55433935 0.2508817 0.05006676 -0.32079387
000170 05 60 bc be fa b2 8a be d6 6a 53 3d 71 46 fa 3c
       -0.36792007 -0.27089673 0.05161556 0.030551167
000180 73 d3 17 bf 3b 2c bc bd 84 8b 20 3e 8d e1 38 3d
       -0.5930702 -0.09188124 0.15678221 0.045136977
000190 26 23 bf bc 73 b2 22 bc c3 73 8f 3c 2d a2 38 bc
       -0.02333219 -0.009930241 0.017511254 -0.0112691345
0001a0 50 86 bf bc 15 53 bd bc 08 2e 75 bc 1e 9d 9a 3d
       -0.023379475 -0.023110906 -0.014964588 0.07549499
0001b0 ef 22 8d 3c 47 da 99 bc 76 92 20 3c 90 85 80 bc
       0.017228572 -0.01878084 0.009800544 -0.015688688
0001c0 8c 78 0c 3d 1c a2 25 3c de fd a3 bc 46 d1 89 bd
       0.03429465 0.010109451 -0.020018514 -0.06729369
0001d0 d0 d3 fc bc 5a cd 28 3d 5c 69 32 3d 66 42 08 bd
       -0.030862719 0.041211464 0.04355751 -0.033266447
0001e0 e2 fe b1 bc 0e 6b a7 bc 8a f2 76 bc a9 a2 79 bc
       -0.021727983 -0.02043679 -0.015072474 -0.015236535
0001f0 0e 40 69 3d 13 99 0f 3c 72 88 14 bb 76 5c a5 3c
       0.056945853 0.008764523 -0.0022664336 0.02018569
000200 91 6b 0f 3d 21 55 80 3d b0 55 15 bd 56 70 9e 3c
       0.035014693 0.06266237 -0.03645867 0.019340675
000210 b8 bd a2 3c 04 2b 09 bc a7 de fb 3a e6 f1 db bc
       0.019865856 -0.008372072 0.0019216136 -0.026848745
000220 f1 42 9f 3c d3 81 74 3b 8a c7 6d bc 3e 5e 5e bd
       0.0194411 0.0037308827 -0.014512906 -0.054289095
000230 7e da 70 3b 78 c7 35 3b 2d 43 00 bd cc 3a 84 bc
       0.0036751325 0.00277373 -0.031314064 -0.016141318
000240 68 6c 4b 3d b0 43 a1 3c 5a 10 33 3d 02 57 18 3c
       0.04966393 0.019685596 0.043716766 0.009298088
000250 5e ef 0b bd 00 af 91 38 b3 89 17 bb 43 a8 25 3d
       -0.034163825 6.946735e-05 -0.0023122847 0.04044367
000260 24 af 16 3c 93 ea 4c bd 3e fc 01 bc 69 85 9a 3c
       0.00919703 -0.050028395 -0.007933674 0.018862443
000270 02 e8 9d bc 21 e3 02 bc 18 7d c9 3b 16 4e 80 bc
       -0.019275669 -0.007988722 0.0061489455 -0.015662234
000280 81 c7 a2 bc 7d 90 ee 3b cc ea a2 3c 7e df 9d bc
       -0.019870522 0.007280408 0.01988735 -0.019271608
000290 f6 f0 7f bc ee dd 72 3c 43 3f d6 bb 38 8d ca ba
       -0.015621414 0.01482342 -0.006538303 -0.0015453463
0002a0 42 c1 2d b9 e7 a0 06 bd d6 28 df bb 6c 9a 02 3c
       -0.0001657056 -0.032868292 -0.006810288 0.007971387
0002b0 42 39 4a bb d9 3a 82 3c 2c d3 a2 bc 50 72 65 3c
       -0.0030856882 0.015897201 -0.019876085 0.014004305
0002c0 fb 84 50 3d 82 77 77 bd 72 f8 0d bd 50 8b 85 bc
       0.05090807 -0.060416706 -0.034660764 -0.016301781
0002d0 c4 12 44 3d d7 fa 62 3c e3 61 55 3d 61 94 39 bd
       0.04786946 0.01385375 0.052095305 -0.04530752
0002e0 55 87 98 bd d4 d2 23 3d 42 69 99 3b f1 d0 5f b8
       -0.074476875 0.039995983 0.004681737 -5.3361935e-05
0002f0 d1 1f 18 3d cc 6d 0c bc 25 f3 2a 3d be 43 3e bb
       0.037139717 -0.0085710995 0.041735787 -0.0029032077
000300 7d 1d 08 3d ca 4a e7 bc 57 b3 bc 3c 4f 63 32 3d
       0.033231247 -0.028233904 0.023034735 0.04355174
000310 c0 5e 70 3d 91 f2 eb bc 46 6a d4 bc 45 0c 10 bc
       0.05868411 -0.028802188 -0.025929581 -0.008791988
000320 78 c4 f2 3a 14 20 5b 39 93 c1 82 3d fa 84 da 3c
       0.0018521687 0.00020897418 0.063845776 0.026674736
000330 f7 c2 4a 3d 34 fe d7 3b 2d af 99 bc f6 c8 97 bc
       0.04950234 0.0065915827 -0.018760288 -0.018528443
000340 e5 d2 bf bd 5e 33 80 3d 92 66 17 3d 9b 1b 5f bc
       -0.09366397 0.062597975 0.036963053 -0.0136174215
000350 5a 3e a8 bd d1 6d c9 3c 2b 28 37 3d 43 74 d9 3d
       -0.082150176 0.024588497 0.04471604 0.10617878
000360 c9 1f a2 3b 26 b9 9a bd 53 16 40 bc 3b ab e7 bd
       0.0049476367 -0.075548455 -0.0117240725 -0.113119565
000370 02 ba 15 bb b8 0f 80 3c 21 99 07 bd 95 25 40 bc
       -0.0022846465 0.015632495 -0.03310502 -0.01172771
000380 29 5f fb ba 4b 48 98 3c 98 a6 87 bb 06 7d c6 3a
       -0.001917814 0.01858916 -0.0041397326 0.0015143461
000390 51 98 64 3a bc 31 13 3d 83 dc cd bd e9 ca 16 bd
       0.00087202067 0.035936102 -0.10051825 -0.036814604
0003a0 0b 62 3e bb 52 2f 80 bb 7f d7 fc 3b 18 38 84 3b
       -0.0029050137 -0.003911891 0.007716119 0.004035007
0003b0 a4 74 03 3d 22 e5 60 3a f2 e7 65 3c 6c 7f 8f 3c
       0.03209366 0.00085790653 0.014032351 0.017516814
0003c0 ba fe 01 3d 50 ac 09 3d 7d 22 3f bc 41 04 1a bd
       0.031737067 0.033611596 -0.0116659375 -0.037601713
0003d0 14 e9 da 3c 69 f5 d2 bd 43 15 72 3c 00 78 08 bc
       0.026722468 -0.103007145 0.014775577 -0.0083293915
0003e0 cf b0 6c 3d 8c f2 e1 bc a6 55 2f 3d a7 7a 6b 3a
       0.057785805 -0.027581476 0.04280629 0.0008982815
0003f0 6f af a9 bc e7 e1 ae bc 0d ad 41 bb 61 12 b7 3c
       -0.020713536 -0.021347953 -0.002955261 0.022347631

decode.4.weight f4 [1, 100]
000000 56 4d 58 bd 0a bf f5 37 27 0b 9a 39 70 0d 61 bd
       -0.05280813 2.9295235e-05 0.00029381478 -0.054944456
000010 78 07 41 3d ee 92 25 bd d7 a8 1f 3d 54 2d 94 bd
       0.047126263 -0.040423326 0.038979378 -0.07235208
000020 9a ac 3f bd 5a 5a ba b8 e5 90 d4 39 b7 f9 d8 38
       -0.046795465 -8.8860004e-05 0.00040543746 0.000103461956
000030 85 59 37 ba 32 06 93 bd aa 62 2b b8 81 e2 97 b8
       -0.00069942354 -0.07178916 -4.0861465e-05 -7.242431e-05
000040 6c 36 e7 38 28 9e c0 39 ac 99 16 3d 12 4d 88 bd
       0.00011025075 0.0003673893 0.036767647 -0.06655325
000050 dd 8c 30 ba 0e ad 48 3d 05 85 36 39 e7 f4 79 b8
       -0.00067348575 0.048993163 0.00017406426 -5.959431e-05
000060 5e a9 74 bd 39 37 8f bd 07 49 94 3a c6 c5 24 b8
       -0.059731834 -0.06992955 0.0011313268 -3.9284838e-05
000070 a9 f4 36 bd 0e bd f4 39 fe 82 6e ba 58 89 20 b9
       -0.04466692 0.00046680163 -0.0009098499 -0.00015309954
000080 54 75 2c 3d 26 a4 01 38 31 96 2e bd c3 d2 12 39
       0.04210408 3.0908872e-05 -0.042623702 0.0001400216
000090 f0 0e b4 39 c6 3b be 3d 5f bd 27 bd ff 77 04 ba
       0.00034343405 0.09288745 -0.040952083 -0.0005053281
0000a0 3d 91 55 bd 0c 7f 95 b8 a3 de 1f bd d2 63 11 39
       -0.052140463 -7.128538e-05 -0.039030682 0.00013865464
0000b0 bb 19 6e 3d 01 c7 aa b9 24 d0 57 bd d4 8b 8e 39
       0.058130007 -0.00032573196 -0.052688733 0.0002718853
0000c0 af 53 c9 39 47 a8 15 bd 7f 00 31 bd c4 d1 d9 39
       0.00038400057 -0.036537435 -0.043213364 0.00041545753
0000d0 83 7f 3c bd 09 82 9a b9 cd c0 3c bd bf bd 5c bd
       -0.046020042 -0.00029470053 -0.046082307 -0.053891893
0000e0 ed 63 15 ba 9f ae 86 b9 aa 10 74 bd 4d 75 0d 3a
       -0.0005698789 -0.00025688575 -0.059586205 0.00053962023
0000f0 8a 3f 68 bd 19 9f 4f bd ec b1 11 3d e8 f3 53 bd
       -0.05670122 -0.050688837 0.03557007 -0.05174628
000100 26 d6 27 ba 7d a5 19 bd a7 22 0c 3d cb 94 3b 3d
       -0.0006402455 -0.037511338 0.034212735 0.045796197
000110 96 ea 49 bd 3c f1 23 3d 42 c3 50 bd 3f 33 0b bd
       -0.049295984 0.04002498 -0.050967462 -0.03398442
000120 ba 35 2a bd c1 e6 25 3a 70 c8 d1 39 4f 24 2a bd
       -0.041555144 0.00063286355 0.00040012924 -0.041538533
000130 ec 67 49 bd 63 55 93 bd fc ff ee 39 db 98 ab bd
       -0.049171373 -0.071940206 0.0004558562 -0.08378764
000140 44 50 1f bd 56 32 95 3a 6f 42 23 bd d3 0f ee 39
       -0.038894907 0.0011382799 -0.039858278 0.00045406687
000150 7c 75 b1 38 2c 84 3e 3d b8 80 4b bd ad b9 8a bd
       8.461901e-05 0.046512768 -0.049683303 -0.06773696
000160 15 51 2c b8 e5 92 65 3d f2 8b 6b 3a 0a cc 32 bd
       -4.108351e-05 0.056048293 0.0008985392 -0.043651618
000170 c5 49 38 3d ee 09 40 b9 33 ad 83 b9 69 5f 21 3a
       0.044992227 -0.00018314246 -0.0002511531 0.000615588
000180 4a 39 cc 39 ea 5a 83 38 d9 63 02 ba 84 6b c2 b7
       0.00038952596 6.263501e-05 -0.0004973985 -2.3176668e-05
