Quantum/2 qubit/complete/models/5_latent.pt (torch, 113127 bytes, 6 tensors)

encode.0.weight f4 [100, 30]
0	0x3ebba92e	0.3665251
1	0xbda7586f	-0.08171164
2	0xbd55ca94	-0.052195147
3	0x3dc11716	0.094282314
4	0xbdf1ace1	-0.11800552
5	0xbd08270b	-0.03324036
6	0xbe9981dd	-0.2998189
7	0x3d7b8854	0.06140931
8	0xbf87490f	-1.0569171
9	0x3e061a6c	0.13096017
10	0x3e12e3f6	0.14344773
11	0x3ec89173	0.3917347
12	0x3d8df239	0.06930966
13	0xbdcc1e32	-0.09966697
14	0x3f4b19ea	0.79336417
15	0xbe9936cb	-0.29924616
16	0x3f000fad	0.5002392
17	0x3efaa179	0.4895132
18	0x3e75313a	0.2394456
19	0x3e34ffb5	0.1767567
20	0x3e939f44	0.28832448
21	0x3e0c8413	0.13722257
22	0xbe208a8a	-0.15677848
23	0xbefb3028	-0.49060178
24	0xbf36a206	-0.7134098
25	0x3caa3039	0.020774947
26	0xbf8f30a1	-1.1186715
27	0x3edd64a6	0.4324085
28	0xbedb047e	-0.42776865
29	0xbf057308	-0.5212865
30	0x3f13acaa	0.5768534
31	0x3f041e71	0.5160895
32	0x3e708be9	0.23490871
33	0x3ea7c917	0.32770607
34	0x3e439879	0.19101132
35	0x3fd59f04	1.6689153
36	0x3f6a9668	0.9163575
37	0xbf02fde0	-0.5116863
38	0xbf4bc0aa	-0.7959086
39	0xbedb9e83	-0.42894372
40	0x3f2f02bd	0.68363553
41	0x3f711ef2	0.94187844
42	0xbc06fb58	-0.008238636
43	0xbf1aab20	-0.60417366
44	0x3f521e08	0.82077074
45	0xc001d262	-2.0284657
46	0xbe0d1d49	-0.13780703
47	0xbed22530	-0.41043997
48	0xbf292693	-0.66074485
49	0xbf0b8b45	-0.54509383
50	0x3f92ea7c	1.1477809
51	0xbfba2204	-1.4541631
52	0x3eba5d56	0.36399335
53	0xbf8c5c70	-1.096571
54	0x3f8919e4	1.0711026
55	0x3d8981b9	0.06714196
56	0x3f38b892	0.7215663
57	0xbf97bb11	-1.1853963
58	0xbf03e3a6	-0.5151924
59	0xbf27832e	-0.6543454
60	0xbf1375b8	-0.576015
61	0xbe8f78e2	-0.28021914
62	0xbe269459	-0.16267528
63	0xbeee57e0	-0.46551418
64	0x3ec137bd	0.37737837
65	0xbf4e0b23	-0.80485743
66	0xbf7467bd	-0.9547079
67	0xbf4ae122	-0.79249775
68	0x3e926baf	0.2859778
69	0x3f211fb5	0.62939006
70	0xbf8a5eac	-1.0810142
71	0xbe96fbb2	-0.29488903
72	0xbd729024	-0.059219494
73	0x3f5016d3	0.81284827
74	0xbe9e56ea	-0.30925685
75	0x3f8abf1c	1.0839572
76	0xbf12a37a	-0.57280695
77	0xbe97b46c	-0.29629838
78	0xbe8d50d6	-0.27600735
79	0xbdf4fe56	-0.11962573
80	0xbf9a12da	-1.2037003
81	0x3f40d476	0.7532419
82	0x3ee3496a	0.44391948
83	0x3ea2fb7d	0.31832495
84	0x3f1c067a	0.6094738
85	0xbd7adc10	-0.061245024
86	0x3e4c9712	0.19979504
87	0xbe4014f3	-0.18757991
88	0x3e6426b2	0.22280386
89	0x3ecfc2ae	0.40578216
90	0xbd3e4c4f	-0.046459492
91	0x3e201e1d	0.15636487
92	0xbe603bbf	-0.21897791
93	0xbcc9f7ec	-0.024654351
94	0xbe62a9db	-0.22135107
95	0x3e0cc3d5	0.13746579
96	0xbe6c8e56	-0.23101172
97	0xbce1d28d	-0.027566219
98	0xbef8954f	-0.48551413
99	0x3ed3a478	0.41336417
100	0x3d435df5	0.047697026
101	0x3ed84b04	0.42244732
102	0xbdf0d4dc	-0.1175935
103	0xbd3c36e0	-0.04595077
104	0x3f17c571	0.59285647
105	0x3e0aa3fd	0.13539119
106	0xbea46e67	-0.3211548
107	0xbe0c68e6	-0.1371189
108	0xbe07380a	-0.13204971
109	0x3d093a77	0.033503022
110	0x3abd293e	0.0014431847
111	0x3cfa7225	0.030572006
112	0x3e1c7493	0.15278845
113	0xbea7b461	-0.32754806
114	0x3e18b481	0.14912607
115	0x3e1670c4	0.14691454
116	0x3e8da57d	0.2766532
117	0xbe7f39c9	-0.24924387
118	0xbd1c2054	-0.038116768
119	0xbeb8c911	-0.36090901
120	0xbe0cdf7c	-0.13757128
121	0xbe7b070e	-0.2451441
122	0x3e384a3b	0.17997067
123	0xbf403c2f	-0.7509183
124	0xbe9c187f	-0.3048744
125	0xc003bcee	-2.0584064
126	0xbf798b32	-0.9747802
127	0xbe40cf88	-0.18829167
128	0x3f213535	0.6297181
129	0x3f437cbe	0.76362216
130	0xbf72dea6	-0.94870985
131	0xbe633db0	-0.221915
132	0xbe7f544c	-0.249345
133	0x3fc8a3d7	1.5675
134	0xbe8ac7e6	-0.27105635
135	0x3eeeed82	0.4666558
136	0xbf835472	-1.0260146
137	0xbf42c151	-0.7607623
138	0x3e81c49e	0.2534532
139	0xbd36fc13	-0.04467399
140	0xc0095ce4	-2.1462946
141	0xbee07d5c	-0.43845642
142	0x3f7f3233	0.9968597
143	0x3e63f217	0.22260319
144	0x3eace2a0	0.3376665
145	0xbf22ce0b	-0.63595647
146	0x3e934fea	0.28771907
147	0xbe65941f	-0.22419785
148	0xbd933a14	-0.07188812
149	0x3f9109db	1.1331133
150	0xbf3e890a	-0.74427855
151	0xbee930f5	-0.45545164
152	0x3caa4efb	0.020789614
153	0x3db01a32	0.08598746
154	0xbec54784	-0.38531125
155	0xbfac9b68	-1.3484926
156	0xbed594e6	-0.41715163
157	0xbf59df4e	-0.8510636
158	0x3f482baa	0.78191626
159	0xbf387bad	-0.72063714
160	0x3e00439d	0.12525792
161	0x3e7c7df8	0.24657428
162	0xbe581d82	-0.21105006
163	0x3d10a3d3	0.035312485
164	0xbe11be4f	-0.14232753
165	0x3f89752d	1.0738884
166	0xbfb01efe	-1.3759458
167	0xbeac63d3	-0.3366991
168	0xbe779f9a	-0.24181977
169	0x3d77d482	0.060505398
170	0xbec1a71c	-0.37822807
171	0x3eae3548	0.34025025
172	0x3f176e36	0.59152544
173	0x3f80842d	1.0040337
174	0x3f11c719	0.56944424
175	0x3dd8e62e	0.10590778
176	0x3eaa91a6	0.33314246
177	0xbf70a483	-0.94001025
178	0x3edb76bf	0.42864034
179	0x3f93a35d	1.153423
180	0x3f919288	1.1372843
181	0x3f870bb6	1.0550449
182	0xbb32947e	-0.0027249153
183	0x3f802427	1.0011033
184	0xbd20910d	-0.03920083
185	0x3fba98a4	1.4577832
186	0x3f94e3a4	1.163197
187	0xbf8be1ab	-1.0928243
188	0xbf890c7e	-1.0706937
189	0xbe985c7c	-0.2975806
190	0xbf27a0ff	-0.65480036
191	0x3f9013e4	1.125607
192	0xbe0419c6	-0.12900457
193	0xbf7772eb	-0.96659726
194	0x3f962af4	1.1731858
195	0xc00c7286	-2.19449
196	0xbf02eee8	-0.5114579
197	0xbe6eceeb	-0.2332112
198	0xbed4dc22	-0.41574198
199	0xbebc57aa	-0.36785632
200	0x3f389ab6	0.7211107
201	0xbfb5333c	-1.415626
202	0x3e411891	0.18857028
203	0xc006bc2a	-2.1052346
204	0x3fb35fe6	1.4013641
205	0x3ec81cd8	0.39084506
206	0x3f524524	0.8213675
207	0xbfcde2d1	-1.6084844
208	0xbf43b054	-0.7644093
209	0xbf851189	-1.0395976
210	0x3eff0106	0.49805468
211	0x3ecdad0c	0.40171087
212	0xbdffe370	-0.12494552
213	0xbdc4a4f0	-0.09601772
214	0x3d91635c	0.070990294
215	0x3cb3f97a	0.021969546
216	0x3f0f5e53	0.560033
217	0xbe9f7057	-0.31140396
218	0xbf26996a	-0.6507784
219	0x3efbb03c	0.49157894
220	0xbe01005b	-0.12597792
221	0x3e2bd26c	0.16779488
222	0x3f103f43	0.5634653
223	0x3d8185b5	0.06324331
224	0xbc5380ab	-0.012909095
225	0xbe3e807c	-0.186037
226	0x3cbbcc39	0.02292453
227	0xbed6c9d8	-0.4195087
228	0xbe8919dd	-0.26777545
229	0xbe831b06	-0.25606555
230	0xbdc2c2cc	-0.09509811
231	0xbf73d6e3	-0.95249766
232	0xbe9f9269	-0.3116639
233	0x3e646e98	0.22307813
234	0x3f2a0286	0.664101
235	0xbec55f3f	-0.3854923
236	0x3df8213b	0.12115713
237	0xbee2ffe9	-0.4433587
238	0xbf1fa551	-0.6236163
239	0xbebeca0d	-0.37263528
240	0xbf2e469b	-0.68076485
241	0xbe5eea82	-0.21769145
242	0x3de4b3d8	0.11167115
243	0xbe3dfa8b	-0.18552606
244	0xbe5adea9	-0.21374
245	0x3e7fbbc4	0.2497397
246	0x3dd6b418	0.10483569
247	0xbd138c27	-0.03602233
248	0xbdd1b6a3	-0.10239913
249	0xbec1316d	-0.3773302
250	0x3f4e091a	0.8048264
251	0x3cf92ebf	0.030417798
252	0xbf3d0f63	-0.73851603
253	0xbe169fcd	-0.14709397
254	0x3e3331fb	0.17499535
255	0x3d611ce6	0.0549592

encode.2.weight f4 [100, 100]
0	0xbe88fa03	-0.26753244
1	0xbf301cef	-0.6879415
2	0x3e98b388	0.2982447
3	0xbe87ba38	-0.2650926
4	0xbde1f319	-0.11032695
5	0x3e2c04e0	0.16798735
6	0x3ef80d73	0.4844776
7	0x3d9e1407	0.07718664
8	0xbd55aaa5	-0.052164692
9	0x3eedf9e1	0.46479705
10	0xbeb93c8e	-0.36179012
11	0x3e9492ac	0.29018152
12	0x3e3b1286	0.18268785
13	0xbd6dbc3a	-0.058040835
14	0x3ebe442f	0.37161395
15	0xbe84bf71	-0.25927308
16	0x3e26ec3b	0.16301052
17	0x3d0c3d76	0.0342383
18	0x3dd8a39a	0.105780795
19	0x3e97038e	0.294949
20	0x3e793904	0.24338156
21	0xbe6a3f75	-0.2287577
22	0x3d16f048	0.036850244
23	0x3e86a764	0.26299584
24	0x3db74e2b	0.08950456
25	0x3c909fb4	0.017654277
26	0x3e367dde	0.17821452
27	0x3fbec25f	1.4903067
28	0x3e97f453	0.29678592
29	0x3e904a60	0.28181744
30	0x3e81003c	0.2519549
31	0xbd1db711	-0.038504664
32	0x3e34ed62	0.1766868
33	0xbe824bfa	-0.2544859
34	0xb9c7e6e8	-0.00038128276
35	0x3efd9e56	0.49534863
36	0xbd846f9b	-0.064665996
37	0x3e90f387	0.28310797
38	0x3feffc34	1.8748841
39	0x3e9ba314	0.30397856
40	0x3ca807c3	0.020511514
41	0x3d95164e	0.07279645
42	0x3de709dc	0.112811774
43	0xbe9a2258	-0.30104327
44	0xbe923bde	-0.285613
45	0x3eab82be	0.33498186
46	0x3c32ca84	0.010912541
47	0x3e89ca50	0.26912165
48	0xbe758a1e	-0.23978469
49	0x3bd254a3	0.006418781
50	0x3db680b8	0.0891127
51	0x3e86db3f	0.26339146
52	0x3eb549a2	0.3540774
53	0x3ef80004	0.48437512
54	0xbfbe4e26	-1.4867599
55	0xbe367a42	-0.17820075
56	0xbe3d8633	-0.18508224
57	0x3e514987	0.20438205
58	0x3f09957b	0.53743714
59	0x3dafbaae	0.08580528
60	0x3f100cc0	0.56269455
61	0x3e97f999	0.29682615
62	0x3edf59d9	0.43623236
63	0xba362982	-0.0006948934
64	0xbdd12b51	-0.1021334
65	0xc02ea9bc	-2.7291098
66	0xbe3ca150	-0.18420911
67	0xbf05ff9d	-0.5234316
68	0x3ee83662	0.4535399
69	0x3d6c7def	0.057737287
70	0x3dd85f18	0.10565013
71	0xbf1b2dcf	-0.60616773
72	0xbe01e109	-0.126835
73	0x3ea503ae	0.3222937
74	0x3e930553	0.28715
75	0xbd6ed5a0	-0.058309197
76	0x3f42374c	0.75865626
77	0xbd054d24	-0.03254427
78	0xbe13c74f	-0.14431499
79	0x3f46caee	0.77653396
80	0x3dc00b71	0.09377182
81	0xbfd11b21	-1.6336404
82	0xbe2a1cd7	-0.16612564
83	0x3f0b6a06	0.54458654
84	0xbed3a904	-0.41339886
85	0x3a920f23	0.0011143427
86	0xbd2ba606	-0.04190638
87	0x3e8ccb85	0.27499023
88	0x3e7e2920	0.24820375
89	0xbda2ccfd	-0.07949255
90	0xbd2e76de	-0.04259383
91	0x3e092b44	0.13395411
92	0x3dd46bb3	0.103721045
93	0x3f6312da	0.8870064
94	0x3ef0dd7a	0.47043973
95	0x3e0fd5d5	0.14046414
96	0xbe759842	-0.23983863
97	0x3e21543c	0.15754789
98	0x3d92737d	0.07150934
99	0xbdda52f5	-0.10660354
100	0x3cafb8e5	0.02145047
101	0x3d9eff6f	0.07763564
102	0xbea46d40	-0.321146
103	0xbd5e5f3c	-0.05429004
104	0xbf0df9da	-0.5545937
105	0xbe820d20	-0.2540064
106	0x3f447a3f	0.7674903
107	0x3e9e21db	0.30885205
108	0x3d99bd8b	0.075068556
109	0xbe1a142e	-0.1504676
110	0xbef8ad26	-0.48569602
111	0x3e2807c7	0.16409217
112	0xbf9245fd	-1.1427609
113	0x3b3427d0	0.002748955
114	0x3dc16798	0.09443587
115	0x3e696642	0.22792915
116	0x3eca6776	0.3953206
117	0xbf19e1b4	-0.6011002
118	0xbe092064	-0.13391262
119	0xbe5da77f	-0.21645926
120	0xbdcbb65e	-0.09946893
121	0xbebcabe8	-0.36849904
122	0x3e603f9f	0.2189927
123	0xbde50a42	-0.11183597
124	0x3ebbe36f	0.36696956
125	0xbe45358d	-0.19258709
126	0xbc081c95	-0.008307596
127	0xbe9599c0	-0.29218864
128	0x3e8fb4c6	0.28067607
129	0x3e9300c0	0.2871151
130	0xbdcb0385	-0.09912781
131	0x3bb08d2c	0.0053879227
132	0x3ee031e3	0.4378806
133	0xbea3a7d1	-0.3196397
134	0x3e930d72	0.28721195
135	0x3e888ab2	0.26668316
136	0xbdb7b928	-0.089708626
137	0x3edcb014	0.43103087
138	0x3effd0e7	0.49964067
139	0x3e9fe0ec	0.3122629
140	0xbd10b08a	-0.03532461
141	0x3e2087ce	0.15676805
142	0xbf050e41	-0.51974875
143	0x3e618e8d	0.22027035
144	0x3ead9e7e	0.33909982
145	0xbeda004a	-0.42578346
146	0xbe2a497e	-0.16629598
147	0xbebc695d	-0.36799136
148	0x3ec0e900	0.37677765
149	0x3e385eae	0.18004867
150	0xbde46969	-0.11152918
151	0xbf4f21e0	-0.80911064
152	0x3f2112de	0.62919414
153	0x3c3c1da8	0.01148168
154	0xbce4d706	-0.027934562
155	0xbf4efbc3	-0.8085291
156	0x3f0676ef	0.5252523
157	0xbd4d2cdb	-0.050091606
158	0x3e60d5b4	0.21956521
159	0xbc3017ec	-0.010747891
160	0xbe95e768	-0.2927811
161	0xbecd9200	-0.40150452
162	0x3e9acd54	0.30234778
163	0x3ba7f688	0.0051258244
164	0xbf901b4a	-1.1258328
165	0xbe128717	-0.14309345
166	0x3e35ce6c	0.17754525
167	0x3da86dad	0.08224044
168	0xbeb0acab	-0.34506735
169	0x3c1e7b77	0.009672991
170	0xbcb6fd22	-0.0223375
171	0x3daa8000	0.08325195
172	0x3d19a19a	0.03750763
173	0x3d820ba9	0.0634988
174	0xbd932304	-0.07184413
175	0xbf3e5b15	-0.7435773
176	0x3da75ba1	0.08171774
177	0x3f12a6f0	0.57285976
178	0x3ecc9424	0.39956772
179	0xbed75638	-0.42057967
180	0x3e2d322d	0.16913672
181	0x3de6ad7a	0.11263557
182	0xbca158b7	-0.019695623
183	0x3f0b7fce	0.5449189
184	0xbd902b01	-0.07039452
185	0x3e37f0ec	0.17962998
186	0x3e8a9976	0.27070206
187	0xbd47cff5	-0.048782308
188	0xbeb40deb	-0.3516687
189	0x3ef6f929	0.4823697
190	0x3e277992	0.16354969
191	0xbf58b8f7	-0.84657234
192	0xbde4e8e3	-0.11177232
193	0x3d6f4024	0.05841078
194	0x3db7ec84	0.08980659
195	0x3eb7e125	0.3591396
196	0xbe998bff	-0.2998962
197	0x3d9a0858	0.07521123
198	0xbe22ccc6	-0.15898427
199	0x3edb8e1b	0.42881855
200	0xbf25546e	-0.64581954
201	0xbf18d458	-0.5969901
202	0xbd27d24c	-0.04097204
203	0x3f063894	0.5243008
204	0xbf0dde24	-0.55417085
205	0xbf9295b8	-1.145194
206	0x3f07c78a	0.5303885
207	0x3e421e60	0.189569
208	0x3b238da1	0.0024956244
209	0xbf2971fd	-0.6618956
210	0xbf038a92	-0.51383317
211	0x3dcb4e9b	0.09927102
212	0x3e6c6dc8	0.23088753
213	0xbf204d93	-0.6261837
214	0x3ed168fd	0.40900412
215	0xbea07385	-0.31338134
216	0xbf1699a0	-0.58828163
217	0x3ea747c2	0.32671934
218	0xbf28edfd	-0.6598814
219	0xbcb87eb3	-0.022521352
220	0xbec9dc0b	-0.39425692
221	0xbe8b978b	-0.27264056
222	0xbee871a8	-0.45399213
223	0xbe5a3867	-0.21310578
224	0x3eb452c7	0.35219404
225	0x3d452995	0.04813536
226	0xbf2357ce	-0.63805854
227	0x3fa1f806	1.2653816
228	0xbc685bf6	-0.014182081
229	0x3f5e00bb	0.86719865
230	0xbde48da8	-0.11159831
231	0x3ec04f91	0.37560704
232	0xbf912444	-1.1339192
233	0xbeff0420	-0.49807835
234	0xbe063350	-0.13105512
235	0x3fccd1f3	1.6001571
236	0x3e9825f1	0.29716447
237	0xbeb52f24	-0.35387528
238	0x40a6a5e0	5.2077484
239	0xbed1acaa	-0.40952045
240	0x3e31fdab	0.17381923
241	0xbe9d8188	-0.30762887
242	0xbe9e2aff	-0.30892178
243	0x3e88ebdb	0.26742443
244	0xbd89f30b	-0.0673581
245	0x3e68e70b	0.22744386
246	0x3df230ac	0.1182569
247	0x3e03c4b0	0.12867999
248	0x3d9457de	0.07243322
249	0x3ab9a8db	0.0014164703
250	0x3bdc202e	0.0067177033
251	0x3ded35a9	0.115825005
252	0xbe268e3b	-0.16265194
253	0xbf276beb	-0.65399045
254	0xbf7518e6	-0.95741117
255	0x3ecefe53	0.4042841

encode.4.weight f4 [10, 100]
0	0x3dca2461	0.0987022
1	0x3dcf739b	0.10129472
2	0xbed4f638	-0.415941
3	0xbe863ec9	-0.26219776
4	0xbefdd170	-0.4957385
5	0x3e1d6f46	0.15374479
6	0x39a61e3c	0.00031684514
7	0xbc6c59b7	-0.014425687
8	0xbcc19393	-0.02362994
9	0x3d21902d	0.039444137
10	0xbce2a1df	-0.027665077
11	0xbacba688	-0.0015537301
12	0xbb8cdd21	-0.0042988216
13	0x3edb520e	0.4283604
14	0xbd9b718e	-0.07590018
15	0x3d9889c5	0.074481525
16	0xbf03278a	-0.51232207
17	0x3e3fbacb	0.187236
18	0x39db697e	0.00041849533
19	0x3e423851	0.18966796
20	0xbba0af37	-0.0049036997
21	0x3e81cec8	0.25353074
22	0xbf03e911	-0.51527506
23	0x3a5eca4d	0.0008498773
24	0xbc0cd44c	-0.008595537
25	0xba668207	-0.00087931793
26	0x3ed16faa	0.40905505
27	0xbdc89c82	-0.097954765
28	0x3e171c5f	0.14756916
29	0xbdd470bd	-0.103730656
30	0xbd5f91e1	-0.05458248
31	0xbe2dfa08	-0.1698991
32	0x3e91420f	0.2837071
33	0x3e133cdd	0.14378686
34	0xbe1f4903	-0.15555196
35	0xbef4dd7e	-0.47825235
36	0xba8fefaa	-0.001098146
37	0xbe7884fa	-0.24269477
38	0x3df0d18c	0.11758718
39	0x3bbaf0e5	0.0057049864
40	0xbe3ed053	-0.18634157
41	0x3e7edfb7	0.24890028
42	0xbeaf91b6	-0.34290856
43	0x3bd23b28	0.0064157434
44	0xbf22494e	-0.63393104
45	0x3f2ce832	0.675418
46	0xbd48c5b3	-0.049016666
47	0x3d6cd273	0.057817888
48	0xbe7e0bdb	-0.2480921
49	0xbd1e8ba1	-0.03870738
50	0xbe6e2000	-0.23254395
51	0xbd0f4773	-0.03498025
52	0xbebffdaf	-0.37498233
53	0x3da0b814	0.0784761
54	0x3c9480fb	0.018127909
55	0x3a98d1b8	0.0011659181
56	0x3d284f27	0.04109111
57	0xba54b366	-0.00081138907
58	0x3d145fb4	0.036224082
59	0x3e0cf90c	0.13766879
60	0x3ddc9a2b	0.10771593
61	0xbe03ca2a	-0.12870088
62	0x3db65a72	0.0890397
63	0x3c0d9e15	0.008643647
64	0xba8823f8	-0.0010386696
65	0xbe30015d	-0.1718802
66	0x3e7d1267	0.24714051
67	0xbe924c4a	-0.2857383
68	0xbe15db7b	-0.14634506
69	0x3eeccfd7	0.4625232
70	0xbe47a93d	-0.19498153
71	0x3cdc5e47	0.026900424
72	0x3e517347	0.20454131
73	0x3d9b3897	0.07579153
74	0xbecb018c	-0.39649618
75	0xb89a984c	-7.37166e-05
76	0x3c040ba0	0.008059412
77	0x3ed7a800	0.4212036
78	0x3eaef022	0.34167582
79	0x3dad424e	0.08459912
80	0xbe4065ae	-0.18788788
81	0xbd17d339	-0.037066672
82	0x3aac7b1e	0.001315925
83	0x3e57088d	0.20999356
84	0xbf180b5f	-0.5939235
85	0x3dfc38cd	0.123155214
86	0x3d8065d8	0.06269425
87	0xbc7e30bf	-0.015514552
88	0x3b3eea2d	0.002913128
89	0x3f4aed66	0.7926849
90	0xbd87f883	-0.06639197
91	0x3f487410	0.783021
92	0x3d85a5a5	0.06525735
93	0xbe234ec2	-0.15948012
94	0x3f2e21e3	0.6802046
95	0x3d9aca3f	0.07558107
96	0x3b1eb811	0.00242186
97	0xbec6b1c5	-0.38807502
98	0x3daedb2d	0.08537898
99	0xbe72fa61	-0.23728324
100	0x3d193c83	0.037411224
101	0xbdcc391a	-0.09971829
102	0x3ccb5d2a	0.024824698
103	0x3db1c95e	0.08680986
104	0xbea236bb	-0.3168238
105	0x3e0b5fc4	0.1361075
106	0xb893e7a7	-7.052655e-05
107	0x3d73392f	0.059380706
108	0x3f2fa853	0.6861622
109	0x3d9ec4c0	0.07752371
110	0xbdfc71e9	-0.12326414
111	0x3adbb4bd	0.0016762238
112	0xb822e365	-3.8835587e-05
113	0xbf09df21	-0.5385609
114	0xba7f6c2b	-0.00097435963
115	0xbcf3ea5d	-0.029774839
116	0xbf2ba2a2	-0.6704503
117	0x3f4f7176	0.810325
118	0x3aa7c072	0.0012798442
119	0xbbf4afcb	-0.007467245
120	0x3bcf6b62	0.0063299397
121	0xbdb25c46	-0.08709006
122	0x3ea6180d	0.32440224
123	0xb9d9d721	-0.0004154975
124	0xbc7ac78c	-0.015306365
125	0xbaf28d2c	-0.0018505207
126	0x3cd771e2	0.02629942
127	0xbd48e9b1	-0.04905099
128	0x3c46734a	0.012112448
129	0x3c3ad3f4	0.011403073
130	0xbf659246	-0.8967632
131	0x3d648fc0	0.055801153
132	0x3e2a46d2	0.16628578
133	0xbdff77e1	-0.12474037
134	0xbd94d68b	-0.07267483
135	0xbd3dee55	-0.04636987
136	0x3a1d0f04	0.0005991312
137	0x3e3d0d32	0.18462065
138	0x3e3cb864	0.18429714
139	0x3b09a60b	0.002100351
140	0x3b34558b	0.0027516808
141	0xbd90b4ed	-0.07065759
142	0x3d884897	0.066544704
143	0xbc6ffe26	-0.014647996
144	0x3e50992b	0.20370929
145	0x3e0d75f6	0.1381453
146	0x3b7889f9	0.0037924035
147	0xbe1922a6	-0.14954624
148	0x3e1c5457	0.15266548
149	0x3c55f635	0.013059189
150	0xbb8860ce	-0.0041619306
151	0xbe2d257f	-0.16908835
152	0xbc7bd33c	-0.015370186
153	0x3e839bc6	0.25704783
154	0xbd7145bb	-0.05890439
155	0xba9c1d7a	-0.001191064
156	0x3dc1b0e1	0.09457565
157	0xba90cb3a	-0.0011046894
158	0x3d9175bc	0.07102534
159	0xbe4473b9	-0.1918477
160	0xbef1bdad	-0.47215024
161	0x3c86e89b	0.016468337
162	0x3e5d16de	0.21590754
163	0xbaca977d	-0.0015456524
164	0x3b51a081	0.0031986537
165	0xbc4bcfb4	-0.012439657
166	0x3d326393	0.043551993
167	0x3db2aadc	0.08723995
168	0x3b939610	0.004503973
169	0x3cfd53da	0.030923773
170	0x3e3006ef	0.17190145
171	0x3c5b0554	0.01336797
172	0xbe41b7c8	-0.18917763
173	0x3d1d2358	0.038363785
174	0x3d464e9f	0.048414823
175	0x3a7d55f0	0.000966399
176	0x3c17cef7	0.009265653
177	0x3e8362c9	0.25661305
178	0xbdd181c7	-0.10229831
179	0xbd91093c	-0.070818394
180	0xbd09b633	-0.033621024
181	0xbc4b27ef	-0.012399658
182	0xb9e53da8	-0.0004372422
183	0x3d186ea8	0.037214905
184	0x3d94b45b	0.072609626
185	0x3f417be5	0.75579673
186	0xbd424b9f	-0.0474354
187	0x3e5f28bd	0.21792884
188	0x3a4c571b	0.0007794962
189	0xbe28fb41	-0.16502096
190	0xbd39b3db	-0.04533754
191	0xbd227713	-0.03966434
192	0xbe0102f3	-0.12598781
193	0x3de2b247	0.1106916
194	0xbea4f7a0	-0.32220173
195	0xbd7c60f0	-0.061615884
196	0x3abbdf03	0.001433343
197	0xbdc8e029	-0.0980838
198	0x3d8a8753	0.06764092
199	0xbec22919	-0.3792198
200	0xbdeaf7d4	-0.11473051
201	0x3db152a3	0.0865834
202	0xbf089a9b	-0.5336091
203	0xbe5e8bcf	-0.2173302
204	0xbea3e469	-0.320102
205	0x3db51e7d	0.08843706
206	0xb9b6ae7d	-0.0003484375
207	0xbe3be1f2	-0.1834791
208	0x3dccf046	0.10006766
209	0xbadcad03	-0.001683623
210	0x3e072422	0.13197377
211	0x39e465f6	0.00043563516
212	0x39a6c241	0.00031806718
213	0x3d15e357	0.03659376
214	0xbd1e0974	-0.038583234
215	0x3dad8374	0.08472338
216	0xbed94cfd	-0.4244155
217	0x3e3863c1	0.18006803
218	0x3bfd91f2	0.0077383453
219	0xbeafb6c9	-0.34319142
220	0xba3cb609	-0.0007198756
221	0xbcfcaee3	-0.030845111
222	0xbe86666e	-0.26250023
223	0x3a96bfe5	0.0011501281
224	0xbc71d6e3	-0.014760706
225	0x39562673	0.00020422954
226	0xbdca9add	-0.09892819
227	0x3e1860d4	0.14880687
228	0xbbbcb76d	-0.0057591707
229	0x3e870860	0.26373577
230	0x3e130a05	0.14359291
231	0xbe0c628d	-0.13709469
232	0xbd7eaa9e	-0.062174432
233	0x3ebff316	0.37490147
234	0x3ea503e2	0.32229525
235	0x3eae1efc	0.34008014
236	0x3a2083fe	0.0006123184
237	0x3c0869a6	0.00832597
238	0xbd5a238d	-0.05325656
239	0x3c1f70bc	0.009731468
240	0x3d94d699	0.07267494
241	0x3e2feb70	0.17179656
242	0xbeab52e2	-0.33461672
243	0x3d0af1fc	0.03392218
244	0x3eb3e490	0.35135317
245	0xbf653b11	-0.89543253
246	0xbd227738	-0.039664477
247	0xbf60033f	-0.87504953
248	0xbd2d5a06	-0.04232218
249	0xbd467211	-0.048448626
250	0x3cb3647f	0.021898506
251	0x3de86b19	0.11348552
252	0x3e8ad07d	0.2711219
253	0xbea510dd	-0.32239428
254	0x3e082ae3	0.1329761
255	0xb984b624	-0.00025312707

decode.0.weight f4 [100, 35]
0	0x3eb4b1e2	0.35291964
1	0x3e875d21	0.2643824
2	0x3ec3e24b	0.38258585
3	0xbef55db0	-0.4792304
4	0xbc9bf31a	-0.019036818
5	0xbe9bc438	-0.3042314
6	0x3e9adbb0	0.30245733
7	0x3ccadcfc	0.024763577
8	0x3ea4a653	0.32158145
9	0xbef0d8e0	-0.47040462
10	0xbf328003	-0.6972658
11	0x3ebc7861	0.36810592
12	0x3f2a2252	0.6645862
13	0xbeeaa643	-0.45829973
14	0x3db9650a	0.09052475
15	0x3dd673fe	0.104713425
16	0xbe4c9abb	-0.199809
17	0xbea07ddd	-0.31346026
18	0x3c8153e2	0.015787069
19	0xbd81952a	-0.06327279
20	0xbe56b542	-0.20967582
21	0x3ea261a8	0.3171513
22	0x3eeaa19b	0.4582642
23	0xbd0df62c	-0.034658596
24	0xbe1e3c0f	-0.15452598
25	0x3d9f35c8	0.0777393
26	0xbedaf041	-0.42761424
27	0x3da36a75	0.079792894
28	0xbe15a732	-0.14614561
29	0xbe9c446a	-0.30520946
30	0xbe0cb918	-0.13742483
31	0xbda1573c	-0.07877967
32	0x3ed8bee8	0.4233315
33	0x3e313b74	0.17307836
34	0xbdf9f26c	-0.122044414
35	0x3ed262ac	0.41090906
36	0x3e36708d	0.17816372
37	0xbe9532a1	-0.2914019
38	0xbe5b1ed4	-0.21398479
39	0x3ed5ac83	0.41733178
40	0x3df6296c	0.12019619
41	0xbef70e8b	-0.48253283
42	0xbe6d1c8c	-0.23155421
43	0x3f09fa19	0.53897244
44	0xbd87955c	-0.06620285
45	0xbe00fcbb	-0.12596409
46	0x3d94f399	0.07273025
47	0x3e333bce	0.17503282
48	0xbeaae529	-0.3337796
49	0x3e299f93	0.16564779
50	0x3cf87f06	0.030334007
51	0xbf27d2e0	-0.65556145
52	0xbf252625	-0.6451133
53	0x3ea23c54	0.31686652
54	0x3e03920d	0.12848683
55	0x3cc13575	0.02358506
56	0x3e923f8d	0.2856411
57	0x3e5e41ed	0.21704836
58	0x3e852983	0.26008233
59	0xbeb59823	-0.35467634
60	0x3ecce0c1	0.40015224
61	0x3f0d1d97	0.55123276
62	0xbee59406	-0.44839495
63	0xbe8a341a	-0.26992875
64	0x3d7300da	0.059326984
65	0x3ede32fc	0.43398273
66	0xbd8e90c1	-0.06961203
67	0xbed169b4	-0.40900958
68	0x3e7f7810	0.24948144
69	0x3de3c563	0.11121633
70	0xbc771399	-0.015080356
71	0x3d2b681c	0.041847333
72	0xbe4953ff	-0.19660948
73	0xbf1f5308	-0.6223607
74	0xbedaa383	-0.42702875
75	0xbebbf9be	-0.36713976
76	0x3f18a068	0.5961976
77	0x3f286a5a	0.6578728
78	0x3d4017dc	0.046897754
79	0x3c8d0516	0.01721434
80	0xbf6bc707	-0.92100567
81	0x3e77f1e2	0.24213365
82	0x3ef04f45	0.46935478
83	0xbe21cec3	-0.1580153
84	0x3f58fa9e	0.8475741
85	0xbeb5205b	-0.35376248
86	0x3c40af8d	0.011760605
87	0xbe7d5422	-0.24739125
88	0xbf1d782e	-0.61511505
89	0xbf2943b4	-0.6611893
90	0xbf2075dd	-0.62679845
91	0xbf0fe5c1	-0.5620995
92	0xbe3bc9f0	-0.18338752
93	0x3f092417	0.53570694
94	0xbfbd14fb	-1.4772028
95	0x3d95226b	0.07281955
96	0xbf048e59	-0.51779705
97	0x3f0a52de	0.54032695
98	0x3cfc2fa8	0.030784443
99	0xbea556cb	-0.3229278
100	0x3d09ecf9	0.03367326
101	0x3e0d8c37	0.13823019
102	0x3e22c5be	0.15895745
103	0xbe629908	-0.2212869
104	0x3e4dac00	0.20085144
105	0xbec86229	-0.3913739
106	0x3eaa993c	0.33320034
107	0x3e4c3da0	0.19945383
108	0x3df2ab1b	0.11849042
109	0x3ea3ea7e	0.3201484
110	0xbef989a4	-0.48737824
111	0xbe95668f	-0.29179808
112	0xbe106ee4	-0.14104801
113	0xbf1bfbba	-0.6093098
114	0x3f2cb94c	0.6747024
115	0xbe4de604	-0.20107275
116	0xbe5bc55e	-0.21462008
117	0xbe7b2722	-0.24526647
118	0xbee86457	-0.45389053
119	0xbeeb7278	-0.4598577
120	0x3e0991e4	0.13434559
121	0xbd36a1a1	-0.044587735
122	0x3e632fa3	0.2218614
123	0xbf0b00c0	-0.5429802
124	0x3e38a0c5	0.18030079
125	0x3e6b7727	0.22994672
126	0x3d335a58	0.04378733
127	0x3efdb7a2	0.49554163
128	0x3ed3d06b	0.41369948
129	0xbf2b495c	-0.6690881
130	0xbf0a52a2	-0.5403234
131	0x3ed184d2	0.40921646
132	0xbf00cb62	-0.5031034
133	0xbd814351	-0.06311668
134	0x3e1878d8	0.14889848
135	0xbee76816	-0.451966
136	0x3ecdd559	0.40201834
137	0xbeaf221c	-0.3420571
138	0x3dc0e70a	0.09419067
139	0x3c8ebef6	0.017425042
140	0xbe6dfb74	-0.23240453
141	0xbe3b337f	-0.18281363
142	0xbe0f76f3	-0.1401022
143	0xbf15d02d	-0.58520776
144	0xbec8461c	-0.3911599
145	0xbdfb6453	-0.12274995
146	0xbf472c57	-0.7780203
147	0xbf4f1e69	-0.8090578
148	0xbf28aafc	-0.658859
149	0xbbf98f7d	-0.007615982
150	0x3eac6268	0.33668828
151	0xbf14658f	-0.57967466
152	0xbeb16986	-0.3465082
153	0xbf109a01	-0.5648499
154	0xbe33d74b	-0.17562596
155	0x3ebc2fbc	0.36755168
156	0x3f00d5b7	0.503261
157	0x3e186bbd	0.14884849
158	0x3ea48695	0.32133928
159	0x3d69bfde	0.057067744
160	0x3ec5de05	0.3864595
161	0x3f102891	0.563119
162	0x3c91ebe2	0.017812673
163	0xbf617ec6	-0.88084066
164	0x3f235b34	0.6381104
165	0xbec6436c	-0.38723314
166	0xbd4da367	-0.05020466
167	0xbdf52ed6	-0.11971824
168	0xbd535f48	-0.05160454
169	0x3e2b6cb3	0.16740684
170	0xbf13d2c9	-0.5774351
171	0x3f06db54	0.5267842
172	0xbd29209a	-0.041290857
173	0x3e792680	0.24331093
174	0xbeac75b3	-0.33683547
175	0x3e2dd414	0.16975433
176	0x3f3728c6	0.7154659
177	0x3e61331e	0.21992156
178	0xbcdeef03	-0.027213579
179	0x3d684b49	0.056712423
180	0xbdcc800c	-0.099853605
181	0xbf37ba3e	-0.7176856
182	0xbe7da2c4	-0.24769121
183	0x3ca288de	0.019840654
184	0x3ea4a0f7	0.32154056
185	0x3f63632b	0.88823193
186	0x3da015bd	0.07816646
187	0xbf0c758b	-0.54866856
188	0x3eb4f8db	0.35346112
189	0xbed11148	-0.40833497
190	0x3e00b3a5	0.12568529
191	0x3d9fe3d7	0.07807129
192	0x3ea2db15	0.3180777
193	0x3e95f4ef	0.29288432
194	0x3e801127	0.25013086
195	0xbe89d0b1	-0.2691703
196	0xbed97e76	-0.42479295
197	0xbd729367	-0.059222605
198	0x3cf9f134	0.030510522
199	0x3db6a44e	0.089180574
200	0xbf6022de	-0.87553203
201	0xbf0b7aab	-0.5448405
202	0xbf37d450	-0.7180834
203	0xbf81dd59	-1.0145675
204	0xbe70a938	-0.23502052
205	0x3f0b2309	0.54350334
206	0x3ef96e64	0.48717034
207	0xbeea455b	-0.4575604
208	0x3f2e65d9	0.6812416
209	0x3db99640	0.09061861
210	0xbe0cf45e	-0.13765094
211	0x3e2eb485	0.1706105
212	0xbe8663c8	-0.26248002
213	0x3eeb4ce7	0.4595711
214	0xbeadb278	-0.33925223
215	0x3d2f7d5d	0.042844165
216	0x3ee1cde8	0.44102407
217	0xbe665cfa	-0.22496405
218	0x3e9340b1	0.28760293
219	0xbde45728	-0.11149436
220	0xbf8e9481	-1.113907
221	0x3c82b5c8	0.01595582
222	0x3e9cafbf	0.30602834
223	0xbf086489	-0.53278404
224	0x3d26c516	0.0407153
225	0xbefed643	-0.49772844
226	0x3eba933a	0.3644045
227	0x3ed59acb	0.4171966
228	0x3e475d53	0.19469194
229	0xbf1cbd02	-0.61225903
230	0x3dee0532	0.11622085
231	0xbec110a1	-0.37708
232	0xbe745b18	-0.23862875
233	0xbe9da000	-0.30786133
234	0xbf0ccdc2	-0.5500146
235	0xbe0233f1	-0.12715127
236	0xbee28731	-0.44243768
237	0x3ee8ba22	0.45454508
238	0xbe0bc8b4	-0.13650781
239	0xbed0d722	-0.40789133
240	0xbed189a6	-0.4092533
241	0xbf1e8d67	-0.6193451
242	0x3ea5d442	0.32388502
243	0xbcc3507d	-0.02384209
244	0x3d05c91e	0.032662503
245	0xbde7872c	-0.11305079
246	0x3c8326f1	0.01600978
247	0xbf2678b4	-0.6502793
248	0xbebab980	-0.3646965
249	0x3da9ff6a	0.083006695
250	0xbd4abe62	-0.04949797
251	0xbd807a1d	-0.06273291
252	0xbe91a5e5	-0.2844688
253	0xbe7ef968	-0.24899828
254	0xbce64325	-0.028108189
255	0x3e3de3ff	0.18544005

decode.2.weight f4 [100, 100]
0	0xbf3bb60f	-0.73324674
1	0xbec9f1f8	-0.3944242
2	0x3ea370ad	0.31921902
3	0xbe135d50	-0.14391065
4	0xbf047b4a	-0.51750624
5	0x3c147216	0.009060403
6	0xbe38e020	-0.18054247
7	0xbdf985ff	-0.12183761
8	0xbf644354	-0.89165235
9	0xbe242996	-0.16031489
10	0xbef676e2	-0.48137575
11	0xbe52f920	-0.20602846
12	0x3ef87e9c	0.48534095
13	0x3ed50f12	0.4161306
14	0xbdc16e9b	-0.094449244
15	0xbe4d7a09	-0.20066084
16	0xbec5b73b	-0.38616356
17	0xbcea53ed	-0.028604472
18	0xbec789ce	-0.38972324
19	0x3d5149eb	0.051095884
20	0xbd2431de	-0.04008662
21	0xbda9094f	-0.082537286
22	0x3e4f1ae4	0.20225102
23	0xbd22af31	-0.039717857
24	0xbd04993f	-0.03237271
25	0x39ebac04	0.00044950854
26	0xbf05824e	-0.52151954
27	0x3e5e0a0c	0.2168352
28	0xbf0e227d	-0.55521375
29	0xbe973ec5	-0.29540077
30	0xbd42c31f	-0.047549363
31	0x3e6d1071	0.23150803
32	0xbd2af9f7	-0.04174229
33	0xb9886753	-0.00026016924
34	0x3e5fe223	0.21863608
35	0xbe55b1eb	-0.20868652
36	0xbe82e1b0	-0.2556281
37	0xbe0051ef	-0.12531255
38	0x3e5509fb	0.20804588
39	0xbc70cbf0	-0.01469706
40	0xbee1808e	-0.44043392
41	0xbc235b72	-0.009970533
42	0xbdc0d7d3	-0.09416165
43	0x3dd890d6	0.105745
44	0xbe5f3169	-0.21796192
45	0xbe8565e0	-0.26054287
46	0xbeca7846	-0.39544886
47	0x3cdb6042	0.026779298
48	0xbcdbbba9	-0.026822882
49	0x3ebd73da	0.3700245
50	0xbef4b994	-0.47797835
51	0xbc6828d9	-0.014169895
52	0xbf64a635	-0.8931611
53	0x3dc783d6	0.097419426
54	0xbee37b0b	-0.44429812
55	0x3d8fa7ef	0.07014453
56	0xbf2516f5	-0.64488155
57	0x3e425582	0.18977931
58	0xbed59e32	-0.41722256
59	0x3e7351ac	0.23761624
60	0x3d56abcd	0.052409936
61	0xbd9706ef	-0.07374369
62	0x3e77e6ad	0.2420909
63	0x3d26b9cf	0.040704545
64	0x3eab2000	0.33422852
65	0x3e644dd0	0.22295308
66	0xbe48af96	-0.1959823
67	0xbe4f12dd	-0.2022204
68	0x3d24fcd4	0.04028018
69	0xbd85f437	-0.06540721
70	0xbe3b5a2d	-0.18296118
71	0x3cd7aff2	0.026329014
72	0x3ed8b2b6	0.42323846
73	0x3ebe2a97	0.37141868
74	0x3ce8f632	0.028437708
75	0xbee2f0ac	-0.44324243
76	0x3e74d5db	0.23909704
77	0x3daa30be	0.08310078
78	0xbe4dbcbb	-0.20091526
79	0xbf3beb4a	-0.734059
80	0xbdf87b2d	-0.12132869
81	0x3d5fac4b	0.05460767
82	0xbe3c0fc6	-0.18365392
83	0xbdbbd637	-0.091717176
84	0xbf12f16b	-0.57399625
85	0xbe35f89b	-0.17770617
86	0xbe3cf226	-0.18451747
87	0xbe1314eb	-0.14363448
88	0x3e3207ce	0.1738579
89	0xbf1b0028	-0.60547113
90	0x3d96f1da	0.07370348
91	0xbf46b115	-0.77613956
92	0xbe83f5b4	-0.25773394
93	0xbe04c402	-0.12965396
94	0x3e8eda2f	0.27900836
95	0xbd2a4c43	-0.041576635
96	0xbd4c30ef	-0.049851354
97	0xbefccf3f	-0.49376866
98	0xbb3b4744	-0.0028576413
99	0x3ec55313	0.38539943
100	0x3d2fe98b	0.042947333
101	0xbc6641d2	-0.014053779
102	0xbd4376b6	-0.047720633
103	0x3c4fd044	0.012683932
104	0xbcd91d24	-0.026503153
105	0x3d068f27	0.032851364
106	0xbcb093ff	-0.021554945
107	0x3ca762f1	0.020432921
108	0xbc1a20b8	-0.009407215
109	0x3cde9ade	0.027173456
110	0x392dec7b	0.00016586662
111	0xbc319e3d	-0.01084095
112	0xbc8d6a56	-0.017262619
113	0xbba93939	-0.005164292
114	0xbad8cde2	-0.001654085
115	0xbcdaae94	-0.026694573
116	0x3cbc815c	0.023010902
117	0xbb315907	-0.002706112
118	0xbb45723a	-0.0030127899
119	0xbc475529	-0.0121663
120	0xbc9c4706	-0.019076835
121	0x3d174a6a	0.0369362
122	0xbc81d2ee	-0.01584765
123	0xbc6f7c0b	-0.0146169765
124	0x3cbe70d4	0.02324716
125	0xbb1cae88	-0.002390774
126	0x3cdc3b8f	0.026883869
127	0xbbbb5355	-0.005716721
128	0xbd12b251	-0.035814587
129	0xbd4946d7	-0.049139824
130	0x3cb99e86	0.022658598
131	0x3d07030b	0.032961886
132	0x3c56dea8	0.013114609
133	0x3d42b9ae	0.04754036
134	0xbb125f19	-0.0022334515
135	0x3c5a3945	0.013319318
136	0x3c43a9ef	0.011942371
137	0xbcf96008	-0.0304413
138	0x3be91ee9	0.0071142805
139	0x3caba7bb	0.020954004
140	0xbcd6b1fc	-0.026207916
141	0x3c8ff2bd	0.017571801
142	0xbca47ace	-0.02007809
143	0x3d16fe16	0.03686341
144	0x3c0d22a3	0.008614215
145	0xbd21027b	-0.039309006
146	0xbc89ce41	-0.016821982
147	0x3c8f23d7	0.017473144
148	0x3c5f1f9e	0.013618378
149	0x3cd259a0	0.025677502
150	0x3ce23ed0	0.027617842
151	0xbc2c6959	-0.010523164
152	0x3ca4b9fc	0.020108216
153	0xbd82a1fb	-0.063785516
154	0xbc754b68	-0.0149715915
155	0xbc46ae3e	-0.0121265035
156	0x3ccddb71	0.025129052
157	0x3bb39f1e	0.0054816147
158	0xbbd63c3e	-0.006537943
159	0x3ca3cfc1	0.019996526
160	0xbc4fbccd	-0.012679291
161	0xbc8c9869	-0.017162519
162	0x3c7bcc5f	0.01536855
163	0xbd6ca460	-0.057773948
164	0xbc8e54bc	-0.017374389
165	0xbc86a6e5	-0.016437003
166	0x3c8fb8f2	0.017544243
167	0x3c55d5f6	0.013051501
168	0x3cabf95a	0.020992924
169	0x3c9102a1	0.017701449
170	0xbc87ac7b	-0.016561737
171	0xbcd3a059	-0.025833296
172	0x3bb9fa72	0.0056756074
173	0xbd01725c	-0.031603202
174	0x3d423ac1	0.047419313
175	0xbc547b9e	-0.012968926
176	0xbacf39db	-0.0015810089
177	0xbc4ac018	-0.0123749
178	0x3d062688	0.03275159
179	0x3d1d02a2	0.03833259
180	0x3c0197dd	0.007909742
181	0xbc8f76cf	-0.017512707
182	0x3b7f04ca	0.0038912767
183	0xbbffa975	-0.0078021833
184	0xbc447291	-0.011990205
185	0xbd75eded	-0.060041357
186	0xbc0674e9	-0.0082065845
187	0x3bb44888	0.0055018105
188	0xbc04ac69	-0.008097746
189	0x3c67d720	0.014150411
190	0x3b974e08	0.0046174563
191	0xbcac33be	-0.021020766
192	0xbcb1ca63	-0.02170295
193	0x3bd363bb	0.006451098
194	0xbbcb5e58	-0.006206315
195	0x3c38e5a0	0.011285216
196	0x3cc78e2b	0.024359783
197	0x3caa2cc4	0.020773299
198	0x3d2fa9af	0.042886432
199	0x3d031a79	0.03200767
200	0xbbde9aac	-0.0067933407
201	0x3c303303	0.01075435
202	0xbc828194	-0.015930928
203	0xbce5bdd0	-0.028044611
204	0xbc6f179f	-0.014593034
205	0xba0d723d	-0.0005395746
206	0x3c887d48	0.016661301
207	0xbbe57d83	-0.0070034876
208	0xbb88e528	-0.004177708
209	0x3b52722f	0.0032111516
210	0xbc537ccc	-0.012908172
211	0x3cef403a	0.02920543
212	0xbc39fe99	-0.011352205
213	0x3c1dab57	0.00962337
214	0xbccdaee7	-0.025107814
215	0xbd1d29ab	-0.038369816
216	0xbd128dfa	-0.03577993
217	0xbbd232af	-0.0064147334
218	0x3cbedd9f	0.023299037
219	0x3c200d67	0.00976882
220	0x3b11d8ac	0.002225439
221	0xbd58aabc	-0.0528972
222	0xbc627417	-0.013821623
223	0x3d1eef0e	0.0388022
224	0x3b80d993	0.003932187
225	0x3c5621f4	0.0130696185
226	0x3c02aaaa	0.00797526
227	0xbcb50b75	-0.02210019
228	0xbc76c841	-0.015062393
229	0x3bd7db3c	0.006587414
230	0x3c9e2f16	0.019309562
231	0xbd199919	-0.03749952
232	0xbc6967d9	-0.014245951
233	0xbd2d0755	-0.04224332
234	0xbb4f280e	-0.0031609568
235	0x3ca84d17	0.020544572
236	0xbc549db4	-0.0129770525
237	0x3ca63763	0.020290082
238	0x3cabfff5	0.020996073
239	0xbc15b247	-0.009136743
240	0x3cdcb6e9	0.026942687
241	0xbd0d50e2	-0.034500964
242	0xbc8ee37e	-0.017442461
243	0x3c578fff	0.01315689
244	0x3bb8d29f	0.0056403424
245	0xbcf1ca24	-0.029515333
246	0xbcca1803	-0.024669653
247	0xbb6ce34d	-0.0036146224
248	0x3c64613c	0.013939198
249	0xb7b4f52e	-2.1571843e-05
250	0xbd35598b	-0.044274848
251	0x3ccf1b5b	0.025281599
252	0x3d0a1f8c	0.03372149
253	0x3c91f3eb	0.017816504
254	0x3c8e58f6	0.017376404
255	0x3c671912	0.014105098

decode.4.weight f4 [1, 100]
0	0x3e137f10	0.14403939
1	0xb9651146	-0.00021845577
2	0x398feba6	0.00027450657
3	0x39f7609a	0.00047183485
4	0xb9809796	-0.00024527003
5	0xbd769e06	-0.060209297
6	0x3d1ddd06	0.038540863
7	0x3d029d17	0.031888094
8	0x3d8d1574	0.068888575
9	0x3db25bfb	0.0870895
10	0xba026212	-0.000497372
11	0x3dd0efc7	0.10201984
12	0x3d3de09b	0.04635678
13	0x3a1717fc	0.0005763767
14	0xbda05eb9	-0.07830567
15	0xbd45705d	-0.04820286
16	0xb8fbfff6	-0.00012016289
17	0x3880ac5d	6.135621e-05
18	0xbcc100ac	-0.02355989
19	0xbd925200	-0.071445465
20	0xbd53ab3b	-0.05167697
21	0x3a5657e3	0.0008176548
22	0xbd62309b	-0.055222135
23	0x3d0ad3bd	0.033893336
24	0x3a8c1acd	0.001068914
25	0x3cfebe07	0.031096471
26	0xb9722128	-0.0002309127
27	0xbcdc5279	-0.026894795
28	0xb9c73264	-0.00037993782
29	0x38fa83fa	0.000119455115
30	0xb8408e16	-4.5908695e-05
31	0x398f2cc8	0.0002730845
32	0xbdc9604b	-0.098328196
33	0xb9925138	-0.00027907803
34	0x3dba8976	0.0910825
35	0xbd0ad0e4	-0.03389062
36	0xba89eeec	-0.0010523475
37	0xbd0bc63d	-0.0341246
38	0x39875117	0.00025809623
39	0x39072449	0.0001288812
40	0xbd3ee0fc	-0.04660128
41	0xb7d4ed5f	-2.5382904e-05
42	0xbd68c082	-0.056824215
43	0xbd7f457f	-0.062322136
44	0xb9f87cc2	-0.00047395198
45	0x3d35377b	0.044242363
46	0x3dee9f74	0.11651507
47	0xbd9811ba	-0.07425256
48	0x3dbfefb2	0.0937189
49	0x3d3baae6	0.04581728
50	0x3cf47c61	0.029844465
51	0x3d88dfc1	0.06683303
52	0xbd370713	-0.04468448
53	0x38481364	4.7701775e-05
54	0xb97d4462	-0.00024153435
55	0x3da77e16	0.08178346
56	0x3d089e68	0.033354193
57	0x3dccb41c	0.09995291
58	0xba343a4d	-0.00068751426
59	0xbdf6b1bc	-0.12045619
60	0x38dff2be	0.00010678683
61	0x3d51f804	0.051261917
62	0x3d102d72	0.03519959
63	0x3d958ec2	0.073026195
64	0xbd2ea812	-0.042640753
65	0xbd1b0f51	-0.037856404
66	0x38b2f0b6	8.532537e-05
67	0x3a14b777	0.00056730903
68	0xbcd61a36	-0.026135545
69	0xb9b2f948	-0.00034136535
70	0xba1ef98b	-0.00060644065
71	0x3cf93d1e	0.03042465
72	0xb853d8a4	-5.0508082e-05
73	0xba22c467	-0.0006209076
74	0xbd8562b4	-0.06512967
75	0x39d4d22e	0.00040592387
76	0x3d1be39b	0.03805886
77	0xbd2275b1	-0.03966302
78	0xbcf1f0d8	-0.029533789
79	0xb916b040	-0.00014370773
80	0x3a8baedf	0.0010656974
81	0xbd60bd79	-0.054868195
82	0xbde21281	-0.110386856
83	0x3d8fb1bf	0.07016324
84	0xbd817419	-0.06320972
85	0x3d9d73ff	0.0768814
86	0x39a7bf5e	0.00031995302
87	0xba2633f4	-0.0006340139
88	0x3d9e7903	0.07737925
89	0xbd659288	-0.056047946
90	0xbd046c31	-0.032329742
91	0xbd51b5d9	-0.051198814
92	0x39e54af9	0.00043734143
93	0x390ec61f	0.00013615981
94	0xbd410bcc	-0.04713039
95	0xbd1cfe5b	-0.03832851
96	0xbd653ab9	-0.055964205
97	0x3daeadc8	0.0852924
98	0x396e64c2	0.00022734984
99	0xbd8cac8f	-0.068688504
