Quantum/2 qubit/complete/models/8_latent.pt (torch, 116775 bytes, 6 tensors)

encode.0.weight f4 [100, 30]
000000 ae 7e 62 bd 4f c8 81 bd 8b 4e ed 3d 89 48 5a 3d
       -0.055296592 -0.06337034 0.115872465 0.05329183
000010 65 f4 9e bd 4a 20 88 3d 3e 70 fe 3c 26 7a 65 bc
       -0.07761458 0.06646784 0.03105938 -0.014006173
000020 a1 dd 88 b9 bc 18 b8 3d e1 e5 71 bd 61 f0 e2 3b
       -0.00026105068 0.08989093 -0.05905712 0.006925628
000030 cf 98 b0 3d 95 64 9d bd a6 89 9a bd ac df c8 bd
       0.08622896 -0.076852 -0.075457856 -0.09808287
000040 51 ae 50 bd 34 9b a3 3d 35 7c a5 3c 44 f2 10 3d
       -0.05094749 0.07988587 0.020200828 0.035387293
000050 78 3f 65 bc a8 02 9a bc e0 1c 07 3e eb bd 8a bc
       -0.013992183 -0.018800095 0.13194609 -0.016936263
000060 bc a2 9b 3d db c1 99 bc 73 e7 b8 bd 3f 60 c0 bc
       0.075993985 -0.018769195 -0.090285204 -0.023483394
000070 58 23 81 bd f6 f8 82 bc 4b f6 74 3f de 95 9c 3f
       -0.063055694 -0.015987854 0.95688313 1.2233236
000080 b2 bf 98 be d3 1e 20 bf 9d f3 c6 3e d5 ef 92 3f
       -0.29833752 -0.62547034 0.38857737 1.1479441
000090 04 42 58 3f 75 d7 fe 3d b6 9d 28 3f 6f e1 d1 bd
       0.8447573 0.12443439 0.6586565 -0.10248076
0000a0 b2 5e 4d 3e df d2 ea be 8e ca e6 3c 90 4a 0e 3d
       0.20055655 -0.45864007 0.028172757 0.034739077
0000b0 71 cd cf bc d6 0a 32 bf cc 47 11 40 02 49 01 bf
       -0.025366517 -0.69547784 2.2700071 -0.50502026
0000c0 5b 75 16 3d 6e 5f d5 3e 81 01 eb 3e 53 a4 d6 bd
       0.036733013 0.4167437 0.45899585 -0.10480561
0000d0 8b 0c 22 bf 37 52 2c 3f e8 5d d4 be 91 3d 71 be
       -0.6330039 0.6731295 -0.41477895 -0.23558642
0000e0 e5 be 0e bf bc 3b c0 3f 23 5f 9f 3d 03 fc 1c bf
       -0.5576003 1.501823 0.07781818 -0.6132204
0000f0 57 21 0a 3f e5 04 07 3f 4e e6 8f be 9d 95 df 3d
       0.5395712 0.52741843 -0.28105396 0.10917208
000100 26 df 55 3e 03 43 4b be d9 ad 05 be 1c 53 3b bf
       0.20885906 -0.19849782 -0.13054599 -0.7317369
000110 dd f5 8b 3e 3a 1a 9c 3e 83 b6 32 bf 9c d7 cf bd
       0.27336016 0.3048876 -0.6980974 -0.10148546
000120 3a 6f 8d 3e 9e ed 4c 3e 48 56 5e 3d 8c 7f 20 be
       0.27623922 0.20012519 0.054281503 -0.15673655
000130 50 7d 11 bd d5 a8 f4 be 83 bc fd be cb 53 32 bd
       -0.035519898 -0.4778506 -0.49557886 -0.043536942
000140 be aa 28 bf 9a c8 d4 3e 05 15 16 3e a6 f5 9e be
       -0.6588553 0.41559297 0.14656456 -0.3104679
000150 1e 64 6a 3e 87 f3 af be 1d d4 c8 3e 83 76 fe bd
       0.22889754 -0.34365484 0.3922433 -0.12424948
000160 9f 78 02 3e fa f1 0e 3d 8c 2e f2 3e 9b 68 7e 3f
       0.12741326 0.034898736 0.47301137 0.99378365
000170 36 ac d4 be b4 b9 b1 be 4c b4 b5 3c 52 11 25 3f
       -0.41537637 -0.34711993 0.022180699 0.64479554
000180 4d 24 83 be 31 db e8 bd 81 db 00 3e af e2 c3 bd
       -0.25613633 -0.113699324 0.12583734 -0.09564721
000190 fe 60 91 3e a5 a7 91 3c 79 28 f0 3c fa e5 81 3e
       0.28394312 0.017780134 0.029316174 0.2537077
0001a0 8e bb 9d 3e 42 a1 9e be ab 1e 3a 3f 26 71 36 bf
       0.30807155 -0.30982405 0.72703046 -0.712664
0001b0 23 ae b0 3e 20 25 fe 3d 55 f1 ec 3e 87 8c 2c bf
       0.34507856 0.12409425 0.46277872 -0.6740193
0001c0 ab 90 00 bf 03 60 68 3f b3 81 e1 be 79 80 0a be
       -0.50220746 0.907715 -0.44044265 -0.13525571
0001d0 ca bb 06 bf ae d1 2a 3f d7 52 83 be 69 47 46 be
       -0.52630293 0.66726196 -0.2564914 -0.19363178
0001e0 53 37 e9 3d 08 5b 9d be 56 84 e1 3e de ff 1f 3e
       0.113875054 -0.30733514 0.44046277 0.1562495
0001f0 75 42 c3 3d 01 64 08 be 45 44 a9 3e d1 12 43 bc
       0.0953416 -0.13319398 0.33059898 -0.011906342
000200 f3 18 22 bf 22 ca cd 3c 9e b3 8c be 2e 77 92 3e
       -0.6331932 0.025120798 -0.27480787 0.28606552
000210 a6 78 cb 3e 41 69 cd be 45 7c 92 bd 8b 85 ff bd
       0.39740485 -0.40119365 -0.07152609 -0.12476643
000220 ec 34 59 bf 07 28 e0 3e fc 09 67 be 4f b7 0b 3e
       -0.8484638 0.43780538 -0.22562402 0.13644145
000230 a9 4a 21 be 69 b7 3f bd c7 4a d1 3e 57 c2 ed be
       -0.15751137 -0.046805773 0.40877363 -0.46437332
000240 ea cf f2 3e ac 8d a8 3e e4 5e e1 3e 24 70 68 bf
       0.4742425 0.32920587 0.44017708 -0.90796113
000250 5f 0a e7 be 7c 82 1a 3c 99 d4 21 3e 7d da 18 3d
       -0.451251 0.009430524 0.15803756 0.03731774
000260 c9 40 2c be 8a cf eb 3c 90 61 94 3d 8f 32 84 bd
       -0.16821589 0.028785486 0.07245171 -0.06454956
000270 e4 17 12 3d ac 46 a4 3d ed 0e 16 be 04 97 06 bd
       0.035667315 0.08021292 -0.14654131 -0.032858863
000280 b2 3f e6 3d d4 21 84 3d bb 7d a9 3d 52 2a 8b ba
       0.11242618 0.06451765 0.08275934 -0.0010617471
000290 01 67 53 3d b6 43 d3 bc 2d 96 f2 bd 83 f4 2f be
       0.051611904 -0.025789123 -0.1184505 -0.17183118
0002a0 42 3b 5c bc 6f 18 99 3d be 61 d5 bd c4 ef 14 3d
       -0.013441863 0.074753635 -0.104190335 0.03636147
0002b0 80 53 42 bd e5 ff 5a 3d 5e de e1 3d 83 4f c2 3c
       -0.047442913 0.053466696 0.11028741 0.023719555
0002c0 25 0c 4c 3c aa 8c 26 3d 26 a4 10 bc 76 b1 14 be
       0.012454067 0.04066149 -0.008828199 -0.14520821
0002d0 c8 60 b5 be fd 24 62 be 61 06 70 bd 97 9a 55 3e
       -0.354254 -0.22084422 -0.058599833 0.20859753
0002e0 0a 09 a8 be ed 60 2d bf ed 78 c5 be 89 52 e0 3e
       -0.32819396 -0.6772602 -0.38568822 0.4381297
0002f0 58 9c 57 bf 05 95 58 3e f9 53 8d 3c 1e 49 78 3e
       -0.84222937 0.21150596 0.017251955 0.24246642
000300 0a 5d 5b be 03 fe 99 be 73 d7 96 3e 2e 79 c2 3e
       -0.2142221 -0.30076608 0.2946125 0.37983078
000310 b1 a9 88 bd 20 2a bb 3e 02 87 df 3e 5e e3 18 3e
       -0.06672991 0.36555576 0.4365769 0.14930484
000320 61 dd 60 be a2 79 68 be e7 f2 05 3f 6d e8 ac be
       -0.2195945 -0.22702649 0.52323765 -0.33771077
000330 46 a9 26 3e fc 62 55 be e0 e2 22 be 74 4b c2 3d
       0.1627551 -0.20838541 -0.15906858 0.09487048
000340 d1 35 78 be 39 86 15 3e 18 2f b3 bc 8e 85 60 3e
       -0.2423928 0.14601983 -0.021873042 0.21925947
000350 9d d5 3c be 2b 74 0f 3f fa c7 4a bf 0d a8 3e 3e
       -0.18440862 0.56036633 -0.7921139 0.18618794
000360 73 a8 96 be 8f 85 44 be 22 83 24 bf 99 6d e5 3e
       -0.29425392 -0.19191574 -0.6426259 0.4481018
000370 64 0b 32 be 4d e3 46 3f b8 a7 c0 bd a1 df 13 3e
       -0.17387158 0.77690583 -0.0940699 0.14440776
000380 5c 29 1c 3f 9a c2 99 be 4e 80 03 c0 a0 37 fa be
       0.6100061 -0.30031282 -2.054706 -0.48870564
000390 68 78 8e 3e 39 58 5d be 91 a9 b6 be 8a 98 4d bf
       0.27826238 -0.21615686 -0.35676244 -0.8031088
0003a0 a0 5c 03 3f 56 bd ad bf e3 78 e1 3e c5 41 be bd
       0.5131321 -1.3573406 0.44037542 -0.09289888
0003b0 42 10 3e 3f 94 24 8a bf ba ee da be 81 ca c9 3e
       0.7424356 -1.0792413 -0.4276026 0.3941231
0003c0 85 2b 82 3d f7 15 f7 3d f3 a2 b2 bd 54 21 c7 bd
       0.06355957 0.12064736 -0.08722486 -0.09723154
0003d0 a4 da 1b 3d cf 2b f3 bc a0 f4 37 3e ac ec 0b 3d
       0.03805031 -0.029683976 0.17964411 0.034161255
0003e0 e4 ef a1 bd 20 81 eb bc 44 aa 61 3d be c6 ae bc
       -0.07907084 -0.028748095 0.05509402 -0.021335002
0003f0 92 86 1a be ba b5 e8 3d 39 78 9d bc 75 eb dc 3d
       -0.15090397 0.113627866 -0.019222366 0.10787097

encode.2.weight f4 [100, 100]
000000 a8 4d 23 3d aa 4d 1e 3b df f5 9a bd c5 ef 11 3e
       0.03986898 0.0024155178 -0.075664274 0.14251621
000010 9c 77 96 3e 15 0e f2 3d a2 63 93 3e 03 5f 11 be
       0.2938813 0.11819092 0.2878695 -0.141964
000020 ca 37 fa 3c cb 18 20 3e 6a 91 5f be 86 d7 d8 bb
       0.03054418 0.15634458 -0.21832815 -0.0066174893
000030 2f f0 43 3e 1b 03 7d be 05 2f 5e 3e 9b 0f 1e 3e
       0.19134592 -0.24708216 0.21697624 0.1543564
000040 da ce 29 be d0 0f 97 3b f5 12 00 3e 4f 4f 1b 3e
       -0.16582814 0.0046100393 0.12507232 0.15166973
000050 be 3a dd bd 99 e7 d5 bb 68 2c ab bc d5 b7 36 3e
       -0.1080222 -0.0065278527 -0.020895198 0.17843564
000060 83 f9 23 3e 49 f7 78 bd 7b a9 c7 3d 08 10 ab bc
       0.1601315 -0.060782705 0.09749123 -0.020881668
000070 6e c6 dd bb 23 f1 cb 3e 19 2a 9d be 37 a0 1c 3e
       -0.0067680394 0.3983241 -0.3069618 0.15295492
000080 73 f7 cd bc 97 72 f6 3d de 88 ac bd e8 b9 93 3e
       -0.025142407 0.12033575 -0.08424543 0.28852773
000090 71 f4 14 be df fa 10 3e 2c 69 63 3e c5 2f af 3c
       -0.14546372 0.141582 0.22208089 0.021385083
0000a0 cd e7 bf bd ea e5 dc 3d 59 09 04 3e 22 1c 2f 3d
       -0.09370384 0.1078604 0.12894191 0.04275144
0000b0 cb de 5b 3e 03 f3 e1 bc b7 cb f7 3d 19 cc 35 be
       0.21471708 -0.027581697 0.120994024 -0.17753638
0000c0 4a 3b fb bc c0 c1 80 be 75 66 86 3d c7 de 78 bc
       -0.03066792 -0.2514782 0.06562511 -0.015189833
0000d0 1e 96 a3 3e 1c fc 0f 3e 2e e3 86 3e 95 9a 06 be
       0.31950468 0.14061016 0.263452 -0.13144906
0000e0 3e f8 5e 3d eb 0b 24 3e 8b 09 1a 3d 94 ec 4d 3d
       0.05443596 0.16020171 0.037606757 0.050274447
0000f0 2c c5 6c be 42 ea b3 3d 40 1b 28 3e ac f7 82 bb
       -0.2312209 0.087849155 0.16416645 -0.00399681
000100 8f a8 3d be 69 8c 59 3e 8a 30 91 bd e3 92 f6 3b
       -0.18521331 0.21244968 -0.07089336 0.0075248345
000110 cd e3 98 3c 8d 15 a1 3b 68 82 03 be 05 48 a9 3e
       0.018663311 0.004915899 -0.12842715 0.3306276
000120 85 ab d4 be 91 e7 a7 bd 0a 38 75 be 4b a1 9e bd
       -0.4153711 -0.08198465 -0.23947158 -0.07745608
000130 c2 dd 21 3e d1 2c 23 be eb 69 f2 bd f9 0a 0e 3c
       0.1580725 -0.15935065 -0.118366085 0.008669608
000140 cb f3 8c be 6d 16 1e be 7e 1e 3c 3b eb c5 de bd
       -0.2752975 -0.15438242 0.0028704698 -0.108775936
000150 90 42 8c 3e 9e ba 54 3c eb 08 06 bd ad 7f 91 be
       0.27394533 0.012983946 -0.03272335 -0.2841772
000160 d1 7d 85 3e c7 3a a8 bd 85 37 0d bd 04 ac d7 be
       0.26072553 -0.08214336 -0.034476776 -0.42123425
000170 64 6f e5 bd 7a c6 83 3d b3 18 89 3d f3 7c 92 bc
       -0.11202887 0.06434341 0.06694164 -0.017881846
000180 fd b5 d1 3d d7 1d 95 3d 21 72 fe be 13 e0 ff 3e
       0.1023979 0.07281082 -0.49696448 0.49975643
000190 09 93 1b be af 42 c0 bd af 21 f3 bd 4a af 9e bd
       -0.15192808 -0.09387719 -0.11871659 -0.077482775
0001a0 21 99 fc 3d e8 d4 e7 3d 5c 71 be be 40 96 ed 3e
       0.123338945 0.113199055 -0.3719586 0.46403694
0001b0 1d 71 26 3c 7e 43 cd be 3c 63 2d be 1d ed 64 be
       0.010158804 -0.40090555 -0.16932386 -0.22356077
0001c0 83 d8 f6 3d a7 68 ca 3e a1 bb ba be 48 17 63 be
       0.12053015 0.39532968 -0.36471274 -0.2217685
0001d0 10 5e 39 bc c5 cf 1e 3e 86 95 30 3f cc 37 12 bf
       -0.01131393 0.15508945 0.68978155 -0.5711639
0001e0 9a b8 05 bf d2 02 d4 bb 63 14 40 3d 5f 22 8d bd
       -0.52234805 -0.006470063 0.046894442 -0.068913214
0001f0 39 1d fa bd 57 ae af 3d 94 93 94 bd 69 18 e1 be
       -0.12212605 0.085781746 -0.07254711 -0.43963936
000200 52 23 ac 3d 8d 53 64 3c 78 88 16 3d 06 a9 d2 be
       0.08405174 0.013935936 0.03675124 -0.4114458
000210 a1 31 a2 3d 25 a3 88 3f 7b 6b bf 3b a7 16 44 be
       0.07919622 1.0674788 0.00584167 -0.19149266
000220 0c 76 93 be e8 37 9e bc 81 dc d0 bd 88 70 93 be
       -0.28801 -0.019313768 -0.10198308 -0.28796792
000230 85 c3 5b 3f 44 56 f6 3d 14 23 21 be b8 ab 90 3d
       0.85845214 0.120281726 -0.15736037 0.07064003
000240 b3 e4 45 3e 8b 41 da 3d 63 e1 d9 3e bd ae b2 3e
       0.19325523 0.106570326 0.4255477 0.3489894
000250 b4 f3 08 3e fe 81 1a 3c 3c 8c 66 3d 4a 9b 51 bc
       0.13374215 0.009430407 0.05628608 -0.012793371
000260 bc 91 c8 be 2d c2 2f be e0 44 0e be 37 03 d8 3e
       -0.39173687 -0.17163916 -0.13893461 0.42189953
000270 1f 23 5f be 6d 10 25 bc 28 53 9c be 4b 63 c3 be
       -0.21790741 -0.010074717 -0.30532193 -0.38161692
000280 ea 36 15 be cb 86 5c 3d 37 18 91 3f a5 58 bd be
       -0.1457173 0.053839486 1.1335515 -0.36981693
000290 4c 98 dc 3c 91 cd 77 be c6 66 6b bf 9a c2 85 bc
       0.02692809 -0.24199511 -0.91953695 -0.016328145
0002a0 df 07 10 be fe 86 c9 3c 5c b5 91 be bc f8 5b be
       -0.14065503 0.024600502 -0.2845868 -0.21481603
0002b0 d9 01 a4 3d 72 1a 05 bb 1e 70 9f be da d3 7f 3e
       0.08008165 -0.0020309952 -0.31140226 0.24983159
0002c0 1b 7c 0b 3e bc f5 da be ea 97 c8 bd b3 7b 06 3c
       0.13621561 -0.42765605 -0.097946 0.008208203
0002d0 8d bf 56 be 63 20 88 be b7 d9 cd bc cb 52 d6 be
       -0.20971508 -0.2658721 -0.025128229 -0.4186004
0002e0 3f 0e 89 bc 5f 39 37 be 15 05 44 3e e1 20 a7 be
       -0.016730426 -0.17892979 0.19142564 -0.32642272
0002f0 35 02 1d 3f 19 f2 b4 be d9 7e 8a be 2a 9e e8 be
       0.6133149 -0.35340956 -0.27049902 -0.4543317
000300 c6 f1 f5 3d 40 6d 96 be 98 3f 37 be 2c 48 88 3b
       0.12009005 -0.29380226 -0.17895353 0.004158994
000310 21 48 24 3d 73 c4 dd bc f5 e9 9c 3e e0 dc c4 3b
       0.04010785 -0.027071213 0.30647245 0.0060077757
000320 87 04 8b 3d f7 55 55 c0 2e d0 58 be cd f1 ac bf
       0.06787973 -3.3333719 -0.21173164 -1.3511292
000330 ea d3 04 3f 8b 36 c1 3d 64 83 06 3f 2b f9 b0 3f
       0.51885855 0.09434231 0.52544236 1.382604
000340 6a 8a bb 3c f5 61 13 c0 0e 4f dc bc 64 a1 0a c0
       0.02289315 -2.3028538 -0.026893165 -2.1661005
000350 cf f9 11 40 af 71 9f 3f d9 fa ab bf 2b da 89 bf
       2.280872 1.2456568 -1.3435928 -1.0769705
000360 72 da 02 3f cd e7 09 3e 2a 7b ef 3f 16 83 70 bf
       0.5111457 0.13467331 1.8709462 -0.9395002
000370 35 92 6e bf 0d 38 9c 3c 81 6b 0d 3d 05 70 04 be
       -0.93191844 0.019069696 0.03452635 -0.12933357
000380 05 8a 3d bf 68 2e f4 3e a1 60 dd 3d 7f cd 55 bf
       -0.74038726 0.47691655 0.10809446 -0.8351669
000390 0d c2 8b 3e 3b d5 e2 3e c0 21 9d bd 0f 8a b4 bf
       0.27296486 0.44303307 -0.07672453 -1.4104632
0003a0 1b 28 94 3f 6d 28 63 40 f9 96 60 3c 14 dd f9 bf
       1.1574739 3.5493424 0.01370787 -1.9520593
0003b0 a7 ba ad be 1a 8f b5 bf 72 95 0a 3e f4 9f c8 bf
       -0.33931467 -1.4184296 0.13533571 -1.5673814
0003c0 7a 66 45 40 44 a2 47 3f b5 1f 5d bf ff e2 6b be
       3.0843797 0.7798197 -0.86376506 -0.23035811
0003d0 4a 9c ee bc e6 9b 43 bf 29 f9 54 40 ac 5e 82 3f
       -0.029127259 -0.7640976 3.3277075 1.0185142
0003e0 e1 9c b1 bd 48 31 a8 bf de 07 33 3f 1c 89 a1 3c
       -0.086725004 -1.314004 0.6993388 0.0197187
0003f0 bc 53 ac 3d 04 a9 1f 3f 9c c0 7d 3f 01 4e b6 3f
       0.084144086 0.6236727 0.99122024 1.4242555

encode.4.weight f4 [16, 100]
000000 e2 31 2d 3e b0 21 05 be 1d bd 1f 3f 0b 9f fa 3d
       0.1691356 -0.13001132 0.6239794 0.12237366
000010 31 fa b5 3d ec 6a 00 3f 4f 92 59 be b4 0a 3d 3d
       0.08885611 0.5016315 -0.21247219 0.046152785
000020 a0 17 f1 3d cd db 0b 3d c9 ed 97 bd c8 b1 c8 3d
       0.11772084 0.034145165 -0.07418401 0.09799534
000030 88 90 12 be c9 d8 80 bd db 44 20 3e 7c fa 53 be
       -0.14312947 -0.062913485 0.15651266 -0.20701021
000040 ac 0e 88 39 f9 e7 dc be 02 31 81 bd 98 04 d7 bd
       0.00025950873 -0.4314573 -0.063081756 -0.10498923
000050 bd 85 15 3e 24 59 d5 3a bb fa b1 3e a4 bf 3f 3e
       0.14601798 0.0016277176 0.34761605 0.18725449
000060 b0 55 56 be e8 6a 62 bc 96 6a 94 be ec e0 4f be
       -0.20931125 -0.013819434 -0.2898757 -0.20300645
000070 64 cd 9f 3e 14 81 8b bd 03 8a b6 bc 47 25 dc bd
       0.31211388 -0.06811729 -0.022282606 -0.107492976
000080 93 b1 ae 3e 9a f9 20 3e e6 5b 97 bd 25 72 35 bf
       0.34119853 0.15720215 -0.07390575 -0.70877296
000090 a0 83 86 3f 32 b0 af bd d6 63 49 3b 92 1c 23 3e
       1.0508919 -0.085785285 0.0030729673 0.15928867
0000a0 2d 64 cb 3c fd 5e f4 3d 0f a9 48 3e 13 88 40 bd
       0.024828041 0.1193218 0.1959574 -0.04700477
0000b0 b3 38 3e 3e 5c 09 27 be d0 9f 95 3c a6 35 2a 3d
       0.18576317 -0.16312164 0.018264681 0.04155507
0000c0 b2 92 87 bd 58 77 48 be e6 8f 01 3e e4 cb 25 bd
       -0.06619777 -0.19576776 0.12652549 -0.04047765
0000d0 cc 17 83 bd 91 e4 5d be c7 7c d4 be e9 85 57 3c
       -0.06401023 -0.21669222 -0.41501448 0.013154485
0000e0 ea f4 84 be dd c5 04 bf 2c 28 b1 3e 2a de 5b 3e
       -0.25968105 -0.51864415 0.3460096 0.21471468
0000f0 6c 90 13 3d 00 5a 26 bd 24 75 5e be 82 a5 e0 3d
       0.036026403 -0.040613174 -0.21724373 0.10969068
000100 e6 10 21 3e 55 d9 90 bd 81 1c 8e 3d f4 b8 c3 3e
       0.15729102 -0.07072703 0.069390304 0.38227046
000110 7d 60 9e be 14 0e b8 bd 1c 90 bc bb 0c f2 20 bf
       -0.3093299 -0.0898706 -0.005754484 -0.62869334
000120 22 35 60 bb 11 69 e7 3c 7c 2d 51 3d 9e 1a 29 3d
       -0.0034211357 0.028248342 0.051068768 0.04128515
000130 7e 18 8d bd 4c 10 14 bd ba 77 d9 ba 1c a4 9b 3d
       -0.06889437 -0.036148354 -0.0016591467 0.07599661
000140 4a 2d 09 3f b1 a1 48 be 1c af 0b bd d6 35 ea bc
       0.5358473 -0.1959293 -0.034102544 -0.028590124
000150 1d d2 e1 3d 84 bb b6 bc 30 60 23 bf f9 2b 4a bc
       0.11026404 -0.022306211 -0.63818645 -0.012339585
000160 00 6d 3e bd 13 1e d9 3d 25 9e 77 be 76 5b d9 3d
       -0.04649067 0.10601439 -0.24181421 0.10613148
000170 06 1a 9d bb 55 b3 12 3e b0 2f 91 bd cd eb 54 bd
       -0.004794362 0.14326222 -0.07089174 -0.05198269
000180 9a fb d4 3d f2 d0 b1 3d de 35 26 3e 0d 0f ac bc
       0.10399552 0.08682431 0.16231486 -0.02100327
000190 1b 36 74 3e 64 45 74 3e a0 ff a2 3e 4f a6 9a 3c
       0.23848765 0.23854595 0.3183565 0.01887813
0001a0 65 f7 d1 bd 2f d7 12 bf a5 10 d4 3b 81 6f e2 bd
       -0.10252265 -0.57359594 0.0064717107 -0.11056424
0001b0 e8 a2 17 be d8 ab 97 bc 46 9e 44 be 86 60 d7 bd
       -0.14808238 -0.018514559 -0.19201002 -0.10516457
0001c0 3b 8f 1c 3d ed 13 a0 3d d5 90 35 3e 17 56 20 bc
       0.038222533 0.078163005 0.1773103 -0.00978615
0001d0 10 b7 93 3a 3e 9b d8 bd 3c 4f 58 bd f1 65 86 3c
       0.0011269767 -0.10576485 -0.05280994 0.016406031
0001e0 11 c1 c7 bc cd ed b2 ba e8 4a 09 3f 4a c7 af bc
       -0.024384053 -0.0013651192 0.5362992 -0.021457333
0001f0 a3 49 3e 3e 3b b1 08 3e 33 87 21 be f7 01 42 3e
       0.18582778 0.13348858 -0.1577423 0.18946062
000200 43 7a eb 3d 80 88 88 3e 62 b2 b6 bd eb d0 c1 bc
       0.11497929 0.2666664 -0.089207426 -0.02365919
000210 9d 14 80 be e8 37 b1 3d 6e 9e c7 3d 4b a1 78 3e
       -0.25015727 0.086532414 0.09747015 0.24280278
000220 ae 66 2c bf 40 7c 04 3d ef 13 70 bb 05 c1 29 3d
       -0.67344177 0.032345057 -0.0036632975 0.041443843
000230 08 9d 1d 3e 9a d2 83 3d 4f 41 7a bd 57 41 cb 3d
       0.15391934 0.064366534 -0.06109744 0.09924572
000240 14 15 b0 be 52 92 a5 be 53 49 81 bc 42 32 63 3d
       -0.3439108 -0.32338196 -0.015782034 0.05546785
000250 80 39 a8 3c 1f f5 71 be 67 b3 43 3d c2 9e bc 3c
       0.02053523 -0.23628663 0.047778513 0.02302492
000260 47 7c 1a bd 32 82 38 3b 01 b9 41 be dc 60 92 3d
       -0.037716176 0.0028153774 -0.1891823 0.07147381
000270 c9 fb 89 3d 22 9d a0 be 42 9f b5 3e a4 f5 35 be
       0.06737477 -0.31369883 0.35473067 -0.17769486
000280 30 4e 2e be bb 38 4d bd c1 5f 13 bf c0 4e 7f bd
       -0.17022014 -0.05010293 -0.57567984 -0.06233096
000290 63 d7 a4 bd 57 15 2c 3d ad 08 86 3d 3a 71 83 3d
       -0.08048894 0.04201254 0.065446235 0.06418081
0002a0 c9 76 87 be bd e2 1a bf 25 4d 88 bc 78 66 9e be
       -0.26457813 -0.60502225 -0.016638348 -0.30937552
0002b0 24 e5 dc 3b a9 69 a5 3c 31 7c 1f 3d 96 18 d0 bd
       0.006741183 0.020191984 0.038936798 -0.101609394
0002c0 cb e6 29 bd 8f 3a 81 bd e6 a8 63 3a fb f0 60 be
       -0.041479867 -0.06309997 0.00086845306 -0.21966927
0002d0 24 6a 23 3f c8 50 02 3e 9b 20 55 3e 78 9c 0a 3e
       0.6383383 0.12726128 0.20813219 0.1353625
0002e0 be 80 fd 3c 2c 5b 71 bd c7 fd 7c 3f 4f 3e 29 3e
       0.030945178 -0.05892484 0.98824733 0.16527675
0002f0 fb 52 c7 be 2d 38 d9 bd f0 d8 20 3f df 7d 2f 3e
       -0.38930497 -0.10606418 0.6283102 0.1713786
000300 85 d8 ba 39 6d d8 11 bd 6c db 06 be e1 f7 e5 3d
       0.00035638004 -0.03560679 -0.1316964 0.1122892
000310 5a 03 18 be fa 41 ff 3d 11 08 26 bc b6 d7 87 bd
       -0.14845029 0.12463756 -0.010133759 -0.066329405
000320 77 07 ac ba 91 09 a7 bc 19 d5 28 3e 0b 2f b2 3b
       -0.0013124783 -0.020390304 0.1648754 0.005437737
000330 d2 68 81 3b c4 4e 57 3d d7 d6 06 bb 68 7f a8 3b
       0.003949263 0.05256535 -0.0020574832 0.005142141
000340 cf dd ca 3a 76 b1 ae 38 dc 61 93 be d9 2b e3 3b
       0.0015477481 8.330021e-05 -0.28785598 0.0069327173
000350 ef b8 cd ba 6a a6 2b 3b 53 f7 97 3a d8 1e ad 3c
       -0.0015695373 0.002619172 0.0011594094 0.021132872
000360 2e 02 b2 bc a9 fa 67 3d 06 3b 0d 3c 82 ec 04 3a
       -0.021729555 0.056635533 0.008620029 0.0005070643
000370 99 7b 50 bb 73 b6 15 bc 7d 83 22 be fe f4 c8 ba
       -0.0031811951 -0.009137738 -0.15870471 -0.0015331802
000380 5a 7a e6 39 4a 92 7b ba 03 04 1e 3b df e0 37 bd
       0.00043960178 -0.0009596689 0.0024111278 -0.04489219
000390 c6 17 23 3d 73 95 c2 3b 5d ce 6c 3b 88 be 02 3b
       0.039817594 0.005938226 0.0036133744 0.0019949991
0003a0 85 ee e2 3a 98 c3 4f 3b 5c 37 6f ba c4 72 b2 3d
       0.0017313516 0.0031702276 -0.00091253757 0.08713296
0003b0 e1 31 c9 bd 5a 5e 4e 3b 66 be 23 3c 1f 27 f9 bb
       -0.09823967 0.0031489343 0.009994125 -0.0076035406
0003c0 21 ad 1b 3e d5 4e 4d 3c 93 f5 07 ba f5 85 d8 ba
       0.15202762 0.012531002 -0.0005186435 -0.0016519414
0003d0 4d 1e 95 bc 5c 2e ae 3c 78 f0 81 39 1a 09 19 38
       -0.018202925 0.02126234 0.0002478396 3.648652e-05
0003e0 ab d2 16 3c ef bf 12 bb 69 44 35 bb 59 b7 80 bd
       0.009205501 -0.0022392233 -0.0027659184 -0.06284971
0003f0 6d 5b 15 3b 5f c5 a7 3c 85 0e 61 bc 5e bf 3b bc
       0.002279009 0.020479856 -0.013736372 -0.0114592

decode.0.weight f4 [100, 38]
000000 bb 80 2e 3e 21 02 31 3e 7f f1 66 ba 20 27 08 bd
       0.17041294 0.17285968 -0.00088097894 -0.033240438
000010 33 60 5a be 19 14 7b 3d b4 ea 5f be 25 f5 f2 3d
       -0.2132576 0.061298463 -0.21866876 0.11863164
000020 4a 08 e4 be 48 1f 1f bf ec ce aa bc 48 0f be 3e
       -0.44537574 -0.62157106 -0.020850621 0.37121034
000030 52 ed 83 be 28 60 45 3e b8 fd 51 3e d6 98 b2 3c
       -0.25767 0.19274962 0.20506942 0.021801393
000040 72 6b 5b 3e 44 c7 43 bf 66 11 00 3f 80 b3 4a 3e
       0.21427706 -0.7647593 0.5002655 0.19795036
000050 7b da 2d bd 00 ec cf 3d ed 96 1d 3f 0b c5 95 3d
       -0.042444687 0.10152435 0.6155842 0.073129736
000060 ab bf d9 be 53 00 10 bf cc ce 5f bf a6 b9 9a 3f
       -0.42529044 -0.56250495 -0.8742492 1.2087905
000070 c0 eb e6 be 75 9c 94 be 2c 6d fa be 60 21 ab 3d
       -0.45101738 -0.29025617 -0.48911417 0.08355975
000080 28 4e cc be a1 1f 0b be 1d 83 77 3f 5f 16 12 bf
       -0.39903378 -0.13586284 0.9668444 -0.57065386
000090 46 e4 9e 3e b4 98 5d be be 18 ac 3e 2f 5e 0f 3e
       0.31033534 -0.21640283 0.33612627 0.14000772
0000a0 57 e3 cc ba f9 9f 3f 3e 55 0b 7a 3e 3d 23 61 be
       -0.0015631717 0.18713368 0.24418385 -0.21986099
0000b0 1f 43 b5 3e b8 2a 9b ba 22 33 b3 3b 0b d6 fc bc
       0.35402772 -0.0011838293 0.005468742 -0.030863782
0000c0 65 20 d9 3e 77 dd c3 bd b9 03 cf be 74 28 24 3e
       0.42407528 -0.095637254 -0.40432528 0.16031057
0000d0 8b 38 f0 3e 1c ab 10 3f 06 df a1 be 0b 4b 57 be
       0.4691814 0.5651109 -0.31615466 -0.2102472
0000e0 b5 6d 36 be f0 ed ca be e7 23 0f bf 76 99 7a be
       -0.17815287 -0.39634657 -0.5591416 -0.24472603
0000f0 3b cf ff 3d b8 da e1 be fd 95 cd bd 63 9d f8 be
       0.12490698 -0.44112182 -0.100383736 -0.48557577
000100 d1 a4 19 bf bd 95 ce 3e 42 15 6d bd e5 42 5b bf
       -0.60017115 0.40348616 -0.0578816 -0.8564895
000110 0d 62 fb bd b6 71 3a 3e 76 56 ed be d9 0b 09 bf
       -0.12274561 0.1820744 -0.46355027 -0.53533703
000120 21 3e 5e 3e 71 49 76 bd 7d 95 f2 be 56 bf c9 3c
       0.21703388 -0.060128633 -0.47379676 0.024627369
000130 e2 6a 86 bd 2b fc b7 3c 21 c2 bb ba ce b6 38 3e
       -0.06563355 0.02245911 -0.0014324823 0.18038484
000140 b4 f2 c2 be 79 47 e4 3d b3 aa ab bd 0e 1b ef 3c
       -0.38075793 0.11146445 -0.08382168 0.029187705
000150 dd 8d 02 be 51 18 2d bf 3a 4d 15 bf 1c bf de bd
       -0.12749429 -0.6761523 -0.58320963 -0.10876295
000160 31 1e d9 be 34 4d 16 bd d7 76 29 bf e1 b3 af 3c
       -0.42405847 -0.03669472 -0.6619696 0.021448078
000170 7e 83 6b be af e2 b2 be 85 f5 a2 3e 5b b5 9d 3d
       -0.22999379 -0.3493857 0.31827942 0.077006064
000180 af c1 17 be 4c 43 28 3e 01 b6 02 3f e6 38 18 3f
       -0.14819978 0.16431922 0.51058966 0.5946182
000190 1c 3d 88 3f 8b 9e 07 3f d0 98 b7 be e2 0e 04 3f
       1.0643649 0.5297629 -0.35858774 0.5158521
0001a0 78 10 33 bf 20 93 35 3e 9e c9 00 be 33 8d 29 3e
       -0.69947004 0.17731905 -0.12576911 0.1655777
0001b0 06 30 e3 3e df a7 3c be da 46 08 3e a6 ae 30 3c
       0.44372576 -0.18423413 0.13308278 0.010783827
0001c0 4b d4 0e be ff af 7f be cf f1 be 3b 1b f3 a4 bd
       -0.13948171 -0.24969481 0.0058271657 -0.08054181
0001d0 f3 f3 bf ba 03 01 ff bd ec 40 b5 3c ef c8 0b bd
       -0.0014644846 -0.12451365 0.022125684 -0.034127172
0001e0 d4 5c f0 bc d7 cd b7 3e 7f b5 e9 3d 3b 09 2d 3d
       -0.029341139 0.3589923 0.11411571 0.04224513
0001f0 a7 9f c6 be b8 30 1f bc c5 28 54 ba d2 cb f5 3e
       -0.3879368 -0.009716205 -0.00080932333 0.48007065
000200 0e 63 d7 bd 2b 19 bd be 9b 4a 1a be e9 bf 18 be
       -0.1051694 -0.36933264 -0.15067522 -0.14916958
000210 ff 9c ae bd ec c5 e4 be 46 01 39 be e9 de af 3e
       -0.085260384 -0.44682252 -0.18066892 0.34349754
000220 c1 0c cd 3d 05 05 fa 3e 5f cd 55 be 43 57 1f bf
       0.10012198 0.48831955 -0.20879124 -0.62242526
000230 82 f8 27 bf c0 4f c4 3e e1 39 2f bf e5 05 dd be
       -0.6561357 0.38342094 -0.6844769 -0.4316856
000240 e4 1a 23 3e 19 05 aa be 01 5c f8 3e 0e 78 ad 3d
       0.15928227 -0.33207014 0.48507693 0.08470164
000250 10 0f ca 3e ef 94 c7 be a4 32 3a 3e 91 33 81 be
       0.39464617 -0.38980815 0.1818338 -0.25234655
000260 5f 9d 88 3e ab 13 07 3e 96 3f 92 3a cf f8 15 3c
       0.26682565 0.13191096 0.0011157866 0.009153559
000270 1c 0d cc 3d 30 c7 db 3e d1 3f 29 be 1b 8c ca 3c
       0.09963438 0.42925406 -0.1652825 0.02472501
000280 5f 66 0b bd 36 98 e7 3e 52 75 01 3f 9c 83 e4 bd
       -0.034033176 0.45233315 0.5056964 -0.11157915
000290 bd 57 7d 3e 0b a5 fd bd f1 a2 9f be f2 3a d5 be
       0.24740501 -0.12384995 -0.31179002 -0.41646534
0002a0 23 7a b6 be ca 2b e5 3e 80 8d 14 be de 04 a1 be
       -0.35640058 0.4475997 -0.14507103 -0.31449026
0002b0 1b 6c 9c be a9 f8 5b 3e d3 ff 75 bf b4 50 6f bd
       -0.30551228 0.21481575 -0.9609348 -0.058426574
0002c0 14 d3 59 bf ce c9 82 be b4 1e 79 3e c9 bb 51 bf
       -0.85087705 -0.2554459 0.24328119 -0.8192716
0002d0 e0 99 3a bf d5 6b 44 3e 2a 38 9f 3e 49 1a c3 bd
       -0.72891045 0.1918176 0.31097537 -0.09526498
0002e0 d3 be b4 3e 6d 47 df bd 29 d2 d3 3e 4d 09 c8 3e
       0.35301837 -0.10902295 0.41371277 0.39069596
0002f0 bb 27 dc 3e f3 88 9d bc dc b3 0a be d2 bc 9e bd
       0.42999062 -0.019230342 -0.13545173 -0.07750858
000300 a7 a4 85 3a e0 16 50 3e 40 78 f6 3d 51 bb a7 3c
       0.0010196165 0.20321226 0.120346546 0.020475062
000310 be 5e d0 be cd fc 93 bd 44 c3 60 3c f6 78 0e 3f
       -0.40697283 -0.07225952 0.01371843 0.5565332
000320 3e 6e 04 3f dc 2e aa 3e 91 60 a6 be 8e 59 e8 3c
       0.51730716 0.33238876 -0.3249555 0.028363016
000330 72 4c 4a 3f d4 87 fe 3e a7 53 c3 3e d9 4c b6 bd
       0.79022896 0.49713004 0.3814976 -0.08901376
000340 3b 14 9d be 91 10 e9 bd dc 4c d2 3d 2b c5 b8 be
       -0.30679497 -0.11380113 0.10268566 -0.36087927
000350 3b 4b d3 be 9a 41 3f bf 64 9b 84 be 9b 92 08 bf
       -0.41268334 -0.74709475 -0.25899804 -0.533487
000360 fb 9a b1 bd 6b c1 87 3e ee 16 b5 be 37 d3 ae bf
       -0.08672138 0.26514754 -0.35369056 -1.3658208
000370 27 a8 0a 3e 2e 04 b3 3d 85 aa 44 bf c0 3d f1 bd
       0.13540708 0.087410316 -0.7682269 -0.11779356
000380 51 7a d9 3e 2d 0e 8c 3e 9d 20 7d be 00 18 84 ba
       0.42476133 0.27354565 -0.24719472 -0.0010077953
000390 cf 61 94 3e ab ea 69 bd 15 b6 a4 b9 4f c8 2b be
       0.28980872 -0.057108562 -0.0003141618 -0.1677563
0003a0 a5 8a 77 3e 62 4d 0a be 47 47 37 3e 0d e0 c9 bc
       0.24173982 -0.13506082 0.17898284 -0.024642969
0003b0 8b 1c 75 be d4 5f 57 3e 0d 26 50 be e1 ad 88 be
       -0.2393667 0.2103265 -0.20327015 -0.2669516
0003c0 dd 4e f9 3e 9a 9f 87 3d c4 a4 d0 be fc ae e1 be
       0.4869298 0.066222385 -0.40750706 -0.44078815
0003d0 c1 6e c8 3b 01 4c 3d 3e 3b 09 e2 be f1 eb 15 3e
       0.0061167185 0.18486024 -0.44147667 0.14640786
0003e0 97 c9 a2 3d 24 1d 4d 3e c5 c7 28 be 97 98 20 3d
       0.079486065 0.20030648 -0.16482456 0.03920802
0003f0 24 cd 17 bf a9 30 46 3f 52 9c 0f 3f 04 a1 3c bf
       -0.59297395 0.77418 0.560979 -0.7368319

decode.2.weight f4 [100, 100]
000000 0d c9 e8 3b 08 59 51 3e 08 b3 89 bd 84 18 a7 3e
       0.0071040452 0.20444119 -0.067236006 0.3263589
000010 4f d7 01 be 3a bf 93 3e 21 4e 94 be 79 36 23 3e
       -0.1267979 0.28856832 -0.28965858 0.15938748
000020 21 14 f8 3d 6a be c2 bd de 5e b7 3e 87 86 a8 3e
       0.12113214 -0.09508975 0.35814565 0.32915136
000030 ee bf 0d 3f 85 48 e1 3d e8 d1 b5 3d 9c f8 8e 3d
       0.55370986 0.1100016 0.08877927 0.06981012
000040 dd 09 dd 3c 44 46 80 be 9e 23 44 bd 6c 77 9d 3c
       0.026982242 -0.25053608 -0.04788553 0.019221984
000050 89 80 19 bd a9 97 d8 3d 53 01 7c 3e b8 19 90 bd
       -0.037476096 0.10575802 0.2460988 -0.070361555
000060 b7 8b a4 bd 2a 5c c0 3e 38 f3 25 bc 44 f6 f7 bd
       -0.08034461 0.37570316 -0.010128789 -0.12107518
000070 8a a5 c9 3c ed db 82 3c 86 ea 92 3e 0a 39 35 be
       0.024615068 0.01597401 0.28694552 -0.1769754
000080 52 a6 9a 3e c5 e1 fd bd b6 59 23 bd f3 5c 94 be
       0.30205017 -0.12396578 -0.039880477 -0.28977165
000090 77 cc 04 3d 1b e3 0b 3d 86 9c ce be 3f 44 66 3d
       0.032421555 0.03415213 -0.40353793 0.05621743
0000a0 5e d8 9f be 49 86 c5 bd 3d 70 08 3e 26 f0 1c 3e
       -0.31219763 -0.096447535 0.13324066 0.15325984
0000b0 27 b7 d2 be 86 a1 47 be 23 4b 0e 3e f7 b8 b9 3c
       -0.4115536 -0.1949521 0.1389585 0.022671206
0000c0 f3 34 d4 3c db 80 e8 bc 57 66 bf bb 2e 1e bb bc
       0.025904154 -0.028381756 -0.0058410573 -0.02284154
0000d0 a7 25 fe 3d ea 5c d0 3c f1 28 fb 3d 09 4c a5 3e
       0.12409525 0.02543493 0.12263668 0.32284573
0000e0 6c cd 70 be c0 df 4e be cb 7f f1 3d ee c3 75 be
       -0.23515862 -0.20202541 0.11791953 -0.24000522
0000f0 d1 5a d4 be 58 4a 48 be 2e 54 c0 be e7 b5 b6 be
       -0.41475537 -0.1955961 -0.37564224 -0.35685655
000100 c7 3d 50 3c 7d 5b 81 3e 1c 97 55 3e 9d e2 9c 3c
       0.012710041 0.25265113 0.20858425 0.019151026
000110 c3 40 bc 3e 7d 4c be 3e 1e d5 34 be ca c0 42 3e
       0.3676816 0.3716773 -0.17659423 0.19018856
000120 c2 be 7f 3e d8 bc bb 3e a9 d2 d6 bd 88 8f 84 3e
       0.24975112 0.36667514 -0.10489399 0.25890756
000130 6d 2f 29 3e 39 46 a3 3e 05 b1 85 bd 5a 2b f0 3d
       0.16521998 0.31889513 -0.065279044 0.11727019
000140 6e 58 af 3d fa f8 fc 3d 99 0d 17 be 85 f4 3a bd
       0.085617885 0.12352176 -0.14751281 -0.04564335
000150 cd 7c 9e bd a3 12 ff bd 47 4d f9 bc 04 e4 13 3d
       -0.077386476 -0.124547265 -0.030432357 0.036106125
000160 7d d5 8c 3e 82 31 a9 bc 76 ae b1 3e ba 96 12 3d
       0.2750663 -0.02065349 0.34703416 0.035788275
000170 bc bb d9 bd 60 de 04 3e 03 06 f9 3d 47 90 7c 3e
       -0.106315106 0.12975454 0.1215935 0.24664412
000180 46 b0 5b 3e c5 a3 14 be d9 a9 bd be 45 9b 83 be
       0.21453962 -0.14515598 -0.37043646 -0.257044
000190 01 16 22 3f cb fd 0a 3e b3 57 2f 3d ef 94 63 3e
       0.63314825 0.13573377 0.042808246 0.22224782
0001a0 bb 82 21 3c aa e7 5e 3e 57 d8 81 bd 74 2a 18 be
       0.009857829 0.2176806 -0.06340092 -0.14859945
0001b0 51 8b e2 3d 8f ca e7 3b c3 2c 9c be 02 f8 f5 3e
       0.11061729 0.0070737074 -0.305029 0.48040777
0001c0 0b f1 41 be e8 9c bf 3e d6 f3 30 3e a8 b7 0d 3e
       -0.18939607 0.37424397 0.17280516 0.1383959
0001d0 6f 86 7c 3d 04 b7 b2 3e 5c a3 b2 be 8e 33 4c be
       0.061651643 0.34905255 -0.34890258 -0.19941542
0001e0 a0 05 6e 3e e5 55 82 3e e1 cd cf bc ec 2a 51 3d
       0.23244333 0.25456157 -0.025366725 0.051066324
0001f0 cb 25 a7 3d c0 ab f8 3d ba 4d 04 3e 8b aa 14 3e
       0.08161505 0.12142134 0.12920275 0.14518182
000200 24 d5 1e 3e 98 5e 6b be 8c a8 1a be 76 14 b2 3e
       0.15510994 -0.22985303 -0.15103358 0.34781235
000210 ef 86 a5 bd 37 ec a1 be b4 b1 57 3e 95 f3 8c 3e
       -0.08082377 -0.3162553 0.21063882 0.27529588
000220 ae d7 b1 be 75 1f 09 3f 1a 3c 5c 3e 40 98 97 3e
       -0.34734863 0.53563625 0.21507302 0.29608345
000230 67 69 22 be a4 7e 1f 3a 16 4b 11 3d 44 ac c2 be
       -0.1586052 0.00060842396 0.035472 -0.38022053
000240 55 e1 57 bd 3b 82 39 be 60 a8 13 bf 73 34 b4 3e
       -0.052705128 -0.18116085 -0.57678795 0.35196266
000250 3e bd 0e 3d bd 41 e7 3d 07 fd 5f 3d 60 96 07 bd
       0.034848444 0.112918355 0.054684665 -0.033102393
000260 12 47 e5 3d 3d 4b 16 be bc 05 ef 3d c1 64 17 3e
       0.11195196 -0.14677139 0.116710156 0.14784528
000270 14 14 11 be 73 a4 5e 3e 51 5d 87 3d 36 26 45 3d
       -0.14167815 0.2174242 0.066095956 0.048132144
000280 f7 de e3 be eb 38 58 bd 96 7c a4 3d bf a0 68 3e
       -0.44506046 -0.052788656 0.080315754 0.2271757
000290 fb 88 ff 3d 03 49 1d 3d 1f 30 27 3e 3b 2a c3 be
       0.12477299 0.038399708 0.1632695 -0.38118157
0002a0 b7 c7 9e be a0 8b 87 be 21 f8 56 be b3 56 76 3e
       -0.31011745 -0.26473713 -0.20993091 0.2405651
0002b0 c4 2e af bd 4b 02 4f 3e 59 76 80 bc c0 d2 9e 3d
       -0.08553842 0.20215718 -0.015681433 0.07755041
0002c0 87 46 9e be a4 c2 ae be b9 d2 a5 3e 5f f6 42 be
       -0.30913183 -0.34132874 0.3238733 -0.19039296
0002d0 e6 bd 38 bd 79 15 8b be 1c cb ea 3d 05 51 26 be
       -0.045102976 -0.2716482 0.11464521 -0.16241844
0002e0 73 0f db be b3 8a 4f bd e6 f4 af 3d 9a f3 41 3e
       -0.42785224 -0.050669383 0.085916325 0.18940583
0002f0 17 e0 52 3b a9 35 20 be b8 d8 c3 3c 59 23 39 3d
       0.0032177025 -0.1564547 0.02390705 0.045199726
000300 b4 5a 00 3e 92 0c 2d 3e 47 c5 46 3e ba 33 b7 3e
       0.125346 0.16899326 0.19411193 0.35781652
000310 14 cb 82 3d 12 7c a3 3d 36 52 63 3d a3 60 87 3e
       0.0638639 0.07982649 0.055498324 0.26440915
000320 e6 34 9b bd 4f 53 1b be be 85 9f 3e 66 65 6c 3e
       -0.07578449 -0.15168498 0.31156725 0.23085555
000330 22 00 06 3f 46 9d 12 be 3f b9 29 3f 3c fa b7 bd
       0.5234395 -0.14317808 0.6629829 -0.08983275
000340 ce 35 63 be 87 4d 6e bd ca 0c ec bc 87 1a 12 bc
       -0.22188494 -0.058179405 -0.028814692 -0.008917457
000350 c9 be dc be d4 cf 70 3e a3 c6 31 3e 9e a4 55 be
       -0.43114308 0.2351678 0.1736093 -0.20863578
000360 65 44 0b be 21 28 b4 3e 41 8d a8 3e c7 86 96 3c
       -0.13600309 0.35186866 0.32920268 0.018374814
000370 49 cc 16 3e 25 f9 06 bd b6 43 a3 be 8f c4 fa bd
       0.14726366 -0.032952446 -0.31887597 -0.12244522
000380 c2 4d 8a 3e 22 d6 70 be 1c df f3 bc 00 dd 59 3d
       0.2701245 -0.23519185 -0.029769473 0.053189278
000390 54 65 28 bd 6e 5b a5 be 41 5f 2c 3e 10 c8 2c 3d
       -0.04111226 -0.32296318 0.16833211 0.042182982
0003a0 4e aa b4 3e 23 e5 9e bb 3d e8 39 bd 5c 04 26 be
       0.35286182 -0.0048490926 -0.045387495 -0.162126
0003b0 ca 0e bb be 04 44 bb be 77 41 3b be 5c 61 8b be
       -0.3653472 -0.3657533 -0.18286692 -0.27222717
0003c0 c0 be db 3e 6b 49 20 bd 4a c9 1c 3e ae cd 38 3d
       0.42918968 -0.039132517 0.1531116 0.045118026
0003d0 dd ca ad 3d ea 5a b8 3e 1c 10 a3 be 72 d5 34 be
       0.08485959 0.36006862 -0.31848228 -0.17659548
0003e0 ea 0f a9 3e 3c 00 cb bd 56 29 11 be 7b a4 21 3e
       0.33019954 -0.09912154 -0.14175925 0.157854
0003f0 48 07 d7 be 41 6b 96 3e 8e a0 06 3f 5c 78 82 be
       -0.41997743 0.29378703 0.52588737 -0.25482452

decode.4.weight f4 [1, 100]
000000 74 dd bf bd 61 ea 78 bd c2 5c 7f 3d 01 74 3d bd
       -0.09368411 -0.060770396 0.06234432 -0.046253208
000010 e4 d5 96 3d 1c e1 82 b9 ee 7c 51 bd 8e 9b 75 b9
       0.07365015 -0.00024963252 -0.051144533 -0.0002342297
000020 3e 6c 87 3d 5b fa 99 3d 73 c0 ec b9 f8 b3 57 bd
       0.066124424 0.07518455 -0.00045156814 -0.052661866
000030 b3 3d 80 bd 0f 1c a3 3d 4e 70 77 b9 51 6f 80 3d
       -0.06261768 0.07964336 -0.00023597592 0.06271232
000040 ea a1 65 bd 91 3c 23 bd 3e c6 3d bd e3 ae 8c 3d
       -0.056062616 -0.039852683 -0.046331637 0.068692945
000050 d6 31 b8 3d fb af 1f 3a 9e d9 a8 bd 51 16 59 bd
       0.089938805 0.0006091592 -0.08244632 -0.0529998
000060 f0 b8 26 b7 94 30 de 39 72 1e 93 3d 40 2e 9e bd
       -9.93743e-06 0.00042379333 0.07183541 -0.07723665
000070 d1 74 36 bd 4b 1f 0e bd ac 76 12 3a 6a df 44 bd
       -0.044545 -0.034697812 0.00055871415 -0.048064627
000080 f8 58 02 3e bb d6 84 38 41 75 34 bd be 17 02 3a
       0.12729251 6.334247e-05 -0.044057135 0.00049626443
000090 70 f3 a4 3d 3f 60 79 b9 63 17 5a bd 31 cc 21 bd
       0.080542445 -0.00023782345 -0.05324496 -0.039501373
0000a0 e4 b3 97 3d 36 9d 51 bd 28 10 31 b8 9c 8f a5 3d
       0.07407358 -0.05117532 -4.2215135e-05 0.08084032
0000b0 fb 10 df 39 da 21 81 3d 37 0e c3 3d f2 64 df 38
       0.00042546526 0.06305285 0.09524196 0.00010652271
0000c0 50 47 66 bd df 36 55 3a 19 11 ae 3d 4c 91 8a 3d
       -0.056220353 0.00081334816 0.08499355 0.067659944
0000d0 b9 98 c1 b9 d2 80 63 bd b8 0c 16 3a 58 e6 2c b7
       -0.00036925616 -0.055542774 0.0005723941 -1.030563e-05
0000e0 87 e3 7b 3d 58 68 52 bd 6c 51 83 bd e1 5c 54 3d
       0.061496284 -0.05136904 -0.06412014 0.05184639
0000f0 38 13 67 bd 5f 71 a0 39 62 c7 0f 3a dc 1a 34 bd
       -0.056414813 0.00030602046 0.00054847274 -0.043970928
000100 98 4c 2d bd 1e be 77 bd 5f 49 5c 3d 6e 74 0e 3a
       -0.042309374 -0.060484044 0.05378091 0.00054342195
000110 b1 9d 6b bd 04 3a 5a 3d a9 d9 be 3d ce 3a bf bd
       -0.057523433 0.053277984 0.09318859 -0.09337388
000120 eb cd cf 3d a3 9d a1 3d 17 3b 9e 3d 98 56 6e 3d
       0.101466976 0.07891395 0.07726114 0.05818805
000130 e0 51 40 3a 24 a7 40 39 46 02 50 38 f3 15 56 bd
       0.0007336419 0.00018372812 4.959318e-05 -0.052267026
000140 31 57 51 bd 19 6f 71 bd 04 bd e2 b9 b6 87 98 3d
       -0.051108543 -0.05894384 -0.00043246907 0.0744776
000150 a8 78 1e b9 95 33 42 b9 b5 b3 25 bd 02 a2 42 bd
       -0.00015113002 -0.00018520498 -0.040454585 -0.047517784
000160 0a 6d 6c bd 54 16 be b8 51 17 1d bd d9 2b 74 3d
       -0.057721175 -9.064065e-05 -0.038352314 0.05961213
000170 d2 86 57 3a f0 6d 49 bd 12 67 a6 3d 77 84 f5 b7
       0.0008221689 -0.04917711 0.08125128 -2.926796e-05
000180 13 6b 5c bd 7e 8b af 36 f1 3c 05 3e b7 75 53 bd
       -0.05381305 5.2316454e-06 0.13011529 -0.051625933
