Quantum/2 qubit/complete/models/9_latent.pt (torch, 117927 bytes, 6 tensors)

encode.0.weight f4 [100, 30]
0	0x3f072a49	0.527989
1	0xbf175430	-0.59112835
2	0x3e7b842f	0.24562143
3	0x3f053a8c	0.5204246
4	0xbddfedc5	-0.10934023
5	0xbeb45cf8	-0.3522718
6	0xbd77e2cb	-0.06051902
7	0xbcbab938	-0.022793397
8	0xbf2dc1ab	-0.6787364
9	0x3dd40986	0.10353379
10	0x3e84f455	0.2596766
11	0x3e03bd6d	0.12865229
12	0x3f412c5d	0.7545832
13	0xbdc8a07f	-0.09796237
14	0x3e0f087d	0.13968082
15	0xbd847186	-0.064669654
16	0xbf00c27b	-0.50296754
17	0x3ec82967	0.39094087
18	0x3e32b2e3	0.17451052
19	0xbe9cb46c	-0.306064
20	0xbc8f8df8	-0.01752375
21	0xbeb42272	-0.3518253
22	0x3eaf72b5	0.34267202
23	0xbe80f375	-0.25185743
24	0xbed795db	-0.42106518
25	0xbeae3f22	-0.34032542
26	0xbe4ef3fa	-0.20210257
27	0xbe968524	-0.29398453
28	0xbec2d9ca	-0.38056785
29	0x3ed4b8c6	0.4154722
30	0xbe03f599	-0.12886657
31	0xbcf23cb9	-0.02956997
32	0x3d0b09a5	0.033944745
33	0xbd67e550	-0.056615174
34	0x3d57f2ce	0.05272179
35	0x3c4046f9	0.011735671
36	0x3d84a9e5	0.06477717
37	0x3c6544e9	0.01399348
38	0xbd0b965c	-0.03407894
39	0x3d928178	0.071536005
40	0x3d9ad265	0.07559661
41	0x3d1fc4a3	0.039005887
42	0x3e7ba57f	0.2457485
43	0x3cf42bcb	0.029806038
44	0xbe459e94	-0.19298774
45	0xbe4ad1ba	-0.19806567
46	0x3d91cb33	0.07118835
47	0x3d12b47a	0.035816647
48	0x3c422e1b	0.011851813
49	0xbd1da3b1	-0.038486186
50	0xbe24e5e9	-0.16103329
51	0xbda88072	-0.08227624
52	0x3d8c9d76	0.06865971
53	0x3d894aa9	0.067036934
54	0x3ded78bd	0.115952946
55	0xbceb536c	-0.028726302
56	0xbd6d0dd9	-0.057874534
57	0xbe0576ad	-0.13033552
58	0xbd9ef2de	-0.07761167
59	0x3e4326c2	0.19057754
60	0xbeb52b84	-0.35384762
61	0xbecf2f82	-0.40465933
62	0x3ec83f5b	0.39110836
63	0xbe9b6016	-0.30346745
64	0x3e2ce9b3	0.16886024
65	0xbe432ef9	-0.19060887
66	0x3dacc1ba	0.08435388
67	0x3e81b72d	0.25335065
68	0x3ead65ca	0.3386672
69	0xbe2427bb	-0.16030781
70	0xbe2fd10b	-0.17169587
71	0xbe7d9261	-0.2476287
72	0x3dd358df	0.10319685
73	0xbb27bf19	-0.002559608
74	0xbd7ca63c	-0.06168197
75	0x3dff47eb	0.12464889
76	0xbea9ed8d	-0.3318905
77	0x3e47bedb	0.195064
78	0xbe90cf58	-0.2828319
79	0x3da16a4f	0.07881605
80	0x3ea780e4	0.32715523
81	0x3f043a0f	0.5165109
82	0xbdd8bf16	-0.10583322
83	0xbdab1a29	-0.08354599
84	0xbeb059c3	-0.34443483
85	0x3e45a3b3	0.19300728
86	0xbd424ca0	-0.047436357
87	0xbeb889e1	-0.36042693
88	0x3ecd51f9	0.40101603
89	0xbc848c81	-0.016180279
90	0xbea61ba0	-0.3244295
91	0x3ea3c972	0.31989628
92	0xbe066ab0	-0.13126636
93	0xbe863be5	-0.2621757
94	0xbe239cd7	-0.15977798
95	0x3ece4249	0.40284947
96	0xbf2798ca	-0.6546751
97	0xbe1d4a4c	-0.15360373
98	0x3e2456a3	0.16048674
99	0xbe8fffac	-0.2812475
100	0x3eaf8928	0.3428433
101	0x3bcb44b2	0.0062032575
102	0xbaeca33b	-0.0018054018
103	0xbe1e4a3a	-0.15458003
104	0x3df02ca0	0.117272615
105	0x3e4d3e1c	0.20043224
106	0xbd84ee4a	-0.064907625
107	0xbecbf4c8	-0.3983519
108	0x3d86647b	0.06562134
109	0x3e43aaca	0.1910812
110	0x3e6b168b	0.22957818
111	0x3e365add	0.17808099
112	0xbebef875	-0.37298933
113	0x3e9eb28f	0.30995604
114	0xbf1bc4dc	-0.6084726
115	0x3e582942	0.21109489
116	0xbf134b3a	-0.5753666
117	0x3e35a078	0.17736995
118	0x3e0ee84d	0.13955803
119	0x3d9b2dd8	0.075771034
120	0xbdcc34e8	-0.099710286
121	0xbeb2d142	-0.34925276
122	0x3f105425	0.56378394
123	0xbe17377c	-0.1476726
124	0xbe6ebf6a	-0.23315206
125	0xbe0ae22a	-0.13562837
126	0x3c4674c8	0.012112804
127	0x3eb97454	0.36221564
128	0xbe1d9394	-0.15388328
129	0xbef6ce0b	-0.48204073
130	0x3d65d510	0.056111395
131	0x3e59e24c	0.21277732
132	0x3e92a894	0.2864424
133	0xbe8e969b	-0.27849278
134	0x3e4b9f76	0.19885048
135	0x3e27d739	0.16390695
136	0xbecb4945	-0.39704338
137	0x3e88505d	0.26623812
138	0x3e35e6af	0.1776378
139	0x3e826277	0.25465748
140	0x3e7bede8	0.24602473
141	0xbcf8e927	-0.030384613
142	0xbe0b6c45	-0.1361552
143	0xbe11e109	-0.14246
144	0xbf05be87	-0.52243847
145	0x3eb06dfa	0.34458905
146	0x3e38ea2b	0.18058078
147	0xbeb150d9	-0.34631994
148	0xbc5f9f5a	-0.013648832
149	0xbe97b194	-0.2962767
150	0x3f06c930	0.5265074
151	0xbe5fb3ef	-0.21845983
152	0x3b0df47c	0.0021660617
153	0x3ecb7ba3	0.39742765
154	0x3e856227	0.26051447
155	0xbe915b94	-0.2839018
156	0x3f521567	0.8206391
157	0xbe121d82	-0.14269069
158	0x3e0e0808	0.13870251
159	0xbd65f0fd	-0.056138027
160	0xbea4ae04	-0.32164013
161	0xbd4094db	-0.04701696
162	0x3e10b15a	0.14130154
163	0xbe851656	-0.25993603
164	0xbf1615bc	-0.58626914
165	0xbe0ab526	-0.13545665
166	0x3d3ecc13	0.04658134
167	0x3ea25978	0.31708884
168	0xbf04a654	-0.51816297
169	0xbed64531	-0.41849664
170	0xbec0f26e	-0.3768496
171	0x3e8260e5	0.2546455
172	0x3e87de8b	0.26536974
173	0xbe39607f	-0.18103217
174	0x3f256622	0.6460897
175	0xbda04d02	-0.07827188
176	0x3edc2921	0.4300013
177	0xbe3729df	-0.17887066
178	0x3bcb89ba	0.0062114866
179	0x3e869b34	0.26290286
180	0xbf5c7b87	-0.8612599
181	0x3e431fda	0.19055119
182	0xbf1a8461	-0.60358244
183	0xbe458815	-0.19290192
184	0x3e18d303	0.14924245
185	0x3ef2b4d4	0.47403586
186	0xbf06ad9a	-0.52608645
187	0xbed4b8e3	-0.41547307
188	0x3f1b1620	0.60580635
189	0x3e32422a	0.17408052
190	0xbe9eec1d	-0.31039515
191	0x3e0a0759	0.13479365
192	0xbf5b0c90	-0.85566044
193	0x3dffb924	0.12486485
194	0xbe484d35	-0.19560702
195	0xbe2128ce	-0.15738222
196	0x3ebfc71a	0.3745659
197	0xbe69239e	-0.22767493
198	0xbe774fff	-0.2415161
199	0xbdc85b86	-0.09783082
200	0x3e578ad6	0.21049055
201	0x3efe9b3f	0.49727818
202	0xbeb02f31	-0.34411004
203	0x3e6e8140	0.23291492
204	0x3e93c7c0	0.28863335
205	0x3e0185ac	0.12648648
206	0xbe7d857b	-0.2475795
207	0x3e8751f6	0.2642972
208	0x3f334a47	0.70035213
209	0xbeb190c4	-0.3468076
210	0x3eab9351	0.3351083
211	0x3f8a1ab4	1.0789399
212	0xbf3c240d	-0.7349251
213	0xbeb72123	-0.3576747
214	0x3d822f85	0.0635672
215	0x3e0b22ea	0.13587537
216	0xbe6904c3	-0.22755723
217	0xbf672980	-0.902977
218	0x3eb947c5	0.36187568
219	0xbd5fba09	-0.054620776
220	0xbdc39006	-0.09548955
221	0xbd9dea13	-0.07710662
222	0xbebb7874	-0.36615336
223	0x3e497e48	0.19677079
224	0x3e3e318a	0.18573585
225	0xbdda16cf	-0.10648882
226	0x3e8d3068	0.27575994
227	0xbef63459	-0.48086813
228	0x3e202b38	0.15641487
229	0x3e98dbf1	0.29855302
230	0xbe9b6b50	-0.3035531
231	0xbe20b2aa	-0.15693155
232	0xbd1e990e	-0.038720183
233	0x3eaa0f2c	0.332147
234	0x3e87e9ec	0.26545656
235	0xbe23c1e2	-0.15991929
236	0xbeab2e3b	-0.3343371
237	0x3eba6c7f	0.364109
238	0xbdd35f5a	-0.10320921
239	0x3e29f09d	0.16595693
240	0x3ece2f26	0.40270346
241	0x3e9394b7	0.28824398
242	0xbd21e35c	-0.039523467
243	0xbdce97e9	-0.10087568
244	0xbdcd93c2	-0.10037948
245	0x3e073754	0.132047
246	0xbb761002	-0.0037546162
247	0xbd87a714	-0.066236645
248	0x3e86c5e9	0.26322868
249	0xbdc4f7f2	-0.09617604
250	0x3e15df3a	0.14635935
251	0x3d203123	0.03910936
252	0x3eb88301	0.36037448
253	0xbc8482d2	-0.016175661
254	0x3e480fde	0.19537303
255	0xbe76849a	-0.24074021

encode.2.weight f4 [100, 100]
0	0xbf3b6bfa	-0.73211634
1	0x3e03cdf3	0.12871532
2	0xbdc1c8d5	-0.09462134
3	0x3ab51a43	0.0013817031
4	0x3b1c5822	0.0023856242
5	0xbf7c6959	-0.9859825
6	0x3eedc3ab	0.46438345
7	0x3e645c73	0.22300892
8	0xbf016732	-0.5054809
9	0xbe08bb66	-0.13352737
10	0x3eafa217	0.34303352
11	0x40073959	2.1128752
12	0x3e18a5dc	0.1490702
13	0x3e31fe40	0.17382145
14	0x3e83f6bc	0.2577418
15	0xbe180266	-0.14844665
16	0x3dc43c84	0.09581855
17	0x3ec3e6d9	0.3826206
18	0xbdd33b51	-0.10314048
19	0x3ed3fae8	0.41402364
20	0xbe85c2d2	-0.261252
21	0x3e4231df	0.18964337
22	0x3f1989f7	0.5997614
23	0xbf204d75	-0.6261819
24	0x3d3ea3fa	0.0465431
25	0x3f8043ec	1.0020728
26	0xbde457b6	-0.11149542
27	0xbe966774	-0.29375803
28	0x3f7a0488	0.97663164
29	0x3eaaec59	0.33383444
30	0xbf387529	-0.7205377
31	0xbc9b5f23	-0.018966263
32	0x3e07911d	0.1323895
33	0x401a46f1	2.41058
34	0x3d241a21	0.04006398
35	0xbdfb773d	-0.12278602
36	0x3f011da9	0.5043588
37	0x3f735920	0.9505787
38	0x3e3a7031	0.1820686
39	0xbde0915c	-0.10965225
40	0x3c4dfc94	0.012572426
41	0x3cd1ccdf	0.025610385
42	0x3d7c90b3	0.061661433
43	0x3d985b08	0.07439238
44	0xbf576292	-0.8413478
45	0x3e9c8055	0.3056666
46	0x3fdf1f04	1.743134
47	0x4025e427	2.5920503
48	0xbd4cbb10	-0.049983084
49	0x3f4e0110	0.8047037
50	0xbe33a444	-0.17543131
51	0xbe084cfe	-0.1331062
52	0xbe420745	-0.18948086
53	0xbd5212fe	-0.051287644
54	0xbda5200a	-0.080627516
55	0x3d06f339	0.0329468
56	0x3ddaa181	0.10675336
57	0xbf620ef5	-0.8830407
58	0x3f698c57	0.91229767
59	0x3c371c2a	0.011176148
60	0x3ec791cc	0.38978422
61	0x3ec8cf2d	0.39220563
62	0x3c16f3b6	0.009213379
63	0x40b4af27	5.646381
64	0xbdc4b69e	-0.09605144
65	0x4030c92b	2.7622783
66	0xbe157408	-0.14595044
67	0x40477d4f	3.1170232
68	0xbe9d6b40	-0.30745888
69	0x3e0cb941	0.13742544
70	0xbef57726	-0.47942466
71	0xbf1c2b89	-0.6100393
72	0x3e93c343	0.2885991
73	0x3deaca6d	0.11464391
74	0x4014a72a	2.322703
75	0xbf07cb7e	-0.5304488
76	0xbeaec861	-0.34137252
77	0xbe01755e	-0.12642428
78	0x3f9f4fe5	1.2446257
79	0xbea0bfcc	-0.3139633
80	0xbf3d6ab9	-0.7399097
81	0xbe92715e	-0.28602117
82	0xbe11baf5	-0.14231475
83	0xbecc0368	-0.3984635
84	0x3fbeb70d	1.4899613
85	0xbd8caeca	-0.06869276
86	0x3fb3226b	1.3994879
87	0x3ee8c2cd	0.4546112
88	0x3cfc5ae6	0.030805063
89	0xbecaadca	-0.39585716
90	0x3f32aeb9	0.69797856
91	0x3f89ef72	1.0776198
92	0xbc87eaea	-0.016591508
93	0x3fddbfeb	1.7324194
94	0x3f407cbc	0.7519033
95	0x3e87fe14	0.26561034
96	0xbf30e0e3	-0.6909315
97	0x3fa49038	1.2856512
98	0x3fac942a	1.3482716
99	0xbd6dd6d2	-0.058066197
100	0x3c6e5bab	0.014548223
101	0x3b0f171e	0.0021833847
102	0xbceebee4	-0.029143758
103	0xbea7f420	-0.3280344
104	0xbe677431	-0.22602917
105	0x3e1a10d2	0.15045479
106	0xbe2c88b1	-0.16849019
107	0xbea4793c	-0.32123744
108	0x3e0f2630	0.13979411
109	0x3ec2e508	0.38065362
110	0x3e860ca7	0.26181528
111	0xbdbdc75a	-0.09266539
112	0x3df5d5ec	0.12003693
113	0xbe368add	-0.1782641
114	0x3de0eae8	0.10982305
115	0x3e8e000d	0.27734414
116	0x3de60f2e	0.11233364
117	0x3e744019	0.23852576
118	0xbe5f0552	-0.21779373
119	0xbda10878	-0.078629434
120	0x3ea41980	0.32050705
121	0x3e0b4dbf	0.13603877
122	0x3e30073c	0.1719026
123	0xbe4d4aeb	-0.2004811
124	0x3e1bfb2a	0.1523253
125	0x3ea6cd32	0.32578427
126	0x3d8cde5d	0.0687835
127	0xbe0dc08b	-0.1384298
128	0xbda8c625	-0.08240918
129	0xbded64fb	-0.11591526
130	0x3dbb4171	0.09143341
131	0xbb3e0c9e	-0.002899922
132	0xbe0422f4	-0.12903959
133	0x3ea9488b	0.33063158
134	0x3d6fbb9b	0.058528524
135	0x3ceb81e9	0.02874847
136	0xbd7d0648	-0.06177357
137	0x3e03e6f5	0.12881072
138	0xbd5bf55a	-0.053700782
139	0x3d2fd847	0.042930868
140	0xbd2ee3c2	-0.042697676
141	0x3d04b157	0.032395687
142	0x3c25f038	0.010128073
143	0x3cb23955	0.021755854
144	0x3de6d9e6	0.112720296
145	0x3e3831c4	0.17987734
146	0xbd71d3b6	-0.059039794
147	0xbe5b3db1	-0.21410252
148	0xbe20251c	-0.15639156
149	0x3c038201	0.008026601
150	0xbe8f7633	-0.28019866
151	0xbd7a1cbb	-0.061062556
152	0xbcf1455a	-0.029452015
153	0xbdcbfebb	-0.09960695
154	0xbd592652	-0.05301506
155	0x3d698f7b	0.0570216
156	0x3c45acf0	0.012065157
157	0x3da4d7a5	0.080489434
158	0x3e9228bd	0.28546706
159	0xbb1beba2	-0.002379157
160	0xbf2e69dc	-0.6813028
161	0x3e53ef69	0.20696796
162	0x3c2ae9d6	0.010431727
163	0xbce8a82b	-0.028400501
164	0x3ca10389	0.019655006
165	0x3e29a796	0.16567835
166	0xbe00909b	-0.12555163
167	0x3e690848	0.22757065
168	0x3d4fc50b	0.050725024
169	0xbdbd87e7	-0.09254437
170	0x3e2226dc	0.15835136
171	0x3de48dfb	0.11159893
172	0xbe62c241	-0.22144414
173	0xbd576db5	-0.05259486
174	0x3ccdb376	0.025109988
175	0xbd2b5a40	-0.041834116
176	0xbd84be34	-0.06481591
177	0xbe907efe	-0.28221887
178	0x3e994c6a	0.29941112
179	0xbbee5538	-0.0072733425
180	0xbe84b467	-0.25918886
181	0xbd8b8881	-0.068131454
182	0x3e6f58fe	0.23373792
183	0xbe6b7a6b	-0.22995917
184	0x3e83303d	0.2562274
185	0x3ded6374	0.11591235
186	0xbc910f36	-0.017707448
187	0x3ec16379	0.37771204
188	0xbcf04d40	-0.02933371
189	0x3c83619e	0.016037758
190	0x3be3bdb3	0.006950104
191	0xbe3a0d55	-0.18169148
192	0xbb7004dd	-0.0036623992
193	0xbefd1dd3	-0.49436817
194	0xbef82dab	-0.48472342
195	0xbbb1df7b	-0.0054282523
196	0xbe9d2d67	-0.30698702
197	0x3e1c8ee2	0.1528888
198	0xbdbc7e42	-0.09203769
199	0x3c4c5c1e	0.012473134
200	0xbec211f5	-0.37904325
201	0xbe06bbf4	-0.13157636
202	0xbe8e2e38	-0.27769637
203	0xbdc90c90	-0.09816849
204	0x3f0d2ea1	0.55149275
205	0x3e2bf9bc	0.16794485
206	0xbe01462e	-0.12624428
207	0xbd5f2686	-0.0544801
208	0xbc7a2f5e	-0.015270082
209	0xbd5255ab	-0.05135123
210	0xbdb41614	-0.087932736
211	0x3e97187f	0.29510877
212	0x3cfdc829	0.030979233
213	0x3e5f0045	0.21777447
214	0x3e257058	0.16156137
215	0x3c8d3b66	0.017240237
216	0xbdbb07ad	-0.091323234
217	0x3e066256	0.1312345
218	0xbe3b09ee	-0.18265507
219	0x3e94f3b2	0.29092175
220	0xbf26654e	-0.6499833
221	0x3dece38c	0.115668386
222	0xbd901e48	-0.07037026
223	0x3e4234ba	0.18965426
224	0xbeab916f	-0.33509395
225	0xbd2d47e6	-0.042304896
226	0x3d8f76e2	0.07005097
227	0xbf0e8c2d	-0.5568264
228	0x3bfbbb0e	0.0076822108
229	0xbe8d4ae6	-0.27596205
230	0x3d7907f2	0.060798593
231	0xbcf8edad	-0.03038677
232	0xbca1929e	-0.019723233
233	0xbd80c36d	-0.062872745
234	0xbde6bf0f	-0.1126691
235	0x3eb6ca46	0.35701197
236	0x3b1febc0	0.0024401993
237	0xbd16b140	-0.036790133
238	0xbd1313d6	-0.03590759
239	0xbe2a7c33	-0.1664894
240	0x3e493a40	0.19651127
241	0xbd08d51a	-0.033406354
242	0xbc4ddefc	-0.012565371
243	0xbc98f760	-0.018672645
244	0xbe5c4910	-0.21512246
245	0xbe0de7f5	-0.13858016
246	0xbd85d811	-0.06535352
247	0x3e9e8f79	0.30968836
248	0xbd2cf16a	-0.042222418
249	0x3e02b224	0.12763268
250	0xbe301dbd	-0.17198844
251	0x3da32cff	0.07967567
252	0xbd4971ee	-0.049180917
253	0x3d1373e7	0.035999205
254	0xbcffa19b	-0.03120499
255	0x3d73c5f7	0.059514966

encode.4.weight f4 [18, 100]
0	0x3cf701c8	0.030152217
1	0xbbf330ea	-0.0074216025
2	0x3c0dc415	0.008652707
3	0xbac68f81	-0.0015148969
4	0xbdb02317	-0.08600443
5	0x3c00055f	0.007813781
6	0x3afce2db	0.0019293682
7	0x3b9d20a3	0.0047951504
8	0x3d37d3ca	0.044879712
9	0xbbcc9fa1	-0.006244615
10	0x3b9fcbb1	0.004876577
11	0xbbaf4e09	-0.0053498787
12	0x3b5098d9	0.0031829386
13	0x3aaef561	0.0013348275
14	0x3cf1d492	0.029520307
15	0xbb43d79e	-0.0029883157
16	0xbb9ebb04	-0.0048440713
17	0x3c095f9b	0.0083846105
18	0x3c89888c	0.016788743
19	0xbb9d5ddc	-0.0048024487
20	0x3b3c496e	0.002873029
21	0xbcb673f3	-0.022272086
22	0x3dd0c0c2	0.10193016
23	0xbc8e7d21	-0.01739365
24	0x3da083ae	0.07837616
25	0xbb03ab39	-0.002009107
26	0xbd5e14ca	-0.054219045
27	0x3bb03624	0.005377548
28	0xbc8e06ac	-0.017337166
29	0x3beb550a	0.0071817683
30	0x3ba2e5e1	0.0049712514
31	0xbb285d18	-0.0025690254
32	0x3d0d9b9f	0.03457224
33	0x3ba7e543	0.0051237657
34	0x3b8892b5	0.0041678795
35	0x38e37507	0.000108460015
36	0xbab9b800	-0.0014169216
37	0x3ddd4812	0.10804762
38	0xbc17afca	-0.00925822
39	0xbb2c8ff4	-0.002633092
40	0x3b5ff15f	0.0034170968
41	0xbb0c32a4	-0.002139249
42	0x3a2eaf17	0.00066636637
43	0xbb5cb9a7	-0.0033679993
44	0xbc2f97f9	-0.010717385
45	0xbae9bee6	-0.0017833381
46	0x3a00c77a	0.0004912537
47	0x3c1ba74d	0.009500337
48	0xbbe3eabd	-0.006955473
49	0x3c3ef558	0.011655174
50	0xbd117946	-0.035516046
51	0x3bc4e101	0.006008268
52	0xbc18aa19	-0.009317898
53	0x39dce9a0	0.00042135734
54	0x3c72a863	0.014810654
55	0xbd2691e2	-0.04066647
56	0xbc40df73	-0.011772024
57	0xbc9bbebc	-0.019011848
58	0x3caffbe1	0.02148241
59	0x3bf85190	0.0075780824
60	0xbd6cf5b2	-0.0578515
61	0x3a467145	0.0007569979
62	0xbd000c69	-0.031261835
63	0xbb143ea9	-0.0022620356
64	0x3b84d27f	0.0040534134
65	0x3c3a8a67	0.011385537
66	0xba3da159	-0.00072338205
67	0xbba1a089	-0.0049324674
68	0x3c46bdb8	0.012130193
69	0xb9ad13f6	-0.00033012003
70	0xbcc542d6	-0.024079721
71	0xbe2c317d	-0.16815753
72	0x3b191b8e	0.002336237
73	0xbabfb42d	-0.001462584
74	0x3b3c18f5	0.00287014
75	0x3c5a9b25	0.013342653
76	0x3c810870	0.015751094
77	0x3b952f28	0.0045527406
78	0xbb3de689	-0.002897652
79	0xbb001e37	-0.001954926
80	0x39cf870a	0.0003958273
81	0xba8f8d53	-0.0010952152
82	0xbb2cc28a	-0.0026361072
83	0x3b9dd0b7	0.0048161405
84	0xbe407ecc	-0.18798369
85	0x3d3a3c4d	0.045467664
86	0x3ae7ab0f	0.0017674881
87	0xbb9324d1	-0.004490473
88	0xbb212694	-0.0024589645
89	0xbd3b5e41	-0.045744184
90	0x3bb81129	0.00561728
91	0x3dcaa355	0.09894434
92	0x3db8e17b	0.09027382
93	0xbccd32ad	-0.025048578
94	0x3b686fa0	0.0035466924
95	0x3d682249	0.056673322
96	0xbbf12eb0	-0.007360302
97	0xbcb17b35	-0.021665195
98	0xbb9f9d97	-0.004871081
99	0x3bebb9eb	0.007193794
100	0xbec43c1c	-0.3832711
101	0xbd1a9e96	-0.037748896
102	0xbd249641	-0.040182356
103	0x3d15cd45	0.036572713
104	0x3e8084ac	0.2510122
105	0xbe05168e	-0.12996885
106	0x3cf3a5a9	0.029742079
107	0xbcfcde9d	-0.030867869
108	0x3ed943fb	0.42434677
109	0xbad63d8e	-0.0016345249
110	0x3d366fb9	0.04454014
111	0x3cb8d44b	0.022562167
112	0x3d255e64	0.04037322
113	0x3c1afebf	0.00946015
114	0xbdb6d2d8	-0.08926934
115	0x3d5dbba4	0.054134026
116	0xbc935436	-0.01798449
117	0x3e4a2d88	0.19743931
118	0x3f083fc9	0.5322233
119	0x3d5ffdce	0.054685406
120	0xbd93db7b	-0.07219597
121	0xbd8e897e	-0.06959818
122	0xbeea3c2f	-0.4574904
123	0x3d8e232b	0.069403015
124	0xbf7e25a0	-0.9927616
125	0x3d6acaf1	0.057322446
126	0xbecf8e8e	-0.40538448
127	0x3e36c111	0.17847086
128	0xbe5b9950	-0.21445203
129	0x3a37d2df	0.0007012318
130	0x3de8307b	0.11337372
131	0xbc07034b	-0.008240531
132	0x3e82f875	0.25580183
133	0x3bfbe143	0.0076867654
134	0xbed67127	-0.41883203
135	0x3e426342	0.18983176
136	0x39665cd8	0.00021969096
137	0x3f911974	1.1335893
138	0x3dca546e	0.09879385
139	0xbd1a9ff6	-0.037750207
140	0xbd157c3b	-0.03649543
141	0xbca80ea2	-0.02051479
142	0xbdd9b376	-0.106299326
143	0xbe8fdc71	-0.2809787
144	0x39e4787a	0.0004357731
145	0xbe803bc8	-0.2504561
146	0xbce7506b	-0.028236588
147	0x3ddf2602	0.10895921
148	0x3db18a5d	0.08668969
149	0xba5ace3b	-0.0008346771
150	0x3c49c9c7	0.012316174
151	0x3c920043	0.01782239
152	0xbd0511b8	-0.0324876
153	0x3d9ec5fa	0.07752605
154	0xbec68fa8	-0.38781476
155	0xbeec6b0c	-0.4617542
156	0x3d5d0013	0.05395515
157	0x3d61ac43	0.055095922
158	0x3d8cc9f9	0.06874461
159	0x3e8a13e2	0.26968294
160	0x3ebff459	0.3749111
161	0xbbc4a5af	-0.0060011963
162	0x3ee0efac	0.43932855
163	0xbd1e1e97	-0.03860339
164	0x3de0dcde	0.10979627
165	0xba8be5a8	-0.0010673301
166	0xbb178d57	-0.0023125017
167	0x3dc55668	0.09635621
168	0x3d6a4e96	0.05720385
169	0x3deb0c1f	0.11476921
170	0xba1a034b	-0.00058751245
171	0x3f1bac18	0.6080947
172	0x3c642576	0.013924947
173	0x3e14b877	0.14523493
174	0xbdf03e99	-0.117306896
175	0xbd0280e0	-0.031861186
176	0xbb145dc3	-0.0022638894
177	0xbe563a7b	-0.20920746
178	0xbddbb622	-0.107280985
179	0xbe03d1ae	-0.12872955
180	0xbce82554	-0.028338112
181	0x3d5eeac5	0.054423112
182	0xbe2ed5d3	-0.17073755
183	0x3e817eae	0.2529196
184	0xbf02e854	-0.51135755
185	0x3e3f3c38	0.18675315
186	0xbe199723	-0.1499906
187	0x3d9b166f	0.07572638
188	0x3ce481c1	0.027893903
189	0x3e26abd6	0.16276488
190	0x39759a8f	0.00023422598
191	0xbe89b7b8	-0.2689798
192	0x3f0ecea3	0.5578405
193	0xba9e43a4	-0.0012074602
194	0xbe0fee7f	-0.14055823
195	0xbdc351f6	-0.09537117
196	0x3e19a943	0.15005974
197	0xbe4920e0	-0.19641447
198	0xbe764a1e	-0.24051711
199	0xbe3b41bf	-0.18286799
200	0xbdd4fe64	-0.10400084
201	0xbbf3d603	-0.0074412837
202	0xbbb3c8dd	-0.0054865913
203	0xbc149bc9	-0.009070345
204	0x3d9ab022	0.07553126
205	0x3c0e5875	0.008688082
206	0x3b9ad896	0.004725526
207	0xb8294568	-4.035738e-05
208	0x3dc966b0	0.09834039
209	0x3c17c574	0.009263385
210	0x3c9d6690	0.019213945
211	0x3b028bd2	0.0019919765
212	0xbb5b9bd7	-0.0033509636
213	0xba3ba980	-0.00071587414
214	0xbbb91b2a	-0.00564899
215	0xbb38af63	-0.002818071
216	0xba47e862	-0.00076258753
217	0x3bb90655	0.005646507
218	0xbd04f19b	-0.032456975
219	0xbd06836d	-0.03284018
220	0xbb854470	-0.0040669963
221	0x3b7ff946	0.003905849
222	0xbd2a01c0	-0.041505575
223	0x3cc840d7	0.02444498
224	0x3d3089f6	0.04310032
225	0x3aef8336	0.0018273357
226	0xbe329933	-0.17441253
227	0x3ba88575	0.0051428624
228	0xbd0be524	-0.034154072
229	0x3c860845	0.016361365
230	0xbc4777b0	-0.012174532
231	0x3b5e3ebe	0.003391191
232	0xbd2bdc6e	-0.041958265
233	0x3b9254e9	0.0044656885
234	0x3c58c0ee	0.013229592
235	0xbb7c10c8	-0.003846215
236	0x3c6aadc7	0.014323658
237	0x3e29dce3	0.16588168
238	0xbb1ceaed	-0.0023943738
239	0xbabf10a2	-0.00145771
240	0xbb84f53c	-0.0040575545
241	0x39902e58	0.0002750035
242	0x3ab4f3ce	0.001380557
243	0x3cc0f953	0.023556387
244	0x3bea91c9	0.007158492
245	0xbbe1d4d4	-0.006891826
246	0xbc633a11	-0.013868825
247	0xbdd14ef1	-0.10220135
248	0x3b289a54	0.0025726752
249	0x3d1e2fc9	0.03861979
250	0xbe0d068b	-0.13772027
251	0x3c0ccd8c	0.008593928
252	0xbae4380f	-0.0017411726
253	0xb99b2e06	-0.00029598194
254	0x3ae29a74	0.0017288462
255	0x3d67efee	0.0566253

decode.0.weight f4 [100, 39]
0	0x3ad2f87e	0.0016095785
1	0xbe0d0a37	-0.13773428
2	0xba03d940	-0.0005029626
3	0xbde9fa04	-0.1142464
4	0xbc896360	-0.016771019
5	0xbd2cbf43	-0.04217459
6	0xbe5ac191	-0.21362902
7	0xbe2feffa	-0.17181388
8	0x3e9c53da	0.30532724
9	0xbda88b49	-0.082296915
10	0xbe0617aa	-0.13094965
11	0xbd8ba595	-0.06818692
12	0x3db5b070	0.088715434
13	0xbf0dd8ef	-0.5540914
14	0xbe8120dd	-0.25220385
15	0xbd2707fa	-0.04077909
16	0x3d9f48d7	0.07777565
17	0x3e99e2b2	0.30055767
18	0xbfa7e97c	-1.3118129
19	0x3e3637f4	0.17794782
20	0xbde6b2a5	-0.112645425
21	0x3f37dbdf	0.7181987
22	0xbdebadb5	-0.11507741
23	0x3f09a58d	0.53768235
24	0x3efd4eae	0.4947409
25	0x3f36d045	0.71411544
26	0xbccedb59	-0.025251077
27	0xbe82f792	-0.25579506
28	0x3f656ade	0.8961619
29	0xbefbe9bb	-0.4920176
30	0xbf00a7d7	-0.50256103
31	0xbecc47ad	-0.39898434
32	0x3f03aacc	0.5143249
33	0xbecc2b78	-0.39876914
34	0xbf30bb71	-0.6903601
35	0xbe880599	-0.2656677
36	0x3d7a5019	0.061111543
37	0xbde1145e	-0.10990213
38	0xbea11456	-0.31460828
39	0x3a789152	0.00094821036
40	0xbea3506b	-0.31897292
41	0x3a8e0136	0.0010834101
42	0xbe933d1b	-0.28757557
43	0xbd910de9	-0.07082731
44	0x3e4feeb6	0.20305905
45	0x3e203f6d	0.15649195
46	0xbe8b41e2	-0.27198702
47	0x3e130bc7	0.14359961
48	0x3c849757	0.016185446
49	0xbe913312	-0.28359276
50	0x3e181f6b	0.14855735
51	0x3bcfe4a1	0.0063443934
52	0xbe371d6f	-0.17882322
53	0x3df82b7f	0.12117671
54	0xbd5b4220	-0.05352986
55	0xbee639a2	-0.44965845
56	0x3d03b101	0.032151226
57	0xbc019c1c	-0.0079107545
58	0x3eb7af1e	0.3587579
59	0xbf4a452a	-0.79011786
60	0xbee19b51	-0.4406381
61	0x3e63f11c	0.22259945
62	0xbe8028c3	-0.250311
63	0xbb0a8085	-0.0021133733
64	0xbe8b517c	-0.27210605
65	0xbecf5166	-0.4049179
66	0x3e977886	0.2958414
67	0xbe8c10e0	-0.27356625
68	0xbecf2e65	-0.40465084
69	0x3f176c31	0.5914946
70	0xbe19894f	-0.14993785
71	0xbeaee62a	-0.34159976
72	0x3f04b6ca	0.51841414
73	0x3e9c9aae	0.3058676
74	0xbd5e3d7f	-0.054257866
75	0xbec1b8a7	-0.3783619
76	0x3e5edefd	0.21764751
77	0xbcf8bc82	-0.030363325
78	0x3a32e0de	0.0006823669
79	0x3dc682fe	0.096929535
80	0x39ed9a0d	0.0004531894
81	0xbda0f6a7	-0.07859545
82	0xbdbb57fb	-0.0914764
83	0x3cca9c9b	0.024732878
84	0xbedee195	-0.4353148
85	0x3c60df66	0.013725137
86	0xbe2c2cf1	-0.16814019
87	0x3de76a98	0.11299628
88	0x3e481a07	0.19541179
89	0xbefa4edc	-0.4888829
90	0x3e8995b3	0.26872024
91	0xbf1a309f	-0.6023044
92	0x3dfa1db0	0.12212694
93	0xbda3b659	-0.079937644
94	0xbeaae50b	-0.3337787
95	0x3ddb1c5b	0.10698768
96	0xbdaf6913	-0.08564963
97	0xbeae14b3	-0.34000167
98	0xbea6bf6a	-0.32567912
99	0x3cac9c60	0.02107066
100	0x3f18bb24	0.59660554
101	0xbed01ad4	-0.40645468
102	0x3e683654	0.22676975
103	0xbe567e6a	-0.2094666
104	0xbf0f9ace	-0.5609559
105	0xbe9ce826	-0.30645865
106	0x3f45ce16	0.7726759
107	0xbef8a1f8	-0.48561072
108	0xbf0e74af	-0.55646795
109	0xbba82f3c	-0.005132584
110	0xbc050e9e	-0.008121161
111	0xbdada155	-0.08478037
112	0xbdae9423	-0.085243486
113	0xbed4a39a	-0.41531068
114	0x3e58cac7	0.21171103
115	0x3ea1f42f	0.3163161
116	0xbf20ef24	-0.628649
117	0x39839cf0	0.00025103195
118	0xbf01e5e2	-0.507414
119	0xba8becd5	-0.001067544
120	0xbe166aaa	-0.14689127
121	0x3d5372e5	0.051623244
122	0x3e29fa00	0.16599274
123	0xbd1fc0e3	-0.03900231
124	0xbdb16355	-0.08661524
125	0x3db15090	0.08657944
126	0xbf60f822	-0.8787862
127	0xbe5c2c51	-0.2150128
128	0xbebabeb3	-0.36473617
129	0x3f242092	0.641122
130	0xbf028b46	-0.50993764
131	0xbf3ca42d	-0.7368801
132	0x3d81e09b	0.06341668
133	0x3da204b1	0.07911051
134	0xbdfef4b1	-0.12449015
135	0x3ed45374	0.4146992
136	0xbe069121	-0.131413
137	0x3e0e5dfc	0.1390304
138	0xbefa048e	-0.488316
139	0xbd4e1862	-0.050316222
140	0x3a82dd7b	0.0009984219
141	0x3d82f02b	0.06393465
142	0xbc77d112	-0.01512553
143	0xbde1e820	-0.110306025
144	0xbe0a9cac	-0.13536328
145	0x3ef3fb47	0.47652647
146	0xbe7e27f6	-0.24819931
147	0xbea8b346	-0.32949275
148	0xbd2432fa	-0.040087678
149	0xbe45728f	-0.19281982
150	0xbf4e3060	-0.80542564
151	0x3e61fa07	0.22068034
152	0x3e7e71e8	0.2484814
153	0xbe3b1a12	-0.18271664
154	0x3e5b38cb	0.21408384
155	0xbe41cb5c	-0.18925232
156	0xba0f6007	-0.0005469326
157	0x3e5e2a89	0.21695913
158	0xba88159b	-0.0010382415
159	0xbe349a7e	-0.17637059
160	0xbcfca4bb	-0.030840268
161	0xbebf39a5	-0.37348667
162	0x3d4fdbb1	0.050746623
163	0xbdbb2259	-0.09137411
164	0xbe2cff9b	-0.16894381
165	0x3cf89c54	0.03034798
166	0x3ec5b41d	0.38613978
167	0xbea0d533	-0.31412658
168	0xbebe9114	-0.3722006
169	0x3e7f859c	0.24953312
170	0xbe22e124	-0.15906197
171	0xbe82bc42	-0.25534254
172	0xbcd10138	-0.025513276
173	0xbf23f754	-0.6404927
174	0xbc462441	-0.012093605
175	0xbf090ece	-0.53538215
176	0x3e8de24d	0.27711716
177	0xbe3ee25d	-0.18641038
178	0xbbf69559	-0.007525128
179	0x3e20082d	0.15628119
180	0x3dc52607	0.09626394
181	0xbeb972d1	-0.3622041
182	0xbeca5462	-0.39517504
183	0xbf1b1bb0	-0.6058912
184	0x3ee6a674	0.4504887
185	0x3e9ba90b	0.30402407
186	0x3e17f1e0	0.14838362
187	0x3f08a952	0.5338336
188	0x3f34d656	0.7063955
189	0x3e3d9d50	0.18517041
190	0xbf6a1077	-0.91431373
191	0x3d16485a	0.036690094
192	0xbdcef39e	-0.1010506
193	0xbf12fb82	-0.5741502
194	0x3e33a830	0.17544627
195	0xb8bb0e6a	-8.91954e-05
196	0x3e5e0443	0.21681313
197	0x39d9f170	0.0004156935
198	0x3dd5a51d	0.104318835
199	0xbe20181a	-0.15634194
200	0xbdcb108b	-0.09915265
201	0xbdd82feb	-0.105560146
202	0x3e144e28	0.14482939
203	0xbe2aad98	-0.16667783
204	0x3e075479	0.13215818
205	0x3f72f235	0.9490083
206	0xb818b8f9	-3.6411893e-05
207	0xbe2e37f3	-0.1701353
208	0x3edbaeb9	0.4290674
209	0xbf80b64d	-1.0055634
210	0xbf108c6f	-0.56464285
211	0x3e100319	0.14063682
212	0xbf195b24	-0.59904695
213	0x3ee5e306	0.44899768
214	0xbf2a133e	-0.6643561
215	0xbdc7727c	-0.09738633
216	0xbe6162c4	-0.22010332
217	0xbe89a509	-0.26883724
218	0xbf0bc833	-0.54602355
219	0x3ebf7db1	0.37400582
220	0x3ded5d16	0.1159002
221	0x3f05045a	0.51959765
222	0x3f30818e	0.68947685
223	0xbfa329b0	-1.2747097
224	0x3cd0b5b8	0.025477275
225	0x3eff833b	0.49904808
226	0x3f441ea8	0.7660928
227	0x3effc71f	0.49956605
228	0x3e8ee315	0.27907625
229	0xbefb6fbe	-0.4910869
230	0xbf868dfc	-1.051208
231	0x3f0fa360	0.56108665
232	0xbf22affb	-0.63549775
233	0xbd5cb105	-0.053879756
234	0x3a3d7534	0.00072272425
235	0x3e53cc67	0.20683442
236	0x3a11ab36	0.00055568235
237	0x3da1e8a6	0.07905702
238	0xbc393dc6	-0.011306232
239	0xbe05e475	-0.1307543
240	0x3e63f42b	0.22261111
241	0x3eb8bf81	0.36083606
242	0x3e37b75a	0.17941037
243	0xbf3a7974	-0.7284157
244	0xbef5d06f	-0.48010585
245	0xbf0dd8e8	-0.554091
246	0x3e9bec24	0.30453598
247	0xbe922190	-0.2854123
248	0x3f07bd03	0.53022784
249	0x3e84e883	0.25958642
250	0xbeb40a95	-0.35164323
251	0x3f02fb77	0.51164955
252	0xbf7a48e3	-0.97767466
253	0x3e85e33e	0.26149935
254	0x3e79c8d8	0.24393022
255	0x3db2d7d5	0.08732573

decode.2.weight f4 [100, 100]
0	0x3d06177c	0.03273724
1	0xbd69d716	-0.057089888
2	0x3f2037f6	0.6258539
3	0x3e02c964	0.12772137
4	0xbe8502b8	-0.25978637
5	0xbe7ba4a7	-0.24574529
6	0xbdfdd71e	-0.12394546
7	0x3e70d7f9	0.23519887
8	0x3df675c8	0.12034184
9	0x3e52d4b1	0.20588948
10	0x3e26d0a4	0.16290528
11	0x3dc6137d	0.09671686
12	0x3d801990	0.06254876
13	0xbd4eb7c7	-0.050468232
14	0xbee22d41	-0.4417515
15	0x3db08b95	0.08620373
16	0x3f001e94	0.5004666
17	0xbd591364	-0.052997008
18	0x3dd09f9e	0.101866946
19	0x3e88587d	0.2663001
20	0xbe8ec3f9	-0.2788389
21	0xbd3dc807	-0.04633334
22	0x3eaca3d8	0.33718753
23	0xbdb5ec8a	-0.08883007
24	0xbd8fba82	-0.070179954
25	0xbe821921	-0.25409797
26	0x3e205f4b	0.15661351
27	0x3ebbb0bf	0.36658284
28	0xbd6c60df	-0.05770957
29	0x3eab5bc3	0.33468446
30	0xbeea5e0d	-0.4577488
31	0x3ebb8211	0.3662267
32	0xbc2747c1	-0.010209979
33	0xbe642d91	-0.22283007
34	0xbe5b3b40	-0.21409321
35	0x3b86d25f	0.0041144337
36	0x3e328663	0.17434077
37	0xbd761336	-0.060076915
38	0xbf28cc2b	-0.65936536
39	0x3eda8272	0.42677647
40	0xbaa9b9e2	-0.0012949074
41	0x3d8685ae	0.06568466
42	0xbc949132	-0.01813564
43	0x3e7b2a45	0.24527843
44	0x3e7f9087	0.24957477
45	0x3c9ca1bf	0.019120095
46	0xbe1ed90f	-0.15512489
47	0x3d33f2af	0.043932613
48	0xbf01d60d	-0.5071724
49	0xbe016c38	-0.12638938
50	0x3e33f55f	0.1757407
51	0xbd138ddf	-0.03602397
52	0xbe1e274b	-0.15444677
53	0x3e1e9efe	0.15490338
54	0xbb869eca	-0.0041082846
55	0x3df202b4	0.11816922
56	0x3ec3fd06	0.3827898
57	0x3e86a145	0.26294914
58	0x3d54a072	0.051910825
59	0x3e40dca6	0.1883417
60	0xbded6394	-0.11591259
61	0xbeccce83	-0.40001306
62	0x3e2a0044	0.16601664
63	0xbe5f410d	-0.21802159
64	0xbed884e1	-0.4228888
65	0x3d9189de	0.07106374
66	0xbce4092d	-0.027836407
67	0xbe33587e	-0.17514226
68	0xbe1d5a3b	-0.15366451
69	0x3cc09aa7	0.023511244
70	0x3dc93ba2	0.09825827
71	0xbe50015e	-0.20313022
72	0x3e3b7765	0.18307264
73	0x3a0695e9	0.00051340327
74	0x3e0b402e	0.13598701
75	0x3e164242	0.14673713
76	0xbdfdee1b	-0.12398931
77	0xbe1b08d2	-0.15140083
78	0x3e449ec9	0.19201197
79	0xbcfe6d5d	-0.031058008
80	0x3dc03389	0.093848296
81	0x3e7846e1	0.24245788
82	0xbe94c66b	-0.2905763
83	0xbd1dc38d	-0.03851657
84	0xbe871f2a	-0.26390964
85	0x3e25118a	0.16119972
86	0xbe9342fe	-0.28762048
87	0xbe71ed51	-0.23625685
88	0xbd3fe02d	-0.04684465
89	0x3ea43523	0.3207179
90	0x3e430152	0.19043472
91	0xbdc1088b	-0.094254576
92	0x3e0c554c	0.13704413
93	0x3ed763f6	0.42068452
94	0x3e651f3d	0.22375198
95	0x3e5f43c0	0.21803188
96	0xbd2a23db	-0.0415381
97	0xbe254739	-0.1614045
98	0x3e1d0059	0.15332164
99	0x3e12f0ac	0.14349622
100	0x3ea1c424	0.31594956
101	0xbeca163b	-0.39470086
102	0x3f048252	0.51761353
103	0xbec8301e	-0.3909921
104	0x3ca33774	0.019923903
105	0xbdc4dfd8	-0.09613007
106	0xbd097e01	-0.033567432
107	0xbd9f9676	-0.0779237
108	0xbe9bca10	-0.304276
109	0xbe8c1129	-0.27356842
110	0x3e500475	0.203142
111	0xbc91346c	-0.017725192
112	0x3e086094	0.13318092
113	0x3d0fa1b2	0.035066314
114	0x3de3880f	0.111099355
115	0x3e69345c	0.2277388
116	0xbdd5f2c5	-0.10446695
117	0x3cf5d7df	0.030010162
118	0xbeddea79	-0.4334295
119	0x3c15f540	0.00915271
120	0x3eb1118d	0.34583703
121	0x3c02d0a1	0.007984311
122	0x3e363185	0.17792328
123	0x3e171fb4	0.14758188
124	0x3c527aa8	0.012846626
125	0x3e347bd8	0.17625368
126	0x3ea71f19	0.32640913
127	0xbe7d23a7	-0.24720632
128	0x3e4af667	0.19820558
129	0xbec2ecb1	-0.38071206
130	0x3dfff139	0.124971814
131	0x3e9fe79d	0.31231394
132	0xbe8f9b4c	-0.2804817
133	0xbebe3da5	-0.37156406
134	0x3e1afeb3	0.15136223
135	0xbe921386	-0.2853052
136	0x3e010299	0.12598647
137	0xbdc28e9c	-0.09499857
138	0xbe2776e6	-0.1635395
139	0x3cb0e9ed	0.02159592
140	0xbd7a9bb4	-0.061183646
141	0xbe050a54	-0.12992221
142	0x3f0285a1	0.5098515
143	0x3e047891	0.12936617
144	0x3cd24bb4	0.025670864
145	0x3ebca634	0.36845553
146	0x3e361afe	0.17783734
147	0xbefa2299	-0.4885452
148	0xbbff3c78	-0.007789191
149	0xbd94998c	-0.07255849
150	0xbe2ac3b2	-0.16676214
151	0xbe209650	-0.1568234
152	0xbd9edac2	-0.077565685
153	0x3e15e38c	0.14637583
154	0x3db25bdb	0.08708926
155	0x3eb137da	0.34612924
156	0xbdaef538	-0.085428655
157	0x3f13da2d	0.57754785
158	0x3e97d76a	0.29656535
159	0x3e9f7b18	0.311486
160	0x3dffbdc0	0.12487364
161	0x3e8d797d	0.2763175
162	0xbeb517b8	-0.35369658
163	0x3e3428fe	0.17593762
164	0xbe15e2cf	-0.14637302
165	0xbddf3a80	-0.1089983
166	0x3d92060f	0.07130062
167	0xbeb89a41	-0.36055186
168	0xbee7934c	-0.45229566
169	0xbee7c324	-0.45266068
170	0xbc64ae8c	-0.013957631
171	0xbe84e32e	-0.25954574
172	0x3e16a68f	0.14711975
173	0xbec75ec4	-0.38939488
174	0xbe8431e2	-0.25819308
175	0xbe4ae969	-0.19815601
176	0x3e12c046	0.14331159
177	0xbd685de2	-0.05673016
178	0xbcb6e366	-0.022325229
179	0xbe75b098	-0.23993146
180	0xbdf77580	-0.12082958
181	0x3da64f41	0.08120585
182	0xbe4c1c3c	-0.19932646
183	0xbe472d82	-0.19450954
184	0x3eb52d4c	0.3538612
185	0xbe5bfb48	-0.21482575
186	0xbdf3b82e	-0.11900364
187	0xbe00f994	-0.12595206
188	0xbe6e9d3e	-0.2330217
189	0xbebc5c94	-0.36789382
190	0x3e3c45b1	0.1838596
191	0x3ec49a2d	0.38398877
192	0xbe54a148	-0.20764649
193	0x3e230547	0.15919982
194	0x3ea659e9	0.3249047
195	0xbe503df2	-0.2033613
196	0xbe219d87	-0.15782748
197	0x3e4d2e2a	0.20037141
198	0x3daa6d59	0.08321638
199	0x3e392cdb	0.18083517
200	0xbc2e59d0	-0.01064153
201	0x3c646be5	0.01394174
202	0x3c87bf41	0.01657069
203	0x3c783ccb	0.015151213
204	0xba9c4854	-0.0011923411
205	0x3bc548a3	0.006020622
206	0x3c304c2e	0.01076035
207	0xbc22cb89	-0.009936222
208	0xbac79066	-0.0015225529
209	0x3c88705e	0.016655143
210	0x3c352448	0.011056013
211	0x3c2283e8	0.009919144
212	0xba678ea0	-0.00088332035
213	0x3999cc66	0.00029334723
214	0x3ae519c5	0.0017478993
215	0xbc50cec9	-0.012744614
216	0x3c1222f8	0.00891947
217	0x3c0254e6	0.007954812
218	0xbc858fd8	-0.016303942
219	0x3c150729	0.009095945
220	0x3ca848d8	0.020542547
221	0xbbc2284b	-0.0059252135
222	0x3b6fae99	0.0036572574
223	0xbc02bfba	-0.0079802815
224	0x3cf9f7f5	0.030513743
225	0x3cb0c31d	0.021577412
226	0xbc89534c	-0.016763352
227	0xbbe3e57a	-0.006954846
228	0x39cbaee3	0.00038849478
229	0xbc94a208	-0.018143669
230	0xbbd6496f	-0.0065395157
231	0xbbcb73ea	-0.0062088864
232	0x3cdcb210	0.026940376
233	0xbce72c79	-0.028219448
234	0x3bc03670	0.0058658645
235	0xbc3c2ff9	-0.011486047
236	0x3c1a5cc3	0.00942153
237	0x3b9ce4da	0.0047880234
238	0xbc88a434	-0.01667986
239	0x3ca5dca2	0.020246807
240	0xbc492b2e	-0.012278361
241	0x3c2ca86f	0.010538205
242	0xbc02942b	-0.007969896
243	0x3c315629	0.010823765
244	0x3c908a3b	0.017644038
245	0x3ace955c	0.0015761065
246	0xbb5919f2	-0.0033127037
247	0xbc1e578a	-0.009664426
248	0x3c40b525	0.011761938
249	0xbb652014	-0.0034961747
250	0x3c6c4e69	0.014422991
251	0xbc243ddd	-0.010024515
252	0xbc6bbe0f	-0.014388575
253	0xbb25cdfb	-0.0025299776
254	0x3a72aa83	0.00092569756
255	0x3b9c3251	0.0047667404

decode.4.weight f4 [1, 100]
0	0xbd234d10	-0.039868414
1	0x3dac2192	0.084048405
2	0xb9ad3415	-0.00033035935
3	0xbd3296eb	-0.043600958
4	0xbdeeac7b	-0.11653992
5	0xbd66be1c	-0.056333646
6	0xba03ad68	-0.0005023093
7	0xbd57e444	-0.052707925
8	0x3962e69d	0.0002163895
9	0xbd26e927	-0.040749695
10	0x3d4f5ccd	0.05062561
11	0xbd2a62e4	-0.041598216
12	0xb99ed36a	-0.00030293624
13	0x3d5be61d	0.05368625
14	0x39ce67ff	0.00039368865
15	0xbd88b7db	-0.06675693
16	0xbd64921a	-0.055803396
17	0x3a063c4e	0.00051206804
18	0xb921ef65	-0.00015443338
19	0x3d7ac438	0.061222285
20	0x3d5967e2	0.053077586
21	0xb9adf4d2	-0.00033179537
22	0x3a11b9f0	0.0005559018
23	0xb91f79cc	-0.00015208795
24	0x39296897	0.00016156059
25	0xbd462e96	-0.04838427
26	0x3991411c	0.00027705065
27	0x3d9d2651	0.07673324
28	0xbd3f490b	-0.04670052
29	0x3d6dc4ce	0.058049016
30	0x3dbedb25	0.09319142
31	0x3d6e4d5c	0.058179244
32	0x39d5b070	0.00040757982
33	0x391c9994	0.00014934532
34	0x3db3e0c3	0.08783104
35	0xbdb0d395	-0.08634106
36	0x3d7edb1c	0.062220678
37	0x3db55db4	0.08855763
38	0xbd38e46c	-0.045139715
39	0xbda79328	-0.08182365
40	0xbd437b01	-0.047724728
41	0x3d8825a5	0.06647805
42	0x3d750153	0.059815716
43	0x3d5f75c2	0.054555662
44	0xb83bbcd3	-4.476013e-05
45	0xbd822472	-0.06354608
46	0xbd39df9d	-0.04537927
47	0xb84a963f	-4.830048e-05
48	0xbd495467	-0.049152758
49	0xbd3e7cfc	-0.046505913
50	0x39b89ab7	0.00035210486
51	0xbd34822b	-0.04406945
52	0xbd1ecd51	-0.038770024
53	0x3da502a7	0.080571465
54	0xbd6f77cc	-0.058463857
55	0x3d6b3d09	0.057431255
56	0xbd3ce1a8	-0.04611364
57	0x3d9fd15c	0.07803604
58	0xbd4cfe4a	-0.050047196
59	0xb89df3e2	-7.53177e-05
60	0xb99b523d	-0.00029625176
61	0x3994c2c0	0.0002837386
62	0x38e201d6	0.00010776862
63	0x3d91e610	0.07123959
64	0x3d8223d8	0.06354493
65	0x39aa3c65	0.00032469924
66	0x3d5acac8	0.053416044
67	0x3d722bb6	0.059123717
68	0x3d388d7b	0.0450568
69	0xbd2d0446	-0.042240404
70	0x3d531bab	0.051540058
71	0x3d5c547e	0.053791516
72	0x3d608147	0.05481079
73	0xba09ed66	-0.00052615104
74	0x399c89a6	0.00029857195
75	0x3852eebb	5.0290237e-05
76	0xbd6363c4	-0.055515066
77	0xbd33428c	-0.043764636
78	0x3d5e2221	0.054231767
79	0x380937da	3.271536e-05
80	0x365508c8	3.1744585e-06
81	0x3a6af4b9	0.0008962858
82	0xbd45b61a	-0.04826937
83	0x3961b0f1	0.00021523588
84	0x3d856102	0.065126434
85	0xbd40b16b	-0.0470442
86	0x3d54c192	0.051942416
87	0x3d8b019b	0.067874156
88	0xbd8e4383	-0.069464706
89	0xbd53e4f7	-0.05173203
90	0x3d83cb3c	0.06435248
91	0xbd3cf72e	-0.046134166
92	0xbda798e2	-0.08183457
93	0x3d7385c5	0.059453744
94	0x3db04b72	0.0860814
95	0x3d307006	0.043075584
96	0xb8efbafc	-0.000114312366
97	0x3d6fbd4f	0.058530148
98	0xbd4cda6c	-0.05001299
99	0x384fabcf	4.9512655e-05
