Quantum/complete/models/4_latent.pt (torch, 95975 bytes, 6 tensors)

encode.0.weight f4 [100, 10]
-0.205625 -0.23171066 -0.1743848 0.17860141 -0.15040526 -0.24686639 0.15318233 0.28609186
-0.15228753 0.22438751 -0.21448112 0.4147856 0.30188933 0.007332661 -0.05404258 0.2777058
0.32981592 -0.20995389 -0.35425988 -0.30079797 -0.1345527 0.08589515 0.18016717 0.18363455
-0.03671272 0.061315008 0.19327983 -0.004524621 -0.21271062 0.051602814 0.048675243 0.28012812
-0.23537697 0.04980784 0.057705086 0.19900966 0.07823437 -0.3123596 0.16028345 -0.08108542
0.08257825 -0.3018431 0.032826815 0.23102751 -0.0064298036 0.096013956 -0.16425294 0.29525283
-0.19211136 -0.021431139 0.21312006 -0.2995814 -0.38431895 -0.14265415 0.41223863 -0.019950386
0.21736282 -0.28537515 0.04873551 -0.3709156 -0.3543979 0.3424044 -0.2142385 -0.1356656
-0.06602952 0.23715317 -0.1342105 0.019456388 0.1333097 0.15013894 0.14502311 0.10978482
-0.07949921 -0.3140822 0.17599769 0.08656775 -0.2920105 0.043834727 0.1987123 0.0016332105
0.21520925 -0.46427464 0.11946834 0.28705359 -0.28127947 -0.09172423 -0.21091188 -0.101705216
-0.3018836 0.0012599309 -0.23919334 -0.3133698 0.34779832 -0.052790865 -0.16156006 -0.1730939
0.18238336 0.35365784 0.20365728 0.11509343 -0.03606948 -0.068755105 0.3267711 -0.11646113
-0.19612609 -0.07828998 0.27804312 -0.3010429 -0.101694226 -0.04997623 0.27294436 -0.26195252
0.036969256 -0.044529483 0.2369282 0.3090443 -0.062448695 -0.26511675 -0.25342804 -0.26021457
0.014788015 -0.16251421 0.36589426 -0.085584395 -0.05630636 0.045303777 0.22976288 -0.1754589
-0.2564958 -0.22806871 0.104480274 -0.30977145 -0.13829978 0.24468012 0.22296494 -0.3209503
0.2696236 0.26823562 -0.18210608 -0.040279385 -0.27687216 -0.15275931 0.49002305 0.21118437
-0.53781164 -0.14480051 -0.12437318 0.2617339 0.3441298 -0.0022858563 0.06523805 -0.024039557
-0.043938372 -0.014406616 -0.06482901 -0.16701983 0.08404897 -0.0075166365 -0.10701081 0.15082878
0.29251504 -0.2933763 -0.012598237 0.12808587 0.10762612 -0.084527366 -0.1294915 -0.08685214
0.23735608 0.09795591 0.030920405 0.45958385 -0.2453773 -0.1375344 0.14305703 -0.04912411
0.031950336 -0.020794371 -0.22867174 0.016224002 0.036453463 -0.21599376 -0.05930436 0.056618754
-0.26883736 -0.078705475 0.19848576 0.021598415 0.2745739 -0.13550752 -0.17065476 -0.35701084
-0.12577815 0.06420902 0.20181619 -0.32227862 0.28788745 -0.10901048 0.09358174 -0.39381787
0.2777195 -0.052093074 0.16972621 0.2994608 -0.2898781 0.1928095 0.14688894 -0.11963837
-0.28144753 -0.2594737 -0.06297244 -0.35586187 0.1250155 0.04966957 -0.537932 0.17625262
0.15626958 0.1769055 -0.25348744 -0.063348636 0.042977463 -0.22082421 0.41643703 0.31700808
-0.36098593 0.10877691 0.04700998 0.12848611 -0.16116995 0.16091397 0.041687418 -0.08331292
0.15166824 -0.010873893 0.23306628 -0.1414658 -0.06555909 0.2677256 0.045759622 -0.0442856
-0.31248596 0.061967403 0.30823115 0.13874169 -0.33532965 -0.4287797 -0.12273424 0.34987622
0.22951253 0.23205654 -0.007963786 0.25656816 0.20268066 -0.19004251 0.28302196 -0.027528282
00000000: 5c8f 52be 8f45 6dbe ee91 32be 4ae3 363e
00000010: d603 1abe 8bca 7cbe d4db 1c3e a27a 923e
00000020: 43f1 1bbe d7c5 653e f0a0 5bbe c75e d43e
00000030: 3d91 9a3e d246 f03b c15b 5dbd 742f 8e3e
00000040: a2dd a83e 27fe 56be 8d61 b5be 3102 9abe
00000050: 2fc8 09be cce9 af3d be7d 383e b20a 3c3e
00000060: 1460 16bd 7225 7b3d 26eb 453e 4643 94bb
00000070: d0d0 59be 795d 533d b15f 473d f46c 8f3e
00000080: a906 71be 4e03 4c3d 2b5c 6c3d 30c9 4b3e
00000090: 5739 a03d 99ed 9fbe 5821 243e 1d10 a6bd
000000a0: c91e a93d 2e8b 9abe 6975 063d 7a92 6c3e
000000b0: 1ab1 d2bb f7a2 c43d ec31 28be 612b 973e
000000c0: d7b8 44be 5b90 afbc 253c 5a3e bc62 99be
000000d0: 74c5 c4be ee13 12be f110 d33e fe6e a3bc
000000e0: 5c94 5e3e b11c 92be e39e 473d a6e8 bdbe
000000f0: a473 b5be a14f af3e 5661 5bbe eceb 0abe
00000100: 7c3a 87bd 48d8 723e 7a6e 09be 0163 9f3c
00000110: 5782 083e 06be 193e f080 143e ddd6 e03d
00000120: 7bd0 a2bd 62cf a0be bd38 343e 6f4a b13d
00000130: 6682 95be 0b8c 333d 3d7b 4b3e 7311 d63a
00000140: d05f 5c3e 68b5 edbe d1ab f43d b0f8 923e
00000150: dd03 90be ead9 bbbd 49f9 57be d34a d0bd
00000160: 7d90 9abe 4424 a53a 19ef 74be 0272 a0be
00000170: 9f12 b23e 3c3b 58bd 0070 25be 873f 31be
00000180: b4c2 3a3e a412 b53e 898b 503e 1bb6 eb3d
00000190: 97bd 13bd 7acf 8cbd 8b4e a73e 2c83 eebd
000001a0: 47d5 48be 7f56 a0bd ab5b 8e3e 4c22 9abe
000001b0: 1045 d0bd e0b3 4cbd 5dbf 8b3e a41e 86be
000001c0: 136d 173d 8c64 36bd 4e9d 723e 0e3b 9e3e
000001d0: 34ca 7fbd 62bd 87be 52c1 81be d83a 85be
000001e0: 6e49 723c 206a 26be 7e56 bb3e df46 afbd
000001f0: 7fa1 66bd 7490 393d f646 6b3e 7fab 33be
00000200: 6b53 83be d88a 69be c1f9 d53d 5d9a 9ebe
00000210: 759e 0dbe 6d8d 7a3e ec50 643e 9953 a4be
00000220: 1b0c 8a3e 2e56 893e 047a 3abe fffb 24bd
00000230: 30c2 8dbe f06c 1cbe 4de4 fa3e b740 583e
00000240: 06ae 09bf 9646 14be 5eb7 febd fc01 863e
00000250: c831 b03e 4ece 15bb 879b 853d 9bee c4bc
00000260: b9f8 33bd ba09 6cbc 12c5 84bd 3f07 2bbe
00000270: de21 ac3d 1e4e f6bb 7c28 dbbd dc72 1a3e
00000280: 88c4 953e 6b35 96be d668 4ebc f128 033e
00000290: 156b dc3d af1c adbd 6b99 04be 89df b1bd
000002a0: 790d 733e 1c9d c83d ca4c fd3c 934e eb3e
000002b0: 3044 7bbe d1d5 0cbe 8b7d 123e 5d36 49bd
000002c0: 5bde 023d f558 aabc ed28 6abe 33e8 843c
000002d0: 3a50 153d 782d 5dbe 21e9 72bd 11e9 673d
000002e0: 0da5 89be 5630 a1bd da3f 4b3e 29ef b03c
000002f0: f394 8c3e 7cc2 0abe 1fc0 2ebe 20ca b6be
00000300: fdcb 00be 0580 833d e7a8 4e3e b401 a5be
00000310: fc65 933e e340 dfbd c9a7 bf3d 7fa2 c9be
00000320: 4031 8e3e 8c5f 55bd b5cc 2d3e ed52 993e
00000330: e76a 94be db6f 453e 0e6a 163e f604 f5bd
00000340: e419 90be bdd9 84be b2f7 80bd 8733 b6be
00000350: 1004 003e 5272 4b3d e9b5 09bf 917b 343e
00000360: 2205 203e b726 353e 1bc9 81be eebc 81bd
00000370: 2309 303d be1f 62be 3c37 d53e e24e a23e
00000380: 26d3 b8be 6ec6 de3d 898d 403d dd91 033e
00000390: bc09 25be a2c6 243e 6dc0 2a3d f79f aabd
000003a0: eb4e 1b3e 6a28 32bc eda8 6e3e 69dc 10be
000003b0: d843 86bd 5413 893e 716e 3b3d d164 35bd
000003c0: 29fe 9fbe 88d1 7d3d 79d0 9d3e 4d12 0e3e
000003d0: 54b0 abbe 0389 dbbe 175c fbbd fa22 b33e
000003e0: 5505 6b3e 3ba0 6d3e 8a7a 02bc e75c 833e
000003f0: 858b 4f3e 819a 42be 41e8 903e fe82 e1bc

encode.2.weight f4 [100, 100]
-0.08157885 0.21796286 0.028881649 0.094786204 -0.098449 -0.07216489 0.094236925 0.031182868
0.048976 -0.07000315 0.07615616 -0.027584948 0.0008444641 -0.25018114 0.048110306 -0.120568305
-0.10451814 0.047225226 0.027504623 -0.005473563 0.11930153 0.21016729 0.067302205 -0.098951556
-0.005044633 0.055146076 -0.11411277 0.03263697 0.21079801 0.009969649 -0.07821615 -0.044577535
0.10543377 -0.007418698 0.020890608 -0.21306387 0.28341854 0.0029181328 0.17631507 -0.050218545
-0.07291596 0.13572285 -0.06320457 -0.01330241 -0.08513767 -0.26312706 0.04453217 -0.5505838
0.027596558 -0.19360423 -0.008624005 0.2685792 -0.38423365 0.0026221427 0.22834636 -0.1851889
-0.21610114 -0.2296093 -0.13397652 0.103589475 -0.038548704 -0.014711536 0.2711612 -0.1515559
0.0412466 0.2313445 -0.16055517 0.11566829 -0.11378716 0.07992062 -0.06543551 0.041153487
0.1840101 -0.053455282 -0.10561399 -0.06255369 -0.031201655 -0.07514391 -0.027680611 0.18683241
-0.018804409 0.03597433 -0.001010107 0.1553137 0.17749935 -0.23703715 0.1319251 -0.25218877
0.1310113 -0.033196043 0.045710564 0.120029956 0.12599558 0.0018460206 0.1793545 -0.02126997
-0.25689647 -0.07520985 0.045256965 0.010074137 0.019361425 -0.35894606 -0.033531055 -0.03397955
-0.16687511 0.11933761 0.08516663 0.09550131 0.091980934 -0.09796119 -0.0048918487 -0.01848291
-0.031712793 -0.059260987 0.029099246 -0.033221927 -0.107821174 0.17582598 0.054066006 0.1781238
-0.1521423 0.061958384 -0.22428823 -0.06907604 0.11172384 -0.04452655 0.15380163 -0.09687844
-0.23095895 0.07196091 0.09568255 -0.14908844 0.08289401 0.13169235 -0.050661597 0.04098018
-0.29908735 -0.027028726 0.08623222 0.053957205 -0.14620303 0.047689743 -0.029684216 -0.09061904
-0.008183338 -0.0205458 0.28587997 0.111087896 -0.2797915 0.24273105 0.04352022 -0.010784223
0.026337916 -0.14039156 -0.10950546 0.16266482 0.073355846 0.032364044 0.50758415 -0.29764754
0.050001368 0.021427441 0.060792163 -0.16350818 0.27046996 -0.27330253 0.4075961 -0.07091393
-0.112564154 -0.008502911 0.01882308 0.09965291 -0.1191175 -0.15466031 0.44194496 0.22261469
-0.058095895 0.023236865 -0.06329475 0.03251507 -0.26610428 -0.0055523682 -0.07300092 -0.35573518
-0.29985246 0.07394877 0.16014266 -0.018378064 -0.17624576 -0.01372383 -0.2908353 0.002217165
-0.06717789 -0.24668935 0.120008655 -0.061380967 0.26660582 -0.24830998 0.11075882 -0.06563847
-0.028423248 -0.025864715 0.057575945 0.079088874 -0.0136209205 0.004336132 -0.015338108 0.03342566
-0.04003076 0.08892626 0.03350349 0.022151997 -0.036348183 0.09575308 0.10923206 -0.033258874
-0.017880674 0.103431836 -0.049622905 -0.049356975 0.0058811596 0.13875218 0.005584252 0.03167535
-0.078838445 0.022894261 -0.02388008 0.010095392 -0.04468734 0.03221794 -0.04004308 -0.09428623
-0.07077016 0.039637398 0.021739723 -0.01908647 0.011503197 0.057167593 -0.0128944265 -0.041566987
-0.06078121 0.06743286 0.09818759 -0.04595798 -0.03122186 -0.056696087 0.0450733 -0.043616496
-0.104946785 -0.08374059 -0.10583974 -0.057102498 0.06581266 0.14882448 -0.05286002 -0.03104734
00000000: d012 a7bd a831 5f3e 3599 ec3c 451f c23d
00000010: a19f c9bd 30cb 93bd 4aff c03d 3773 ff3c
00000020: 0f9b 483d d05d 8fbd c3f7 9b3d d4f9 e1bc
00000030: 075f 5d3a be17 80be 500f 453d 84ec f6bd
00000040: 9b0d d6bd 3d6f 413d 6051 e13c 935b b3bb
00000050: 5c54 f43d 1836 573e bdd5 893d 1da7 cabd
00000060: 734d a5bb dae0 613d f5b3 e9bd 58ae 053d
00000070: 6fdb 573e bd57 233c ca2f a0bd ef96 36bd
00000080: a9ed d73d 8d18 f3bb c822 ab3c 6a2d 5abe
00000090: 3c1c 913e 253e 3f3b f08b 343e f6b1 4dbd
000000a0: f654 95bd eefa 0a3e 6671 81bd 5af2 59bc
000000b0: a95c aebd 97b8 86be 5d67 363d 0ff3 0cbf
000000c0: 2d12 e23c 3040 46be b34b 0dbc 3783 893e
000000d0: 46ba c4be 41d8 2b3b a1d3 693e 29a2 3dbe
000000e0: 9e49 5dbe b31e 6bbe 2431 09be b826 d43d
000000f0: 3fe5 1dbd a708 71bc a4d5 8a3e 7831 1bbe
00000100: 32f2 283d 93e5 6c3e 9368 24be 7fe3 ec3d
00000110: 3e09 e9bd 6cad a33d 0d03 86bd 8f90 283d
00000120: 256d 3c3e edf3 5abd 264c d8bd 261c 80bd
00000130: 9d9a ffbc 0de5 99bd 73c2 e2bc ff50 3f3e
00000140: b40b 9abc d259 133d 9165 84ba 8e0a 1f3e
00000150: 64c2 353e deb9 72be 6017 073e e31e 81be
00000160: d427 063e 93f8 07bd 003b 3b3d 44d2 f53d
00000170: fc04 013e 2cf6 f13a b5a8 373e 5c3e aebc
00000180: ef87 83be 9f07 9abd 5e5f 393d fe0d 253c
00000190: da9b 9e3c c7c7 b7be dc57 09bd 242e 0bbd
000001a0: 4fe1 2abe 4767 f43d d86b ae3d 3196 c33d
000001b0: 8060 bc3d e09f c8bd cd4b a0bb 7969 97bc
000001c0: 46e5 01bd a6bb 72bd 8b61 ee3c b713 08bd
000001d0: 59d1 dcbd ba0b 343e 5174 5d3d 1666 363e
000001e0: 31cb 1bbe 13c8 7d3d d0ab 65be bd77 8dbd
000001f0: 78cf e43d 7961 36bd 2d7e 1d3e 3468 c6bd
00000200: 8180 6cbe 3e60 933d 36f5 c33d a4aa 18be
00000210: 56c4 a93d 5cda 063e 8982 4fbd d5da 273d
00000220: fa21 99be 596b ddbc 859a b03d 3b02 5d3d
00000230: 3fb6 15be 5256 433d 502c f3bc 7a96 b9bd
00000240: 6813 06bc aa4f a8bc dc5e 923e 0d82 e33d
00000250: d540 8fbe 7d8e 783e 4242 323d 4fb0 30bc
00000260: 9dc2 d73c cec2 0fbe 6644 e0bd 9b91 263e
00000270: 973b 963d 2990 043d 09f1 013f 4265 98be
00000280: 3cce 4c3d 9a88 af3c 3401 793d b06e 27be
00000290: 0a7b 8a3e 4fee 8bbe 70b0 d03e 533b 91bd
000002a0: 0988 e6bd cb4f 0bbc dc32 9a3c d316 cc3d
000002b0: e0f3 f3bd 465f 1ebe 9c46 e23e 1bf5 633e
000002c0: f6f5 6dbd 3d5b be3c aea0 81bd 862e 053d
000002d0: d23e 88be a4f0 b5bb 8281 95bd ec22 b6be
000002e0: 4386 99be 7472 973d 70fc 233e 988d 96bc
000002f0: c579 34be ead9 60bc 5de8 94be db4d 113b
00000300: 9094 89bd 229c 7cbe 19c7 f53d 9c6a 7bbd
00000310: 8f80 883e f944 7ebe 85d5 e23d 766d 86bd
00000320: dfd7 e8bc 3de2 d3bc c1d4 6b3d 59f9 a13d
00000330: 482a 5fbc 1d16 8e3b b04c 7bbc 58e9 083d
00000340: 4bf7 23bd f91e b63d f53a 093d 1b78 b53c
00000350: d5e1 14bd 311a c43d 0fb5 df3d 753a 08bd
00000360: 7e7a 92bc 12d4 d33d 6341 4bbd 8a2a 4abd
00000370: beb6 c03b 0d15 0e3e 1afc b63b 03be 013d
00000380: 0d76 a1bd bf8c bb3c 28a0 c3bc 2567 253c
00000390: 120a 37bd f5f6 033d 3604 24bd 2419 c1bd
000003a0: f2ef 90bd d35a 223d 8117 b23c 3b5b 9cbc
000003b0: e877 3c3c 9128 6a3d 2543 53bc 2542 2abd
000003c0: b8f5 78bd 3d1a 8a3d 9316 c93d 6f3e 3cbd
000003d0: fcc4 ffbc 283a 68bd c89e 383d 36a7 32bd
000003e0: 57ee d6bd 3080 abbd 81c2 d8bd 4fe4 69bd
000003f0: cac8 863d 7265 183e c083 58bd fe56 febc

encode.4.weight f4 [8, 100]
0.08166043 -0.15361165 0.00041225262 -0.00014635676 0.0002906272 -0.10785492 3.2339147e-05 0.00027986235
0.034315344 0.0055360994 0.00051148294 -0.026567997 0.020262934 0.032213956 0.14715275 4.864831e-05
-0.00052537007 -0.18272857 -0.00012517026 -0.010587442 -7.230118e-05 0.0001333956 -0.00018743434 -0.0003698457
4.007865e-05 -0.032092668 0.016279 -0.0001375728 -3.7970556e-05 -8.270348e-06 -0.00035176266 -0.10223106
-0.00035155145 0.000117172516 0.00064673193 0.015379895 8.0992e-05 0.09326084 -0.00027639183 -0.11259168
0.0035801905 -0.00032752685 3.5658009e-06 -0.00054010446 -0.0941497 -0.00014520994 -0.00067504507 -0.002469526
-0.00024267746 -0.08264609 6.318018e-05 -0.06625633 -0.00018442048 -0.02313854 -0.039771385 0.061382804
0.00010199461 0.024299368 -0.06990369 0.00035587628 0.000867361 -0.01550448 0.048463557 0.018000895
-0.3076 0.059329446 9.959873e-05 0.0015082593 -0.00037117154 -0.00019181432 -0.014744831 0.00014026463
0.00037250872 0.0002927812 -0.00010553838 0.009409562 0.11536275 0.0003162187 0.0005375243 -0.00027509974
0.28326717 0.02231105 7.554298e-05 0.10307548 -0.0004901042 -0.00022490977 0.0010196558 0.033637736
-0.078551024 0.00011057879 0.007278286 0.097045645 -0.035896614 -0.0003302306 -0.058607593 0.00025304247
0.0019024684 0.0003152277 0.00031224484 0.00026575083 0.11397302 -0.0069751837 -0.0002491234 0.00027502835
0.000222026 -0.09452896 -5.440382e-05 -7.770997e-06 -0.04068587 0.05118203 7.342512e-05 -0.017637143
0.017715264 0.031447884 -0.18025324 0.00035813698 0.0004947217 0.020188881 -0.000115442046 0.02758507
-0.0010306383 -0.0003027596 0.00037066234 0.00017158705 -0.00010803223 0.06716881 0.21285284 0.000258251
-0.0010408172 9.337045e-06 0.00051054417 0.110956065 0.00027176517 -0.0002364272 0.0051517957 0.015189835
-0.00035050025 0.08747778 8.06486e-05 0.1183839 0.1966823 0.00025716645 -0.00048185902 0.00023378218
-0.069712386 0.00070517685 0.0007958539 -0.004210511 -0.0002274672 -0.22452495 -3.7221764e-06 0.062863
-0.00015123334 -0.02460774 0.07777269 -0.056601375 -0.0010149468 -0.014563698 -0.036629084 -0.00012265431
-0.048767827 0.03732418 0.008840961 0.004032019 -0.0032807675 0.0838778 0.00024163595 -0.0015495636
0.0006083003 0.001010015 0.06699081 0.00043761343 0.00075006974 0.0002616486 0.00016144311 -0.19800338
0.068059996 4.7760415e-05 -0.000121899415 -0.0002711763 -0.016360464 -0.033845004 0.00031177388 0.1398949
0.0002737627 0.00039997947 -0.0027818326 0.056840785 -0.087476686 0.0006442227 -0.052793488 -0.12841384
-0.08751654 0.00039359048 0.0651028 0.00011554026 0.0016582699 -0.0003441182 -0.0004534426 -0.0008655741
-0.0021009594 -0.011611887 -0.0015355132 0.008465746 -0.0093389405 -0.0021600032 -0.012497168 0.0037759745
0.050435066 0.025920345 0.003036692 -0.011772473 -0.09484623 -0.02672396 -0.013261745 -0.008892568
0.015277608 -0.004926627 -0.0057231537 -0.03426589 -0.0042716865 0.0134079205 -0.010273999 0.02433446
-0.0051280474 -0.017632756 -0.004043391 -0.012338874 -0.006200331 0.014099619 0.013463173 0.013087951
0.025880374 0.016929213 0.019278914 0.035271604 -0.03184366 0.013408453 -0.014586286 0.013520688
-0.0088985935 0.005146832 0.008833245 0.005272898 0.01623515 0.009479278 0.014378565 -0.0512249
0.0013840939 0.026577193 -0.002977068 -0.08076296 0.030846281 0.02610018 0.05619209 -0.043659315
00000000: 953d a73d 5f4c 1dbe 9c23 d839 5877 19b9
00000010: 535f 9839 0ae3 dcbd e5a3 0738 7dba 9239
00000020: 3f8e 0c3d 2b68 b53b 0a15 063a 21a5 d9bc
00000030: 74fe a53c c8f2 033d 36af 163e ba0b 4c38
00000040: fdb8 09ba 331d 3bbe 2340 03b9 f376 2dbc
00000050: 67a0 97b8 1ce0 0b39 068a 44b9 d9e7 c1b9
00000060: 1f1a 2838 9a73 03bd 8a5b 853c 6b41 10b9
00000070: 9342 1fb8 e0c0 0ab7 c96c b8b9 855e d1bd
00000080: 7050 b8b9 84ba f538 7289 293a f5fb 7b3c
00000090: 40da a938 8aff be3d afe8 90b9 7796 e6bd
000000a0: a1a1 6a3b e9b7 abb9 fe4b 6f36 cc95 0dba
000000b0: 8fd1 c0bd 7f43 18b9 82f5 30ba c5d7 21bb
000000c0: 3c77 7eb9 5a42 a9bd 9a7f 8438 66b1 87bd
000000d0: ff60 41b9 098d bdbc 52e7 22bd 896c 7b3d
000000e0: f0e5 d538 780f c73c aa29 8fbd e894 ba39
000000f0: 9d5f 633a 8106 7ebc b981 463d 9d76 933c
00000100: bf7d 9dbe 6f03 733d a9df d038 c9b0 c53a
00000110: cd99 c2b9 c421 49b9 4e94 71bc 0014 1339
00000120: 464d c339 6d80 9939 7c54 ddb8 902a 1a3c
00000130: 4e43 ec3d 28ca a539 a5e8 0c3a 433b 90b9
00000140: 6508 913e aac5 b63c d46c 9e38 3d19 d33d
00000150: 567a 00ba c2d5 6bb9 f9a5 853a b9c7 093d
00000160: 5cdf a0bd 89e6 e738 b07e ee3b debf c63d
00000170: 5408 13bd cd22 adb9 840e 70bd c9aa 8439
00000180: 3f5c f93a 2545 a539 cbb4 a339 7954 8b39
00000190: b06a e93d 1590 e4bb c79c 82b9 ae31 9039
000001a0: a7cf 6839 6698 c1bd a82f 64b8 2e60 02b7
000001b0: 3aa6 26bd 40a4 513d d0fb 9938 c57b 90bc
000001c0: 9a1f 913c 7fcf 003d 4e94 38be 55c4 bb39
000001d0: 36b0 013a 2763 a53c 7a19 f2b8 16fa e13c
000001e0: 7c16 87ba b5bb 9eb9 7555 c239 0cec 3339
000001f0: 5d8f e2b8 cd8f 893d 18f6 593e dd65 8739
00000200: 086c 88ba 4ea6 1c37 0ad6 053a ef3c e33d
00000210: b47b 8e39 71e9 77b9 65d0 a83b c9de 783c
00000220: 59c3 b7b9 8d27 b33d e321 a938 4273 f23d
00000230: 1667 493e 4cd4 8639 06a2 fcb9 6d23 7539
00000240: 5ec5 8ebd 9edb 383a daa0 503a 54f8 89bb
00000250: 4384 6eb9 dee9 65be 81ca 79b6 51be 803d
00000260: 6494 1eb9 2c96 c9bc 4a47 9f3d d8d6 67bd
00000270: f707 85ba 949c 6ebc 6108 16bd c49c 00b9
00000280: c6c0 47bd 3de1 183d aed9 103c 071f 843b
00000290: 2502 57bb 20c8 ab3d a85f 7d39 ba1a cbba
000002a0: 5876 1f3a 7b62 843a 7a32 893d 7b6f e539
000002b0: 54a0 443a e12d 8939 0e49 2939 66c1 4abe
000002c0: 0a63 8b3d 5b52 4838 40a4 ffb8 ab2c 8eb9
000002d0: 6106 86bc 0fa1 0abd 9575 a339 9c40 0f3e
000002e0: cf87 8f39 56b4 d139 684f 36bb e2d1 683d
000002f0: fa26 b3bd 0ee1 283a fc3d 58bd eb7e 03be
00000300: df3b b3bd d25a ce39 9e54 853d 344e f238
00000310: 4e5a d93a c36a b4b9 09bc edb9 b2e7 62ba
00000320: 40b0 09bb c93f 3ebc 4643 c9ba eab3 0a3c
00000330: 5b02 19bc d78e 0dbb ecc0 4cbc 5776 773b
00000340: 0095 4e3d e756 d43c 3d03 473b 55e1 40bc
00000350: bd3e c2bd 35ec dabc ca47 59bc 22b2 11bc
00000360: ef4e 7a3c 8b6f a1bb 4b89 bbbb 645a 0cbd
00000370: 81f9 8bbb e5ac 5b3c 4654 28bc 1059 c73c
00000380: 2e09 a8bb 9272 90bc 6c7e 84bb fd28 4abc
00000390: 252c cbbb 1702 673c a494 5c3c d86e 563c
000003a0: 1403 d43c 22af 8a3c d0ee 9d3c f578 103d
000003b0: 7f6e 02bd 21af 5b3c 51fb 6ebc e085 5d3c
000003c0: 68cb 11bc c2a6 a83b 51b9 103c 46c8 ac3b
000003d0: 94ff 843c f94e 1b3c 1394 6b3c 33d1 51bd
000003e0: 7c6a b53a 6ab8 d93c ea1a 43bb 0d67 a5bd
000003f0: 57b1 fc3c 0bd0 d53c ad29 663d 1cd4 32bd

decode.0.weight f4 [100, 14]
-0.06340039 -0.40318644 0.0004887775 0.00043798558 -0.38113657 0.03719353 -0.19859555 0.18024898
0.15451269 0.15837462 -0.14229327 0.123448886 -0.2451318 -0.41639012 -0.16407093 0.030479867
-0.00656183 0.0041224943 0.04382494 -0.14644699 -0.05324575 -0.011941904 -0.06490459 -0.29705316
0.25609618 0.09061771 0.35408512 0.22471905 0.32862693 -0.00579585 0.000118426964 0.19750766
-0.011850941 -0.22931275 0.12518986 -0.019585757 -0.2943051 -0.12308413 0.177451 -0.34274566
0.3352572 -0.09813415 -0.3486769 -0.03229321 0.00059704034 0.04323572 0.21677709 -0.0346114
0.15037093 0.08850598 -0.38831744 -0.2641635 0.33105674 0.010101989 0.14867753 0.18876342
0.415415 0.11317102 0.001689218 -0.034174938 0.07916459 -0.05428038 0.39110976 0.1455017
0.38480255 0.38871127 -0.03875059 0.20320877 -0.16385631 -0.058861468 0.3628962 -0.18434621
0.00049671653 0.19164301 0.16179185 0.12274097 0.013106802 -0.25343582 -0.15651107 0.021061404
-0.28027242 -0.0010877484 -0.31883746 0.16014971 -0.04341148 0.0057214797 0.0050737225 0.11584451
0.15740785 0.13764954 0.09982257 0.12186241 0.040946078 -0.10216019 -0.069237806 0.08096749
-0.11191546 0.11959129 0.020637657 0.020887444 0.00040646017 -0.3687133 0.28924057 -0.17859723
0.043775253 0.30312788 0.22518958 -0.019308904 0.020322908 0.5486324 -0.26973832 0.32095918
-0.1204232 0.11035922 -0.01782871 -0.18126105 0.10650286 0.20112057 0.24899405 0.031514507
0.33369946 0.2760697 -0.12399774 0.28056765 -0.08559583 -0.056104686 -0.002544516 0.26743725
0.0015481424 0.1098995 -0.026416596 0.11329805 -0.25274163 -0.11268365 -0.20908518 -0.04893251
-0.058795955 0.14627169 0.05913825 0.38838637 -0.09137478 0.38846615 0.0041054767 0.0155116925
0.06356833 0.2146606 0.1431409 -0.47753415 -0.20794939 -0.06463814 -0.22881892 -0.026958028
-0.09991789 -0.24815674 0.3163028 0.22202921 -8.76906e-05 -0.16228566 0.05018872 -0.16343948
0.08049908 0.20912173 -0.36648425 -0.29148412 -0.19883665 0.07899797 0.075353384 0.10259547
-0.014263041 0.051865682 0.010013522 -0.362575 -0.026767347 0.15063882 -0.27174342 0.11994097
-0.13108619 -0.07335828 -0.13211091 0.18855172 -0.104281336 0.061604526 0.13523866 0.08762421
0.0007297348 0.23225507 0.0010297069 -0.16260397 0.15829305 0.050408646 0.2650566 0.21649604
0.28131202 -0.16096765 0.16963267 -0.11043841 0.20578922 0.08899707 0.0058337897 0.10629348
-0.017268289 0.23256698 -0.21304376 -0.14776197 0.17172574 0.09775757 -0.19888452 0.24821669
-0.2121164 -0.18856572 0.22558677 -0.45177326 0.0014632548 -0.053943 -0.0033933588 -0.06767191
-0.12231453 0.28061265 -0.14013898 -0.21034749 -0.35173517 -0.007158632 0.14281292 -0.2574725
0.06323213 -0.052433584 -0.0026926727 -0.24380854 -0.23690152 -0.050410837 0.031645875 -0.26386228
-0.09769867 0.19995119 0.030630793 0.14842159 0.18238965 -0.271554 0.12724763 0.24510086
-0.0012071474 -0.2773946 -0.26372615 -0.17955968 0.17583357 -0.08202253 0.10841588 -0.16144954
-0.20192185 0.16880225 -0.020375038 -0.32429385 0.17896415 0.041544657 -0.002438987 0.18277366
00000000: 10d8 81bd 746e cebe 4e21 003a 6ea1 e539
00000010: 5524 c3be 3e58 183d a25c 4bbe 3093 383e
00000020: 9338 1e3e f52c 223e 54b5 11be c5d2 fc3d
00000030: d503 7bbe 1631 d5be 3602 28be eab0 f93c
00000040: 9f04 d7bb fd15 873b c881 333d 33f6 15be
00000050: 3718 5abd faa7 43bc b3ec 84bd 5a17 98be
00000060: 0a1f 833e c795 b93d a54a b53e c01c 663e
00000070: ca41 a83e 1deb bdbb fe5b f838 733f 4a3e
00000080: 732a 42bc f6d0 6abe c531 003e 4f72 a0bc
00000090: 28af 96be 8813 fcbd b7b5 353e 5c7c afbe
000000a0: d5a6 ab3e 8ffa c8bd c785 b2be e345 04bd
000000b0: b382 1c3a f017 313d d0fa 5d3e afc4 0dbd
000000c0: d6fa 193e a042 b53d 8bd1 c6be 7040 87be
000000d0: 4580 a93e d082 253c ec3e 183e 334b 413e
000000e0: 46b1 d43e 35c6 e73d c068 dd3a 05fb 0bbd
000000f0: 0b21 a23d 1b55 5ebd 8a3f c83e 66fe 143e
00000100: d704 c53e 2a05 c73e f0b8 1ebd f615 503e
00000110: f3c9 27be b918 71bd 88cd b93e 41c5 3cbe
00000120: 1536 023a 113e 443e c3ac 253e 9e5f fb3d
00000130: e9bd 563c 57c2 81be 7044 20be f788 ac3c
00000140: de7f 8fbe c892 8eba aa3e a3be 49fe 233e
00000150: 3cd0 31bd 407b bb3b 7841 a63b e33f ed3d
00000160: 862f 213e 00f4 0c3e c76f cc3d 0093 f93d
00000170: 13b7 273d 5d39 d1bd 8dcc 8dbd 49d2 a53d
00000180: ef33 e5bd 47ec f43d 4e10 a93c 251c ab3c
00000190: 291a d539 fdc7 bcbe 5717 943e 31e2 36be
000001a0: ae4d 333d 9433 9b3e 1998 663e b52d 9ebc
000001b0: 3a7c a63c 2c73 0c3f 241b 8abe c354 a43e
000001c0: 70a0 f6bd 0404 e23d 840d 92bc 7f9c 39be
000001d0: 2c1e da3d 8df2 4d3e 4cf8 7e3e 5b15 013d
000001e0: a8da aa3e 0259 8d3e 87f2 fdbd 90a6 8f3e
000001f0: de4c afbd 07ce 65bd e5c1 26bb 89ed 883e
00000200: 0aeb ca3a fd12 e13d 9e67 d8bc cf08 e83d
00000210: 5a67 81be afc6 e6bd 6d1a 56be 756d 48bd
00000220: 07d4 70bd 3fc8 153e f33a 723d 94da c63e
00000230: b322 bbbd 09e5 c63e 3c87 863b c124 7e3c
00000240: 1d30 823d fdcf 5b3e 8793 123e 5b7f f4be
00000250: aff0 54be 0061 84bd 824f 6abe 15d7 dcbc
00000260: c0a1 ccbd cd1c 7ebe 71f2 a13e a05b 633e
00000270: 88e6 b7b8 362e 26be b092 4d3d ae5c 27be
00000280: b4dc a43d 0224 563e d3a3 bbbe 683d 95be
00000290: d69b 4bbe b0c9 a13d e052 9a3d 931d d23d
000002a0: 88af 69bc 1c71 543d c10f 243c 6ea3 b9be
000002b0: 3247 dbbc 1041 1a3e f421 8bbe 9ca3 f53d
000002c0: 753b 06be de3c 96bd 1548 07be b413 413e
000002d0: 7491 d5bd 0755 7c3d 017c 0a3e 5274 b33d
000002e0: ac4b 3f3a 46d4 6d3e 3bf7 863a a881 26be
000002f0: 9317 223e 4c79 4e3d 80b5 873e 23b1 5d3e
00000300: 2108 903e b4d4 24be 30b4 2d3e 882d e2bd
00000310: 69ba 523e 1944 b63d 6029 bf3b 65b0 d93d
00000320: 3a76 8dbc 0a26 6e3e 2528 5abe ea4e 17be
00000330: dfd8 2f3e 1f35 c83d 62a8 4bbe 842c 7e3e
00000340: 0b35 59be 5f17 41be 3800 673e d34e e7be
00000350: afca bf3a 56f3 5cbd 1d63 5ebb 9297 8abd
00000360: 0a80 fabd 76ac 8f3e 9880 0fbe 5565 57be
00000370: a216 b4be f592 eabb 8d3d 123e 6fd3 83be
00000380: d97f 813d 99c4 56bd 8d77 30bb f2a8 79be
00000390: 5096 72be 987b 4ebd 1b9f 013d f518 87be
000003a0: 3e16 c8bd 01c0 4c3e 6eed fa3c d4fb 173e
000003b0: 5ac4 3a3e 2009 8bbe 344d 023e b8fb 7a3e
000003c0: 2539 9eba aa06 8ebe 1d07 87be 7ede 37be
000003d0: b70d 343e 6efb a7bd 2509 de3d 0753 25be
000003e0: 9ac4 4ebe 7fda 2c3e 8de9 a6bc d809 a6be
000003f0: 6142 373e bb2a 2a3d 69d7 1fbb 0529 3b3e

decode.2.weight f4 [100, 100]
0.023420518 -0.0805522 0.009515135 0.018370721 -0.048282314 -0.09391046 -0.07086286 -0.045401324
0.050086334 0.015280787 -0.07127569 -0.015212507 0.07948509 0.040298313 0.070626736 0.022944344
-0.03058337 -0.0079775555 0.00410152 -0.101368174 -0.052601337 0.015977371 -0.06045724 0.010926836
0.031446014 -0.030960405 0.10016498 -0.049641587 -0.04407658 -0.04374518 0.105488084 -0.007844329
-0.054404028 -0.005914504 -0.008308475 0.01162454 0.04758897 0.027750632 -0.07084359 -0.033906527
0.05575216 0.030920701 0.022355817 0.08286474 -0.022393936 0.010443378 -0.007822464 -0.022645647
0.012917238 0.13308416 -0.050373156 -0.03822279 -0.018621366 0.04045614 0.012896089 -0.0032271072
0.0003234467 0.0680303 0.03054408 0.00090468046 -0.026763309 0.09012526 0.059052296 0.075898506
0.052680507 -0.04300617 -0.08677524 0.033830214 0.06889905 -0.052309416 -3.7027687e-05 0.036912795
0.078924395 -0.055371422 0.0013011408 0.08893528 -0.07810551 0.0065415977 0.016767472 -0.07579173
0.05715289 -0.04683501 0.06313858 0.08904653 0.09633563 0.015507512 -0.009679485 -0.005527807
-0.019474963 0.038037844 0.0008378328 -0.021303445 -0.1276012 -0.00073276 -0.021945849 -0.046288945
-0.022930814 -0.034341738 0.0780411 0.022584984 0.013386959 0.023768766 -0.09740494 -0.08623051
0.030757986 0.109177254 -0.080041006 0.07662049 -0.10532908 0.07383797 0.118821174 -0.0073564057
-0.023835346 -0.078747675 0.037399724 -0.040466603 0.09136238 0.13192016 -0.0037110648 0.040144414
-0.121287756 0.05642953 0.16727893 -0.19745573 0.033913333 0.16272596 -0.22412433 -0.12394622
-0.119148284 -0.082849644 -0.086174525 0.098691806 0.0043826816 -0.027947465 -0.13608201 0.06559282
0.14479654 -0.17167222 0.14716855 -0.067191936 -0.11284948 0.046098568 0.17600414 -0.14464866
-0.06973385 0.0880574 0.029828183 0.07378411 0.02741051 -0.032269325 0.2655968 -0.11650901
-0.21021171 -0.06040021 0.009334177 0.054180417 0.24415435 -0.04835161 0.063373946 -0.004184755
0.023690203 0.03704061 0.22734004 0.117616735 0.0071000946 0.16280271 0.023692928 -0.12933734
0.044730395 -0.0036778303 0.060225546 -0.054901317 -0.04454215 -0.022658208 -0.0992502 0.019426659
0.07242828 0.0052457736 -0.33947808 -0.018812254 0.058350585 0.047835216 -0.1259216 0.018127533
-0.057574496 0.01902886 -0.23102638 0.08488381 -0.075795315 0.091718204 0.012796695 0.06980237
-0.04553925 -0.009422147 0.09503344 0.064842865 -0.117670506 0.035684645 0.16300654 -0.029118134
0.05369091 -0.11946951 -0.037107658 0.050603863 0.012730491 -0.1286387 0.06785665 -0.013571203
0.0297512 -0.08074122 0.101182915 0.053295903 -0.015755802 -0.0023195776 -0.06321877 0.027837098
-0.0076004704 0.014214562 0.08738656 0.025407054 -0.040988903 -0.1660446 -0.03733608 -0.08704063
-0.00022240881 -0.07288371 0.033517785 -0.034789182 -0.020114576 0.08568551 0.028232642 0.009635609
-0.05066332 0.018830808 -0.020921387 0.04099768 0.013655242 -0.0032110072 -0.014132267 -0.033395797
-0.0593634 -0.03938086 0.07941883 0.084544465 -0.034405977 -0.068853505 0.0660575 -0.023876874
-0.008363136 0.09508235 0.035131443 -0.04065077 -0.0804429 0.07133768 0.07370552 -0.05957399
00000000: 63dc bf3c 8df8 a4bd 5ee5 1b3c 327e 963c
00000010: adc3 45bd 2154 c0bd 8c20 91bd bdf6 39bd
00000020: 5427 4d3d 445c 7a3c fdf8 91bd e13d 79bc
00000030: 14c9 a23d d80f 253d c0a4 903d c7f5 bb3c
00000040: fa89 fabc 4bb4 02bc 0b66 863b 1e9a cfbd
00000050: 8074 57bd fae2 823c 03a2 77bd 7906 333c
00000060: 89cd 003d ada0 fdbc 4c23 cd3d fa54 4bbd
00000070: a589 34bd 252e 33bd 230a d83d 8085 00bc
00000080: c2d6 5ebd 75ce c1bb 4520 08bc db74 3e3c
00000090: a7ec 423d 4b55 e33c 7216 91bd 92e1 0abd
000000a0: 605c 643d 694d fd3c 8c23 b73c fdb4 a93d
000000b0: 7d73 b7bc b41a 2b3c cb29 00bc 5d83 b9bc
000000c0: d3a2 533c 3747 083e 1554 4ebd 808f 1cbd
000000d0: d68b 98bc 56b5 253d 1e4a 533c e07d 53bb
000000e0: 4894 a939 7853 8b3d 9437 fa3c 1428 6d3a
000000f0: ba3e dbbc 9893 b83d d2e0 713d ad70 9b3d
00000100: 84c7 573d 3d27 30bd 38b7 b1bd 8d91 0a3d
00000110: f21a 8d3d 6642 56bd 2d4e 1bb8 df31 173d
00000120: 1da3 a13d 25cd 62bd 0a8b aa3a b323 b63d
00000130: c8f5 9fbd e65a d63b f05b 893c b238 9bbd
00000140: 2619 6a3d 11d6 3fbd cd4e 813d 075e b63d
00000150: 9d4b c53d 3813 7e3c b496 1ebc 9b22 b5bb
00000160: f589 9fbc 92cd 1b3d 02a2 5b3a 9084 aebc
00000170: e4a9 02be b116 40ba c8c7 b3bc 7a99 3dbd
00000180: 67d9 bbbc eca9 0cbd 03d4 9f3d 2504 b93c
00000190: fa54 5b3c b7b6 c23c 3e7c c7bd 9f99 b0bd
000001a0: 2cf8 fb3c 5398 df3d 8aec a3bd 34eb 9c3d
000001b0: c6b6 d7bd 5d38 973d 8458 f33d 010e f1bb
000001c0: 5842 c3bc 7646 a1bd 7430 193d 4fc0 25bd
000001d0: 331c bb3d 1416 073e 5635 73bb 786e 243d
000001e0: b765 f8bd a722 673d 2b4b 2b3e d631 4abe
000001f0: b5e8 0a3d a2a1 263e d980 65be 84d7 fdbd
00000200: 0404 f4bd 13ad a9bd 457c b0bd ee1e ca3d
00000210: 999c 8f3b 15f2 e4bc 1559 0bbe 8755 863d
00000220: 8b45 143e d8ca 2fbe 5ab3 163e ed9b 89bd
00000230: a11d e7bd dad1 3c3d 6e3a 343e c71e 14be
00000240: 9fd0 8ebd 7057 b43d 3c5a f43c 201c 973d
00000250: 028c e03c d72c 04bd 4efc 873e 479c eebd
00000260: bd41 57be 3666 77bd 60ee 183c 49ec 5d3d
00000270: 9903 7a3e 560c 46bd 33ca 813d 4520 89bb
00000280: f511 c23c e5b7 173d d4cb 683e 0be1 f03d
00000290: e9a7 e83b c1b5 263e ac17 c23c 0271 04be
000002a0: 3837 373d c107 71bb 10af 763d 34e0 60bd
000002b0: d471 36bd b59d b9bc b043 cbbd a824 9f3c
000002c0: 4755 943d bde4 ab3b 12d0 adbe 281c 9abc
000002d0: 0601 6f3d dcee 433d 98f1 00be 3180 943c
000002e0: 3cd3 6bbd 69e2 9b3c 2e92 6cbe 90d7 ad3d
000002f0: 933a 9bbd c1d6 bb3d 3ba9 513c 8cf4 8e3d
00000300: 5d87 3abd 595f 1abc e4a0 c23d 56cc 843d
00000310: 3cfd f0bd 102a 123d 30eb 263e 2789 eebc
00000320: 00eb 5b3d 6eac f4bd 33fe 17bd ff45 4f3d
00000330: 8d93 503c ddb9 03be 6df8 8a3d c059 5ebc
00000340: cab8 f33c a75b a5bd fd38 cf3d ce4c 5a3d
00000350: 5012 81bc 0e04 18bb d878 81bd a00a e43c
00000360: 5e0d f9bb 32e4 683c baf7 b23d 7422 d03c
00000370: fbe3 27bd 9807 2abe b8ed 18bd 5c42 b2bd
00000380: 6936 69b9 0e44 95bd f249 093d 1a7f 0ebd
00000390: 53c7 a4bc e27b af3d 2448 e73c acde 1d3c
000003a0: 5784 4fbd 1143 9a3c 5463 abbc 2fed 273d
000003b0: 3cba 5f3c c36f 52bb 068b 67bc 08ca 08bd
000003c0: 0927 73bd d34d 21bd 57a6 a23d a625 ad3d
000003d0: 48ed 0cbd 1103 8dbd 2849 873d 6f99 c3bc
000003e0: 8905 09bc 89ba c23d fde5 0f3d 6c81 26bd
000003f0: 3fbf a4bd 7d19 923d ebf2 963d db03 74bd

decode.4.weight f4 [1, 100]
0.0004621035 -0.08400993 0.00012922741 -0.00030384035 -0.02934084 0.00023148602 0.020971175 9.742392e-05
-8.355699e-06 -0.080391094 0.0004830251 0.03994651 -8.4598716e-05 -0.00012075018 -0.104038216 -0.00016533033
9.168404e-05 -0.07885596 -0.00018032583 -0.09032645 0.0008202061 -5.044823e-05 0.03526339 0.00023983401
-5.035712e-05 2.498268e-05 -1.4056521e-05 -0.0002034561 0.057435244 0.037128486 -0.038726956 -0.0001932972
-0.043502655 0.0003803251 -0.00081856013 0.044798918 0.00020225748 0.050949894 0.00015053095 0.040168654
0.06651762 0.0006308323 0.00042920382 0.053451445 -0.029739985 -0.098712884 9.7917364e-05 -0.054764982
-0.00031441223 -0.00023531175 0.0670498 0.038135428 0.07049181 0.08587432 -0.06869465 0.056985132
-0.04987642 -0.00017508035 -0.06305371 -0.00018636251 -0.00027915073 0.06184456 0.062457804 -0.04527798
-0.00033404434 0.045638252 -0.06562422 0.049536496 -0.06253723 0.00059342675 3.52951e-05 0.0718195
1.9710998e-05 -0.00039795137 -0.051470347 0.0008883971 0.06888329 0.049556065 0.019939827 -0.034581214
3.472465e-05 0.00088486983 0.05104507 -0.04969182 3.1528096e-05 -0.019886356 -0.0003492512 0.056598652
-0.048174962 0.0003339784 -0.045890555 0.05664511 0.050579406 -0.035780393 -0.048269395 -0.0002507234
-0.00041505494 -0.039040174 -0.062994055 0.0003290029
00000000: 7b46 f239 660d acbd 3881 0739 c34c 9fb9
00000010: 345c f0bc 0ebb 7239 becb ab3c 1250 cc38
00000020: 742f 0cb7 16a4 a4bd 883e fd39 f49e 233d
00000030: 976a b1b8 423b fdb8 fd11 d5bd 865c 2db9
00000040: 7f46 c038 3c7f a1bd d915 3db9 13fd b8bd
00000050: 1a03 573a 6098 53b8 5870 103d f47b 7b39
00000060: 8c36 53b8 e691 d137 4cd4 6bb7 d556 55b9
00000070: 3841 6b3d 0a14 183d 28a0 1ebd d2af 4ab9
00000080: d72f 32bd 5f66 c739 a494 56ba 127f 373d
00000090: 1415 5439 d6b0 503d d8d7 1d39 e387 243d
000000a0: 643a 883d 705e 253a c306 e139 e7ef 5a3d
000000b0: 45a1 f3bc fb29 cabd fc58 cd38 3f51 60bd
000000c0: b2d7 a4b9 04be 76b9 6851 893d e533 1c3d
000000d0: 035e 903d e0de af3d c8af 8cbd 3e69 693d
000000e0: 384b 4cbd c695 37b9 4e22 81bd 4e6a 43b9
000000f0: fa5a 92b9 b950 7d3d c1d3 7f3d 6775 39bd
00000100: ac22 afb9 2def 3a3d fe65 86bd c8e6 4a3d
00000110: 8513 80bd 3290 1b3a d309 1438 1a16 933d
00000120: 0c59 a537 21a4 d0b9 92d2 52bd 52e3 683a
00000130: af12 8d3d 4dfb 4a3d d958 a33c 08a5 0dbd
00000140: 4fa5 1138 9cf6 673a a314 513d a689 4bbd
00000150: 093d 0438 b6e8 a2bc b41b b7b9 fdd3 673d
00000160: 1c53 45bd d219 af39 bcf7 3bbd b404 683d
00000170: 5a2c 4f3d 768e 12bd 21b6 45bd 8673 83b9
00000180: bb9b d9b9 97e8 1fbd 0703 81bd 067e ac39
