Quantum/2 qubit/2 dim/models/0_latent.pt (torch, 107111 bytes, 5 tensors)

encode.0.weight f4 [100, 30]
0.032216802 0.0038033575 -0.05748816 0.117693484 -0.10621306 0.07530594 -0.17224473 0.022487953
-0.01065807 -0.063657485 0.16735205 0.06714758 0.14497238 0.06393109 0.08772355 0.0037771761
0.1733593 -0.15783556 0.101353735 0.011092842 -0.034952432 -0.13948503 0.10564628 0.023230657
0.011756286 -0.05199799 0.1671688 0.17035449 -0.032732695 -0.032547906 0.16462761 0.0831593
0.08761698 0.10669121 -0.14605612 0.078577906 0.09798044 0.16854426 0.001752913 -0.087285966
-0.06497585 0.17256904 0.056342885 0.1807028 0.11357397 -0.027486756 0.18237886 -0.0074218363
0.08756417 0.091958344 0.106948316 0.17418379 -0.052343428 -0.0056603104 -0.02372785 0.11733684
-0.16287252 0.09696928 -0.07828765 0.13823614 0.08008146 -0.11177118 -0.013086468 0.005167365
-0.028011262 -0.0914517 0.105775684 0.14990857 -0.09430187 0.0749425 -0.023599938 0.012434468
0.0430367 0.06655735 0.12618965 -0.0721252 0.013787612 -0.06777184 -0.16074862 -0.008764476
0.05490409 0.076785475 0.034512937 -0.12895648 -0.18052348 0.12312296 -0.082186535 0.114180535
0.15489998 0.07815066 -0.17294285 -0.17592897 0.12724274 0.048838496 0.0041406006 -0.12363657
0.15407413 -0.113397926 -0.06292233 0.07502061 -0.14677048 -0.080271974 0.11286205 -0.08306956
0.0076126903 0.13353422 0.008547127 0.04676348 0.1525425 0.17326948 -0.15816136 0.11686385
0.14375898 -0.13002896 0.15443408 0.11041036 0.010509297 0.037495866 -0.054924667 0.07830405
-0.11674455 0.1522161 0.05661945 0.011325955 -0.003987953 -0.1430715 -0.067654155 0.070248455
0.13785699 -0.00305368 0.029704526 -0.13019647 -0.016939968 0.08802599 -0.038526535 0.14845744
0.08428314 0.057213113 0.16112354 -0.03336747 0.06579864 -0.051231727 -0.17147544 0.020016134
0.14157459 0.1484499 0.14559957 -0.13379747 0.048874944 -0.090771206 -0.13492419 -0.085269265
0.041167453 -0.015558377 0.17426175 0.053413555 -0.16316742 0.12705621 -0.14679542 0.088715464
0.082277834 -0.087746024 -0.17506613 0.019755065 0.06610702 -0.0064783692 -0.040649265 -0.16315077
0.13356984 0.16989928 0.05092247 0.10095507 -0.055425838 -0.08385137 -0.16769171 0.001846984
-0.07521794 -0.11851229 0.17694807 0.11778027 0.09325799 0.116063505 0.16369468 0.09555617
0.005604103 -0.063296326 -0.10086055 0.025312513 0.13396224 0.058972493 0.17020234 0.113096
0.09447712 -0.14760303 0.06854522 -0.10431652 -0.11940093 -0.008648276 -0.062147483 -0.062130094
-0.15785171 -0.035105333 -0.14062127 0.16706395 -0.11470632 0.06276612 0.1251288 0.045847952
0.17384672 0.08716875 0.17903623 -0.081490025 0.16871592 0.11161533 -0.073239215 0.044147804
0.17862293 -0.094076 0.032816753 0.14214876 0.08825311 -0.012919903 -0.09989033 0.08209294
0.17418244 0.110538125 -0.08900915 0.1733155 -0.10062112 -0.050141096 0.092868835 0.061590135
-0.031451136 0.18011165 0.13354316 0.09276152 -0.13701147 0.030896872 0.010862052 0.086619824
-0.08379267 0.07350391 0.06577566 -0.16577047 -0.06636117 0.1279918 0.15995854 0.02934371
-0.17778772 0.038732022 0.13259861 0.17020386 -0.15835631 0.00771603 0.096271604 0.0014702976
00000000: c4f5 033d c041 793b b478 6bbd 4809 f13d
00000010: 3c86 d9bd 003a 9a3d ec60 30be a838 b83c
00000020: 309f 2ebc db5e 82bd 565e 2b3e ac84 893d
00000030: a473 143e 4eee 823d 68a8 b33d 808a 773b
00000040: 1a85 313e a59f 21be 8c92 cf3d c0be 353c
00000050: 482a 0fbd 2ad5 0ebe 145d d83d 384e be3c
00000060: 709d 403c d8fb 54bd 4c2e 2b3e 6871 2e3e
00000070: b812 06bd f450 05bd 2494 283e 6c4f aa3d
00000080: 8870 b33d ec80 da3d bc8f 15be 74ed a03d
00000090: f8a9 c83d de96 2c3e 00c2 e53a fcc2 b2bd
000000a0: 0f12 85bd f0b5 303e ccc7 663d 280a 393e
000000b0: 7899 e83d e82b e1bc 86c1 3a3e e032 f3bb
000000c0: d854 b33d a854 bc3d b807 db3d 3c5d 323e
000000d0: 1066 56bd 207a b9bb e860 c2bc 4c4e f03d
000000e0: 0ec8 26be d497 c63d 4755 a0bd c68d 0d3e
000000f0: c001 a43d 4ae8 e4bd a068 56bc 0053 a93b
00000100: e077 e5bc 074b bbbd eca0 d83d a281 193e
00000110: 5721 c1bd 747b 993d a854 c1bc f0b9 4b3c
00000120: 4047 303d 384f 883d dc37 013e 60b6 93bd
00000130: 70e5 613c f6cb 8abd 499b 24be e098 0fbc
00000140: 1ce3 603d b441 9d3d 705d 0d3d 2b0d 04be
00000150: 26db 38be e427 fc3d 6a51 a8bd 7cd7 e93d
00000160: 1a9e 1e3e 740d a03d ee17 31be b926 34be
00000170: ec4b 023e e00a 483d e0ad 873b 2c35 fdbd
00000180: 9cc5 1d3e 2c3d e8bd 6cdd 80bd 68a4 993d
00000190: 004b 16be a265 a4bd 3824 e73d 6020 aabd
000001a0: e073 f93b 32bd 083e 4009 0c3c 108b 3f3d
000001b0: 1a34 1c3e 8e6d 313e 0df5 21be 5056 ef3d
000001c0: 8e35 133e 5026 05be f823 1e3e d41e e23d
000001d0: 302f 2c3c 4495 193d b0f8 60bd e05d a03d
000001e0: c417 efbd 8ade 1b3e cce9 673d 8090 393c
000001f0: 60ad 82bb 5681 12be 438e 8abd 6cde 8f3d
00000200: 622a 0d3e 4020 48bb e856 f33c 3952 05be
00000210: b0c5 8abc f846 b43d 00ce 1dbd 3a05 183e
00000220: a49c ac3d 4c58 6a3d 92fd 243e 54ac 08bd
00000230: 70c1 863d 5cd8 51bd 4297 2fbe e0f8 a33c
00000240: eef8 103e 4003 183e 0e18 153e 3402 09be
00000250: 1831 483d 41e6 b9bd 9129 0abe a7a1 aebd
00000260: 349f 283d 90e8 7ebc ac71 323e 2cc8 5a3d
00000270: 5c15 27be 061b 023e 8a51 16be 74b0 b53d
00000280: 4881 a83d 30b4 b3bd 8944 33be 60d5 a13c
00000290: 1e63 873d 8048 d4bb d87f 26bd ff10 27be
000002a0: 88c6 083e 14fa 2d3e 1494 503d 88c1 ce3d
000002b0: 3406 63bd 44ba abbd 60b7 2bbe 8016 f23a
000002c0: dd0b 9abd 92b6 f2bd e031 353e c836 f13d
000002d0: 0cfe be3d b4b2 ed3d 949f 273e f4b2 c33d
000002e0: a0a2 b73b 81a1 81bd fa8f cebd 305c cf3c
000002f0: 662d 093e 248d 713d 8649 2e3e e09e e73d
00000300: 387d c13d 4025 17be 7061 8c3d e6a3 d5bd
00000310: 7a88 f4bd 80b1 0dbc 5c8e 7ebd 207c 7ebd
00000320: e1a3 21be 9cca 0fbd 06ff 0fbe d012 2b3e
00000330: 26eb eabd 868b 803d c421 003e 10cb 3b3d
00000340: e004 323e 8885 b23d 4655 373e 3ee4 a6bd
00000350: dec3 2c3e 9496 e43d 71fe 95bd 54d4 343d
00000360: eee8 363e ebaa c0bd dc6a 063d 728f 113e
00000370: 0cbe b43d 00ae 53bc 4d93 ccbd 5820 a83d
00000380: e25c 323e d061 e23d 6e4a b6bd 9e79 313e
00000390: 7212 cebd c060 4dbd 0432 be3d f045 7c3d
000003a0: e8d2 00bd 306f 383e 8abf 083e c0f9 bd3d
000003b0: bc4c 0cbe 701b fd3c c0f6 313c bc65 b13d
000003c0: 7e9b abbd 3889 963d 64b5 863d bcbf 29be
000003d0: 5de8 87bd 4810 033e 2ccc 233e 3862 f03c
000003e0: fc0d 36be 78a5 1e3d eec7 073e ec49 2e3e
000003f0: 2828 22be c0d6 fc3b 0c2a c53d 00b7 c03a

encode.2.weight f4 [100, 100]
0.010596231 -0.08634686 0.048162945 -0.09845042 -0.03665395 0.0009907484 -0.06243651 0.088519044
-0.04113443 -0.0305802 0.052527316 0.04802125 0.08654482 -0.09131278 0.08575208 -0.07320608
-0.07243818 -0.027947925 -0.03604676 0.011473045 0.006681189 -0.05683775 0.087150924 -0.037544217
0.01872883 0.0800773 -0.095103934 0.06817938 -0.07698023 0.058140524 -0.020362616 -0.003485702
0.09365877 -0.02823089 0.025199361 0.07022663 -0.09565041 0.09832703 0.09219476 -0.037801098
-0.03615556 0.037042446 -0.05863992 -0.08322243 -0.0044870973 0.051096328 0.06083741 0.081154965
-0.06716204 0.08803392 -0.08010191 0.0074008107 0.039912514 -0.073949 -0.09058913 0.08657778
-0.06722221 -0.08361455 0.07660503 0.053991146 0.045974396 0.09006313 0.013373777 -0.006217219
0.059213646 -0.05326674 0.08786116 -0.025291182 -0.047738146 0.05855135 0.018587157 -0.016042545
-0.029024504 -0.010503434 -0.011651851 -0.08354519 -0.0029258355 0.01947496 0.019786537 -0.025153317
0.052054964 0.09057819 0.06093789 0.027322061 0.05975222 -0.018503413 0.054817565 -0.06667687
-0.07845102 -0.08995316 -0.010569908 0.05606193 0.0710584 0.049168848 0.049580045 -0.06998774
0.0061622486 0.03196635 -0.060920965 -0.08254862 0.08580335 0.0006509423 -0.05030402 0.081788175
0.037171133 0.029274799 -0.061919488 -0.008368932 0.046279706 -0.07725575 0.03933575 -0.041163146
-0.09972819 -0.052392937 -0.09438187 -0.040513314 -0.06006794 0.08599346 -0.006957531 0.081236415
0.046374343 0.049394406 0.066409715 -0.05954795 0.060785048 0.04583334 -0.008885719 0.06883647
0.081989564 -0.09940076 -0.042284217 0.07529176 -0.005381152 0.0980353 0.01812736 0.08337665
-0.06516513 0.009673499 -0.009140924 -0.028635964 0.05451549 -0.03963132 -0.020057067 -0.02296023
-0.097570896 0.04635901 -0.008375987 -0.07145671 -0.085855894 -0.06546633 -0.010976687 -0.0953566
0.028329544 0.06901417 0.05889129 0.011505999 -0.06245934 -0.0373198 0.08985234 0.06414778
-0.07482363 -0.007688865 -0.066825345 -0.093434565 -0.080890454 0.032016985 -0.02718091 0.037702464
-0.039399114 -0.04674078 0.0660075 -0.08158169 0.023839809 -0.011580363 0.03012713 -0.0905604
0.051441647 -0.06825626 0.09576184 -0.041847516 0.04729051 0.087992795 0.07869648 0.09972077
-0.09660542 0.068653904 0.0659497 -0.02166301 -0.084677674 0.0023707524 0.028689869 -0.049414705
0.03240543 -0.03626214 0.09307172 -0.088373564 0.051998965 -0.01117146 -0.07740897 -0.04099382
-0.03422091 -0.040420283 0.040092073 0.0993625 0.085143365 -0.004133798 0.094788186 -0.091566324
0.032921426 -0.09273451 -0.0958231 -0.06454393 0.07453448 -0.027345195 0.001201734 0.061836608
-0.0216128 0.07124712 -0.026710615 0.09550888 0.085863836 -0.0923054 0.008133911 0.085990496
0.050237678 0.09120155 0.086578794 0.09774814 -0.065886766 -0.00875257 0.08560056 -0.0023334771
0.0928674 0.061508037 0.024459139 -0.07421146 -0.042655863 0.022308335 0.09899927 0.070493706
-0.050991714 -0.052832663 0.032897078 0.09227464 0.049954124 0.09903627 0.03253285 -0.0910592
-0.02273222 -0.0013424009 0.063728504 0.06332078 0.006935276 -0.08954579 0.065783925 -0.0035234094
00000000: d09b 2d3c 9fd6 b0bd 8246 453d 60a0 c9bd
00000010: 7422 16bd 00dc 813a 6dbd 7fbd 7949 b53d
00000020: 937c 28bd 5483 fabc e226 573d eeb1 443d
00000030: 693e b13d 3202 bbbd c99e af3d 12ed 95bd
00000040: 785a 94bd 0cf3 e4bc c4a5 13bd 70f9 3b3c
00000050: e0ed da3b b3ce 68bd 2f7c b23d f7c7 19bd
00000060: 346d 993c 91ff a33d dac5 c2bd a1a1 8b3d
00000070: d0a7 9dbd c224 6e3d 80cf a6bc 6070 64bb
00000080: 2bd0 bf3d 7844 e7bc e46e ce3c fbd2 8f3d
00000090: 5de4 c3bd af5f c93d 9bd0 bc3d 53d5 1abd
000000a0: da17 14bd d2b9 173d 6a30 70bd 8570 aabd
000000b0: 8008 93bb 624a 513d a630 793d 9334 a63d
000000c0: 408c 89bd 214b b43d 780c a4bd 8082 f23b
000000d0: 4e7b 233d 9372 97bd cb86 b9bd b14f b13d
000000e0: ccab 89bd 1b3e abbd 19e3 9c3d d225 5d3d
000000f0: a64f 3c3d 0573 b83d b01d 5b3c d0b9 cbbb
00000100: 028a 723d 3a2e 5abd 8df0 b33d 742f cfbc
00000110: 1389 43bd 8ad3 6f3d 1844 983c a86b 83bc
00000120: ccc4 edbc 9816 2cbc 68e7 3ebc be19 abbd
00000130: 60bf 3fbb f489 9f3c 6017 a23c 540e cebc
00000140: 9637 553d 0f81 b93d 029a 793d 84d2 df3c
00000150: bebe 743d 7894 97bc 6288 603d e28d 88bd
00000160: eeaa a0bd 5d39 b8bd 682d 2dbc 32a1 653d
00000170: 1187 913d 4665 493d 7214 4b3d bb55 8fbd
00000180: b0ec c93b 26ef 023d 4388 79bd 400f a9bd
00000190: abb9 af3d 00a4 2a3a 970b 4ebd 8f80 a73d
000001a0: c240 183d b4d1 ef3c 4a9f 7dbd d81d 09bc
000001b0: ca8f 3d3d 4338 9ebd 861e 213d b09a 28bd
000001c0: 4b3e ccbd fa99 56bd 484b c1bd 4af1 25bd
000001d0: cd09 76bd 571d b03d 00fc e3bb 475f a63d
000001e0: 06f3 3d3d ca51 4a3d d101 883d 8de8 73bd
000001f0: bef9 783d bebb 3b3d 6895 11bc 23fa 8c3d
00000200: 25ea a73d a092 cbbd 3732 2dbd 9132 9a3d
00000210: 6054 b0bb bbc6 c83d d47f 943c 61c1 aa3d
00000220: 4c75 85bd 987d 1e3c d0c3 15bc f895 eabc
00000230: a24b 5f3d 7354 22bd b84e a4bc 1817 bcbc
00000240: 40d3 c7bd f2e2 3d3d 703b 09bc e557 92bd
00000250: 37d5 afbd 3613 86bd 90d7 33bc 524a c3bd
00000260: 5c13 e83c 4d57 8d3d fe37 713d a883 3c3c
00000270: 5dd5 7fbd a6dc 18bd 8104 b83d e95f 833d
00000280: 223d 99bd e0f2 fbbb badb 88bd 9f5a bfbd
00000290: e5a9 a5bd 3e24 033d 80aa debc e66d 1a3d
000002a0: f760 21bd 4373 3fbd f12e 873d 4d14 a7bd
000002b0: b44b c33c 90bb 3dbc 2ccd f63c bb77 b9bd
000002c0: 7ab4 523d f0c9 8bbd c91e c43d 4d68 2bbd
000002d0: b2b3 413d 9135 b43d 9f2b a13d 673a cc3d
000002e0: 10d9 c5bd 6b9a 8c3d a310 873d a076 b1bc
000002f0: 7d6b adbd a05e 1b3b 0407 eb3c 1367 4abd
00000300: 8ebb 043d 9c87 14bd 639c be3d 33fd b4bd
00000310: defc 543d 8008 37bc 9888 9ebd 23e9 27bd
00000320: 3a2b 0cbd bd8f 25bd 9637 243d 917e cb3d
00000330: a55f ae3d d074 87bb 4f20 c23d 2087 bbbd
00000340: 9ed8 063d 97eb bdbd e73e c4bd 9c2f 84bd
00000350: 89a5 983d 0803 e0bc 8083 9d3a 6248 7d3d
00000360: 540d b1bc 03ea 913d 38d0 dabc 299a c33d
00000370: 61d9 af3d 9d0a bdbd 1844 053c c91b b03d
00000380: 06c6 4d3d e1c7 ba3d 3950 b13d 2d30 c83d
00000390: a4ef 86bd f066 0fbc 594f af3d 40ed 18bb
000003a0: 4331 be3d daef 7b3d 885e c83c 2efc 97bd
000003b0: eab7 2ebd f8bf b63c 21c0 ca3d 015f 903d
000003c0: b0dc 50bd 1067 58bd 16bf 063d 7dfa bc3d
000003d0: b29c 4c3d 87d3 ca3d 2a41 053d 3f7d babd
000003e0: ec38 babc 80f3 afba 1784 823d 53ae 813d
000003f0: 5041 e33b c863 b7bd b9b9 863d 00e9 66bb

decode.0.weight f4 [100, 30]
0.116101004 -0.05142171 0.046203554 0.14342201 -0.01250447 0.14084832 -0.022989908 -0.13486665
0.053741865 -0.11723403 -0.09138122 0.008429471 -0.07454386 -0.0231726 0.014304679 -0.06724676
-0.026003981 0.076020665 0.020812782 0.054013 0.080335066 -0.12224205 0.1069564 -0.018044064
0.04854747 -0.11768217 0.044943232 -0.050783835 0.042507242 -0.06453323 -0.071508 -0.12411748
0.18165146 0.06837563 0.039544497 0.12066578 0.115605436 0.056434825 -0.0839926 0.016726978
0.17252266 -0.14768022 -0.018629689 0.08946465 0.012384574 -0.022302937 0.10653293 -0.06297738
-0.10499126 -0.114619255 0.07955507 0.11195614 0.013438935 -0.025039565 -0.025596168 0.052556995
-0.18731599 0.036632907 -0.15784198 -0.13721433 -0.04084365 0.07601369 -0.114730485 0.039408527
-0.17048001 -0.1196832 -0.045412567 0.14965379 -0.08118501 -0.016391965 -0.0247417 -0.00046485753
0.06041412 0.08109033 -0.05922465 0.15780482 0.014278354 0.07140599 0.008360112 -0.12827396
0.11267532 -0.025244989 0.026081381 0.1578414 -0.06323994 0.07125577 -0.05871907 0.05834293
-0.23756577 0.08529297 0.036945164 -0.01712141 0.058893196 0.072744995 0.16827872 -0.055633843
0.021003764 0.09470552 -0.09113808 -0.009874333 0.058352407 -0.029848253 0.00051299785 -0.1104299
0.11232463 -0.078762576 -0.006578294 0.022412311 -0.036336835 -0.017706223 -0.12002543 0.036826026
-0.001467581 -0.018716536 -0.14060883 0.03372504 -0.014931058 0.061918408 -0.048455544 0.014260958
-0.05875305 -0.037914015 -0.012147471 -0.026985781 0.0985767 -0.0024344586 -0.039002243 0.0087602325
-0.12648916 0.027621675 0.02641571 0.06719598 0.09464091 -0.0878736 0.016729971 0.032279033
-0.049055852 0.058734097 -0.0012150768 -0.051561713 -0.066684 0.040101666 -0.011426347 -0.009772222
0.059842754 0.027766705 -0.053580932 -0.011574452 0.033455316 0.05783418 0.17552544 -0.10844151
0.11008462 -0.023407113 -0.10284296 0.0764541 -0.13658567 -0.008348697 -0.18022084 0.024426553
-0.034438286 -0.066191025 0.17621857 0.06774017 -0.025716994 0.021370353 -0.111209586 0.0530451
0.083731554 -0.0413129 0.06739833 -0.011359102 0.104335226 -0.047679015 -0.099722266 -0.12908834
0.03277333 0.015781334 0.23612724 -0.10130231 0.036301002 0.05158508 0.18101759 -0.1495305
-0.13048247 -0.0014396135 -0.07341647 0.13765989 0.04536858 0.01193999 0.06124364 -0.1389213
-0.024746621 0.24812818 -0.0072823092 -0.10078766 0.0424249 -0.053782787 -0.042776596 0.022753805
-0.060101885 0.1372597 -0.019084508 -0.08383639 -0.12837438 0.059572432 0.07490691 0.040417716
0.008874318 -0.13616894 -0.029695611 -0.022869816 0.15150666 -0.023901796 0.061230946 -0.018944593
0.023731427 -0.054741204 -0.0007716533 0.011676087 0.020390538 0.07487762 -0.014132791 -0.050996453
0.060984254 -0.094708115 -0.026535349 0.0077596116 -0.07944968 0.080715396 -0.02982584 0.06152299
-0.07418642 -0.090460576 0.075975955 0.061742153 -0.098247305 -0.06293419 0.09976207 -0.024896046
0.14390601 -0.019124497 -0.011869866 0.13301583 -0.016521998 -0.118971996 0.08688598 -0.04064868
-0.0018052437 0.037211496 -0.095149726 -0.084736794 0.04840034 -0.19725734 0.07711503 0.027227229
00000000: 5dc6 ed3d 929f 52bd f03f 3d3d 38dd 123e
00000010: 8cdf 4cbc 8b3a 103e 5555 bcbc 7c1a 0abe
00000020: 6e20 5c3d 6518 f0bd 1426 bbbd c41b 0a3c
00000030: 74aa 98bd 77d4 bdbc 2c5e 6a3c abb8 89bd
00000040: 4d06 d5bc b9b0 9b3d 917f aa3c bc3c 5d3d
00000050: b686 a43d 0a5a fabd f50b db3d 25d1 93bc
00000060: b6d9 463d 5903 f1bd 6516 383d b602 50bd
00000070: 131c 2e3d 002a 84bd c972 92bd 4e31 febd
00000080: d702 3a3e 8608 8c3d 69f9 213d 9f1f f73d
00000090: 8bc2 ec3d 3428 673d 5004 acbd 0407 893c
000000a0: c8a9 303e 7c39 17be 4a9d 98bc 3e39 b73d
000000b0: abe8 4a3c a6b4 b6bc f02d da3d 49fa 80bd
000000c0: a805 d7bd 80bd eabd c5ed a23d 4349 e53d
000000d0: fb2e 5c3c c61f cdbc 0eaf d1bc 0146 573d
000000e0: c3cf 3fbe 630c 163d 54a1 21be ea81 0cbe
000000f0: ac4b 27bd 11ad 9b3d d1f7 eabd d66a 213d
00000100: 5092 2ebe 771c f5bd 8702 3abd d83e 193e
00000110: 5444 a6bd 7148 86bc 1baf cabc 1fb8 f3b9
00000120: cc74 773d b012 a63d 8c95 72bd 9697 213e
00000130: c2ef 693c 4e3d 923d daf8 083c 405a 03be
00000140: 51c2 e63d 94ce cebc 9fa8 d53c 2da1 213e
00000150: f183 81bd 8cee 913d 6883 70bd fff8 6e3d
00000160: 7144 73be 15ae ae3d d053 173d 3342 8cbc
00000170: fe39 713d 54fb 943d 4251 2c3e 50e0 63bd
00000180: 1610 ac3c f8f4 c13d 9aa6 babd f4c7 21bc
00000190: ef02 6f3d 5384 f4bc b47a 063a 1229 e2bd
000001a0: 750a e63d 464e a1bd bb8e d7bb 069a b73c
000001b0: efd5 14bd a40c 91bc e5cf f5bd e3d6 163d
000001c0: d95b c0ba 6c53 99bc c3fb 0fbe 4423 0a3d
000001d0: 65a1 74bc 289e 7d3d 5279 46bd cba6 693c
000001e0: 0aa7 70bd ba4b 1bbd 3006 47bc 4911 ddbc
000001f0: 95e2 c93d 708b 1fbb d1c0 1fbd 1487 0f3c
00000200: 6086 01be da46 e23c c265 d83c 0c9e 893d
00000210: 18d3 c13d 13f7 b3bd 4b0d 893c 0537 043d
00000220: caee 48bd 2a93 703d 3643 9fba 6032 53bd
00000230: 9f91 88bd a541 243d 9335 3bbc ab1b 20bc
00000240: ad1d 753d 0077 e33c ae77 5bbd c5a2 3dbc
00000250: 7108 093d 88e3 6c3d f1bc 333e 9516 debd
00000260: 0c74 e13d 46c0 bfbc 549f d2bd f893 9c3d
00000270: 1ddd 0bbe f9c8 08bc d08b 38be 321a c83c
00000280: 290f 0dbd 298f 87bd a472 343e 5cbb 8a3d
00000290: 72ac d2bc e110 af3c dac1 e3bd d245 593d
000002a0: 737b ab3d b737 29bd 2308 8a3d 871b 3abc
000002b0: b5ad d53d 124b 43bd 303b ccbd bc2f 04be
000002c0: 543d 063d db47 813c 57cb 713e 9677 cfbd
000002d0: 5cb0 143d e04a 533d ad5c 393e 861e 19be
000002e0: 329d 05be 6ab1 bcba 605b 96bd b7f6 0c3e
000002f0: 67d4 393d f39f 433c 9cda 7a3d 6341 0ebe
00000300: 6db9 cabc 5015 7e3e 70a0 eebb c369 cebd
00000310: bbc5 2d3d 574b 5cbd 8336 2fbd 3066 ba3c
00000320: 652d 76bd cf8d 0c3e 1d57 9cbc 6ab2 abbd
00000330: 9374 03be 3902 743d cb68 993d 0c8d 253d
00000340: 9665 113c df6f 0bbe 3644 f3bc 7b59 bbbc
00000350: 9024 1b3e b3cd c3bc 4dcd 7a3d b131 9bbc
00000360: 6968 c23c 5038 60bd c748 4aba 0f4d 3f3c
00000370: 0f0a a73c 7059 993d 398d 67bc a8e1 50bd
00000380: a0ca 793d 54f6 c1bd a960 d9bc 5744 fe3b
00000390: 84b6 a2bd 1d4e a53d 5255 f4bc 88ff 7b3d
000003a0: 0def 97bd 6543 b9bd 4899 9b3d 57e5 7c3d
000003b0: e235 c9bd a4e3 80bd 0e50 cc3d cbf2 cbbc
000003c0: 195c 133e faaa 9cbc d479 42bc 4d35 083e
000003d0: 2459 87bc 97a7 f3bd 47f1 b13d 3b7f 26bd
000003e0: ed9d ecba 156b 183d dcdd c2bd 7c8a adbd
000003f0: 6f3f 463d d4fd 49be 7cee 9d3d a30b df3c

decode.2.weight f4 [100, 100]
-0.005885499 -0.0035902564 0.003298379 0.0012461666 -0.0039156666 0.0035752114 0.004780727 -0.0011097442
-0.0026936342 -0.0039772983 0.01996723 0.0032275848 -0.002462772 -0.006415692 -0.003603587 0.0063395165
0.0071751624 0.0048456765 -0.0044202507 0.0027606406 -0.011063775 -0.0006917515 5.2686428e-05 0.0020450284
0.0030316305 -0.0054741213 -0.0015894684 0.009997727 -0.000989087 0.00023769547 0.004169021 -0.0042488724
0.012711923 -0.0013259503 0.009696265 -0.00646188 -0.002970643 -0.004027826 -0.005153623 -0.0010438049
-0.0027841995 0.011954704 0.0016446748 -0.005811648 -0.0093170665 0.0054187216 -0.010075528 -0.0036596209
0.0026341358 0.0026729505 -0.012693789 0.0038668888 -0.0046635186 -0.013180688 -0.0021850292 0.004908094
-0.0011952665 0.0041393605 0.006703788 -0.010485588 0.00786781 0.0017680269 0.0019148614 0.0018290326
0.0039140494 0.004386857 -0.011940415 -0.0018332744 0.010987238 0.0071847537 -0.006463582 -0.0006283898
0.001441443 -0.0030229774 0.0011262732 0.0053588594 -0.017276771 -0.0010986448 0.0070059146 0.010796644
0.00087322376 0.012494972 0.008112349 -0.0020802338 -0.005293615 0.012219897 -0.009301944 0.005923577
-0.0073093683 -0.002734446 -0.0028045992 -0.0038354876 -0.0016141235 -0.0039265025 0.0011107537 0.003688916
-0.007580407 -0.0040685483 -0.011615407 -0.0073863165 0.008966781 -0.009171466 0.0062415847 -0.004640235
0.002322056 -0.0038413159 -0.00044759322 -0.0002963409 0.008788139 -0.001674365 0.0074721114 0.004735231
0.008313435 0.0033869871 0.01278507 -0.0068297223 0.009105209 0.002590845 0.011409827 -0.00052581186
0.00033613073 -0.002157158 0.010488606 0.0025141994 0.0012453197 0.001515827 0.0053692893 -0.0071614194
0.011737261 -6.330799e-05 0.008946504 0.003381309 -0.0015650234 -0.006337735 -0.009677418 -0.0031716027
9.792197e-05 0.018354818 -0.00077621057 -0.0049618846 -0.006382658 -0.00523619 0.0040466874 -0.015288161
-0.008279666 0.0061460747 0.00084571174 -0.008281339 0.006404661 0.0041385433 -0.00061811565 -0.0044902223
-0.0023379573 0.00872139 -0.00848549 0.0011592122 0.0048322976 0.0037932605 0.009852587 0.01736729
0.0005252646 0.0056949 0.002248157 0.01241073 0.0096964585 0.003915819 0.0036694284 0.00973157
-0.005667742 -0.008856876 -0.012299205 -0.0036672018 0.0034410022 -0.011152229 0.0041653 0.003677662
0.00113752 0.004743124 0.008591956 -0.0036792434 0.0018909989 0.023828726 -0.011868677 0.0033596118
-0.005221539 0.0040576565 -0.002164517 0.0021325361 0.0012727993 0.0022505822 0.0057051643 0.0106685525
-0.0030050995 0.00095197797 -0.008081104 -0.00097246876 -0.0059605795 0.0062937797 -0.008450931 0.005604628
0.0008895598 0.008933435 0.0010640717 0.019784411 0.0039325994 -0.0040404396 0.0016498128 -0.00094568386
0.0059973486 -0.007132584 -0.010237524 -0.0004855253 0.0023040692 0.009186741 0.00937722 0.0019299304
-0.0073067555 0.0021190087 -0.0031833502 0.017141955 -0.0029993693 -0.00018592205 0.0077514634 -0.015219462
-0.009350364 -0.0152189825 0.004469037 -0.004364649 0.010873028 -0.0023215306 -0.0037570754 -0.0005432337
-0.0032379578 0.004466513 -6.807384e-05 -0.0032138296 0.009004279 -0.0077429395 -0.003137256 -0.0072586047
0.0068190466 -0.0036205333 0.0038384458 0.0064392826 -0.0037858796 0.0042159506 -0.0021980642 -0.0021350163
0.0008258564 0.0016785149 0.011093369 -0.0066111973 0.0124719385 0.0023111247 0.010267843 -0.0007027638
00000000: 25db c0bb 824a 6bbb 9e29 583b 6a56 a33a
00000010: fe4e 80bb 184e 6a3b a5a7 9c3b d674 91ba
00000020: af87 30bb ff53 82bb 5192 a33c e385 533b
00000030: 7566 21bb ba3a d2bb 282a 6cbb b8bb cf3b
00000040: a01d eb3b 7bc8 9e3b c0d7 90bb ddeb 343b
00000050: d644 35bc a856 35ba 9ffb 5c38 e205 063b
00000060: 52ae 463b 4260 b3bb b655 d0ba 82cd 233c
00000070: 41a4 81ba e43d 7939 489c 883b 203a 8bbb
00000080: ab45 503c 82cb adba 15dd 1e3c 2ebe d3bb
00000090: 1faf 42bb dafb 83bb b9df a8bb 48d0 88ba
000000a0: 1e77 36bb aadd 433c 2192 d73a a36f bebb
000000b0: 9ca6 18bc 888f b13b d413 25bc 40d6 6fbb
000000c0: 77a1 2c3b ab2c 2f3b 9cf9 4fbc a16b 7d3b
000000d0: 6ed0 98bb d0f3 57bc b532 0fbb 14d4 a03b
000000e0: 7daa 9cba 79a3 873b 73ab db3b becb 2bbc
000000f0: fde7 003c 23bd e73a 16fc fa3a 26bc ef3a
00000100: 6d41 803b a0bf 8f3b bba1 43bc 7b4a f0ba
00000110: d103 343c 156e eb3b 75cc d3bb 87ba 24ba
00000120: cdee bc3a 251d 46bb 759f 933a 5f99 af3b
00000130: 0488 8dbc 6700 90ba df91 e53b 68e4 303c
00000140: 0ee9 643a b6b7 4c3c a8e9 043c 8854 08bb
00000150: 1076 adbb f635 483c 2e67 18bc 911a c23b
00000160: 6d83 efbb 6434 33bb 5ecd 37bb ce5c 7bbb
00000170: ff90 d3ba e4a9 80bb b696 913a bec1 713b
00000180: 1065 f8bb 7551 85bb 8c4e 3ebc ea08 f2bb
00000190: 68e9 123c eb43 16bc 3586 cc3b 1d0d 98bb
000001a0: a32d 183b 96be 7bbb f2aa eab9 345e 9bb9
000001b0: 20fc 0f3c 5e76 dbba 9dd8 f43b ff29 9b3b
000001c0: 1335 083c 37f8 5d3b 7878 513c ddcb dfbb
000001d0: 042e 153c 2bcb 293b 48f0 3a3c a3d6 09ba
000001e0: b43a b039 1b5f 0dbb 67d8 2b3c 44c5 243b
000001f0: ff39 a33a b7ae c63a ddf0 af3b 57aa eabb
00000200: a44d 403c 38c4 84b8 5c94 123c f498 5d3b
00000210: 7921 cdba c6ac cfbb 088e 1ebc aada 4fbb
00000220: 755b cd38 d85c 963c 9c7a 4bba 4e97 a2bb
00000230: 9e25 d1bb 5894 abbb 139a 843b 327b 7abc
00000240: 70a7 07bc 0365 c93b c1b2 5d3a 74ae 07bc
00000250: 31de d13b 9e9c 873b 0a09 22ba b722 93bb
00000260: 6a38 19bb 29e4 0e3c ba06 0bbc b5f0 973a
00000270: 4058 9e3b 5a98 783b bf6c 213c d945 8e3c
00000280: e9b1 093a 499c ba3b d155 133b 6056 4b3c
00000290: e5dd 1e3c 4550 803b cb7a 703b 2a71 1f3c
000002a0: 77b8 b9bb 6e1c 11bc 9b82 49bc 7055 70bb
000002b0: 7082 613b d7b7 36bc 127d 883b ee04 713b
000002c0: d618 953a 356c 9b3b 47c5 0c3c 761f 71bb
000002d0: 65db f73a 7634 c33c d774 42bc ef2c 5c3b
000002e0: 7219 abbb 17f6 843b 92da 0dbb 05c2 0b3b
000002f0: 0fd4 a63a 817e 133b 63f2 ba3b 27cb 2e3c
00000300: 34f1 44bb 298e 793a 9b66 04bc 46ed 7eba
00000310: f750 c3bb 0d3c ce3b c675 0abc 07a7 b73b
00000320: 5931 693a 8b5d 123c 5278 8b3a eb12 a23c
00000330: 09dd 803b aa65 84bb 883e d83a c5e7 77ba
00000340: 6885 c43b 74b8 e9bb 4abb 27bc 1a8e feb9
00000350: deff 163b fc83 163c e9a2 193c b8f5 fc3a
00000360: 826d efbb 11df 0a3b c19f 50bb 496d 8c3c
00000370: 1191 44bb 12f4 42b9 fdff fd3b 0d5b 79bc
00000380: 4532 19bc 0a59 79bc 0071 923b 5405 8fbb
00000390: c924 323c d224 18bb 4439 76bb cc67 0eba
000003a0: eb33 54bb d45b 923b ddc2 8eb8 1d9f 52bb
000003b0: af86 133c 7cb8 fdbb 6c9a 4dbb 97d9 edbb
000003c0: 4f72 df3b 7846 6dbb 6f8e 7b3b 9e00 d33b
000003d0: 851c 78bb f525 8a3b 660d 10bb a1eb 0bbb
000003e0: 497e 583a 9d01 dc3a f6c0 353c bea2 d8bb
000003f0: 1a57 4c3c 3d76 173b 743a 283c ae39 38ba

decode.4.weight f4 [1, 100]
0.0010409188 0.00053422665 -0.0010288019 0.0004241364 0.0014090273 0.0005740856 -0.00011942477 -0.00014674026
0.0015325077 0.0001952688 -2.7315386e-05 -0.00041414998 0.0009378751 0.00051903294 -0.00024318081 -0.0006229263
0.00064784003 0.00096767046 0.0005773433 0.00039667822 -0.0011077034 0.0004051164 -0.00034614565 -7.6029646e-06
-0.00019342845 0.000754407 -0.0011193366 0.0011650567 0.001120799 -0.00021122282 0.00018949118 0.0008284508
0.0004738296 0.0015475219 -0.0008890408 0.00084781676 -0.00081356376 0.001293816 -0.00026585624 0.0010385632
-0.0006442038 0.00024975516 5.7634865e-05 -0.00019191079 0.0008147906 -0.00010821674 -0.0003121898 0.000105406565
-0.0006115135 0.0011432027 0.00020755555 0.00040693622 -0.00033183253 0.0001624758 3.8151775e-05 -0.00088285416
-0.0002699758 -0.0010051361 -0.0010645208 0.0002618805 -0.0011782892 -0.0012292552 -0.0002535581 0.0009863277
-0.00055391446 -0.0009694905 -0.0009386562 -0.00088171754 -0.00069089246 -0.0009885696 0.00076358684 -0.0215468
0.001217805 -0.0005340883 -0.0015510102 -0.001080725 0.00052639545 -0.0009599448 0.00013662671 -0.00045568647
-0.0012699217 -0.001117218 -0.00058888504 -0.0006431714 0.00032206823 -6.0676302e-05 0.00078951655 0.00096969306
0.0006875069 0.0008131323 -0.0002675637 -0.00070182607 -0.0008392135 7.0803144e-05 -1.4647467e-06 0.00030794286
0.00024337595 0.00076566014 0.001357973 -0.00019564842
00000000: 706f 883a 580b 0c3a ddd8 86ba a05e de39
00000010: 1caf b83a 3c7e 163a af73 fab8 4ade 19b9
00000020: 6dde c83a 12c1 4c39 5823 e5b7 4522 d9b9
00000030: bcdb 753a b60f 083a 5afe 7eb9 e04b 23ba
00000040: cfd3 293a 44ab 7d3a da58 173a 40f9 cf39
00000050: 5c30 91ba ce65 d439 e27a b5b9 f81c ffb6
00000060: 0ed3 4ab9 66c3 453a b4b6 92ba d1b4 983a
00000070: c6e7 923a b27b 5db9 27b2 4639 642c 593a
00000080: 556c f839 38d6 ca3a 850e 69ba 0540 5e3a
00000090: 5745 55ba 4395 a93a 9f62 8bb9 6620 883a
000000a0: c9df 28ba 92f1 8239 f7bc 7138 a93b 49b9
000000b0: ac97 553a 6bf2 e2b8 68ad a3b9 b80d dd38
000000c0: fa4d 20ba 84d7 953a 45a3 5939 0e5a d539
000000d0: cff9 adb9 445e 2a39 2805 2038 576f 67ba
000000e0: 8a8b 8db9 c5be 83ba 6487 8bba 014d 8939
000000f0: d370 9aba f61e a1ba feef 84b9 aa47 813a
00000100: 9234 11ba 6825 7eba 2710 76ba 1023 67ba
00000110: 021d 35ba e492 81ba 722b 483a ea82 b0bc
00000120: c19e 9f3a 0f02 0cba 444b cbba 1da7 8dba
00000130: cdfd 093a cea4 7bba 7443 0f39 34e9 eeb9
00000140: 8073 a6ba 9e6f 92ba 685f 1aba 819a 28ba
00000150: 44db a839 af7e 7eb8 8ff7 4e3a 0033 7e3a
00000160: cf39 343a 6328 553a cb47 8cb9 c0fa 37ba
00000170: aafe 5bba 267c 9438 5098 c4b5 6473 a139
00000180: bc32 7f39 95b6 483a 03fe b13a f926 4db9
