Quantum/2 qubit/2 dim/models/2_latent.pt (torch, 109607 bytes, 6 tensors)

encode.0.weight f4 [100, 30]
0.03127131 0.061977938 0.1525048 -0.14907083 -0.05959837 0.011757764 0.07244762 0.10696397
-0.08922962 -0.08007826 -0.10122903 -0.14961584 0.08513994 -0.040360343 -0.101747625 0.0882511
0.117733926 -0.12930639 -0.11465013 -0.049213234 0.10762274 0.06760325 -0.0071472228 -0.18415408
0.14104924 0.10521199 0.036621835 0.010839778 0.12982453 -0.06820483 -0.018448578 -0.060668416
-0.09672906 -0.08264676 0.19402564 -0.0053783497 0.1361556 0.18366094 0.066146314 -0.05013045
-0.049485933 -0.06467363 0.14252666 -0.1619335 0.14922136 -0.052329056 -0.08016494 -0.084631264
-0.13372116 0.063781716 0.10510036 -0.05511753 0.021503758 0.025770722 0.0042247577 -0.18197918
-0.12232293 0.0417374 0.064686514 0.11121187 -0.108266905 0.093624115 -0.15315153 -0.16553795
0.16371855 -0.01466412 0.11634072 0.07808121 -0.009877479 -0.16141814 0.12128932 -0.011830982
0.0480397 -0.110502824 2.9286803e-05 0.11906592 0.109449014 0.097202614 0.014781269 -0.21034542
-0.003977874 0.011598847 3.463371e-05 -0.12864551 -0.18100747 0.052310325 0.0014402893 0.13417324
0.14163867 -0.05192359 -0.06573529 -0.035465963 -0.124946006 0.19300763 0.120727405 -0.15265015
-0.12843491 0.07419935 -0.1476629 -0.09619745 0.009423191 -0.08084926 0.12570462 0.02758248
0.06024407 -0.010225892 -0.056559633 0.053779233 -0.11979808 0.034028597 0.07010837 0.11126152
0.051108994 0.077567376 0.028878536 0.10146732 0.033672366 0.1619673 -0.144433 -0.16783199
-0.036933586 -0.07014101 -0.089703724 0.16052115 0.084640026 0.0864393 0.1658989 0.05402174
0.13715424 -0.06490874 0.060002323 0.08033478 0.090362966 0.04377154 -0.19209503 0.13375375
-0.088561505 -0.14040212 -0.13609831 -0.08334511 -0.13191949 0.16413726 -0.037635334 -0.106037475
-0.08371717 -0.1559399 0.12397735 0.08640681 0.13997236 -0.21005581 -0.61443675 0.8324669
0.12775561 0.05930241 0.678341 0.9018918 0.4934206 -0.52111036 0.5808791 -0.577245
-0.76573575 -0.67258674 -0.712328 0.7955172 -0.5884583 -0.058931008 -0.45818692 0.6975787
-0.26050603 0.61895454 0.9182965 0.08799666 -0.8678565 0.31588835 -0.24261309 0.61209184
-0.8475652 -0.012832411 0.3746328 -0.5475068 0.06558475 0.07702537 -0.04166634 -0.13999383
-0.06062139 0.13399838 -0.03385623 0.080501705 0.07214061 -0.19398321 0.1469219 -0.08349795
-0.03404161 0.0546975 0.0475101 -0.15176448 0.08778659 0.14632235 0.02467788 -0.018025054
-0.09721089 -0.1467704 0.14209324 -0.017882245 0.0776696 -0.056862645 -0.059311006 -0.028700542
-0.043878634 0.04996591 0.19460674 0.09474183 0.034378547 0.34978354 -0.23509666 -0.058399025
0.267034 -0.047701057 0.13933493 0.15725683 0.033608414 0.1926485 0.31470633 -0.088145666
0.25295842 0.3590733 0.086049385 -0.09243493 0.20925355 0.27325544 -0.079741225 -0.12843074
0.041370768 0.1742791 0.31308782 -0.015839297 0.30636227 0.21724193 -0.021070195 0.21418487
-0.01544553 -0.06916517 0.10503068 0.07619665 -0.1107619 0.0771495 -0.16206154 -0.04133131
-0.067570865 0.19632736 -0.12813108 -0.08387648 0.032982323 0.1066715 0.06848318 -0.1085526
00000000: 5816 003d 94dc 7d3d 382a 1c3e 06a6 18be
00000010: 6c1d 74bd a3a3 403c 6b5f 943d ed0f db3d
00000020: 05be b6bd 1200 a4bd 2a51 cfbd e534 19be
00000030: d95d ae3d e350 25bd 0f61 d0bd febc b43d
00000040: 7c1e f13d e568 04be b0cd eabd d193 49bd
00000050: 5069 dc3d 9373 8a3d 4033 eabb e392 3cbe
00000060: 366f 103e 6279 d73d c700 163d 5399 313c
00000070: b9f0 043e f9ae 8bbd 7921 97bc 727f 78bd
00000080: e319 c6bd b442 a9bd a8ae 463e de3c b0bb
00000090: 606c 0b3e 9d11 3c3e b877 873d 9655 4dbd
000000a0: c3b1 4abd 9c73 84bd 82f2 113e e5d1 25be
000000b0: 7ccd 183e fe56 56bd 842d a4bd 2853 adbd
000000c0: 33ee 08be fd9f 823d dc3e d73d ebc2 61bd
000000d0: a628 b03c 1f1d d33c d66f 8a3b c058 3abe
000000e0: 7284 fabd d6f4 2a3d 5d7a 843d 0dc3 e33d
000000f0: 0abb ddbd 00be bf3d c1d3 1cbe c882 29be
00000100: d6a5 273e c741 70bc 0b44 ee3d 0be9 9f3d
00000110: 26d5 21bc cc4a 25be 8966 f83d bcd6 41bc
00000120: 47c5 443d 4e4f e2bd eeac f537 d5d8 f33d
00000130: ce26 e03d 2a12 c73d 232d 723c ca64 57be
00000140: d358 82bb 1709 3e3c aa43 1138 a6bb 03be
00000150: 065a 39be 5a43 563d 17c8 bc3a b664 093e
00000160: ba09 113e d5ad 54bd 39a0 86bd c244 11bd
00000170: b1e3 ffbd cba3 453e ee3f f73d 5250 1cbe
00000180: 7184 03be d4f5 973d f134 17be 2b03 c5bd
00000190: ba63 1a3c 4c94 a5bd b6b8 003e a7f4 e13c
000001a0: 7cc2 763d 808a 27bc 13ab 67bd 9d47 5c3d
000001b0: b258 f5bd 9261 0b3d fa94 8f3d 14dd e33d
000001c0: aa57 513d a5db 9e3d ae92 ec3c 19ce cf3d
000001d0: 09ec 093d c2da 253e 3fe6 13be 26dc 2bbe
000001e0: ac47 17bd 17a6 8fbd 96b6 b7bd a85f 243e
000001f0: c057 ad3d 1607 b13d 67e1 293e e645 5d3d
00000200: 2972 0c3e e0ee 84bd ffc4 753d 9086 a43d
00000210: 3810 b93d c949 333d 8fb4 44be bef6 083e
00000220: bc5f b5bd 93c5 0fbe 5b5d 0bbe d7b0 aabd
00000230: e715 07be 9913 283e 8227 1abd 2d2a d9bd
00000240: e873 abbd b6ae 1fbe d6e7 fd3d 0ef6 b03d
00000250: ea54 0f3e df18 57be ba4b 1dbf 8d1c 553f
00000260: 5ed2 023e 15e7 723d c1a7 2d3f 62e2 663f
00000270: a0a1 fc3e 7d67 05bf 7eb4 143f 54c6 13bf
00000280: 4207 44bf a52e 2cbf 215b 36bf 04a7 4b3f
00000290: 34a5 16bf a461 71bd 7a97 eabe 8594 323f
000002a0: 0c61 85be ce73 1e3f 7b15 6b3f 9837 b43d
000002b0: d82b 5ebf 1ebc a13e 916f 78be 0db2 1c3f
000002c0: 08fa 58bf 083f 52bc dfcf bf3e 6829 0cbf
000002d0: 4c51 863d 7abf 9d3d 53aa 2abd 8b5a 0fbe
000002e0: 224e 78bd df36 093e d5ac 0abd 14de a43d
000002f0: 75be 933d 89a3 46be b272 163e f900 abbd
00000300: 376f 0bbd 7c0a 603d f399 423d 2668 1bbe
00000310: 75c9 b33d 87d5 153e 4429 ca3c 47a9 93bc
00000320: 8116 c7bd fb4a 16be e480 113e c97d 92bc
00000330: 3d11 9f3d cee8 68bd 19f0 72bd 661d ebbc
00000340: 15ba 33bd 0ea9 4c3d fd46 473e 0108 c23d
00000350: 85d0 0c3d d416 b33e 2ebd 70be d133 6fbd
00000360: aeb8 883e 2f62 43bd d1ad 0e3e ef07 213e
00000370: faa8 093d a645 453e 3021 a13e b785 b4bd
00000380: c483 813e 75d8 b73e a93a b03d 864e bdbd
00000390: 9046 563e 23e8 8b3e 5e4f a3bd 5983 03be
000003a0: 6574 293d 3876 323e 0c4d a03e 6ac1 81bc
000003b0: 84db 9c3e ab74 5e3e 679b acbc 4753 5b3e
000003c0: 400f 7dbc 78a6 8dbd 531a d73d fd0c 9c3d
000003d0: 23d7 e2bd 8f00 9e3d 76f3 25be 054b 29bd
000003e0: 9862 8abd 0a0a 493e cb34 03be 6fc7 abbd
000003f0: 7918 073d 9676 da3d e940 8c3d d350 debd

encode.2.weight f4 [100, 100]
-0.006762107 0.03444488 -0.016825307 0.061624788 -0.005141945 0.016929725 0.0016180679 0.034362316
-0.008027942 -0.06611205 0.054156184 0.010600879 0.028989721 0.0014829648 -0.017317515 0.021088473
-0.027467662 -0.0094195735 -0.017136367 -0.017697046 -0.037898626 -0.016712986 0.0089445645 -0.014287395
0.054680023 0.009260388 0.01371698 -0.010750059 0.053313415 0.04315869 -0.014952695 0.026386578
-0.0380269 0.009745168 0.00520622 -0.06295596 -0.029065654 -0.024197444 0.0054752287 0.006806371
-0.019767707 -0.030552391 0.012973789 -0.04770489 -0.08551628 -0.015980609 -0.13812385 -0.025418952
0.01603306 -0.072789505 -0.01106068 -0.04008277 -0.006557005 -0.012077156 -0.005116146 -0.014162156
-0.0049593695 -0.01112782 0.011584033 -0.010108002 -0.020645505 -0.022649013 -0.00035474697 0.01813485
0.006640247 0.040023375 -0.0068532987 -0.0031543502 -0.008041064 -0.06898267 0.0154719325 -0.000410684
-0.006102068 0.0017148572 -0.035323616 -0.004594636 0.004166501 0.026907416 -0.012009252 0.0050438913
0.009019371 -0.0041439496 0.05268048 0.01648301 0.08293435 0.051386386 0.030821575 -0.04749777
0.018403271 -0.024368307 -0.025435735 -0.024956767 0.006140384 -0.026236366 -0.017800862 -0.0041568945
-0.0010072979 0.025157537 0.15363796 -0.025167942 -0.013340485 0.015131428 0.0026271164 -0.021465257
5.8270125e-05 0.027902089 0.020968135 -0.03832517 -0.026891192 0.09576398 -0.048857898 -0.0014817176
-0.025042798 -0.027324917 0.053840753 -0.04233198 -0.029356148 0.01698508 0.013646275 -0.02331005
0.046730395 -0.009430048 -0.032622732 -0.03361895 -0.0054508927 0.05271739 -0.016189676 -0.025801513
-0.047096323 -0.06277688 -0.008322779 -0.012464214 0.004869612 -0.0023652844 -0.009584707 -0.007849294
0.07196649 0.008140354 0.014384231 0.0015387252 -0.030469157 -0.016729824 0.0039790804 -0.03877098
0.0096406145 -0.02418134 0.0029738646 -0.0002292855 -0.0028934875 0.0023366963 -0.00909562 0.014654405
-0.0025386394 0.011328506 -0.007468967 -0.016136922 -0.004287223 -0.031044347 -0.01305554 0.036752768
0.0348286 -0.016679421 -0.012846871 -0.0056811785 0.043820504 0.021388168 0.022638258 -0.081417516
-0.016321747 -0.010215393 -0.02312231 -0.02222161 0.012916604 0.016944187 -0.028905723 0.036383256
0.004306983 -0.00954252 0.031998135 0.049367584 0.011597547 -0.0013156369 0.022843529 -0.009412515
-0.026758825 -0.003988205 -0.016348647 -0.009429199 0.036840487 -0.013366685 0.06785379 0.004243972
0.017476508 0.011564725 0.013210885 -0.020430826 0.0012148283 -0.05687468 -0.015012754 -0.0057691727
-0.007626184 -0.01070562 -0.03379943 -0.014507914 0.013730683 -0.014733946 -0.058353797 -0.10625888
0.017101567 0.009559732 0.030314751 0.008081944 0.02774464 0.01552023 -0.05256179 -0.056632176
-0.00060977566 -0.0089033805 0.0020823271 -0.021839706 -0.00061697775 0.007236266 0.0052870396 0.0136542525
-0.029623488 -0.09913345 0.005413867 0.059733126 -0.10715792 0.100088745 -0.003348928 0.001341358
0.07589391 0.0042229933 -0.011277491 -0.036831114 -0.043943007 0.0023662385 0.16860613 -0.028560229
-0.015815498 0.035394993 0.004813146 -0.0540463 -0.014561438 -0.03467886 0.004706873 -0.020115199
0.0006564736 0.028558828 -0.06052946 -0.010889002 -0.033870716 0.01255102 -0.043185435 -0.02436459
00000000: aa94 ddbb 1316 0d3d 3ad5 89bc 466a 7c3d
00000010: c37d a8bb 35b0 8a3c 5915 d43a 80bf 0c3d
00000020: a187 03bc c165 87bd e0d2 5d3d 4faf 2d3c
00000030: da7b ed3c 0b60 c23a 76dd 8dbc bcc1 ac3c
00000040: dd03 e1bc 8e54 1abc 9161 8cbc 65f9 90bc
00000050: 973b 1bbd ace9 88bc 398c 123c ae15 6abc
00000060: 29f8 5f3d e2b8 173c 2fbd 603c 0421 30bc
00000070: 2b5f 5a3d 2bc7 303d 26fc 74bc aa28 d83c
00000080: 18c2 1bbd 32aa 1f3c f098 aa3b 0eef 80bd
00000090: 181b eebc b839 c6bc 8c69 b33b fa07 df3b
000000a0: e3ef a1bc 0249 fabc 0490 543c 3466 43bd
000000b0: 2923 afbd c4e9 82bc 5770 0dbe 683b d0bc
000000c0: c457 833c aa12 95bd db37 35bc d52d 24bd
000000d0: 25dc d6bb 44df 45bc 58a5 a7bb 6308 68bc
000000e0: 3582 a2bb 7651 36bc f5ca 3d3c 099c 25bc
000000f0: c320 a9bc 6c8a b9bc 55fd b9b9 898f 943c
00000100: 6e96 d93b 8def 233d a391 e0bb 37b9 4ebb
00000110: abbe 03bc c946 8dbd fd7d 7d3c 1351 d7b9
00000120: dbf3 c7bb 0fc5 e03a 7faf 10bd 9a8e 96bb
00000130: 2587 883b f16c dc3c 74c2 44bc 3a47 a53b
00000140: fcc5 133c f8c9 87bb 7dc7 573d 6107 873c
00000150: 7cd9 a93d 887a 523d 877d fc3c 068d 42bd
00000160: 75c2 963c 0ba0 c7bc 9a5e d0bc 2272 ccbc
00000170: 4635 c93b a6ed d6bc 1dd3 91bc 8f36 88bb
00000180: 4f07 84ba 2e17 ce3c 4553 1d3e 002d cebc
00000190: 0d92 5abc cfe9 773c b32b 2c3b e8d7 afbc
000001a0: 1267 7438 ec92 e43c 5ec5 ab3c dafa 1cbd
000001b0: eb4a dcbc e81f c43d 381f 48bd 3136 c2ba
000001c0: 8e26 cdbc 81d8 dfbc 1f88 5c3d 4c64 2dbd
000001d0: 4e7c f0bc 4b24 8b3c a094 5f3c b8f4 bebc
000001e0: 5f68 3f3d 7d80 1abc 6a9f 05bd 06b4 09bd
000001f0: 679d b2bb 31ee 573d 36a0 84bc b25d d3bc
00000200: 13e8 40bd 2a91 80bd 445c 08bc b436 4cbc
00000210: 4491 9f3b e302 1bbb 2d09 1dbc 539a 00bc
00000220: 2b63 933d 1f5f 053c d6ab 6b3c 0daf c93a
00000230: 749a f9bc fc0c 89bc f262 823b 52ce 1ebd
00000240: abf3 1d3c f217 c6bc 2be5 423b 5c6c 70b9
00000250: aaa0 3dbb 4223 193b cc05 15bc 0819 703c
00000260: 4d5f 26bb 339b 393c 3cbe f4bb 9431 84bc
00000270: d57b 8cbb b750 febc e7e6 55bc 128a 163d
00000280: 6fa8 0e3d 48a3 88bc af7b 52bc 2e29 babb
00000290: 217d 333d 3d36 af3c de73 b93c 3abe a6bd
000002a0: 2fb5 85bc 775e 27bc 006b bdbc 180a b6bc
000002b0: 2aa0 533c 89ce 8a3c b2cb ecbc 9c06 153d
000002c0: 9821 8d3b 3b58 1cbc 7a10 033d aa35 4a3d
000002d0: a303 3e3c 7371 acba 5a22 bb3c f336 1abc
000002e0: 5335 dbbc 7daf 82bb 99ed 85bc ed7c 1abc
000002f0: 0de6 163d f1ff 5abc eef6 8a3d 0411 8b3b
00000300: e52a 8f3c f979 3d3c 7872 583c 8c5e a7bc
00000310: e03a 9f3a 6df5 68bd 0ef8 75bc 540b bdbb
00000320: 11e5 f9bb a066 2fbc 4571 0abd 9ab2 6dbc
00000330: a9f6 603c a666 71bc 6404 6fbd 419e d9bd
00000340: 9618 8c3c 6ca0 1c3c a456 f83c 216a 043c
00000350: ba48 e33c 9048 7e3c 084b 57bd 24f7 67bd
00000360: 5ad9 1fba 7cdf 11bc a777 083b 2fe9 b2bc
00000370: adbc 21ba 331e ed3b e73e ad3b 16b6 5f3c
00000380: f5ac f2bc 7a06 cbbd cf66 b13b b9aa 743d
00000390: 9d75 dbbd 54fb cc3d b079 5bbb 81d0 af3a
000003a0: 446e 9b3d 0961 8a3b 3ac5 38bc 39dc 16bd
000003b0: 95fd 33bd e512 1b3b 16a7 2c3e 24f7 e9bc
000003c0: 818f 81bc 57fa 103d 98b7 9d3b a75f 5dbd
000003d0: 1993 6ebc 6c0b 0ebd 1d3c 9a3b a1c8 a4bc
000003e0: 3317 2c3a 34f4 e93c bded 77bd c967 32bc
000003f0: 05bc 0abd cba2 4d3c 36e3 30bd 4098 c7bc

encode.4.weight f4 [4, 100]
0.0014098763 0.0015370421 -0.00061414175 -0.00082436483 -0.00037669364 0.0007229322 0.002948007 0.0015907316
0.00020511306 0.0004386827 -0.00016024866 -0.001144308 -0.04421531 0.0016437212 -0.002167536 0.0009076955
-0.0005157081 0.0017601355 -0.12194724 -0.40689284 0.38481104 0.09733823 -0.0012052706 0.0014200729
0.0015914368 0.0013204647 0.00053785305 -0.00056885474 -0.0009806061 -0.0011089622 0.0005606626 -0.2415794
0.055741422 0.12762304 -0.00038169316 0.0016407872 -0.0006363954 -0.0005492812 0.000998886 0.00024491566
-0.00138575 0.18228985 -0.00050709734 0.0010013559 -0.0008255034 0.0003941901 0.00044704392 -0.001095221
0.00035358235 0.001951673 -0.00023376428 0.0008251334 -0.001309074 -0.0008757415 0.00062287773 0.00017451929
-0.0856654 0.0014231852 0.00038732463 -0.00029625985 -0.0017293481 0.38427123 -0.00043411445 0.00017206451
-0.0007832576 -0.0006744699 -0.0004885471 -0.00039810262 -0.010913165 0.00038196833 -0.0003630825 -0.0005252127
0.0043722363 -0.00089105056 0.0019072794 0.000120489116 -0.00037065864 0.0057240697 -0.2878697 -0.002339437
-0.0021034335 0.052847225 0.0001246404 0.0011370655 0.00042707706 -0.0010021187 -0.0015761179 -0.00048325985
-0.0008459471 -0.00052390783 -0.0012127515 0.0029216027 0.0013409678 0.0017104554 -0.002048175 -0.0005072319
0.13351448 0.00081735133 -0.0030020154 -0.001123737 -0.00089840696 0.00029327394 0.0009746521 0.001044835
-0.0011617535 -0.0011493067 0.0013037778 -0.00042556756 0.0007573546 -0.00028243553 5.1298113e-05 0.0013887148
0.036610663 0.00087255944 -0.0014417908 -0.00049360644 -0.00050489453 -0.0010819399 -0.19672169 0.0439619
-0.1594748 0.11748999 0.00045772438 -0.0008486302 -0.001037721 -0.00091182266 -0.00014434772 -0.0012005623
0.0006470359 0.00061674416 -0.0009743748 0.30357257 0.077532336 0.025831675 -0.00066384644 -0.0009859141
-0.0005288176 0.0009764226 -0.0009128314 0.0005668923 0.000460335 0.08583594 0.00033221778 -0.0010044484
0.0005202428 -0.001107812 0.00064278964 0.0014269707 -0.00081438984 -0.0013457228 0.0003247216 -0.00045349138
-0.00031386144 0.0004416886 0.00024227687 -0.00068109226 -0.3169188 0.0010668875 -0.00011909743 0.00038067
0.00087487313 0.040954944 0.001463518 -0.00014157195 -0.0010468063 -0.0001307567 0.00011956649 0.00013885312
0.33250168 0.0003164205 -0.0009052234 -0.0008416509 0.0011211563 -0.0013725335 0.00020349759 -0.00027708607
-0.00046821169 -0.043086853 -0.17704052 -0.00025578734 0.00060779054 0.2534094 0.0002893064 -0.0010784027
-0.0018458497 -0.0011122155 -0.00026680093 0.0010530401 -5.709735e-05 -0.0010189805 -0.0002893778 -0.0006682763
-0.0006468366 -0.0011740447 -0.00042762645 -0.0007073205 -0.34007064 -5.646315e-05 -0.004395448 0.00065443636
-0.02688154 -0.002829767 -0.004958592 0.015628384 -0.0042956686 0.00072172383 -0.07241984 -0.0018429281
0.0045617353 -0.0033140627 -0.0017945953 0.0042262212 1.1850805 -0.021972261 -0.36359707 -0.001449839
-0.003772914 -0.009651429 0.1722178 -0.23646949 -0.098094404 1.1452675 0.023974853 -0.014555104
-0.012870489 -0.12481492 -0.011518187 -0.007427596 0.014005441 0.0045796386 -0.009619733 0.021878598
1.2011762 -0.27214268 0.009599489 -0.0031467609 -0.0008445948 0.008071181 -0.008726665 -0.0035777367
0.009143477 -0.2268235 0.005572691 -0.012651653 0.00949689 -0.008609813 0.0060272096 0.007364321
0.0004602398 -0.028188966 -0.036305524 -0.009957781 0.0003444249 0.02836279 -0.005469668 -0.009647178
00000000: 99cb b83a 9376 c93a 5bfe 20ba 301a 58ba
00000010: f77e c5b9 2983 3d3a 5a33 413b 1880 d03a
00000020: 9e13 5739 fffe e539 6c08 28b9 9bfc 95ba
00000030: 1d1b 35bd 2272 d73a 380d 0ebb 6af2 6d3a
00000040: 9630 07ba 59b4 e63a 79bf f9bd 4254 d0be
00000050: f405 c53e 4459 c73d 2cfa 9dba bd21 ba3a
00000060: c297 d03a 7113 ad3a b5fe 0c3a 321f 15ba
00000070: ae87 80ba 995a 91ba 6ef9 123a 9760 77be
00000080: 1e51 643d 9daf 023e fd1d c8b9 af0f d73a
00000090: c6d3 26ba a3fd 0fba 0ded 823a 0668 8039
000000a0: 0ea2 b5ba 31aa 3a3e baee 04ba ee3f 833a
000000b0: 9866 58ba 4dab ce39 3861 ea39 858d 8fba
000000c0: 0561 b939 47cf ff3a 9f1e 75b9 c44d 583a
000000d0: 3c95 abba 0492 65ba 9e48 233a 2aff 3639
000000e0: 5771 afbd 2c8a ba3a d511 cb39 5353 9bb9
000000f0: 4bab e2ba 33bf c43e db99 e3b9 376c 3439
00000100: 8753 4dba e9ce 30ba d711 00ba 6eb8 d0b9
00000110: 22cd 32bc ec42 c839 1c5c beb9 6dae 09ba
00000120: fa44 8f3b 6495 69ba adfd f93a 1aaf fc38
00000130: f654 c2b9 fa90 bb3b a863 93be 3d51 19bb
00000140: c2d9 09bb 5576 583d e7b1 0239 9609 953a
00000150: 50e9 df39 8659 83ba be95 ceba 0a5e fdb9
00000160: 8dc2 5dba dc56 09ba 30f5 9eba 5c78 3f3b
00000170: 6ac3 af3a 5c31 e03a ad3a 06bb c2f7 04ba
00000180: 05b8 083e 8543 563a 76bd 44bb 5b4a 93ba
00000190: 1283 6bba 90c2 9939 cc7f 7f3a d8f2 883a
000001a0: fb45 98ba 55a4 96ba 86e3 aa3a b61e dfb9
000001b0: 3589 463a db13 94b9 ee28 5738 8905 b63a
000001c0: 10f5 153d 79bc 643a 79fa bcba 5e65 01ba
000001d0: e65a 04ba e1cf 8dba 6971 49be 6511 343d
000001e0: 5d4d 23be 989e f03d bafa ef39 9c76 5eba
000001f0: 2404 88ba 6207 6fba 0c5c 17b9 305c 9dba
00000200: d89d 293a 00ad 213a 306d 7fba dd6d 9b3e
00000210: 46c9 9e3d f39c d33c fb05 2eba ca39 81ba
00000220: 59a0 0aba 9df6 7f3a 144b 6fba 809b 143a
00000230: 1e59 f139 c1ca af3d 842d ae39 b2a7 83ba
00000240: e760 083a 0134 91ba e280 283a 3109 bb3a
00000250: c77c 55ba f762 b0ba 653f aa39 95c2 edb9
00000260: c58d a4b9 7192 e739 b40b 7e39 548b 32ba
00000270: 2e43 a2be ced6 8b3a f2c3 f9b8 aa94 c739
00000280: be57 653a 5fc0 273d 84d3 bf3a ee72 14b9
00000290: fe34 89ba bc1b 09b9 c5bf fa38 1a99 1139
000002a0: a93d aa3e 3ee5 a539 844c 6dba 3ca2 5cba
000002b0: c3f3 923a 95e6 b3ba f861 5539 dd45 91b9
000002c0: 4f7a f5b9 d77b 30bd 1c4a 35be 321b 86b9
000002d0: 2254 1f3a e0be 813e 0cae 9739 3159 8dba
000002e0: 70f0 f1ba c2c7 91ba 6ae1 8bb9 2a06 8a3a
000002f0: d07b 6fb8 508f 85ba a1b7 97b9 432f 2fba
00000300: 7890 29ba 67e2 99ba 0d33 e0b9 7a6b 39ba
00000310: bd1d aebe d8d2 6cb8 b107 90bb 7b8e 2b3a
00000320: ad36 dcbc 9d73 39bb af7b a2bb 1907 803c
00000330: aec2 8cbb 1132 3d3a da50 94bd 688e f1ba
00000340: 9c7a 953b bf30 59bb a038 ebba 1d7c 8a3b
00000350: b8b0 973f 2cff b3bc 6529 babe 8608 beba
00000360: fe42 77bb 0721 1ebc dd59 303e 0f25 72be
00000370: b8e5 c8bd 2098 923f e966 c43c 8878 6ebc
00000380: bede 52bc f79e ffbd c7b6 3cbc 3163 f3bb
00000390: 1477 653c cb10 963b 169c 1dbc bf3a b33c
000003a0: 24c0 993f 4956 8bbe 2d47 1d3c e339 4ebb
000003b0: cc67 5dba fd3c 043c 49fa 0ebc 7678 6abb
000003c0: 86ce 153c 6b44 68be 1f9b b63b e148 4fbc
000003d0: d898 1b3c 2c10 0dbc e67f c53b 6750 f13b
000003e0: 574c f139 8cec e6bc 1ab5 14bd f625 23bc
000003f0: ed93 b439 1559 e83c e73a b3bb 330f 1ebc

decode.0.weight f4 [100, 32]
-0.001531165 -0.0020660264 0.0036263962 0.12485715 0.023689045 -0.056795355 -0.008731399 0.007502348
0.15012456 -0.0860644 0.050076522 0.010720316 -0.10244471 -0.01286694 -0.03583562 0.12450354
0.061337695 -0.04516611 -0.038863387 -0.11264558 0.057673886 0.10306552 -0.012035254 -0.039110325
0.072159424 0.060697 0.023719173 -0.10269417 -0.12637252 -0.107952714 0.042431384 -0.04724577
-0.00090848317 0.0008187032 0.016545272 -0.06727117 -0.012068352 0.16239059 0.04119334 0.042300303
-0.0005958462 0.0007110977 -0.0263702 -0.033358574 0.06702061 0.038682017 -0.046361294 -0.031808894
-0.007932922 0.038308896 0.037739668 0.0501874 -0.043477222 -0.004102817 -0.034878623 -0.09214335
0.08220185 0.0818729 -0.018749475 -0.0067089107 0.09397853 -0.11572619 -0.16638058 -0.07646476
-0.011352402 0.31918553 -0.6243361 -0.519509 -0.03693632 -0.31987715 0.62626797 -0.6312371
-0.064421915 -0.85315686 -0.2734531 0.7630818 -0.08448445 -1.1366391 -0.5325825 0.26202294
0.43095228 0.53445846 -0.10022675 0.65332824 -0.11785489 0.36977652 0.3281606 -0.35190213
-0.098661885 -0.111555435 -0.52354807 0.017488636 -0.036271397 -0.003917609 -0.1398025 0.2791706
-0.5837313 -0.3225154 -0.16201638 0.15532844 -0.9006976 -0.16303512 0.06645819 -0.09348959
-0.01046966 -0.13834745 -0.49489123 -0.4207301 0.17487052 -0.37809914 -0.19609898 0.2183402
0.44309482 0.4783689 -0.4890713 0.2914741 -0.86078805 0.44954103 0.14307745 0.35199553
-0.51391023 -0.3348712 0.040457226 -0.4529668 0.39094254 0.22820276 -0.08290817 -0.007143454
-0.024481067 -0.058300093 -0.18759513 0.120787434 0.6013647 -0.22238567 0.18746728 -0.6739324
0.34321082 0.049439378 0.089239895 -0.13559172 -0.13641296 0.73758006 0.39369896 0.047731217
-0.64763105 -0.43639073 0.27012148 -0.040413763 0.24168356 -0.74701154 0.2592028 -0.4186585
0.58358806 -0.37070146 -0.090065226 -0.12245838 0.369116 -0.14191207 -0.15474987 -0.11268076
-0.25343165 -1.3301679 0.21313898 -0.30103654 -0.6927863 -0.23389459 -0.15265577 -0.11718884
-0.17899837 -0.5458408 -0.041317493 -0.013425181 -0.07308544 -0.56445545 -0.333893 -0.11726539
0.48551625 0.15980268 -0.09097524 0.040875126 -0.2145251 0.00029909462 -0.10360621 0.17134002
-0.29641593 0.1702886 -0.14356516 -0.0059732273 -0.031157926 -0.18319725 -0.11732705 0.088466294
0.0019026496 0.00028576705 -0.12866707 -0.035316657 -0.05499711 -0.004229213 -0.028827723 0.023450265
0.026484128 -0.02891663 0.11620378 -0.030136699 0.089761704 -0.054864198 -0.01748207 0.038599987
-0.037402272 0.07634366 0.05371705 -0.10003412 0.005831235 0.01276651 -0.07430504 0.017510159
-0.046149284 -0.007204038 0.090520784 0.08598751 0.1334899 0.01020015 -0.087289765 -0.03317558
-0.09722333 0.07441811 -0.00660994 -0.24401216 -0.7692512 0.10297718 0.054593477 -0.17976026
0.0015728271 -0.8175185 -0.2763243 0.51684284 0.38865128 -1.1044521 -0.077134244 0.5535261
0.63095146 -0.15935543 -0.15222286 0.57191443 -0.2388947 0.21236823 -0.12995951 0.0957432
-0.5354916 0.5640428 -0.073388785 0.21903361 -0.15571839 0.055244662 0.38440707 -0.053726945
00000000: 5fb1 c8ba 2c66 07bb d5a8 6d3b 1bb5 ff3d
00000010: 870f c23c 3fa2 68bd 240e 0fbc 42d6 f53b
00000020: 41ba 193e 8842 b0bd 0a1d 4d3d 44a4 2f3c
00000030: 88ce d1bd dccf 52bc 5fc8 12bd b6fb fe3d
00000040: 3c3d 7b3d 1900 39bd 372f 1fbd bab2 e6bd
00000050: 743b 6c3d 0414 d33d 842f 45bc 2632 20bd
00000060: 52c8 933d 6b9d 783d b64e c23c 5251 d2bd
00000070: cc67 01be 5016 ddbd 88cc 2d3d c884 41bd
00000080: 4627 6eba 3e9e 563a f389 873c 78c5 89bd
00000090: 56ba 45bc b849 263e 59ba 283d 1543 2d3d
000000a0: 9032 1cba f568 3a3a 5106 d8bc 00a3 08bd
000000b0: 1a42 893d 0971 1e3d 57e5 3dbd 0b4a 02bd
000000c0: 16f9 01bc cae9 1c3d e994 1a3d 4e91 4d3d
000000d0: 2c15 32bd ec70 86bb e3dc 0ebd a7b5 bcbd
000000e0: 7259 a83d fbac a73d 8098 99bc 6cd6 dbbb
000000f0: d177 c03d da01 edbd ac5f 2abe 8e99 9cbd
00000100: 6dff 39bc 496c a33e 7ed4 1fbf 8bfe 04bf
00000110: 8a4a 17bd f0c6 a3be 1953 203f c198 21bf
00000120: a3ef 83bd 7d68 5abf 0b02 8cbe 5459 433f
00000130: 2f06 adbd 647d 91bf 5457 08bf df27 863e
00000140: c7a5 dc3e 45d2 083f af43 cdbd 8540 273f
00000150: e85d f1bd 5953 bd3e ab04 a83e 842c b4be
00000160: 3e0f cabd 2d77 e4bd 3f07 06bf 5444 8f3c
00000170: 5191 14bd 495f 80bb 6328 0fbe 73ef 8e3e
00000180: 6a6f 15bf bd20 a5be 9fe7 25be 6b0e 1f3e
00000190: 1e94 66bf aef2 26be 3b1b 883d 7877 bfbd
000001a0: f088 2bbc f4aa 0dbe 6262 fdbe f069 d7be
000001b0: 4211 333e 3696 c1be 2cce 48be 9394 5f3e
000001c0: 53dd e23e c5ec f43e 8e67 fabe 183c 953e
000001d0: 9b5c 5cbf 3e2a e63e e582 123e c238 b43e
000001e0: 9f8f 03bf 3d74 abbe 7ab6 253d 44eb e7be
000001f0: 9f29 c83e fcad 693e c2cb a9bd a313 eabb
00000200: 858c c8bc 14cc 6ebd f018 40be 675f f73d
00000210: 09f3 193f 12b9 63be 6cf7 3f3e d586 2cbf
00000220: 54b9 af3e f280 4a3d 68c3 b63d 8ed8 0abe
00000230: d7af 0bbe 0cd2 3c3f e992 c93e cf81 433d
00000240: 26cb 25bf 9b6e dfbe 5d4d 8a3e e788 25bd
00000250: e57b 773e 263c 3fbf 3bb6 843e 685a d6be
00000260: 0766 153f 95cc bdbe 1e74 b8bd 76cb fabd
00000270: c6fc bc3e 6651 11be c076 1ebe 2cc5 e6bd
00000280: cbc1 81be f142 aabf 1b41 5a3e 7621 9abe
00000290: 715a 31bf 1082 6fbe cb51 1cbe b400 f0bd
000002a0: 594b 37be 39bc 0bbf 883c 29bd 4af5 5bbc
000002b0: d2ad 95bd 2780 10bf 06f4 aabe d628 f0bd
000002c0: 9695 f83e 50a3 233e 3a51 babd ad6c 273d
000002d0: 78ac 5bbe cdcf 9c39 7e2f d4bd c273 2f3e
000002e0: d4c3 97be 2260 2e3e bf02 13be 10bb c3bb
000002f0: e83e ffbc 0f98 3bbe 2a49 f0bd d12d b53d
00000300: 5462 f93a 01d3 9539 4dc1 03be 33a8 10bd
00000310: a644 61bd 3695 8abb 1e28 ecbc c51a c03c
00000320: 3ef5 d83c 92e2 ecbc 3ffc ed3d 3de1 f6bc
00000330: fcd4 b73d 48b9 60bd 8f36 8fbc 051b 1e3d
00000340: 2033 19bd 115a 9c3d 6906 5c3d b0de ccbd
00000350: f213 bf3b a02a 513c 3e2d 98bd 7771 8f3c
00000360: 0807 3dbd da0f ecbb f662 b93d 381a b03d
00000370: 94b1 083e 881e 273c fac4 b2bd 1ee3 07bd
00000380: 061d c7bd 8668 983d 3298 d8bb 53de 79be
00000390: a6ed 44bf b3e5 d23d 699d 5f3d 1313 38be
000003a0: 5227 ce3a e448 51bf 617a 8dbe d04f 043f
000003b0: 4dfd c63e b05e 8dbf 8ff8 9dbd e3b3 0d3f
000003c0: 0986 213f 122e 23be 4fe0 1bbe fc68 123f
000003d0: d0a0 74be 0f77 593e 1b14 05be 0315 c43d
000003e0: fa15 09bf 1c65 103f dc4c 96bd 594a 603e
000003f0: a474 1fbe 3a48 623d 01d1 c43e c910 5cbd

decode.2.weight f4 [100, 100]
-0.013540036 0.010733102 0.0066925 -0.01216743 0.0022347255 0.0018171871 0.0390435 0.017799255
0.034047067 0.00065101025 -0.027095463 0.0038966527 -0.020706749 0.044079147 0.010418925 -0.011423106
-0.003795583 -0.018603496 -0.03725341 -0.02238118 -0.039799016 -0.0027065184 0.0018650774 0.011531484
0.0015880143 -0.004641547 0.024126863 -0.028735401 -0.009074945 0.04640382 -0.013507217 0.007628049
-0.027515285 -0.00012261268 -0.00072834105 -0.017996205 0.01330212 0.037286542 -0.0033201498 -0.012245246
-0.026248207 0.012409044 0.01058263 -0.028629035 0.022527246 -0.035583697 0.014416575 -0.011559451
0.017706143 0.021564594 0.02990272 -0.044836085 -0.00788927 0.03214025 0.026594969 0.0024260685
0.028206578 0.04304123 0.014088239 -0.0075888713 -0.01194405 0.035865743 -0.019869374 0.012448932
0.017961388 -0.0018878572 0.007556206 0.021387879 -0.019429222 0.0013721703 0.008184857 0.029055769
0.01013411 0.0044502653 0.013947012 0.03575422 -0.00053019996 0.01781009 -0.005500855 -0.039710104
-0.03245645 0.03854624 0.0070365453 0.005205036 -0.018896667 0.02537605 0.007168232 -0.015662536
-0.04198556 0.0092442045 0.0046698293 -0.0050708563 -0.033072714 -0.038566805 0.041384283 -0.006610544
0.049980592 -0.011973297 -0.0040423437 -0.049412165 -0.009914029 0.019386174 -0.100338385 0.027580094
0.5356552 0.031473447 0.0032203605 -0.43719244 0.017943671 0.250293 -0.0039827395 0.18864705
0.21846399 0.009752498 -0.010126363 0.022751477 0.022736132 -0.002744118 0.7406337 -0.0013642305
-0.27761203 -0.005257255 -0.001969271 -0.00856988 0.0077899983 -0.013602404 -0.7122663 0.254622
-0.010419711 0.0016722244 -0.008853669 -0.069598146 -0.0072384793 -0.0066146245 0.008004468 0.0054974896
0.014923113 0.005835534 0.0042956956 0.0021123774 -0.014514476 0.0019569923 0.2997062 0.38651043
-0.002405308 -0.12242877 -0.15585016 0.0070586647 0.0073147514 -0.01743275 0.09264065 -0.60909915
0.042002086 -0.0050812424 -0.00068604236 0.02074799 0.72166777 -0.13623574 -0.012446241 0.8876118
0.24769029 -0.010106082 0.0055505875 0.015727187 0.47473446 0.000473649 -0.071652465 0.06061879
-0.0070000403 -0.10098394 0.0103223855 -0.03706435 -0.00077003916 0.017103398 0.3850394 0.0012525966
-0.012433492 0.05054516 -0.006906164 0.008619343 -0.004687081 0.0032442787 -0.01059537 0.54678863
0.021916378 0.3794546 -0.010140161 0.0025952875 -0.016318908 0.76086867 -0.036433082 0.066023365
0.0050713313 -0.011567206 -0.006083769 0.005627241 -0.05575518 -0.005457688 0.004145497 0.006964136
-0.0051366147 -0.006007848 0.338589 -0.26138487 0.08084461 -0.79654795 -0.011500349 0.30956987
-0.012135896 -0.9083313 -0.0062272185 -0.39474937 -0.46536514 -0.005960133 0.018504795 -0.005406697
-0.010871824 0.0031019824 0.42603862 0.0038568112 -0.27888072 0.0074787536 0.001623175 -0.007434494
-0.00021420949 -0.006016463 0.48113376 -0.28135163 0.01017737 0.0041417554 0.0145009365 0.28120762
-0.004082885 0.0042711752 0.010033834 -0.00065538444 0.7117716 -0.006104532 -0.0059397384 -0.0050642584
0.018814083 0.01199574 -0.07170273 0.19592205 -0.0024312034 -0.5060092 -0.6206407 0.018956076
-0.0020819546 0.007476572 -0.3085468 0.51925236 -0.12822014 -0.002854857 -0.010124787 0.010486834
00000000: 07d7 5dbc e5d9 2f3c c24c db3b e659 47bc
00000010: 7974 123b ae2e ee3a 14ec 1f3d becf 913c
00000020: f074 0b3d 8fa8 2a3a 4ef7 ddbc fc5e 7f3b
00000030: 33a1 a9bc 568c 343d 24b4 2a3c fb27 3bbc
00000040: 51bf 78bb 5c66 98bc 0897 18bd bd58 b7bc
00000050: 4b04 23bd d85f 31bb 9d75 f43a 8dee 3c3c
00000060: eb24 d03a 1e18 98bb b3a5 c53c 8166 ebbc
00000070: 14af 14bc ef11 3e3d 604d 5dbc b6f4 f93b
00000080: bc67 e1bc 9791 00b9 24ee 3eba c76c 93bc
00000090: 23f1 593c c6b9 183d df96 59bb 49a0 48bc
000000a0: 7b06 d7bc 4e4f 4b3c c462 2d3c 7087 eabc
000000b0: 0f8b b83c 36c0 11bd 8033 6c3c da63 3dbc
000000c0: 790c 913c 3ba8 b03c 8df6 f43c 0ba6 37bd
000000d0: ff41 01bc 7fa5 033d b1dd d93c adfe 1e3b
000000e0: 7b11 e73c 004c 303d 5bd2 663c 11ac f8bb
000000f0: fab0 43bc f5e7 123d 19c5 a2bc 9bf6 4b3c
00000100: c323 933c fa71 f7ba 0d9a f73b a235 af3c
00000110: 082a 9fbc 65da b33a c719 063c 5d06 ee3c
00000120: 8a09 263c 88d3 913b 0282 643c 0473 123d
00000130: 1efd 0aba 77e6 913c 8440 b4bb 10a7 22bd
00000140: 0ef1 04bd aae2 1d3d d292 e63b 028f aa3b
00000150: 2fcd 9abc 6fe1 cf3c 7de3 ea3b b84e 80bc
00000160: 0df9 2bbd 0175 173c 5e05 993b 6d29 a6bb
00000170: 4177 07bd 3af8 1dbd 9182 293d 439d d8bb
00000180: 73b8 4c3d a62b 44bc a375 84bb 6964 4abd
00000190: 746e 22bc c1cf 9e3c 367e cdbd a6ef e13c
000001a0: b320 093f 4dea 003d af0c 533b b0d7 dfbe
000001b0: 9bfe 923c 6726 803e a481 82bb b12c 413e
000001c0: 06b5 5f3e f1c8 1f3c 0be9 25bc 4e61 ba3c
000001d0: 2041 ba3c a9d6 33bb 2c9a 3d3f fbcf b2ba
000001e0: 2a23 8ebe 0d45 acbb e30e 01bb af68 0cbc
000001f0: 3e43 ff3b 9edc 5ebc 1657 36bf d15d 823e
00000200: 6fb7 2abc 8a2e db3a fb0e 11bc 7989 8ebd
00000210: c430 edbb 7ebf d8bb 2c25 033c 4924 b43b
00000220: 1380 743c 0238 bf3b e8c2 8c3b d06f 0a3b
00000230: 20ce 6dbc e240 003b 1773 993e b2e4 c53e
00000240: 5fa2 1dbb efbb fabd 2f97 1fbe 5f4c e73b
00000250: 95b0 ef3b 20cf 8ebc 62ba bd3d eced 1bbf
00000260: 610a 2c3d 8d80 a6bb 86d7 33ba b0f7 a93c
00000270: 38bf 383f 6281 0bbe 52eb 4bbc 873a 633f
00000280: 86a2 7d3e fb93 25bc b4e1 b53b 4dd6 803c
00000290: 6510 f33e 1854 f839 87be 92bd 694b 783d
000002a0: 9860 e5bb abd0 cebd 391f 293c cad0 17bd
000002b0: 74dc 49ba 6d1c 8c3c e223 c53e 2b2e a43a
000002c0: d8b5 4bbc 7108 4f3d 1a4d e2bb 2538 0d3c
000002d0: 1696 99bb f79d 543b 3498 2dbc 57fa 0b3f
000002e0: fa89 b33c e047 c23e eb22 26bc b315 2a3b
000002f0: 3baf 85bc 4ac8 423f db3a 15bd 4237 873d
00000300: 692d a63b 6184 3dbc 5a5a c7bb b864 b83b
00000310: 8b5f 64bd 68d6 b2bb f3d6 873b 6833 e43b
00000320: 0c51 a8bb 7bdd c4bb 8a5b ad3e 3dd4 85be
00000330: dc91 a53d 91ea 4bbf f66b 3cbc f17f 9e3e
00000340: a3d5 46bc 6688 68bf b20d ccbb 971c cabe
00000350: 5744 eebe 384d c3bb 5e97 973c a92a b1bb
00000360: bc1f 32bc a14a 4b3b bc21 da3e 8ec2 7c3b
00000370: 74c9 8ebe 5510 f53b b7c0 d43a 0e9d f3bb
00000380: 6c9d 60b9 c025 c5bb 2a57 f63e 520d 90be
00000390: fcbe 263c 90b7 873b 5695 6d3c 72fa 8f3e
000003a0: b9c9 85bb 37f5 8b3b f364 243c 1bce 2bba
000003b0: aa36 363f 8708 c8bb 23a2 c2bb 14f2 a5bb
000003c0: fe1f 9a3c c889 443c e2d8 92bd ca9f 483e
000003d0: d354 1fbb d289 01bf 4fe2 1ebf c649 9b3c
000003e0: 6771 08bb 08fe f43b d9f9 9dbe b9ed 043f
000003f0: 244c 03be 8d18 3bbb 6fe2 25bc f8d0 2b3c

decode.4.weight f4 [1, 100]
0.0013007687 -0.027558396 -0.03025563 0.0005542347 -0.00041802772 0.041598074 -0.00012510916 0.00011788201
-0.0009080009 -0.0004640221 0.000430884 -0.00042128118 -0.0004086322 0.00015516482 0.03637354 0.00040557026
-0.0007627984 -0.0007703836 -0.00075167144 0.0002041262 -0.0015252882 0.0006314061 0.0003182984 0.032364145
-8.360199e-05 -0.00072869705 -0.0008048843 9.030315e-05 -3.5036086e-05 -0.00033101058 0.0002933221 0.000679615
1.5559435e-06 0.0012603396 -0.00020382297 0.00082832563 -0.00083505496 0.0011667209 2.838421e-05 0.0009204859
0.0006145943 -0.00050202804 0.00022695686 -0.00034998785 0.000102069826 -0.0009668147 0.00083057 -0.00041522254
-0.0009381852 -2.5002315e-05 -0.02572213 -0.00087478 0.00012200982 -0.0007630745 -0.0005733636 0.00026527265
0.00032633785 -0.0005312541 0.00034199905 -0.00018021908 -0.000759227 -0.01690478 0.025938377 -0.0007414809
0.00085190515 0.00047576026 -0.028347094 0.0005326362 -0.00059536524 6.2891035e-05 -0.0001995959 0.037569806
0.0005996234 9.577142e-05 -0.0006920332 0.0004769876 -0.00029417552 -0.00024331297 -4.908091e-05 -0.0007359988
-0.00025320787 0.0551237 0.00032961706 7.288408e-05 -0.00037307435 -0.0006880647 -0.00055910746 -0.00041181588
-2.0521435e-05 0.0004009764 -0.0005416388 -0.0009325889 -0.0011164322 -0.033393335 0.00016961584 0.0012675108
0.08079306 -0.01712127 -0.00029587693 -0.0005502504
00000000: 8e7e aa3a 25c2 e1bc a8da f7bc 104a 113a
00000010: bb2a dbb9 be62 2a3d bc2f 03b9 6c37 f738
00000020: e906 6eba fe47 f3b9 46e8 e139 67df dcb9
00000030: af3d d6b9 bdb3 2239 6cfc 143d b8a2 d439
00000040: 89f6 47ba 91f3 49ba d10b 45ba b60a 5639
00000050: 2eec c7ba f284 253a 4ae1 a639 4490 043d
00000060: 7a53 afb8 0806 3fba dffe 52ba 2261 bd38
00000070: b6f3 12b8 7d8b adb9 07c9 9939 3128 323a
00000080: d0d5 d035 fb31 a53a 50b9 55b9 fe23 593a
00000090: 97e7 5aba a8ec 983a a01a ee37 c34c 713a
000000a0: ba1c 213a 889a 03ba 45fb 6d39 937e b7b9
000000b0: 520e d638 d671 7dba 9cba 593a 3ab2 d9b9
000000c0: 8bf0 75ba 10bc d1b7 37b7 d2bc 7e51 65ba
000000d0: 86df ff38 1009 48ba c84d 16ba 4b14 8b39
000000e0: 5318 ab39 dc43 0bba 564e b339 31f9 3cb9
000000f0: dd06 47ba e57b 8abc b87c d43c f15f 42ba
00000100: 6352 5f3a 766f f939 2a38 e8bc 9ca0 0b3a
00000110: 4912 1cba 5ee4 8338 9e4a 51b9 cce2 193d
00000120: 0c30 1d3a e4d8 c838 9069 35ba 3114 fa39
00000130: 923b 9ab9 d421 7fb9 3adc 4db8 0bf0 40ba
00000140: fcc0 84b9 64c9 613d 74d0 ac39 58d9 9838
00000150: 3199 c3b9 3e5f 34ba 1191 12ba fee8 d7b9
00000160: 7225 acb7 243a d239 c4fc 0dba fb78 74ba
00000170: 4055 92ba 73c7 08bd e8da 3139 9b22 a63a
00000180: d576 a53d e841 8cbc ee1f 9bb9 ae3e 10ba
