Quantum/2 qubit/2 dim/models/4_latent.pt (torch, 111975 bytes, 6 tensors)

encode.0.weight f4 [100, 30]
0	0xbe1b63ba	-0.15174761
1	0x3ddc7c4d	0.10765896
2	0x3df7d2d6	0.12100761
3	0x3dbe285f	0.09285044
4	0x3d5ac678	0.05341193
5	0xbe278262	-0.16358331
6	0x3dcbc8e6	0.09950428
7	0x3c2fab27	0.010721958
8	0xbd57f561	-0.052724246
9	0xbd48b07d	-0.048996437
10	0x3e4ad08b	0.19806115
11	0x3d5f6ad9	0.054545257
12	0xbcb8cbb5	-0.022558073
13	0xbd75ab8b	-0.05997805
14	0xbdcb5697	-0.09928625
15	0x3b831319	0.0040000794
16	0xbe04b88a	-0.12961021
17	0x3cd14eb3	0.025550222
18	0x3cfc665c	0.030810528
19	0xbd312f2d	-0.04325788
20	0xbd444ad1	-0.047922913
21	0xbda7ed59	-0.08199567
22	0xbdd9c0e6	-0.106324956
23	0x3dd90e19	0.10598392
24	0x3da91feb	0.08258041
25	0x39226d2b	0.00015490192
26	0x3e0ccbfa	0.13749686
27	0xbcb2f5a1	-0.02184564
28	0xbdb4b816	-0.08824174
29	0x3b9f63da	0.004864198
30	0x3c6b8cfa	0.014376873
31	0x3d182f84	0.03715469
32	0x3e1a5d42	0.15074638
33	0x3c8a1fb4	0.01686082
34	0xbdfc048a	-0.12305553
35	0x3dbbde67	0.09173279
36	0xbe24e1de	-0.16101786
37	0xbde3b1a3	-0.11117866
38	0xbe3c8222	-0.18409017
39	0xbdeda526	-0.11603765
40	0xbd71008a	-0.058838405
41	0x3deba879	0.11506743
42	0xbd9df96b	-0.07713588
43	0x3d5d06e3	0.053961646
44	0x3bdbe423	0.0067105456
45	0x3dceb3eb	0.100929104
46	0x3ccd9506	0.025095474
47	0x3e100a87	0.14066516
48	0xbc9fcc6e	-0.01950666
49	0xbd2da5c5	-0.04239442
50	0xbdce9ed3	-0.10088887
51	0xbcffbf8a	-0.031219263
52	0xbd7e1d6b	-0.062039774
53	0xbd22e65e	-0.039770477
54	0x3de14535	0.10999528
55	0x3d797d5f	0.06091058
56	0x3e098bc5	0.13432224
57	0x3d457bf4	0.048213914
58	0x3def3080	0.116791725
59	0xbded5649	-0.11588723
60	0xbc89a49f	-0.01680213
61	0x3d8dd302	0.06925012
62	0xbd844337	-0.06458133
63	0xbda72e9d	-0.08163188
64	0xbcbf3d22	-0.02334458
65	0x3e16ad6f	0.14714597
66	0xbe2306b9	-0.15920533
67	0x3c95ac06	0.018270504
68	0xbda9b9ca	-0.082873896
69	0x3e060038	0.13086021
70	0xbd6eabb9	-0.058269236
71	0x3d947bb8	0.0725016
72	0x3e051525	0.12996347
73	0x3e3c55fa	0.18392172
74	0xbdb7a018	-0.08966082
75	0x3e229ab2	0.15879324
76	0x3dffab42	0.12483837
77	0xbdf3151c	-0.11869261
78	0xbdf019c5	-0.11723665
79	0x3e0421c2	0.12903503
80	0xbd14afc7	-0.036300447
81	0xbca727d5	-0.020404736
82	0xbde9a54d	-0.11408482
83	0xbe1270db	-0.14300863
84	0xbde22370	-0.110419154
85	0xbb5f9b38	-0.0034119617
86	0x3c7f7afa	0.015593285
87	0x3d143ea2	0.036192544
88	0x3c0cc6e5	0.008592342
89	0x3cd8d383	0.026468044
90	0xbd324ada	-0.043528415
91	0xbbc06050	-0.0058708563
92	0x3c7f3cd3	0.0155784665
93	0x3d4cdd76	0.05001589
94	0xbd66843f	-0.056278463
95	0xbe2b78b1	-0.16745259
96	0x3d0d0a33	0.034433555
97	0x3ccf17bd	0.025279874
98	0x3dbc45a5	0.09192971
99	0x3db46175	0.08807651
100	0xbd25916f	-0.0404219
101	0xbe02ea2a	-0.12784639
102	0x3ced2ee2	0.02895302
103	0x3daaa1fb	0.083316766
104	0xbddf987c	-0.10917756
105	0xbe26c003	-0.16284184
106	0x3de99886	0.11406045
107	0xbdf82119	-0.12115688
108	0xbe43b9f3	-0.19113903
109	0xbde49118	-0.11160487
110	0x3e25c129	0.16186966
111	0x3e6ded1b	0.2323498
112	0x3de74ac0	0.11293554
113	0xbdb52573	-0.088450335
114	0x3ca5f2a9	0.020257311
115	0xbd496304	-0.049166694
116	0xbd84281e	-0.06452964
117	0x3dd8808d	0.10571394
118	0x3e01e7b9	0.12686051
119	0x3d74ed7b	0.05979679
120	0x3e1888d5	0.14895947
121	0x3dad178a	0.08451755
122	0x3d6d8a8c	0.057993457
123	0x3e7648e8	0.24051249
124	0xbdb54db4	-0.08852711
125	0xbc3fd1d8	-0.0117077455
126	0xbd9f2de4	-0.07772425
127	0x3d472ee2	0.048628695
128	0x3d3b3d84	0.045712963
129	0x3d02c6f1	0.031928007
130	0xbe1afde5	-0.15135916
131	0x3e419bde	0.18907115
132	0xbc8b443a	-0.017000306
133	0x3d35c788	0.04437974
134	0x3d1c27f7	0.03812405
135	0xbdb93404	-0.09043124
136	0xbdca5fc9	-0.09881551
137	0xbd5f9461	-0.054584865
138	0xbddc69b9	-0.107623525
139	0x3e51d740	0.20492268
140	0xbdfe0b75	-0.12404529
141	0xbd9222ab	-0.07135519
142	0xbd2d977b	-0.04238079
143	0xbc1342bb	-0.008988078
144	0xbdbbba7b	-0.09166428
145	0xbde49432	-0.111610785
146	0xbdc373a7	-0.09543543
147	0x3c4f3591	0.012647049
148	0x3cb895a1	0.022532286
149	0x3db20070	0.0869149
150	0xbb5a7b82	-0.0033337777
151	0xbc31f42d	-0.010861439
152	0x3ce013d6	0.027353209
153	0xbdb70c76	-0.089379236
154	0x3d087d6f	0.033322748
155	0x3def2a5b	0.116780005
156	0x3d53602e	0.051605396
157	0xbdf49ec6	-0.11944346
158	0x3df51ebe	0.11968754
159	0xbdbbe63e	-0.091747746
160	0x3e020d7b	0.12700455
161	0xbd4288db	-0.047493797
162	0xbdfe56e5	-0.124189176
163	0xbe22f826	-0.15914974
164	0x3c5634ec	0.013074141
165	0x3e14f2a7	0.1454569
166	0x3dcbb372	0.09946336
167	0x3e0957cf	0.13412403
168	0xbe4ed6aa	-0.20199075
169	0xbc916730	-0.017749399
170	0xbe39ddbc	-0.18150991
171	0xbd3d33b2	-0.04619188
172	0x3ce46925	0.027882168
173	0x3da77eb7	0.08178466
174	0x3d492d9d	0.049115766
175	0x3d0d486e	0.034492902
176	0x3d9149ed	0.07094178
177	0x3d2a3e89	0.041563544
178	0xbe515bdd	-0.204452
179	0x3e011c57	0.12608467
180	0xbeb02a05	-0.34407058
181	0x3e5b9fda	0.21447697
182	0xbe5b6d2a	-0.21428362
183	0x3d5d6a64	0.05405654
184	0x3e1974bc	0.14985937
185	0xbd3c6a88	-0.046000034
186	0x3e87520d	0.26429787
187	0xbe8272fd	-0.25478354
188	0x3e429b12	0.19004467
189	0xbec410e3	-0.38294134
190	0xbed4ddb2	-0.4157539
191	0xbebfdf2c	-0.37474954
192	0xbe53f621	-0.2069936
193	0x3e7ea724	0.24868447
194	0xbe39fa0f	-0.18161796
195	0xbdb42673	-0.08796396
196	0x3d7cfe1f	0.061765786
197	0xbc48acf7	-0.012248269
198	0xbe14b43a	-0.14521876
199	0x3df79141	0.12088252
200	0x3ea965fa	0.33085614
201	0xbd263839	-0.04058096
202	0xbe46b6e7	-0.19405709
203	0x3e817b2f	0.25289294
204	0xbe3ea049	-0.18615831
205	0x3e7df8bd	0.24801917
206	0xbe4bb978	-0.1989497
207	0x3d4d4927	0.05011859
208	0x3e51ccb3	0.20488243
209	0xbc819875	-0.015819767
210	0xbdf40cb0	-0.119164824
211	0xbdbd2ac8	-0.092366755
212	0x3d2c3213	0.042039942
213	0xbe2074ff	-0.1566963
214	0x3e45ce2d	0.19316931
215	0xbdc5c749	-0.09657151
216	0xbd7a3f72	-0.061095662
217	0x3c8c2795	0.017108718
218	0x3c7a3987	0.015272505
219	0xbe07d364	-0.13264233
220	0x3b8fe032	0.00439074
221	0x3d90c1c2	0.07068206
222	0x3db52d31	0.0884651
223	0x3d2247bb	0.03961919
224	0xbe00f566	-0.12593612
225	0x3d1f0078	0.038818806
226	0x3d3876ed	0.04503529
227	0x3c41ed17	0.011836312
228	0x3db825a2	0.08991553
229	0x3e017feb	0.12646453
230	0xbe1df996	-0.1542724
231	0x3d32116e	0.043473653
232	0xbddafd50	-0.10692847
233	0xbd78e27d	-0.06076287
234	0xbd0009e6	-0.03125944
235	0x3e4ab52e	0.19795677
236	0x3dcbf147	0.099581294
237	0xbc30ac76	-0.010783305
238	0xbc8eebff	-0.017446516
239	0x3ca3bec8	0.019988433
240	0x3dca8e76	0.098904535
241	0xbdac2c86	-0.0840693
242	0x3d376736	0.044776164
243	0x3d89f363	0.067358755
244	0x3db70a27	0.08937483
245	0xbcab80e5	-0.020935485
246	0x3b876d07	0.00413287
247	0x3d133818	0.035942167
248	0xbd21e3ba	-0.039523818
249	0xbc503a27	-0.012709177
250	0xbe470338	-0.19434822
251	0x3c79ac59	0.015238845
252	0x3d23cdce	0.039991193
253	0x3e21d611	0.15804316
254	0x3d4b8649	0.04968861
255	0x3cf2d62d	0.029643143

encode.2.weight f4 [100, 100]
0	0xbd1528ba	-0.036415793
1	0xbc08f5e5	-0.008359407
2	0x3ccbb97b	0.024868717
3	0x3c779651	0.015111522
4	0x3b7bfb4f	0.0038449352
5	0xbc6f787f	-0.014616131
6	0x3d317ffe	0.043334953
7	0x3c8cb2ec	0.01717516
8	0xbd0d1679	-0.03444526
9	0x3cff2395	0.031144897
10	0xbc707c57	-0.014678082
11	0x3c5c5757	0.013448558
12	0xbaf3d24c	-0.0018602102
13	0xbc21307e	-0.009838222
14	0xbcab8c46	-0.020940911
15	0x3d549ef3	0.0519094
16	0x3c70f2ab	0.014706294
17	0xbd1039ff	-0.03521156
18	0x3c605320	0.013691694
19	0xbcadd977	-0.02122186
20	0xbc8f5b4a	-0.017499585
21	0x3c23869d	0.009980825
22	0xbbd0aae5	-0.0063680285
23	0xbd2518fc	-0.04030703
24	0xbc31bfb7	-0.010848931
25	0xbd63d23e	-0.055620424
26	0xbb726aa1	-0.0036989825
27	0x3b2a40d6	0.0025978587
28	0x3ccb0cde	0.024786409
29	0xbcfe9b8b	-0.031080028
30	0xbb01babe	-0.0019795145
31	0xbc516ca8	-0.012782253
32	0xbcaa6482	-0.020799879
33	0xbb61c33b	-0.0034448642
34	0x3d1b1dec	0.037870333
35	0x3c9eab21	0.01936871
36	0x399a0552	0.00029377133
37	0xbcf8c647	-0.030367984
38	0x3a557dc7	0.00081440475
39	0x3c6097fe	0.013708113
40	0xbc634826	-0.013872182
41	0xbd02d109	-0.031937633
42	0xbbe74a73	-0.0070584356
43	0x3bf2a6a0	0.007405117
44	0xbbef0647	-0.0072944495
45	0xbd0a6757	-0.03378996
46	0x3ce8399b	0.02834778
47	0x3c80a52b	0.015703758
48	0xbc0e7512	-0.008694904
49	0xbc5217e1	-0.012823076
50	0xbd29c64e	-0.041448884
51	0x3c7128dc	0.014719214
52	0x3b26c1cc	0.0025445102
53	0xbbbfa26a	-0.0058482187
54	0xbc4334fd	-0.011914489
55	0x3c5747de	0.013139693
56	0xbc7e0f68	-0.015506603
57	0xbd1a0787	-0.037604835
58	0x3bdfef60	0.0068339556
59	0xba035ead	-0.0005011361
60	0x3c9429e4	0.018086381
61	0x3c81a374	0.01582501
62	0xbcefca81	-0.029271366
63	0x3ce2966f	0.027659623
64	0xbcda8f5e	-0.02667969
65	0xbb308917	-0.002693718
66	0xbbd36fa5	-0.006452518
67	0xbd1c00ad	-0.038086582
68	0x3b84fb6c	0.004058292
69	0x3d01d8b5	0.03170081
70	0x3c7a967f	0.01529467
71	0xbb413ed0	-0.0029486902
72	0x3d42ffae	0.047607116
73	0xbc607383	-0.013699415
74	0xbc6c9be3	-0.014441463
75	0xbb836bfa	-0.0040106745
76	0x3cee8873	0.029117798
77	0x3d1bccfb	0.03803728
78	0x3bc23620	0.0059268624
79	0xbcaa83f1	-0.020814868
80	0xbc68322c	-0.014172118
81	0x3a3cf93c	0.00072087697
82	0x3c39e743	0.011346641
83	0x3c2484c2	0.010041418
84	0xbcc518f2	-0.024059746
85	0x3ccad30b	0.024758836
86	0x3d6992ba	0.057024695
87	0xbccb6176	-0.024826746
88	0x3c593b27	0.013258732
89	0x3c184fc6	0.009296363
90	0xbca96a63	-0.020680612
91	0xbd04cf16	-0.032424055
92	0xbcd32cd2	-0.025778208
93	0x3c06b4b0	0.00822179
94	0xbd0ee73d	-0.034888495
95	0xbdb0f6d2	-0.08640827
96	0xbddf8144	-0.10913327
97	0xbc019bfd	-0.007910726
98	0xbc2ff728	-0.010740079
99	0x3bc0cbf7	0.0058836895
100	0x3c9d67ce	0.019214537
101	0xbc71db5d	-0.014761773
102	0x3d6d4965	0.057931323
103	0xbc51c158	-0.012802444
104	0xbc39f673	-0.011350262
105	0xbbb061d6	-0.0053827567
106	0xbd1c8aa5	-0.03821816
107	0xbcade3a4	-0.021226712
108	0x3cca25de	0.02467626
109	0xbb35c159	-0.0027733652
110	0x3c81458c	0.015780233
111	0xbce2891a	-0.027653266
112	0xbd3faeae	-0.046797447
113	0xbc844c8c	-0.016149782
114	0x3b291b00	0.0025803447
115	0x3da850ac	0.08218512
116	0xbc88a1f3	-0.016678786
117	0xbcd04272	-0.025422309
118	0xbd4ba5e9	-0.04971877
119	0x3b5f99e0	0.0034118816
120	0xbcf16e0c	-0.02947142
121	0xbaf071d2	-0.0018344468
122	0xba6afc99	-0.00089640316
123	0x3d97b53b	0.07407614
124	0xbcade7ba	-0.02122866
125	0xbd891390	-0.066931844
126	0x3c4ecd07	0.0126221245
127	0x3d34ddfd	0.044157017
128	0xbcdd9834	-0.027050115
129	0xbb8ee7b1	-0.004361116
130	0xbcd0634b	-0.025437972
131	0xbd1910d2	-0.037369557
132	0xbbc303c9	-0.005951379
133	0xbc5e4872	-0.013567077
134	0xb95ccf09	-0.00021057962
135	0xbc980fc3	-0.018562203
136	0x3d026d85	0.031842727
137	0xbc391974	-0.011297572
138	0x39a9dd88	0.00032399246
139	0xbc52252e	-0.012826247
140	0x3b6349ea	0.0034681507
141	0xbcbabc83	-0.022794968
142	0xbd567e81	-0.052366737
143	0x3ce23e5a	0.027617622
144	0x3c93716d	0.017998422
145	0x3bf7f0cb	0.0075665466
146	0xbab8980b	-0.0014083398
147	0xbc04a609	-0.0080962265
148	0xbb8bb220	-0.0042631775
149	0x3d05f0a4	0.032700196
150	0x3c9cbe29	0.019133644
151	0xbd6abcbe	-0.057308905
152	0xbc2bd668	-0.01048813
153	0xbb111e6b	-0.0022143375
154	0xbc3d05f3	-0.011537063
155	0x3a98fb6e	0.0011671612
156	0xbb96c66a	-0.0046012895
157	0xbc0d0690	-0.008607522
158	0x3ac808ac	0.0015261373
159	0xbab7b93b	-0.0014016995
160	0x3a321afb	0.00067941815
161	0x3c2bed2b	0.010493557
162	0xbd025018	-0.031814665
163	0x3cc0d856	0.023540657
164	0xbcfa5644	-0.030558713
165	0x3d07e6ba	0.033179022
166	0x3c637452	0.013882713
167	0x3cd9acfb	0.026571741
168	0x3b7c55f0	0.0038503371
169	0x3b5760ed	0.0032864169
170	0xbbb972a9	-0.0056594205
171	0xbc000e4f	-0.007815911
172	0xbcf43d3b	-0.029814353
173	0x3cddd6ed	0.027080024
174	0x3c602b09	0.013682135
175	0xbb91e795	-0.0044526556
176	0x3db1fa12	0.08690275
177	0xbd565a90	-0.05233246
178	0x3d039557	0.032124843
179	0x3cb0adbe	0.021567222
180	0x3afa7877	0.0019109388
181	0x3c293965	0.010328625
182	0xbcf1414d	-0.029450083
183	0xbd36288a	-0.044472255
184	0xbc0ec468	-0.008713819
185	0x3d42083f	0.047371145
186	0x3c2a87d8	0.010408364
187	0xbca0e0a4	-0.019638367
188	0x3c1c1ff2	0.009529101
189	0x3c8d505c	0.017250232
190	0x3b082b0c	0.002077761
191	0xbcdc7daa	-0.02691539
192	0xbc61f4b4	-0.013791252
193	0xbb21b1a1	-0.0024672525
194	0xbad32c41	-0.0016111211
195	0xbd6a9a74	-0.057276204
196	0xbcaeaa99	-0.021321582
197	0x3cb06f19	0.02153735
198	0x3cc7b8b0	0.024380058
199	0x3d58c63d	0.05292343
200	0x3c3b160b	0.01141883
201	0xbc552342	-0.013008894
202	0xbcb89656	-0.022532623
203	0xbca4a624	-0.020098753
204	0x3cc59efc	0.024123661
205	0xbc033c92	-0.008010047
206	0xbd2f2dee	-0.04276841
207	0x3d26b44e	0.040699296
208	0xbc06d1e0	-0.008228749
209	0x3d1ea83b	0.038734656
210	0xbba295ae	-0.004961691
211	0x3c40ebb9	0.011774951
212	0x3c5a60ca	0.01332874
213	0x3a7c7076	0.0009629795
214	0xb9c02e34	-0.00036655518
215	0x3b36d740	0.0027899295
216	0x3bbcaeaf	0.0057581286
217	0xbb9586d1	-0.0045631905
218	0xbd3221e7	-0.043489363
219	0x3d108dee	0.035291605
220	0xbc841772	-0.01612446
221	0x3ced33db	0.02895539
222	0xbc9100ca	-0.017700572
223	0xbcf1177b	-0.029430142
224	0x3c2ebd14	0.010665197
225	0xbcf0134a	-0.029306073
226	0xbd873024	-0.06600979
227	0x3d306d81	0.04307318
228	0x3c2645cc	0.010148477
229	0xbbc885c4	-0.0061194617
230	0x3c81f917	0.015865846
231	0x3c485c41	0.012229026
232	0x3cb2f608	0.021845832
233	0xbc04ff35	-0.008117487
234	0x3d51534e	0.051104836
235	0xbc5d51f3	-0.013508308
236	0xbcc89b14	-0.02448801
237	0x3cc642ac	0.024201714
238	0xbd164eb8	-0.036696166
239	0xbc604c01	-0.013689996
240	0xbc981ead	-0.018569315
241	0x3d01ba47	0.03167179
242	0x3d185690	0.037191927
243	0x3cdffe9b	0.027343085
244	0xbc8ddcfe	-0.017317291
245	0x3c592dfc	0.013255592
246	0x3d2c5b51	0.042079274
247	0x3c33f2b9	0.010983163
248	0xbc6bde7a	-0.014396304
249	0x3c1fd2f2	0.009754883
250	0xbbece2b9	-0.007229176
251	0xbcf8b349	-0.030358927
252	0xbd1a63c0	-0.037692785
253	0xbc174831	-0.00923352
254	0xbd144c99	-0.03620586
255	0x3d3cc5aa	0.046086945

encode.4.weight f4 [8, 100]
0	0xbac8bf12	-0.0015315732
1	0xb99824df	-0.0002901917
2	0xbaacc2a2	-0.0013180564
3	0x3d1ef9ae	0.03881233
4	0x3cc1bd46	0.023649823
5	0x3a8a60f1	0.0010557455
6	0xba746c42	-0.0009323993
7	0xb9f46b13	-0.00046619083
8	0xbaab6019	-0.0013074904
9	0x3aaf8abb	0.0013392785
10	0x3a6e535a	0.00090914
11	0x3a7335e9	0.00092777476
12	0xbd530a68	-0.051523596
13	0x3b06fbe2	0.0020596911
14	0x3780106a	1.5266432e-05
15	0xba2b294f	-0.0006529288
16	0xbaa4a540	-0.0012561455
17	0xbaf767eb	-0.0018875574
18	0xbe4a11fb	-0.19733422
19	0x3a9c1f89	0.0011911254
20	0xba82ce8a	-0.0009979766
21	0xbe7092ab	-0.2349345
22	0xbaaff109	-0.0013423275
23	0x3aa844bc	0.0012837867
24	0x3a9d1cfd	0.0011986789
25	0x3abc01b3	0.0014343768
26	0x3cf3fea6	0.029784512
27	0xbaa1c8ba	-0.0012343146
28	0x3806198c	3.1971882e-05
29	0xbacd4da1	-0.0015663394
30	0xbea10eff	-0.31456754
31	0xbb06312d	-0.0020476088
32	0xba720646	-0.0009232502
33	0x3a7590e6	0.00093676
34	0xbaf5b820	-0.001874689
35	0xbb22d590	-0.0024846531
36	0x3a1196f8	0.0005553807
37	0x3e9d4cb3	0.3072258
38	0x3ac8f698	0.001533228
39	0xba04913c	-0.0005057042
40	0xba56add2	-0.00081893534
41	0x3ec35fcc	0.38159025
42	0xba3a0f22	-0.0007097592
43	0xb8b1d030	-8.478796e-05
44	0x3d7f7be7	0.06237402
45	0xbab00b20	-0.001343105
46	0x3a635472	0.0008671946
47	0xba5f7dfc	-0.0008525548
48	0x3a16f3a4	0.0005758351
49	0xbab22b54	-0.0013593235
50	0xbdc05db3	-0.09392872
51	0xbaa48c42	-0.0012554007
52	0xb8994bb0	-7.3097064e-05
53	0xbc18b5be	-0.009320674
54	0x3acba889	0.0015537898
55	0x3b02a8d4	0.0019937055
56	0x3d4eee8c	0.050520465
57	0xbac9117b	-0.0015340293
58	0xbaa70e8e	-0.0012745427
59	0xbc922071	-0.017837735
60	0xba96de12	-0.0011510274
61	0xba67d9c0	-0.0008844398
62	0xbde53d70	-0.11193359
63	0x3a9cfe8d	0.0011977718
64	0xbad3f80e	-0.0016171949
65	0x3ad2eb82	0.0016091915
66	0xbaa82414	-0.0012828135
67	0x3aecea3f	0.0018075182
68	0x399bf5d0	0.00029747048
69	0x3ac85f94	0.0015287274
70	0x3a391578	0.0007060389
71	0xba2e4fac	-0.0006649445
72	0xbf0c7456	-0.54865015
73	0x391da20d	0.00015033055
74	0x3a992a56	0.0011685591
75	0xbae60ebe	-0.0017552001
76	0x3a6b50f9	0.00089766044
77	0x3d54c735	0.05194779
78	0xbea5213a	-0.32251912
79	0x3a7ba463	0.00095993857
80	0x3b167441	0.0022957476
81	0x3bac3ab8	0.0052560233
82	0x3a9cb591	0.0011955966
83	0x3aa3f6ff	0.0012509524
84	0xba5c188c	-0.0008395992
85	0xbadc4392	-0.0016804805
86	0xba9e1721	-0.0012061336
87	0xbba5a8b3	-0.005055511
88	0xbc880091	-0.016601833
89	0xba078c6b	-0.0005170765
90	0x3b0decd8	0.0021656062
91	0xba8d7a82	-0.0010793956
92	0xbe83fcbe	-0.25778764
93	0x3af039f5	0.0018327819
94	0xba9c8133	-0.001194036
95	0xbdd337db	-0.10313388
96	0x3ac9616d	0.0015364118
97	0x3cb21b23	0.021741455
98	0xbc14720c	-0.009060394
99	0xbb07d396	-0.002072548
100	0x39bd6282	0.00036122283
101	0xb8b7713a	-8.74721e-05
102	0x3a204f43	0.00061153265
103	0xbe8154aa	-0.25259906
104	0xbdaf747d	-0.0856714
105	0xba700c94	-0.0009157148
106	0x3a88fa43	0.001045056
107	0xb933eb9f	-0.00017158546
108	0x3a18e323	0.0005832186
109	0xb9bd163e	-0.0003606546
110	0xba43e517	-0.0007472797
111	0xb99f0d24	-0.00030336634
112	0x3cd95ec3	0.026534444
113	0xb9202faf	-0.00015276553
114	0x38a5c49a	7.904433e-05
115	0xb90ac47a	-0.00013233899
116	0x3aa34961	0.0012457782
117	0x39674884	0.00022056891
118	0x3e2c6c02	0.16838077
119	0xba1b5141	-0.00059248885
120	0x3a14934e	0.0005667702
121	0x3e9d30d6	0.3070132
122	0x3a54001c	0.00080871745
123	0xba6de9c8	-0.00090756686
124	0xb9996fb4	-0.0002926566
125	0xba217a16	-0.0006159855
126	0xbee79509	-0.45230892
127	0x3a9605f2	0.0011445864
128	0x37f2b988	2.8935043e-05
129	0xb8a5e140	-7.909769e-05
130	0x3e6d64a8	0.23182929
131	0x3a832bfa	0.0010007613
132	0x3a0a1e65	0.00052688114
133	0xba61e99f	-0.0008617881
134	0x3a341a4f	0.00068703754
135	0x3a4e6c6d	0.0007874433
136	0x3b88160f	0.00415302
137	0xbd9e41ff	-0.077274315
138	0xb9d882e2	-0.00041296246
139	0x39350516	0.000172634
140	0x38d0fd2a	9.9653684e-05
141	0x3da3c595	0.0799667
142	0xb8af09f4	-8.346504e-05
143	0xb91b6c13	-0.00014822213
144	0xbcc89192	-0.024483476
145	0x39378f7c	0.00017505692
146	0xba0fa881	-0.0005480126
147	0x3a531ace	0.00080530054
148	0x381be6e8	3.7169928e-05
149	0xb9886862	-0.00026017713
150	0x3d4a5319	0.049395654
151	0x3a5f6eae	0.00085232675
152	0xb99d142a	-0.00029960397
153	0x3d01e856	0.031715713
154	0xba15ec52	-0.00057191134
155	0xba8fe332	-0.0010977744
156	0xbc850f6b	-0.016242703
157	0x39ea10bf	0.00044644435
158	0x39aa09b8	0.00032432168
159	0x3c3a54b8	0.011372738
160	0x3a27d33c	0.0006402021
161	0x39c74f83	0.0003801548
162	0x3e9adfee	0.3024897
163	0x38f4fc1b	0.00011681785
164	0x38eb85f2	0.000112306225
165	0xb9ebe800	-0.00044995546
166	0x3a4d00c6	0.00078202446
167	0xba199e68	-0.0005860091
168	0x3793cdf8	1.7619677e-05
169	0xba62b6c0	-0.00086484477
170	0xb9ad9ac1	-0.00033112432
171	0x39918ec6	0.0002776293
172	0x3ddc5c40	0.10759783
173	0xb9c04b04	-0.00036676985
174	0xba7718ec	-0.0009426016
175	0x3a688ee5	0.00088713906
176	0x389191ac	6.941272e-05
177	0x3b5d019a	0.0033722878
178	0x3e839de7	0.25706407
179	0xba3a5c4e	-0.00071090914
180	0xb9fea21c	-0.00048567436
181	0x3da5ef32	0.081022635
182	0xba64d532	-0.00087292783
183	0xba3b6a72	-0.00071493455
184	0x3a33faa8	0.0006865659
185	0x3a1903bf	0.0005837045
186	0x3a7281d2	0.0009250912
187	0x3eb13fb8	0.34618926
188	0xbe6f5faa	-0.23376337
189	0x39dfe46a	0.00042704056
190	0xba175d12	-0.00057740614
191	0x3a706a07	0.0009171073
192	0x3e363aa2	0.17795804
193	0xba0a800d	-0.0005283363
194	0x3a8113f6	0.0009847868
195	0xbe69edfc	-0.2284469
196	0xba6bf4ee	-0.0009001036
197	0x3e34187f	0.1758747
198	0x3ba4d6dc	0.005030496
199	0x3a8176aa	0.0009877284
200	0xbbe91af4	-0.0071138088
201	0xbb02a257	-0.0019933188
202	0x3acebc52	0.0015772677
203	0x3c0766d1	0.008264259
204	0xbbe3a698	-0.0069473498
205	0xbbfc4851	-0.0076990505
206	0xbb05b5bc	-0.0020402512
207	0xbb8964f6	-0.0041929437
208	0x3b9b87ff	0.0047464366
209	0x3a1408e2	0.00056470756
210	0x3c0c47bc	0.008562025
211	0xbad9ab69	-0.001660687
212	0xbc5afad8	-0.01336547
213	0x3c4a65ab	0.012353341
214	0x3b64ed1f	0.0034931374
215	0xbba98a1f	-0.005173936
216	0x3c343f24	0.011001382
217	0xbabe5c0a	-0.0014523279
218	0x3d8c6d42	0.06856777
219	0x3ab3cdfc	0.0013718004
220	0xba5b99c1	-0.0008377098
221	0x3d9a1b66	0.07524757
222	0xba2bb67a	-0.00065503235
223	0x3b8410a9	0.0040303064
224	0xbb42c58f	-0.0029719805
225	0xbbc894a2	-0.006121234
226	0x3c9dcd87	0.019263042
227	0x3bdd6cb1	0.006757342
228	0x39e41df8	0.00043509877
229	0xbb844f11	-0.0040377458
230	0xbd3bda6b	-0.045862596
231	0xbba1d779	-0.0049390164
232	0xbb9ae2c7	-0.004726741
233	0xbaa7df8b	-0.001280771
234	0x3b985216	0.0046484573
235	0xbbf90c8b	-0.007600372
236	0xbca88e8d	-0.020575786
237	0x3abb49b0	0.0014288928
238	0x3be6fa15	0.007048855
239	0x3c527302	0.012844803
240	0xbbb8b1e9	-0.005636443
241	0x3c100a5e	0.008791534
242	0xbbfb746a	-0.0076737897
243	0xbba454af	-0.005014978
244	0x3ccd86c8	0.025088683
245	0xbb58e3ab	-0.0033094685
246	0xbacbd02c	-0.0015549711
247	0x3a8f44e2	0.0010930563
248	0x3aa20d54	0.0012363591
249	0xbbe46f2e	-0.0069712615
250	0xbcfdcc0f	-0.030981092
251	0x3bba2023	0.0056801005
252	0x3b2f60ea	0.0026760646
253	0xbc61cf6f	-0.013782366
254	0xb9e0a1d8	-0.00042845192
255	0xbb8f1031	-0.004365944

decode.0.weight f4 [100, 34]
0	0x3e6fd0b1	0.23419453
1	0xbf00871f	-0.5020618
2	0x3c22a1f6	0.00992631
3	0xbe993dc8	-0.29929948
4	0x3d167679	0.036734078
5	0xbf5ca3e4	-0.8618758
6	0xbe9e672e	-0.30938095
7	0xbe77ea53	-0.24210481
8	0x3e167709	0.14693846
9	0xbf2e2dad	-0.68038446
10	0xbec9becd	-0.39403382
11	0x3ed59ed1	0.4172273
12	0x3f292956	0.660787
13	0xbf1d9a33	-0.61563414
14	0xbf13b730	-0.57701397
15	0x3f350470	0.70709896
16	0x3e67d03e	0.22638032
17	0x3ebd9d52	0.37034088
18	0x3e90ed16	0.28305882
19	0xbc2e36fb	-0.010633226
20	0x3e81b3ba	0.25332433
21	0xbec09397	-0.37612602
22	0xbf302191	-0.6880122
23	0xbf095b2d	-0.5365475
24	0x3df03980	0.11729717
25	0x3e31e50d	0.17372532
26	0x3f17540b	0.59112614
27	0xbeddf4c7	-0.43350813
28	0xbe719901	-0.23593523
29	0xbf1fbf38	-0.6240115
30	0xbded55f5	-0.11588661
31	0xbe887517	-0.26651832
32	0xbe1b962b	-0.15194003
33	0x3c8983a5	0.016786406
34	0xbb05a45b	-0.0020392153
35	0x3a478f56	0.0007612606
36	0x3c3f3fbe	0.011672912
37	0xbb0bb0d0	-0.0021315105
38	0xbc88116e	-0.016609874
39	0x3da2a2fc	0.07941243
40	0x3a7a0eee	0.0009538968
41	0x3caef139	0.021355258
42	0xbd198da7	-0.037488606
43	0xbda08956	-0.07838695
44	0xbd925c70	-0.07146537
45	0x3cd14269	0.025544362
46	0xbdc13f8b	-0.09435948
47	0xbc4a80bc	-0.012359794
48	0xbc756211	-0.014976994
49	0xbcb0e94f	-0.021595625
50	0x3ca02e94	0.01955346
51	0xbd1be497	-0.038059797
52	0x3d802f98	0.06259078
53	0x3dbea4f3	0.09308805
54	0x3bfcab04	0.0077108163
55	0x3d397ef3	0.045287084
56	0xbd6f253d	-0.058385123
57	0x3bad6ffe	0.0052928915
58	0xbb889991	-0.004168697
59	0xbcf45760	-0.02982682
60	0x3dbf5e38	0.09344143
61	0x3d815223	0.063144945
62	0x3e073d65	0.13207014
63	0xbd4ee7e0	-0.050514102
64	0xbdb89926	-0.09013586
65	0xbd2522db	-0.040316444
66	0x3d05b308	0.03264144
67	0xbcd266fe	-0.025683876
68	0xbb6e4df7	-0.0036362389
69	0x3c449b09	0.011999854
70	0xbc717dfc	-0.01473951
71	0x3c1b4316	0.009476444
72	0x3d87e28a	0.06635006
73	0xbe3364f4	-0.1751898
74	0xbe38f5bc	-0.1806249
75	0x3dfd29d1	0.123614915
76	0xbd011860	-0.031517386
77	0x3e213c1d	0.15745588
78	0xbe568007	-0.20947276
79	0x3d089bc1	0.033351664
80	0xbe21358a	-0.1574308
81	0x3d5897b5	0.052879054
82	0xbdbfdf1c	-0.093687266
83	0xbe4683c9	-0.1938621
84	0x3d949163	0.07254293
85	0xbc83d6d3	-0.016093647
86	0xbc53c2ea	-0.012924889
87	0xbcc4ae22	-0.024008814
88	0x3e0435e1	0.12911178
89	0x3d656e09	0.05601314
90	0xbdffc32a	-0.124883965
91	0x3ead369f	0.33830735
92	0xbd8540d3	-0.06506505
93	0x3cb7c285	0.022431621
94	0xbd817bbc	-0.063224286
95	0x3e0a1828	0.13485777
96	0xbe0f0c6b	-0.13969581
97	0x3bcc76c4	0.006239744
98	0x3b0072fa	0.0019599781
99	0xbcc41023	-0.023933476
100	0x3e324c35	0.17411883
101	0x3e1e0906	0.1543313
102	0x3ac79645	0.0015227279
103	0xb9b9d02b	-0.00035441047
104	0xba45e589	-0.0007549157
105	0x39cec569	0.00039438464
106	0x3d6879cb	0.056756776
107	0x3cba57b7	0.022746904
108	0xbd2a13a2	-0.04152263
109	0x3d1a6df2	0.03770251
110	0x3dab9480	0.083779335
111	0xbd99097f	-0.07472514
112	0xbd9db343	-0.07700207
113	0xbd80ff77	-0.06298726
114	0xbdf2d889	-0.11857707
115	0x3d2fb048	0.042892724
116	0xbdc5bfca	-0.096557215
117	0x3cdf18f4	0.027233578
118	0x3dbd64bc	0.09247729
119	0xbdc1debc	-0.09466311
120	0x3d9565fe	0.07294844
121	0xbd3f4a66	-0.04670181
122	0xbd8cc816	-0.06874101
123	0xbb1e597b	-0.0024162221
124	0x3daaa3fe	0.0833206
125	0x3d05c3b6	0.032657348
126	0xbdfdb24f	-0.12387525
127	0x3d8c2e90	0.068448186
128	0x3d303326	0.04301753
129	0xbd456f2f	-0.048201736
130	0xbcb936a9	-0.022609072
131	0xbd64027b	-0.055666428
132	0x3da544d4	0.080697685
133	0x3d603e2d	0.054746795
134	0x3dba9eca	0.09112318
135	0x3d40a087	0.04702809
136	0xba308f5d	-0.000673523
137	0x38b9069c	8.8227185e-05
138	0x3b8177ae	0.0039510345
139	0xb9840af0	-0.0002518515
140	0xbca311e8	-0.019906
141	0x3d0b393b	0.033990126
142	0xbdedbcbd	-0.116082646
143	0xbcd8aefd	-0.026450628
144	0x3d9d4017	0.0767824
145	0x3bee0980	0.007264316
146	0x3ce7e5ba	0.028307784
147	0x3d04c5c1	0.032415155
148	0x3afdff1e	0.0019378399
149	0x3bcc3e97	0.006233047
150	0xbd69935a	-0.05702529
151	0x3c20f684	0.009824399
152	0xbd6dd39d	-0.05806314
153	0xbd92b09d	-0.071625926
154	0xbd3dd377	-0.046344247
155	0xbd92c020	-0.07165551
156	0x3cf66778	0.030078635
157	0x3d4cf736	0.050040446
158	0x3d9058db	0.07048198
159	0xbd69a4c0	-0.057041883
160	0x3d4c73e7	0.04991522
161	0x3d8c2ebd	0.06844852
162	0xbca3a093	-0.019974029
163	0x3c7dbf7e	0.01548755
164	0xbb14efd6	-0.0022725961
165	0xbcae0f90	-0.021247655
166	0xbd890732	-0.066908255
167	0x3daa9e49	0.08330972
168	0xbd834ccc	-0.06411132
169	0x3de3d83c	0.11125228
170	0xbdee9f8b	-0.11651524
171	0x3e98b390	0.29824495
172	0xbb887839	-0.0041647223
173	0x3e8275cb	0.25480494
174	0x3e534f39	0.2063569
175	0x3f433ec1	0.7626763
176	0x3f183779	0.59459645
177	0xbd2c4ee7	-0.042067435
178	0x3eb7219c	0.3576783
179	0xbeaf5126	-0.342416
180	0x3dcb11ff	0.09915542
181	0xbed3cafc	-0.41365802
182	0xbe9f9dc3	-0.3117505
183	0xbe73c32f	-0.23804925
184	0xbecff1e1	-0.40614226
185	0x3ea0f578	0.31437278
186	0x3f306942	0.6891061
187	0x3e3535b1	0.17696263
188	0xbfb196a7	-1.38741
189	0xbe21a3fa	-0.15785208
190	0x3f0a5887	0.5404133
191	0xbee70060	-0.45117474
192	0x3e550010	0.20800805
193	0xbf9408d6	-1.1565197
194	0x3e3e4d0b	0.18584077
195	0xbf0e2bb5	-0.5553544
196	0x3e52140e	0.20515463
197	0xbf0dbc51	-0.55365473
198	0xbe116b9c	-0.14201206
199	0x3e8e5adf	0.27803704
200	0x3da425e5	0.0801504
201	0xbe8dde8c	-0.27708852
202	0xbe9e4050	-0.30908442
203	0xbe43d0ce	-0.19122621
204	0x3e3424c4	0.1759215
205	0x3dab443c	0.08362624
206	0xbc3df14d	-0.011593175
207	0xbe388af8	-0.18021762
208	0xbefa52ac	-0.488912
209	0xbe835bd3	-0.25655994
210	0xbd732a02	-0.059366234
211	0x3e35d20a	0.17755905
212	0x3f0a451f	0.5401172
213	0xbee4e846	-0.4470846
214	0xbdfca19c	-0.12335512
215	0xbf5718e3	-0.8402235
216	0xbd9f5e62	-0.07781674
217	0x3e311161	0.17291786
218	0xbdeedadf	-0.1166284
219	0xbfa312a4	-1.2740064
220	0x3dd540b2	0.1041273
221	0x3dfc8017	0.12329119
222	0xbe1348f6	-0.14383301
223	0x3f036de9	0.51339585
224	0x3e559525	0.20857675
225	0x3efa8ec5	0.4893705
226	0xbe074274	-0.13208944
227	0x3d47e836	0.048805438
228	0x3c0f00ee	0.008728249
229	0x3dfca0bf	0.123353474
230	0xbeabe396	-0.33572072
231	0x3e4b9b44	0.19883448
232	0xbf6c2805	-0.92248565
233	0x3e2bd532	0.16780546
234	0x3c63ae10	0.01389648
235	0xbec06d63	-0.37583455
236	0x3e814790	0.2524991
237	0x3e84b235	0.2591721
238	0x3e07bacf	0.13254856
239	0x3c2d84dd	0.010590759
240	0x3c0ee630	0.008721873
241	0x3df14f0e	0.117826566
242	0x3d4bad93	0.04972608
243	0x3d7711dc	0.060319766
244	0xbf2fed69	-0.68721634
245	0xbe32d921	-0.1746564
246	0x3ef879b7	0.4853036
247	0x3e73e43c	0.23817533
248	0xbf06d233	-0.5266449
249	0x3f350cbc	0.70722556
250	0x3f0d336c	0.5515659
251	0xbe28cbe8	-0.16484034
252	0xbf13eb13	-0.5778057
253	0x3f9c73c8	1.2222834
254	0xbeb4bcd4	-0.35300314
255	0x3dfc3d0a	0.1231633

decode.2.weight f4 [100, 100]
0	0x3be8ab51	0.0071005006
1	0xbb0739f8	-0.0020633917
2	0x3ce88e43	0.028388148
3	0xbbf997ab	-0.007616957
4	0xbc7a52ce	-0.015278531
5	0xba82692c	-0.0009949557
6	0xbd3a11c9	-0.045427117
7	0xbc22d0e8	-0.009937502
8	0xbcd93e97	-0.026519103
9	0x3d017eb6	0.03161498
10	0x3ca6d5b5	0.020365575
11	0x3a4be4ab	0.00077779096
12	0x3cd455e1	0.025919857
13	0xbbcb76b5	-0.0062092193
14	0xbbfab7f6	-0.0076513244
15	0xbcae6093	-0.021286285
16	0x3b2a8493	0.0026018962
17	0xbb81e7e3	-0.0039644106
18	0x3d066205	0.032808322
19	0xbba2bb9b	-0.004966212
20	0xbc9404b3	-0.018068647
21	0xbb29cb3b	-0.0025908488
22	0x3b621708	0.003449859
23	0xbca123e0	-0.019670427
24	0x3d2a9fa4	0.04165615
25	0x3b70ff5c	0.00367733
26	0x3cf8d36d	0.030374253
27	0x3b2192f2	0.0024654237
28	0x3c56640a	0.013085375
29	0xbbc71c50	-0.006076373
30	0xbba3d6dc	-0.0049999785
31	0xbcb298bc	-0.021801345
32	0xbc9e82d6	-0.019349497
33	0x3bde11b8	0.0067770146
34	0x3c48d28e	0.012257231
35	0x3c022927	0.007944382
36	0xbc30f086	-0.010799533
37	0xbc8da66b	-0.017291268
38	0x3caa381a	0.020778704
39	0xbc226071	-0.009910689
40	0x3cb136c5	0.021632561
41	0x3c0745ec	0.008256417
42	0xbbb9451e	-0.0056539914
43	0x3c244284	0.010025624
44	0x3bb3b680	0.005484402
45	0x3cac3402	0.021020893
46	0xba0dff4c	-0.00054167653
47	0xbbb25bab	-0.0054430566
48	0x3a91ef76	0.0011133987
49	0xbc18abc7	-0.009318299
50	0x3be3ef46	0.006956014
51	0x39b64f21	0.000347727
52	0xbc335ffb	-0.0109481765
53	0xbb47a3ab	-0.0030462544
54	0x3c4d680d	0.012537015
55	0xba0f5179	-0.00054671575
56	0x3c21fd39	0.009887033
57	0x3bc6e765	0.006070065
58	0xbb8e8ce9	-0.004350294
59	0x3ce64185	0.028107414
60	0x3af5640e	0.0018721835
61	0xbcd77a17	-0.026303334
62	0xbc112277	-0.008858315
63	0xb9c14850	-0.00036865706
64	0x3becf6c7	0.0072315666
65	0x3b9776c0	0.0046223104
66	0x3c6bfb62	0.014403196
67	0x3c0d7ef4	0.008636225
68	0xbcedcb64	-0.029027648
69	0xbc2a5ca4	-0.010398064
70	0x3c14895b	0.009065951
71	0x3a91ecac	0.0011133156
72	0xbbad39a6	-0.0052864132
73	0x3d013359	0.03154311
74	0x3c724d70	0.01478897
75	0xbc143cea	-0.009047726
76	0x3bfa7bb9	0.0076441434
77	0xbcc11501	-0.023569586
78	0x3bbe7736	0.005812551
79	0xbc869f1b	-0.01643329
80	0xbb443635	-0.0029939536
81	0xbc8b5366	-0.01700754
82	0x3ccf20a7	0.025284125
83	0x3aefab01	0.0018285216
84	0xbb0e7e64	-0.0021742815
85	0x3c1a15ed	0.009404642
86	0x3cd288ff	0.02570009
87	0xbc1a88ff	-0.0094320765
88	0xbc8159ea	-0.015789945
89	0x3c88b0c3	0.016685849
90	0x3c7bc45b	0.015366639
91	0xbcb97f53	-0.02264372
92	0x3c5d1150	0.013492897
93	0x3b8455fc	0.0040385704
94	0xbcde4236	-0.027131181
95	0x3cd597b0	0.026073307
96	0x3c86530e	0.016397025
97	0x3c62a13d	0.0138323875
98	0x3bea9a14	0.007159481
99	0x3d1df5f5	0.03856464
100	0xbaa0da93	-0.0012272171
101	0xbc647efc	-0.013946291
102	0xbcab0bca	-0.020879645
103	0xbbf9aba5	-0.0076193386
104	0x3cc6df0c	0.024276279
105	0x3c015937	0.007894806
106	0xbc7880ed	-0.015167457
107	0x3ba04222	0.004890696
108	0xbb8cc01e	-0.004295363
109	0x3aac9686	0.0013167418
110	0x3c034f3f	0.008014499
111	0xbbd9a32e	-0.006641767
112	0x3b64ea66	0.0034929751
113	0x3c8089c6	0.015690695
114	0x3c132411	0.008980767
115	0xbade3ddf	-0.0016955695
116	0x3c2d7b3e	0.010588465
117	0xbc62f27f	-0.013851761
118	0x3d114e53	0.035475086
119	0xbbb37c07	-0.0054774317
120	0x3c83b3d4	0.01607696
121	0x3baac175	0.00521105
122	0xbb642ae5	-0.0034815606
123	0xbb8fbdd6	-0.004386644
124	0xbca2c409	-0.019868867
125	0xbcb12a32	-0.021626566
126	0x3bbfba9c	0.005851103
127	0xbc8d71b1	-0.017266126
128	0x3c0b04fb	0.008485074
129	0x3ba5517f	0.0050451155
130	0xbc564ed6	-0.013080319
131	0xbd2835a7	-0.04106679
132	0xbb31cce1	-0.0027130174
133	0xbc80ae07	-0.015707983
134	0x3d36a786	0.044593357
135	0xbbbf2c90	-0.0058341697
136	0x3aaaa18a	0.0013018113
137	0x3a67d74e	0.00088440336
138	0xbb97865e	-0.004624172
139	0xb82cfef8	-4.1245454e-05
140	0x3b32ccac	0.0027282638
141	0x3c169f50	0.0091932565
142	0xbb24cc98	-0.0025146361
143	0x3c09f778	0.008420818
144	0xbb962bfc	-0.00458288
145	0xbc01bfc7	-0.007919258
146	0x3ac59e0d	0.001507701
147	0x3b6dab52	0.0036265445
148	0x3bf22794	0.007389972
149	0xbb65175d	-0.0034956553
150	0xbc6310cd	-0.013858986
151	0x3d049733	0.032370757
152	0xbb2ed1e7	-0.0026675405
153	0xbb96427e	-0.004585563
154	0xbc3be373	-0.011467802
155	0x3c019300	0.007908583
156	0x3c9761db	0.018479278
157	0x3c35a38f	0.011086359
158	0xbba78c7c	-0.0051131826
159	0x3cd85a14	0.02641014
160	0xbbf55403	-0.0074868216
161	0xbab39550	-0.0013701115
162	0xbca31ea0	-0.019912064
163	0xbc215fe4	-0.009849522
164	0x3b7e3aa1	0.003879227
165	0x3c768956	0.015047392
166	0x3c680079	0.014160269
167	0x3b92361f	0.004462018
168	0xba89b132	-0.0010505079
169	0x3a33769c	0.0006845982
170	0x3d2a0ca8	0.041515976
171	0xbcccdcb4	-0.025007583
172	0x3ca82831	0.020526977
173	0x3ba7c1d5	0.005119542
174	0x3c421f14	0.01184823
175	0xbaec683f	-0.0018036439
176	0xbcebb83b	-0.028774371
177	0xbcc098ef	-0.023510424
178	0xbbf7f1de	-0.0075666746
179	0xbb0ccbfc	-0.002148389
180	0x3c240601	0.010011197
181	0xbc5e1a17	-0.013556025
182	0x3d0e4f42	0.034743555
183	0x3c4a8ae1	0.012362213
184	0xbb1bd804	-0.0023779878
185	0xbc91199e	-0.01771241
186	0x3c93a4e1	0.018022956
187	0xbca94937	-0.020664794
188	0xbbba6c21	-0.0056891595
189	0x3c756753	0.014978248
190	0xb9cd54fb	-0.00039163962
191	0x3c153a0a	0.009108076
192	0x3b96ee28	0.004606027
193	0xbae01627	-0.0017096446
194	0xbba6169f	-0.0050686146
195	0xbc213f84	-0.009841803
196	0xb9ef0ea5	-0.00045596543
197	0x3cd82cd8	0.02638857
198	0x3b4a5ddd	0.00308787
199	0x3c8de322	0.01732022
200	0xbc3638da	-0.011121953
201	0xbc294b0c	-0.010332834
202	0x3d01dee5	0.03170671
203	0xbd096128	-0.03353992
204	0xbce76e81	-0.028250935
205	0xbbdb6647	-0.006695542
206	0xbc219806	-0.009862905
207	0xbb535633	-0.0032247424
208	0xbd09d072	-0.033646055
209	0x3c78e904	0.015192274
210	0x3a5ecf07	0.00084994774
211	0x3c8382cb	0.016053578
212	0x3a2fde0e	0.0006708809
213	0xbc89bf11	-0.01681474
214	0xbca44041	-0.02005017
215	0xbd2d12e8	-0.04225436
216	0xbbb04cf5	-0.0053802677
217	0x3b401eb5	0.0029315178
218	0xbcee4db4	-0.029089786
219	0xbba5cab7	-0.005059566
220	0xbd13c7c3	-0.03607918
221	0x3c048d14	0.008090276
222	0x3d46b86d	0.048515726
223	0x39e69935	0.00043983167
224	0xbc8ae491	-0.016954692
225	0xbc1f1224	-0.009708915
226	0xbd0f4ae3	-0.034983527
227	0x3cda53fc	0.026651375
228	0xbc8ace9a	-0.016944218
229	0x3b69a1b8	0.003564937
230	0x3be30ffd	0.006929396
231	0xb992a61b	-0.00027971048
232	0x3c51e170	0.012810096
233	0x3c86dbbd	0.016462201
234	0xbcca1713	-0.024669206
235	0xbc152b43	-0.009104553
236	0x3c914a3f	0.017735599
237	0xbc29ff7a	-0.010375852
238	0xbcdcccf9	-0.026953207
239	0x3cdb7dc5	0.02679337
240	0xbb96b08d	-0.004598683
241	0x3ba3bff7	0.004997249
242	0x3b3b68ce	0.0028596404
243	0x3b4c909b	0.0031214121
244	0xbd04282d	-0.032264877
245	0x3cc6c33e	0.02426302
246	0xbb9481b1	-0.004532062
247	0xbc901015	-0.017585794
248	0x38980366	7.248558e-05
249	0x3b811c92	0.0039401734
250	0x3c89f913	0.0168424
251	0x3d045127	0.032303955
252	0x3c431848	0.011907645
253	0x3c31a187	0.010841734
254	0x3c14435e	0.009049265
255	0xbc2d1bf5	-0.0105657475

decode.4.weight f4 [1, 100]
0	0x381a8610	3.6841317e-05
1	0x39b38c42	0.0003424604
2	0xb91ceb0b	-0.0001496488
3	0x39afb266	0.00033511518
4	0xbce96f32	-0.028495405
5	0xba3bfe28	-0.0007171356
6	0xbad7e2f8	-0.001647084
7	0x3ae0006d	0.0017089971
8	0x3a29c16b	0.000647566
9	0x39d28e5d	0.0004016039
10	0xba7dcc52	-0.000968163
11	0xba4e2dac	-0.0007865082
12	0x3ac1ba1f	0.00147802
13	0xb9853d2e	-0.0002541332
14	0xbcd90b1b	-0.026494553
15	0x3a8c10f5	0.0010686206
16	0xbce7f52a	-0.028315146
17	0x39ae62de	0.00033261528
18	0xb912eccc	-0.00014011859
19	0x39d8b969	0.00041336872
20	0xba970589	-0.0011522035
21	0x39fbc33d	0.00048019915
22	0xba1a5a47	-0.0005888086
23	0x3d10e598	0.035375208
24	0x39efdf70	0.00045752106
25	0x3a3a79b8	0.00071134744
26	0x3ca8e1a7	0.020615412
27	0x3ad13e3a	0.001596398
28	0x3a498893	0.00076878926
29	0x3a4d4219	0.0007829979
30	0x388cfdc4	6.722988e-05
31	0xb9de2522	-0.00042370806
32	0x3d132d51	0.03593189
33	0x3a5ddd5f	0.0008463468
34	0x39b416fa	0.00034349394
35	0xbd0c69e4	-0.034280673
36	0xbcf7c2f4	-0.030244328
37	0x39eda8ac	0.00045329833
38	0xba5dec42	-0.0008465686
39	0xb9a7d06a	-0.00032008003
40	0x38d014ab	9.9220626e-05
41	0x3a817551	0.0009876882
42	0x3a20d007	0.0006134514
43	0x3a7d65c1	0.00096663466
44	0xba68ab11	-0.00088755885
45	0x3a2edf3d	0.00066708383
46	0xb9e458a3	-0.00043553588
47	0xba7b873e	-0.0009595043
48	0xb9b65e11	-0.0003478383
49	0x39e8540e	0.00044313114
50	0x3d4b4f0a	0.049635924
51	0xb9ba64e4	-0.00035551854
52	0xb8f73c95	-0.00011789162
53	0x39e853db	0.00044312965
54	0x3a19c4be	0.00058658037
55	0x389cdf58	7.480261e-05
56	0x3aa58a67	0.0012629748
57	0x39d7db21	0.0004117126
58	0xba8d3d83	-0.0010775778
59	0x3d0bdf8c	0.034148738
60	0xbcc37891	-0.023861201
61	0xb97af060	-0.00023931405
62	0xb9257ede	-0.00015782888
63	0xba60bfbd	-0.0008573493
64	0xb92aba93	-0.00016281968
65	0x38eef5d0	0.000113945105
66	0x38027bfa	3.1109877e-05
67	0x3a245022	0.0006268044
68	0xb9b2886d	-0.0003405245
69	0x38f28eae	0.000115660354
70	0x39c39909	0.00037307318
71	0x38e6859f	0.000109921435
72	0xb9831954	-0.00025005138
73	0x3a4ac632	0.0007735222
74	0xbabb4475	-0.001428737
75	0x3d26f27f	0.040758606
76	0xbaa41531	-0.0012518523
77	0xba7b1bbd	-0.00095790235
78	0xba78a8fc	-0.000948563
79	0x3a0eee3b	0.0005452369
80	0xbabcbd40	-0.0014399663
81	0xb87cd36c	-6.0278384e-05
82	0x3acf542e	0.0015817934
83	0xb92c1c45	-0.0001641373
84	0x3a1fe5c4	0.00060996064
85	0xbcd87d85	-0.02642704
86	0x3ca91d63	0.020643895
87	0xbae0f8ef	-0.0017164032
88	0xb90ce19b	-0.00013435485
89	0x38235f26	3.8950842e-05
90	0x3aef773a	0.0018269785
91	0xbca2d69c	-0.019877724
92	0x3aa81cef	0.0012826006
93	0xba8fa2c2	-0.001095854
94	0x3885385e	6.3524334e-05
95	0x3a83b6cc	0.0010048985
96	0x3972b686	0.00023146914
97	0xba7f48c6	-0.0009738322
98	0x3a33523a	0.0006840561
99	0x381e9190	3.78057e-05
