Quantum/2 qubit/2 dim/models/5_latent.pt (torch, 113127 bytes, 6 tensors)

encode.0.weight f4 [100, 30]
000000 70 b7 df bb 90 da 05 be 78 44 5b 3c 9d 0d 86 b9
       -0.0068272874 -0.13071656 0.013383023 -0.00025568614
000010 1a 31 68 bd db 48 31 3e 63 ea 16 3d 27 1a 07 3d
       -0.056687452 0.17312948 0.036844622 0.032983925
000020 56 59 91 3d 0e ba 30 3e 24 b6 b6 bd 7c 17 12 be
       0.070971176 0.17258474 -0.08921459 -0.14266771
000030 c1 11 ab 3d 3b 7f 0b 3e 2d 68 8a bd f4 1a f5 bb
       0.08352996 0.13622753 -0.06758151 -0.0074800197
000040 82 19 5e be e0 49 03 be 37 8b be 3d 87 1d 34 3d
       -0.21689418 -0.1282115 0.09303897 0.043973472
000050 fb 25 c8 bd ed 79 0e 3d 37 f7 a8 3d 62 2a f6 3c
       -0.09772869 0.034784246 0.082502775 0.030049507
000060 89 d3 70 3d a9 85 1d bd 97 fd d1 3d a8 90 94 bd
       0.058795486 -0.038457546 0.102534465 -0.072541535
000070 09 62 f7 bc 3b 19 80 bd ef 14 04 3e 7a 5c b1 bd
       -0.030198114 -0.06254812 0.1289861 -0.08660217
000080 e9 8a b7 bd f3 9d 0e 3e da c7 f6 bd 8f 81 53 bd
       -0.08962042 0.1392744 -0.120498374 -0.05163723
000090 94 d2 ea 3d 84 b5 30 be 29 ad 2e 3e f9 26 08 3d
       0.11465946 -0.17256743 0.17058243 0.033240292
0000a0 4a 92 ef 3d fa 47 14 be 56 37 34 3d 7a ce 0d be
       0.11697824 -0.14480582 0.043998085 -0.13848296
0000b0 56 90 6d 3d 99 2e 04 be 8f 29 10 be 88 f0 2b 3e
       0.057998978 -0.129084 -0.14078353 0.16790974
0000c0 4c 09 d3 bd dc 39 b7 ba 60 a0 be 3d 46 17 08 3e
       -0.103045076 -0.0013979035 0.09307933 0.13290128
0000d0 02 cd dc bc 34 3e 22 be 74 58 03 be a8 d8 17 be
       -0.026953224 -0.15844041 -0.12826711 -0.14828742
0000e0 88 ff 51 3d a6 cd 17 3e 94 b8 1a 3e 18 63 d5 3d
       0.051269084 0.14824542 0.15109473 0.10419291
0000f0 c0 22 17 3c a6 30 15 3e 7e 92 4f bd 80 2a 08 be
       0.009224594 0.14569339 -0.050676815 -0.13297462
000100 b1 b4 d3 3a 54 76 21 be 7f 89 0c be 8c 0c b4 bc
       0.0016151873 -0.15767795 -0.13724326 -0.021978639
000110 5b d6 5f bc 9f cd 8a 3c 64 6c 1b 3e 7a 84 13 be
       -0.013661946 0.01694375 0.15178066 -0.14406005
000120 34 2b b1 ba b9 b1 28 3d 5b ef 91 bd 15 3b 0f 3e
       -0.0013516904 0.041185115 -0.071257316 0.13987382
000130 b3 39 1f be 55 5d db 3d 55 aa 1a 3e 23 f7 66 3c
       -0.15549354 0.10711161 0.15104039 0.014097008
000140 d4 77 a6 bd 01 84 17 3d 80 11 a4 3d 1f 83 1b bc
       -0.08128324 0.036991123 0.0801115 -0.009491711
000150 bd 8f 9d 3d 64 f8 17 3e 85 ff 01 be dd 87 42 bd
       0.076934315 0.14840847 -0.12695129 -0.04749285
000160 19 fc f7 bc c5 98 55 3d 2b 97 96 3d e2 46 83 bf
       -0.030271577 0.052147646 0.07353052 -1.0256007
000170 59 b8 d7 be 62 33 28 bc e5 4a 85 bf a6 cb 86 bf
       -0.42132834 -0.010266157 -1.0413481 -1.0530899
000180 14 0c e7 3b 77 a6 14 3d 8e e3 7f be df 63 6d bd
       0.0070510004 0.036291566 -0.24989149 -0.057956573
000190 af 4b a2 3e 0f 19 92 3e e9 e8 f2 3e fa ae 05 bf
       0.31698367 0.28534743 0.4744332 -0.5222012
0001a0 e1 98 ac 3e dc c4 c8 3e ce 93 c6 3e c0 17 81 bf
       0.33710387 0.39212692 0.3878464 -1.0085373
0001b0 dd c8 86 3e a0 18 d9 be 75 be 75 bf 04 7c b2 be
       0.26325122 -0.424016 -0.9599374 -0.3486024
0001c0 ec 5c 94 3e 31 bc 86 be 76 fd 6e 3e f9 f2 4a be
       0.28977144 -0.26315454 0.23338875 -0.19819249
0001d0 57 2a 0c 3f be a0 a2 3d f0 9a ed bd 4a 85 7a 3e
       0.54752105 0.079408154 -0.116018176 0.24464908
0001e0 f5 43 19 be c1 6b 90 be 0a ed 34 bf 27 ef 07 3e
       -0.1496733 -0.2820721 -0.7067419 0.13274823
0001f0 ce 51 fe be 2e 6b 3a be 1b 80 b7 bd 2c 90 9a be
       -0.49671787 -0.18204948 -0.08959981 -0.3018812
000200 06 63 0d 3d db cd 05 bf 43 32 02 be 2e c6 f7 bd
       0.034518264 -0.52267236 -0.12714486 -0.12098347
000210 92 54 53 bd 85 cf b4 3d cd 2e e0 bb e1 aa 82 3e
       -0.051594324 0.08828644 -0.0068415166 0.25520995
000220 87 3c 5c 3e 9f b8 f9 be c3 35 87 3e 0b 92 d6 bc
       0.21507464 -0.48773667 0.26408204 -0.026192686
000230 3e 0a 8d be 7e 5b 30 bf 8e bc c1 3d 3f 9e 63 3d
       -0.27546877 -0.68889606 0.09459792 0.055570837
000240 95 47 84 3e 81 e5 84 3e 07 42 03 be 5e c2 98 3e
       0.25835863 0.25956348 -0.12818156 0.2983579
000250 e4 c8 26 3e ee 31 37 3e e4 c7 73 3c 19 ad 84 3d
       0.16287571 0.1789014 0.014879201 0.06478328
000260 a5 07 35 be 64 a7 b9 3d 1f 4d c6 3d 0c af b6 3d
       -0.17678697 0.0906513 0.096826784 0.08920106
000270 bd 68 89 bb 18 9e ac bd b1 6f 39 be da d1 2f 3e
       -0.004193394 -0.084285915 -0.18109013 0.17169896
000280 ac 58 2f be 7c 80 5e 3d 08 f4 33 3d aa db 49 be
       -0.1712367 0.05432175 0.0439339 -0.19712701
000290 d2 71 22 be 67 4e 63 3d 95 4a 00 be 16 1b b0 3d
       -0.15863732 0.055494692 -0.12528451 0.08598916
0002a0 c4 e7 7a 3d 18 35 16 3e 44 f2 9b bd 08 91 10 bd
       0.061256185 0.14668691 -0.07614568 -0.035294563
0002b0 c6 46 c7 3d 17 7f 8e 3d f0 d4 63 3c 63 cc f4 bd
       0.09730296 0.06957834 0.013905749 -0.11953046
0002c0 0c d3 2d 3e 3b ee 78 3d c8 b2 f5 bb 67 03 14 bd
       0.16975039 0.06077407 -0.007498119 -0.036136057
0002d0 71 57 b3 3d e3 af 10 3d f4 8e ee bb 12 74 29 3e
       0.087569125 0.03532399 -0.007280225 0.16548184
0002e0 11 70 44 be bb 88 bd bd 85 11 04 3e 74 b1 95 3d
       -0.19183375 -0.09254595 0.12897308 0.07309237
0002f0 b1 b8 f3 38 79 1a a9 3d f4 92 e9 3d 69 35 b3 ba
       0.000116215444 0.082570024 0.11404982 -0.0013672534
000300 78 cd 5e bd 03 17 1b 3d 24 9d 3b 39 52 13 cf 3d
       -0.05439517 0.037863743 0.00017892249 0.10111107
000310 36 16 e0 bd 40 1a 99 3d 3a 50 aa bd be 53 df 3c
       -0.109417364 0.0747571 -0.08316083 0.027261611
000320 6a 6c 25 bc 18 5a 1b bd 4e 71 83 3d d7 ec 0c 3d
       -0.010096649 -0.037927717 0.064180955 0.034405556
000330 ee d7 ff bd a7 32 e2 bd 95 09 40 be 07 ca 19 3e
       -0.12492357 -0.110448174 -0.18753655 0.15018474
000340 e8 39 05 bd 98 b7 07 be e2 08 e7 3e 1c 20 da bd
       -0.032525927 -0.13253629 0.45123965 -0.106506556
000350 21 14 5d 3e 1d b1 68 be c8 81 80 3e ad 7c 06 be
       0.2158971 -0.22723813 0.25099015 -0.13133498
000360 00 87 ff bd ba d8 66 3e ce 5b 7d be dd fe 09 3f
       -0.12476921 0.22543612 -0.24742052 0.53904516
000370 9d b3 f5 3e d6 eb cd 3e 44 80 9b 3d 14 e6 c7 3b
       0.47988597 0.4021899 0.07592824 0.0061004255
000380 b9 ad b6 3e c7 48 49 3d f5 8b 7c 3e 23 29 c0 3c
       0.35679415 0.04914167 0.24662764 0.023457116
000390 18 ac a5 bd 04 00 86 be 83 58 c3 bd fb 2a df 3e
       -0.08089465 -0.26171887 -0.09538367 0.4358748
0003a0 a4 ee 22 3e 7b 4f 8a be 3c cf 26 3e 79 57 85 3c
       0.15911347 -0.27013764 0.16289991 0.016277062
0003b0 06 b2 15 3e 82 a1 82 bd 67 37 69 be 99 28 d8 3d
       0.14618692 -0.063784614 -0.2277504 0.105546184
0003c0 9b e4 8a 3d d5 5a a1 bd 46 49 c8 be d2 f2 85 3e
       0.06781884 -0.07878653 -0.39118403 0.2616182
0003d0 61 24 f1 be b0 f3 7b be 23 02 31 3e 93 22 fe bc
       -0.47098067 -0.24604678 0.17285971 -0.031022346
0003e0 08 f8 ab 3e 5b 79 e8 bd e0 76 f0 3d ea 65 ff 3d
       0.3358767 -0.11351272 0.117414236 0.124706104
0003f0 6d 15 f9 3e fb 36 30 bd 76 06 6b 3e 38 2e f1 3e
       0.4864916 -0.043021183 0.22951683 0.47105575

encode.2.weight f4 [100, 100]
000000 7c d8 4b ba 2b fa 01 3c b9 73 8c 3c 0b 4d 0c 3c
       -0.0007776094 0.00793318 0.017145025 0.00856329
000010 79 65 00 bd 27 8d fe 3b 24 84 d5 bb f1 62 21 3c
       -0.031346772 0.0077682915 -0.0065159965 0.00985025
000020 80 f0 94 3d 55 49 c1 3b 08 df de bc d7 35 8a bc
       0.07272434 0.0058986344 -0.027205959 -0.016871376
000030 14 90 09 3b e6 a3 69 bc 0a 32 b5 3b c8 f9 3c bd
       0.0020990418 -0.014260268 0.0055296468 -0.046136647
000040 4f c1 e1 3b 10 22 85 3c 0e 69 2c 3c ae 6a 06 3d
       0.0068894993 0.016251594 0.010523094 0.03281658
000050 cf fe 12 bd f6 07 aa bc 98 d5 26 bc 5d 45 83 bc
       -0.035887536 -0.02075575 -0.010182761 -0.016024286
000060 c5 49 c2 bc 34 fc 1f bc a6 d9 c2 3b 53 f3 9d 3a
       -0.023716817 -0.00976472 0.005946356 0.0012050666
000070 e1 e1 25 3b b3 d3 12 3b 43 64 ce bc 78 9f 85 bc
       0.0025311636 0.0022404015 -0.025194293 -0.016311392
000080 4d 24 11 3d 22 a8 10 3c d9 e9 00 3c 5e e1 ec b9
       0.03543501 0.0088291485 0.007868254 -0.0004518134
000090 c3 04 b3 bc 32 54 ac 3c ef 2f f8 bb c5 9c 8d 3c
       -0.021852857 0.021036241 -0.0075740735 0.017286668
0000a0 1c 4d c7 3b 36 41 54 3b 21 c2 1a 3b 1b 24 f9 3b
       0.00608219 0.0032387502 0.0023614245 0.007603181
0000b0 f6 2b 4e 3c 28 19 9e bc 0c 65 ee 3b 62 c0 9a 3c
       0.012583723 -0.019299105 0.0072752293 0.018890563
0000c0 fa 29 a9 3c 5c 5c fb bc e1 01 c1 bb 34 e6 b9 3c
       0.020649899 -0.030683689 -0.0058901166 0.022692777
0000d0 aa 96 80 bc 2d 45 1a bc 98 9b 68 3d 15 76 1a 3c
       -0.015696842 -0.009415907 0.05678901 0.009427567
0000e0 8c 64 6a bb 3f 78 a9 3c 95 8a 16 3c ea ce 66 3c
       -0.0035765497 0.02068722 0.009188314 0.014087418
0000f0 6d 79 83 3a f6 92 a9 3c f0 2d 7a bd be 5b 10 bb
       0.0010030695 0.02069996 -0.061078966 -0.002202734
000100 7e e6 f8 3c 28 9f 82 3c 7e 38 07 3c 64 6e bf 3b
       0.030383345 0.015945032 0.008253215 0.005842017
000110 e1 d6 14 3d 47 83 90 3c ec 20 ad bc c8 85 15 bc
       0.036337737 0.017640723 -0.021133862 -0.009126134
000120 c5 14 95 bc 4b 38 9d 3c 1f 5b b4 3c 42 b0 46 3c
       -0.01819838 0.019191882 0.022016106 0.012126984
000130 3b 9a 97 bc 03 ac 87 bc 3d d5 a4 bc 22 ad 9c bc
       -0.01850616 -0.016561514 -0.020121211 -0.019125525
000140 76 ce cd bc 89 62 cd bc a8 bf c6 3b 96 88 48 bc
       -0.025122862 -0.0250714 0.0060653277 -0.012239596
000150 35 bb 0b 3d bd bc 1c bc 40 8e 18 bb eb 31 b9 3b
       0.03411408 -0.009566483 -0.0023278147 0.0056517026
000160 04 63 51 ba 2f e4 79 3b e6 01 2c bd 11 90 c3 bc
       -0.0007987472 0.0038130393 -0.041993998 -0.023872407
000170 2b 26 20 bb 61 91 ce 3c f4 ae d4 3d f9 1d fb 3c
       -0.0024436812 0.025215806 0.10384932 0.03065394
000180 9f 00 09 bc 2c 39 c1 3b d9 1e a7 bc 73 5a 55 3d
       -0.0083619645 0.005896708 -0.020400451 0.052088212
000190 20 6d b4 bc 66 a9 d0 bc 88 9e 65 3c c9 48 4b bc
       -0.022024691 -0.0254714 0.014014848 -0.01240749
0001a0 b9 3b 7b 3d 0b b9 f8 3a b0 a9 17 bd ef fc 9d 3b
       0.061336253 0.0018976046 -0.03702706 0.004821412
0001b0 44 0f b5 bd e4 a7 1c bb 17 5e 49 bb 3d f6 b8 bc
       -0.08840802 -0.0023903782 -0.0030726248 -0.022578353
0001c0 e1 7e 21 bc df 5a 99 3c a5 46 c0 bc cb dc d6 3b
       -0.00985691 0.018720089 -0.023471186 0.0065570823
0001d0 3d 32 ad 3c 66 e0 68 3b 26 d8 6f 3c 0c ac 81 bc
       0.02114212 0.0035534143 0.014638936 -0.015829109
0001e0 3d 59 29 bb 1c 1b b4 3d a5 2f 91 3c ba 20 71 bc
       -0.0025840544 0.08794233 0.017722914 -0.014717275
0001f0 0f 53 a0 3d 04 5a 3c 3c 22 81 ac 3c 75 b9 8d 3b
       0.07828342 0.011496071 0.02105767 0.0043250867
000200 69 6f 5f bd 37 4a 21 bb 94 74 33 bc ff a3 81 3c
       -0.05454961 -0.0024610886 -0.010953087 0.01582527
000210 3e b5 a3 3c 41 45 12 bc e1 55 57 bb a3 c2 34 bb
       0.019983884 -0.008927644 -0.0032857584 -0.0027581833
000220 00 5f 66 bc d8 2e 08 3d b9 53 e6 bc 6f b2 e1 3c
       -0.014060736 0.0332478 -0.028116094 0.027550904
000230 d6 a8 f9 bc 19 a9 49 bc 0a b9 65 bc 47 66 f1 38
       -0.030476015 -0.012308382 -0.0140211675 0.00011510826
000240 16 30 7a 3b 8a 80 79 3c 9e 81 96 bc 0b 1e 87 bc
       0.0038175634 0.0152284 -0.018372353 -0.016493818
000250 76 26 51 3c 0d 32 72 3c 6b 67 ed 3c ab 94 fa 3c
       0.012765517 0.014782441 0.028979978 0.030588469
000260 9a 54 58 bc d0 f6 e3 bc 94 d9 02 3b 20 4b 83 bc
       -0.013203764 -0.02782765 0.0019966112 -0.016027033
000270 ac 7b 15 bc db da d1 bc 78 31 21 3d b6 4e 62 3b
       -0.009123724 -0.025617054 0.039353818 0.0034531779
000280 e5 b4 84 3b 41 38 07 3c 2d c2 5a 3b 3f cc 39 3d
       0.0040498846 0.008253158 0.0033379898 0.0453608
000290 9b b9 e2 3d 90 76 f0 3c 10 33 ab 3c 08 29 11 3a
       0.11070558 0.02935341 0.020898372 0.0005537425
0002a0 3a 86 54 bc 5f 1f 2c bb 01 e9 ff 3a 52 6c 4e 3c
       -0.012971455 -0.0026263816 0.0019524397 0.012599068
0002b0 b2 24 2d bc 56 b7 44 3c db 5d 8d 3c 17 93 22 bd
       -0.010567831 0.012006601 0.017256668 -0.039691057
0002c0 7f 9e dd 3b 65 06 d4 bc be d9 87 bb d9 43 5a bc
       0.006763279 -0.025881955 -0.00414583 -0.01332184
0002d0 0a 98 26 3d 4b 22 68 bc 89 e5 10 bd 2f c8 6a bc
       0.04067234 -0.014168332 -0.03537515 -0.014329954
0002e0 a8 eb bc bc 42 af 12 bd 18 72 0c 3d d1 98 d1 3c
       -0.023061588 -0.03581167 0.034288496 0.025585564
0002f0 7a bf 81 bc e1 73 23 bc 06 3d ef 3c 88 97 ea 3b
       -0.015838373 -0.009976358 0.029203903 0.007159177
000300 07 b0 3e 3c ff eb c6 bb 8b 4a 79 bd a5 3b 8a 3c
       0.011638648 -0.0060706134 -0.060862105 0.016874144
000310 99 f6 9f bc ef 86 fa bb ce be b3 bc e4 e0 bf bd
       -0.019526767 -0.00764548 -0.021941569 -0.09369066
000320 c5 2c 2b bc 24 ee f9 3b 80 13 55 3c dd 31 b2 bb
       -0.010447686 0.0076272655 0.013005137 -0.005438073
000330 97 15 5e bd 0b c5 ac 38 f3 e7 18 bb be ef 3c 3b
       -0.05421981 8.238301e-05 -0.0023331612 0.002882942
000340 a8 9d fe 3c db 5b 9e 3c 09 b9 29 3b 0a ae b2 bb
       0.031081036 0.01933091 0.0025897643 -0.005452876
000350 e4 bb 41 bd f6 23 07 3c 63 7c c2 3b 04 6a e6 ba
       -0.047298327 0.00824832 0.005935238 -0.0017579203
000360 d4 11 10 bc 42 a8 fe 3a cd ae e7 3c 24 46 cd bb
       -0.008793313 0.0019428807 0.028281594 -0.006264465
000370 0c 78 7e bc ea de 74 bd 11 c4 88 3b 93 94 f2 3c
       -0.015531551 -0.0597829 0.0041737636 0.029611861
000380 0d 8a ca 3b d4 10 09 bd 7e 38 b6 3b e7 e4 4a 3d
       0.0061810077 -0.033463314 0.0055609336 0.049534705
000390 7b 28 c5 bc a9 e0 61 bb 4b f5 25 3c 5c cf 5b bc
       -0.024067154 -0.0034466183 0.010129283 -0.013416138
0003a0 e7 21 df 3c 21 5c 43 3b 71 42 5b bc c9 12 59 bc
       0.027237846 0.0029809552 -0.01338254 -0.013249108
0003b0 02 ff 22 3b 71 9d e5 3c 52 12 15 bc 19 ab 01 3a
       0.0024871235 0.028029175 -0.009098606 0.0004946455
0003c0 71 5c a3 3b b1 d8 02 3d 2f 56 02 3c b2 28 c4 3c
       0.004985385 0.031944934 0.007955118 0.023945186
0003d0 b4 06 51 bc 04 9f 37 ba a7 f1 dd 3d 1a 36 5b 3c
       -0.012757946 -0.0007004591 0.10837107 0.013379598
0003e0 04 37 ac bc da 9f 90 3c 53 12 e6 3b 00 a2 80 3b
       -0.021022327 0.017654348 0.0070212274 0.003925562
0003f0 46 5b d6 bc 5d b5 be b9 36 1c ac 3c 73 17 41 ba
       -0.02616657 -0.0003637475 0.021009546 -0.000736586

encode.4.weight f4 [10, 100]
000000 05 67 80 3a b0 0e 3e 38 bd 10 3c 3a 32 5d a8 3e
       0.0009796327 4.531321e-05 0.0007174125 0.32883602
000010 cc 1f 73 38 76 3d 70 ba bd 45 0f 3a 1a ab 9c ba
       5.7965328e-05 -0.0009164432 0.0005465409 -0.0011952848
000020 83 d0 aa b9 81 39 91 b9 3a d6 1e b9 80 2b df 39
       -0.0003258028 -0.000276994 -0.0001514786 0.00042566285
000030 d6 6d 21 ba ba cc f0 3a 5b cd 1f 3a 95 c0 85 3e
       -0.00061580294 0.001837156 0.0006095969 0.2612349
000040 3f 6e 01 b9 92 8b 67 39 1d df ea 38 68 63 5a 3b
       -0.00012343469 0.0002208187 0.000111995476 0.003332341
000050 22 85 92 b9 31 33 3f 3a 64 93 25 39 93 5d 18 bd
       -0.00027946482 0.00072937 0.00015790534 -0.037198614
000060 8b 8d db b9 46 3d 2f bd e8 58 c4 39 41 0b 3e 3a
       -0.00041876393 -0.042783044 0.00037450274 0.0007249602
000070 28 7e 81 3a 41 c0 c3 b9 14 3a 02 3a 00 c9 74 39
       0.0009879516 -0.0003733654 0.0004967761 0.00023344532
000080 4a d5 79 ba 72 ad de b9 e5 50 c7 39 b6 28 ac 38
       -0.0009530379 -0.00042472366 0.0003801651 8.209182e-05
000090 2d 6e 13 3a 8a de 3e b9 8f b5 4a 3e e6 1c 34 b8
       0.00056240225 -0.00018202714 0.19795822 -4.2942258e-05
0000a0 2e 1d 92 39 12 44 70 3e c4 48 af 3a 3a 40 21 39
       0.0002786903 0.23463467 0.0013373126 0.00015378083
0000b0 5a ae 75 ba 3e a7 88 39 c8 9c 31 3e 90 5f ce b7
       -0.00093719887 0.00026064547 0.17344964 -2.4601613e-05
0000c0 86 57 e5 be 35 04 93 ba 05 6d d6 3d d3 82 40 ba
       -0.44793338 -0.0011216464 0.104700126 -0.0007343713
0000d0 2e 0b f0 ba 65 87 55 3a f2 e1 38 bb 5e db 30 ba
       -0.0018313879 0.00081454805 -0.0028210846 -0.00067465554
0000e0 7a 9c 1c 3e db 6b a2 39 b8 ca a8 be 07 d0 a9 3a
       0.15294066 0.00030979406 -0.32967162 0.0012955674
0000f0 b9 1f 5a 39 92 00 94 39 f6 9e 19 b9 41 99 36 39
       0.00020801918 0.00028229185 -0.00014650435 0.00017413964
000100 2c 0c 02 b8 ee ed 87 b9 c6 99 19 ba 19 fd cc 3e
       -3.100575e-05 -0.00025926478 -0.0005859401 0.40036848
000110 9c 17 ca b9 43 ec 51 ba b3 f2 4b 3a 53 d4 4b 3a
       -0.00038546033 -0.0008007923 0.00077800005 0.0007775474
000120 98 2a ba b9 30 04 39 3e 82 e4 84 39 9f 7a c2 3a
       -0.0003550842 0.18068004 0.00025347254 0.0014837569
000130 41 30 f6 b9 be fb b5 b9 50 24 f4 bd 4e a2 ea b8
       -0.00046956728 -0.00034710573 -0.119209886 -0.00011188221
000140 a1 14 d6 b9 16 98 c4 b9 eb 55 b2 b9 b9 1b f8 3d
       -0.0004083263 -0.00037497346 -0.0003401482 0.12114663
000150 c1 ee 30 ba 20 4b 76 3a 76 e5 00 39 14 45 07 39
       -0.00067494443 0.000939535 0.00012292512 0.00012900337
000160 a0 aa 81 3d 2a 35 5e ba 07 5e 85 39 09 3e 5b bd
       0.06331372 -0.000847655 0.00025437793 -0.05352596
000170 dd ee d3 3d 24 1a af b9 9d dc 35 be 8c bd 4c 3a
       0.10348294 -0.00033398077 -0.17759939 0.0007810227
000180 d2 c2 5b be 8a 04 b5 39 d4 6a 99 ba 0c 5a a0 38
       -0.21461037 0.00034526392 -0.0011704811 7.646167e-05
000190 6b 19 00 3c 8c 3e c9 3b bf 33 19 39 08 ab 1f be
       0.00781856 0.0061414894 0.00014610494 -0.15592587
0001a0 74 59 dd 3b fb 28 1a bc 6d 00 64 bb b9 61 ff ba
       0.0067550484 -0.009409185 -0.0034790293 -0.001948408
0001b0 c0 1a 76 bb 69 e8 f5 ba 4c 3b 85 bb 06 12 5a ba
       -0.0037552565 -0.001876128 -0.0040659066 -0.0008318726
0001c0 38 96 18 bc dc 15 8a bb 8d 61 ef 3b 37 8f 7a 3b
       -0.009313159 -0.0042140316 0.00730533 0.0038232335
0001d0 f6 2d 22 bb d1 ad 73 3b 88 31 32 ba 51 b8 3f bb
       -0.0024746633 0.003718246 -0.0006797542 -0.0029254148
0001e0 a7 54 f6 b9 f7 f1 dd ba cf f4 79 ba 36 7d b4 3c
       -0.00046983847 -0.0016933073 -0.00095350755 0.022032361
0001f0 4f 72 25 bc 7a 51 41 bc bf 23 dd 3b af c8 70 3b
       -0.010098054 -0.011799211 0.006748646 0.003674071
000200 9a c3 4a 3c 46 30 9f 3b cf 1b 26 bc 9b 89 60 3a
       0.012375737 0.0048580496 -0.010138466 0.00085654267
000210 32 d6 d1 bb eb f9 ad 3a fe d1 a3 3a e9 1b f7 39
       -0.006403708 0.0013273334 0.0012498496 0.00047132306
000220 81 d6 36 3c 4e 00 21 3b 7e 21 02 bc da 53 03 3b
       0.01115954 0.0024566832 -0.0079425555 0.0020038993
000230 3d 71 52 3c fd bd ca bc cf ea 47 3c 61 14 d4 b8
       0.012844381 -0.024748797 0.012201979 -0.000101127436
000240 8f aa 41 bb 11 40 34 3b 76 ee 83 3d c8 2c a3 bb
       -0.0029551124 0.0027504007 0.06441967 -0.0049797036
000250 42 1a 82 39 ad 39 d5 bb da 68 9f 3a 1e 2c 78 bb
       0.00024815096 -0.0065071196 0.0012161986 -0.0037868093
000260 a7 30 d7 3a 99 76 3d bb 5b bf 2b bb 2a 57 b0 bb
       0.0016417698 -0.00289098 -0.0026206586 -0.0053814845
000270 fd 3a 5e 3c ca a9 0f 3a d1 55 ca bb c9 e8 fc 3b
       0.013563869 0.00054803176 -0.006174781 0.00771818
000280 15 19 eb 3a d6 bf c7 bb 5d 65 7a b8 0d 0f b7 ba
       0.0017936552 -0.0060958667 -5.9699047e-05 -0.0013966277
000290 73 12 92 3b 30 65 73 ba dc cf 37 bc a8 70 3d 3b
       0.0044577657 -0.00092847925 -0.011218991 0.002890626
0002a0 38 09 9a 3b 04 c2 47 bb 81 07 60 3b 8a 19 37 3c
       0.004700806 -0.0030480633 0.003418416 0.011175523
0002b0 01 72 21 bb fc 61 a2 3b 23 ba f8 b9 68 ae ec 3b
       -0.0024634602 0.0049555283 -0.0004744093 0.0072229393
0002c0 61 83 99 bb 27 bb 90 3a 4e be c5 3b be f9 4f b9
       -0.004684851 0.0011042104 0.006034649 -0.00019834095
0002d0 30 6a 8d bb 1c f5 d0 3a d2 7b 1a 3c fc 35 c4 3d
       -0.004315637 0.0015942189 0.009428935 0.09580609
0002e0 72 df 9f 3b 21 f5 b0 3b be 82 28 bb 01 24 7a ba
       0.0048789317 0.0054003154 -0.0025712694 -0.0009542108
0002f0 ab 1a 17 bc 76 4b 28 bb 0f f3 fa ba 03 cf 47 3c
       -0.009222667 -0.0025679744 -0.0019145923 0.0121953515
000300 19 bf 89 3c df 42 a1 bb dc 0c 3f 3c 6f 31 72 bb
       0.016814755 -0.0049213017 0.011660781 -0.0036955734
000310 c2 e1 e1 3b 0d c8 2d 3b fd 62 5e bb 43 0b ed 3b
       0.0068933675 0.0026516945 -0.0033933513 0.0072340085
000320 7a 9c 3e bc bc 07 90 3c fd 1f ed bb a2 71 9c 3c
       -0.011633987 0.017581813 -0.0072364793 0.019097153
000330 28 d8 0d bc 05 77 21 3c e3 12 53 bc f2 1b b5 ba
       -0.008657493 0.009855037 -0.012882921 -0.0013817532
000340 af b8 7a 3b a7 20 39 3c 45 18 96 bc 52 49 0b 3c
       0.0038257053 0.011299289 -0.01832212 0.008501368
000350 3c a4 2e bc 1f 89 c3 3c 8c 14 82 3c 2d b3 6e 3a
       -0.010659274 0.023869095 0.015878938 0.0009105679
000360 14 f9 be 3b 73 98 92 ba 4a d9 12 bb 08 6b 61 bb
       0.0058280323 -0.001118435 -0.0022407346 -0.003439607
000370 2b bf ce 3b 61 f4 72 bc 7f 8e f8 3a 3d 3e 71 3c
       0.00630941 -0.014828772 0.0018963366 0.014724311
000380 34 60 c4 bb 25 34 8f bc b3 8d ad 3c 37 0e 02 3c
       -0.0059929136 -0.01748092 0.021185732 0.007937959
000390 73 1e 7b ba ca 77 5a 3c 55 8e 35 bb ea 77 ed 3b
       -0.00095794274 0.013334224 -0.0027703245 0.007246961
0003a0 de 35 43 bc 84 c5 f9 3b ab 18 1b bc 5a 3e c4 ba
       -0.011914698 0.0076224227 -0.0094663305 -0.0014972195
0003b0 13 81 2f ba 4c a4 b5 3b 5f 9c 45 bc 30 77 a6 ba
       -0.0006694954 0.0055432674 -0.012061208 -0.0012700316
0003c0 9e 4e e9 3a dd 8b 7b bd 75 64 f4 3b 3b 3b 42 3c
       0.0017799919 -0.06141268 0.0074582645 0.011854942
0003d0 9c 06 0c 3b fd d2 a5 3b 3c 3c bc bc 38 81 80 bb
       0.0021366244 0.005060552 -0.02297794 -0.003921654
0003e0 3f d4 7e bc 08 9b 4a 3a 87 dc 8a 3c f0 06 14 bb
       -0.015553533 0.000772879 0.016950859 -0.0022587143
0003f0 d1 5c 09 bc dd d8 18 ba 48 65 9e bb 7d 62 91 ba
       -0.008383946 -0.0005830655 -0.004833851 -0.0011091974

decode.0.weight f4 [100, 35]
000000 c6 63 59 3f 52 c4 48 bb 37 e4 16 3c f8 64 da bd
       0.8491787 -0.0030634594 0.009209684 -0.106637895
000010 b4 77 cf bd 59 9a 63 3c 9d 0f c6 be 5d f7 15 be
       -0.101302534 0.01389178 -0.38683787 -0.14645143
000020 16 4f 6a 3e 92 bd 04 3f 87 a7 e4 bd e2 6a 07 bf
       0.22881731 0.5185176 -0.11164766 -0.52897465
000030 d5 95 1c 3e 0c fe 42 3e 69 aa 89 3e 67 25 19 be
       0.15291531 0.19042224 0.26887825 -0.14955674
000040 fb 16 92 bc 9a 9c 99 bc a8 3a 4e 3e f2 69 17 3f
       -0.017833224 -0.018751431 0.20139563 0.59146035
000050 c1 6a 8f 3e 1f d9 60 3e 84 fa f4 3c 6a bc 5d 3d
       0.28011134 0.21957825 0.029904611 0.054134764
000060 35 be 24 bb 8d 4b f2 bd 4b ae 56 be 99 d9 f1 be
       -0.0025137786 -0.118308164 -0.20964925 -0.47236326
000070 10 b0 81 be b7 b2 2a bd 1f f6 b9 be fe 08 a2 be
       -0.25329638 -0.041674342 -0.36320588 -0.31647485
000080 9c 32 d6 be 81 2e 5a 3c 3f 08 f0 bd db 38 23 3b
       -0.41835487 0.013316751 -0.11720323 0.0024905715
000090 95 b9 49 3c 1f 12 a7 3a 79 4a 24 ba 33 0d cd b9
       0.012312313 0.0012746489 -0.0006267201 -0.0003911048
0000a0 15 d9 38 3c ee 84 28 bd 47 66 25 3e 4d 1a 91 3d
       0.011282225 -0.041142397 0.16152297 0.070850946
0000b0 fb 98 5d 3d 69 5d 7b bc 9e d1 6d bd 74 26 73 3d
       0.05410097 -0.015342095 -0.058061235 0.059362844
0000c0 5e 16 ea bc b4 75 91 3d 02 ba 23 3e 93 95 04 bd
       -0.028575119 0.07102528 0.15988925 -0.032369208
0000d0 06 8c 1a bd fc 60 6f bc ae f7 eb bc 53 91 1d bd
       -0.037731193 -0.014610525 -0.028804626 -0.03846867
0000e0 87 80 31 3d 20 0b 3d bd 0b c5 fe bd 1d 21 80 bc
       0.043335464 -0.046153188 -0.12439927 -0.01564079
0000f0 d5 90 4e bc 6b 9c ad 3d 8f 1d d3 3c 4c d8 27 bb
       -0.012607773 0.084771 0.02577093 -0.00256111
000100 c3 8a 75 bd f7 20 90 bc e6 a6 84 bd c6 32 13 3d
       -0.059946787 -0.017593844 -0.06477146 0.035937093
000110 0b 7d 8a bd e0 0f b1 bd d0 ac b3 bc 15 b3 93 3c
       -0.06762131 -0.08645606 -0.02193299 0.018029729
000120 49 32 5c 3c e7 ec 01 bd 5d 81 0c be a5 b8 0e be
       0.013439723 -0.03172007 -0.13721223 -0.13937624
000130 bb 0e ed be 70 98 08 be ac a7 8a bd cd eb d2 3e
       -0.463003 -0.133394 -0.06770262 0.41195527
000140 b6 73 01 be 53 0a e3 be f2 d1 eb 3e ea 18 91 3e
       -0.12641796 -0.44343814 0.46058613 0.2833932
000150 6e 80 35 bf b0 71 95 be b5 91 30 3e a4 d8 1b 3c
       -0.70899093 -0.291883 0.17243083 0.0095121
000160 a2 c9 e7 3e a2 d6 a1 3e 78 34 87 3e 51 f4 21 be
       0.4527102 0.31609064 0.26407218 -0.15815856
000170 61 d8 32 be 3a f4 ba be ed 23 15 3f b9 9e a5 3e
       -0.17465355 -0.36514455 0.58257943 0.32347658
000180 44 40 fc 3d c4 7b c0 3c b6 fe b1 be 3c 0a b2 3d
       0.12316945 0.023496516 -0.34764642 0.08693358
000190 9a 3d 3c bf 75 75 f5 bb 82 55 17 be 02 c2 c5 be
       -0.73531497 -0.0074908086 -0.14778712 -0.3862458
0001a0 8e 5a 88 3e 85 22 a7 ba cb d0 e8 bb c1 60 6b 39
       0.26631588 -0.0012751376 -0.007104968 0.0002244739
0001b0 f2 ba b1 3a f9 3b 58 38 ba 72 0f 3e 45 8e ea bd
       0.0013559742 5.1554267e-05 0.14008608 -0.11452917
0001c0 3e 20 0d 3d f8 d2 52 3c 71 6d 01 bc 2e 14 b5 3d
       0.034454577 0.012867682 -0.007899628 0.088417396
0001d0 24 98 35 3e b8 38 a3 bd 22 8a 8e bc 27 76 22 bd
       0.17733818 -0.079698026 -0.017399851 -0.03966346
0001e0 ed 87 69 bd 6a 48 6b 3c 8e 9b 49 3d e7 8d 2b 3d
       -0.057014395 0.014360527 0.049220614 0.041883375
0001f0 ec dc 80 3d 84 ca 0d bd 8f e6 bb bd 0b 7e 0c bd
       0.062921375 -0.034616962 -0.09174835 -0.03429989
000200 9a 22 43 3d e1 66 9b 3d 3e 79 7d 3d c3 76 09 3c
       0.04764042 0.07587982 0.061883204 0.008390131
000210 ee b5 1e bd 7e af bb bd 13 d3 fb bd 3d b4 ad 3c
       -0.03874772 -0.09164332 -0.122961186 0.021204108
000220 8d f4 31 bd 99 38 95 bd 9a 89 37 3d 86 a8 30 bc
       -0.043446112 -0.07286186 0.04480896 -0.010782367
000230 1e fb 50 b9 b5 aa cf ba d3 dd bc 3b a4 4c ce b8
       -0.00019929974 -0.0015843721 0.005763748 -9.837121e-05
000240 35 ad 39 ba cf d5 f3 3d 41 87 c0 bc aa 8e 03 3d
       -0.0007083 0.11906015 -0.023501994 0.032118477
000250 32 d8 e5 3d 92 c7 b4 3b 91 57 d6 bc ee ab 87 bd
       0.112228766 0.0055169547 -0.026164802 -0.0662459
000260 a6 be 3b be 84 d0 49 3d 8c 6c 08 bd e2 ce 5d 3d
       -0.18334445 0.04927112 -0.033306643 0.054152377
000270 62 24 ed 3d ba e8 68 bd 6b e0 40 3c 17 f8 85 bd
       0.11579205 -0.05686257 0.011772255 -0.0654146
000280 d4 75 cb 3c 0c b9 d0 bd 40 00 a5 3d 11 30 24 bd
       0.024836458 -0.10191545 0.08056688 -0.040084902
000290 01 42 66 3d b8 ec dc bc 2b 67 2c bc 25 f0 9e 3a
       0.05621529 -0.026968345 -0.010522644 0.0012126012
0002a0 b1 d3 67 bc ee fb 4f bd 11 ed a7 bd 3b 0a 3e bb
       -0.014149592 -0.05077737 -0.08199514 -0.0028997797
0002b0 22 50 18 bd ec c6 b8 3d 69 97 84 3d f9 f6 6a be
       -0.037185796 0.09022316 0.06474192 -0.22945775
0002c0 7f 5e d3 3b ff 99 9d ba 95 47 15 3e 5f 64 d1 3d
       0.006450474 -0.0012024044 0.14578088 0.102242224
0002d0 5c ce 7c 3e 11 8d 17 3f eb 0c de 3e 58 c8 38 bc
       0.24688095 0.59199625 0.4336923 -0.011278234
0002e0 53 37 e2 be d5 f1 d2 3e 90 48 f8 3e b6 76 55 3f
       -0.44182834 0.41200128 0.4849286 0.83384264
0002f0 c4 ba cb be 9b f0 be 3e 92 10 b3 3d 04 51 24 3f
       -0.39790928 0.37292942 0.08743395 0.6418612
000300 1a 38 ff be 62 db 3a bf db 0e 73 bf 88 05 ba be
       -0.4984749 -0.72991 -0.9494454 -0.36332345
000310 c3 40 8d bf c6 07 ad be ba 24 c6 3e 21 af 46 be
       -1.1035389 -0.33794993 0.38699895 -0.19402744
000320 e8 bc 8b 3e d6 60 e9 be 9e f2 a6 be 42 63 80 be
       0.27292562 -0.45581692 -0.32606977 -0.25075728
000330 84 bb 35 3f e1 6b 07 be da 95 a0 3e d3 c5 37 3e
       0.7098925 -0.13224746 0.31364328 0.17946558
000340 24 ca 92 be dc 24 38 bf ec cb 06 3b 80 55 27 3c
       -0.28669846 -0.7193124 0.0020568324 0.010213256
000350 6e e4 3e 3c 43 6c 20 bb 63 ba 0d bb 1b d2 73 3c
       0.011651142 -0.0024478592 -0.0021625988 0.014881636
000360 bc f3 b7 bd eb 10 75 bd 10 0d b4 3c e1 01 4d bc
       -0.089820355 -0.059830587 0.021978885 -0.012512655
000370 9c fb 0d bd e4 ea 4b bd fc e1 61 3d 8b cc b3 3a
       -0.03466378 -0.049784556 0.055147156 0.0013717575
000380 41 1e c9 bb 60 7a 89 3d 89 92 33 3d fd 33 87 3d
       -0.0061376397 0.06712794 0.04384092 0.06601713
000390 c8 20 ec bb 92 fc 80 bd 95 1f 77 3d e5 b4 d5 bd
       -0.0072060563 -0.06298174 0.060332853 -0.104348935
0003a0 bf 79 56 3c 69 bb 08 3d c5 c0 92 bd df 6c d7 bd
       0.01309055 0.033381853 -0.07165674 -0.105188124
0003b0 75 ef 48 bd 78 80 8d bc 64 a1 48 3c b9 2d f9 bd
       -0.04905649 -0.017273173 0.01224551 -0.12166924
0003c0 a2 9d 7a 3d 70 ef f5 3d fc d0 94 3d 55 10 08 bc
       0.061185487 0.1200856 0.07266423 -0.008304675
0003d0 f6 7c 08 3e d9 2d 9e ba 37 8f 72 bc 22 a1 92 bb
       0.13328919 -0.0012068107 -0.014804653 -0.004474775
0003e0 73 d4 2f 3b b5 38 bd 3a 92 79 cf 3b a7 70 9f bd
       0.002682951 0.0014436456 0.006331631 -0.077851586
0003f0 75 ef 02 bd a2 8b 3f bd c7 94 fc bd 99 07 d6 ba
       -0.031966645 -0.046764024 -0.123330645 -0.0016329169

decode.2.weight f4 [100, 100]
000000 cd d0 93 ba 07 1e 9e 3c d6 2e 0b 3d 6d b8 07 bc
       -0.0011277437 0.019301428 0.033980213 -0.008283717
000010 4a 47 ba 3c f5 c8 2a bc f8 cc 1e 3c 6b 78 23 bc
       0.022739071 -0.010423888 0.009692423 -0.00997744
000020 52 92 38 bc 5b 5f 93 bc c1 c8 cc bb a1 40 0d bb
       -0.011265354 -0.017989805 -0.0062495177 -0.0021553414
000030 37 4d ec bc 41 04 91 bc df 99 bf 3a cd 20 21 bc
       -0.028845413 -0.017702224 0.0014618001 -0.0098344805
000040 7a cb b9 3c 86 bf 58 3c 31 d7 c9 bb 66 a6 d1 3b
       0.022680033 0.0132292565 -0.006159686 0.00639801
000050 67 04 c9 bc cf 69 8f bc 70 fa ad 3c ba 51 9d 3b
       -0.024538232 -0.017506508 0.021237582 0.0048010023
000060 9b a3 8b bc 08 a2 0f bd ed c3 f0 3c 8d 05 4f 3c
       -0.017045787 -0.035066634 0.0293903 0.012635601
000070 bd 37 b9 3b 5b 19 c2 3c c9 5d 3b 3c fd 75 32 3d
       0.0056523965 0.023693731 0.011435934 0.043569554
000080 26 b8 53 bc cd 38 b6 3c 8f a9 29 3a ce 17 9b 3c
       -0.012922322 0.022243882 0.00064721046 0.01893225
000090 db 5b 01 bb ec 15 cb 39 6c 37 4b 3a 83 17 4c 3c
       -0.0019738588 0.0003873551 0.0007752094 0.0124567775
0000a0 ea 3a eb 3c d3 d9 f5 bc 5b 5d a5 bc 0a c3 1b bd
       0.028714616 -0.030011093 -0.020186117 -0.0380278
0000b0 fb 4e 25 bc a2 28 ba 3c b8 e6 da 3c d7 ef 13 bd
       -0.010089631 0.022724453 0.026721343 -0.0361174
0000c0 c3 4e 48 bc 2b 5f ae bc 87 fc 2b bc 23 bd 9c bb
       -0.0122258095 -0.021285614 -0.010497219 -0.004783289
0000d0 c7 ec 81 bc 5e 42 ef 3b 76 6c 2a 3d b9 52 9c 3b
       -0.015859975 0.0073016128 0.041607343 0.0047706035
0000e0 c6 39 75 3c d7 89 09 3c 9f 8c d1 bc d9 18 06 3c
       0.014967388 0.00839468 -0.025579749 0.008184635
0000f0 63 85 fd bc f1 db ea 3b ad 56 8d bc ab 89 58 3c
       -0.030947393 0.0071673323 -0.017253244 0.013216416
000100 f0 f0 6e 3d 02 7e 7a bb 78 75 a6 b9 a9 f7 f1 bc
       0.058335245 -0.003822208 -0.00031749508 -0.029537039
000110 31 94 44 3c 73 a4 48 bc 6a 4c bc bc 90 33 af 3c
       0.011998222 -0.012246239 -0.022985656 0.021386892
000120 c4 b0 56 bb 18 d9 25 3c 32 2b 93 bc b4 5f c8 ba
       -0.003275917 0.01012256 -0.017964933 -0.0015287311
000130 e8 84 40 bb 09 8d 15 3c 74 39 77 3c f3 0b 00 bd
       -0.0029376093 0.009127864 0.0150893815 -0.031261396
000140 6f aa fb bb f1 68 a3 ba 5c 06 4b 3c cf 2f 0f bc
       -0.0076802294 -0.0012467188 0.012391653 -0.008739426
000150 5b bf 9a bb 99 a2 c4 3c 35 31 49 bc d1 9f fe bc
       -0.0047225184 0.024003314 -0.012279798 -0.031082066
000160 de 0e b2 3c d3 c1 1e bc 95 25 86 3b 21 28 87 bc
       0.021735605 -0.009689766 0.0040938356 -0.016498627
000170 92 eb ff bb 9b 9a b1 bc 09 6e 8d bb 36 85 99 bb
       -0.0078100646 -0.021680167 -0.0043160957 -0.0046850694
000180 b6 ca f2 ba 58 04 e4 3c cf f7 ba 3c e5 bb 7c 3b
       -0.0018523547 0.027834103 0.022823242 0.0038564142
000190 ef 32 08 bb 7e 1b b7 3c c3 82 21 bc b1 dc f0 3c
       -0.0020782312 0.022351976 -0.009857836 0.029402109
0001a0 97 19 b2 3c ab 10 a4 bb 9a b5 a8 bb 20 1c ac bb
       0.021740718 -0.00500687 -0.0051486017 -0.005252376
0001b0 ca 78 c4 bc 2d 75 9b 3b 64 09 c5 bb 7d e1 d2 bc
       -0.023983378 0.004744193 -0.0060130823 -0.025742287
0001c0 82 3c ae 3c a0 99 2e 3c ba 1d 17 bd 4f 87 e0 bc
       0.021269087 0.010656744 -0.036893584 -0.02740827
0001d0 26 fd 2c 3b 66 55 39 bb 9d c9 ec 3c 8a 90 5d 3c
       0.0026396005 -0.0028279661 0.02890473 0.01352323
0001e0 61 5f 50 bb 23 00 d6 bc e4 e4 b9 3c 54 ca b6 bb
       -0.0031795132 -0.026123112 0.022692151 -0.0055783186
0001f0 08 20 94 3b 59 9a c1 3c a5 79 62 bb 53 ca bd ba
       0.00452042 0.023633169 -0.003455737 -0.0014479853
000200 2d c5 28 3c 47 39 fa bb e5 ab d8 bb d6 6e 8a 3c
       0.010300917 -0.0076362225 -0.0066122883 0.016898554
000210 4c 2c 05 3c 87 ca 57 bc c2 bb 66 bb 6c c0 9f bc
       0.008128237 -0.013170845 -0.0035207127 -0.019500934
000220 6b 4c 21 3c 02 b7 99 bc 32 6e ed b8 90 31 bb 3c
       0.00984488 -0.018764023 -0.00011321566 0.022850782
000230 38 ee eb bc 1b 93 11 3b ad 1f 76 bb 28 ba 09 3c
       -0.028800115 0.0022212926 -0.0037555501 0.0084061995
000240 43 f1 03 3c f8 52 16 bd b7 6e 5e bb 6c 84 a0 3c
       0.008053127 -0.03670022 -0.0033940503 0.019594394
000250 72 c0 86 bb 17 ff f9 bb 3c 45 97 bb 95 c5 29 bb
       -0.0041122967 -0.007629286 -0.0046164077 -0.0025905122
000260 7f d3 01 bc 66 74 1f 3b ea 44 21 bd 34 49 c5 bb
       -0.00792396 0.0024330853 -0.039372362 -0.0060206894
000270 94 25 4f 3c ce 16 46 3c bb 65 40 3d 2b 4b 88 bc
       0.012643237 0.012090398 0.046972018 -0.016637405
000280 52 d4 23 bb 01 d9 32 3c 10 46 84 3c ba 75 01 3a
       -0.002499838 0.010915996 0.01614669 0.0004938502
000290 a4 11 f8 3c 70 e4 70 bb 87 f8 08 bc 54 b6 ca 39
       0.03028185 -0.0036757253 -0.008360035 0.00038664287
0002a0 c0 a3 9e 3c 0e 67 7f 3c 62 2d 9d 3c 25 c2 9f 3c
       0.019365191 0.015588535 0.01918668 0.019501755
0002b0 be e1 e0 ba 1e 56 41 ba c1 7b a3 bc 10 3e 72 3c
       -0.001715712 -0.0007375198 -0.019956471 0.014785305
0002c0 16 35 63 3c d8 5c 86 3b 99 fd 73 3c a3 ab b8 bc
       0.013867637 0.0041004233 0.014892005 -0.02254278
0002d0 22 08 65 bb bc f2 bf 3b 6e 14 ac bc 21 04 59 bb
       -0.0034947474 0.0058577936 -0.021005835 -0.0033114033
0002e0 69 86 25 bc f3 c6 5e 3c bd 36 49 bc 73 54 92 bb
       -0.010102847 0.013597238 -0.012281117 -0.0044656335
0002f0 28 6c 8b bb 3c 7f 08 bd ba 3b f0 b9 a7 de f2 bc
       -0.0042548366 -0.033324465 -0.00045820867 -0.029647185
000300 19 53 8e bb b4 5a 87 bc 93 4c 9d 3c da 23 bf 3c
       -0.004343402 -0.016522743 0.019201552 0.023332525
000310 d5 e8 23 bb 34 20 21 3c 51 65 be bc 36 c4 dc 3b
       -0.0025010605 0.009834338 -0.02324167 0.0067372574
000320 8b d9 d1 3b 14 3a 15 3d 37 bb c0 3c 5a f6 38 bc
       0.006404107 0.03643234 0.023526771 -0.011289204
000330 97 16 16 3b 41 15 c0 3c 0b 1b d3 3b 28 3a 4b 3b
       0.0022901648 0.023447635 0.0064424328 0.0031010006
000340 82 99 ad 3c b3 65 72 3c 1d e8 85 b9 07 e1 3c ba
       0.021191362 0.014794755 -0.00025540675 -0.00072051625
000350 e8 41 a7 3c ef 35 c4 3b 96 d3 e9 ba 0e 04 46 bb
       0.020417169 0.0059878747 -0.0017839547 -0.003021482
000360 61 2f 86 bc 88 bd e3 ba d0 a7 99 3c dd e8 b2 bc
       -0.016380014 -0.001737521 0.018756777 -0.021839553
000370 44 9b 56 3c 7b f7 66 bc f3 56 e8 3c c0 f3 9d 3c
       0.013098542 -0.01409709 0.028361773 0.019281268
000380 9b 13 bf bb e2 8f f9 bc fc d9 b8 3c f4 f8 0e bc
       -0.0058311946 -0.030464116 0.02256488 -0.008726347
000390 f5 82 78 bb 99 e5 53 bb b5 b0 2e 3b fa 6c 11 bc
       -0.0037919853 -0.0032332896 0.0026655619 -0.00887608
0003a0 89 cf 86 3c 3c a5 32 3b b2 08 76 3b c6 19 31 bc
       0.016456382 0.0027259132 0.0037541804 -0.0108093675
0003b0 01 45 12 bd 04 86 e9 3c a0 e4 26 3c 0b d0 92 3c
       -0.03571034 0.028506286 0.010186344 0.017921468
0003c0 9c 0d 86 3b 70 5e fa bc e4 a7 ad bb 62 31 a1 3b
       0.004090978 -0.03056261 -0.005299555 0.004919217
0003d0 44 c1 fa ba f5 3f 7b bb 02 8b 7d 3c 3d d2 86 bc
       -0.0019131084 -0.0038337682 0.015475037 -0.016457671
0003e0 70 a5 b7 bc e8 c5 8b 3c c8 e0 88 bc ab 16 53 bc
       -0.022417754 0.017062142 -0.016708747 -0.012883822
0003f0 5d 91 30 3c 2f b6 df 3c c9 25 22 bc 5d ea d8 3c
       0.010776845 0.027308552 -0.009896704 0.02647894

decode.4.weight f4 [1, 100]
000000 01 98 d1 b9 e2 8f cb ba 74 41 35 3a f3 40 32 3a
       -0.00039976838 -0.0015530551 0.00069143553 0.00067998393
000010 68 87 c6 b9 bd ef 4b 3a 0f 25 01 bd 0d 5c 61 3a
       -0.00037866388 0.0007779559 -0.031529482 0.00085967855
000020 42 8d ed b9 de 38 07 3a 6c 04 9e b9 2c 6e 82 ba
       -0.00045309408 0.0005158315 -0.00030139403 -0.0009951047
000030 f9 6d e6 3c f4 11 b5 3a 89 0b c8 3c 66 46 c5 ba
       0.02812861 0.0013814555 0.024419563 -0.0015050888
000040 8e cf 5d 3a ba 9a df ba 1d 10 c0 3c 87 8d ea ba
       0.0008461409 -0.0017059662 0.023445183 -0.0017894962
000050 84 d5 c2 3a 67 7e c4 3a 25 f4 0a ba 24 44 4a 39
       0.0014864658 0.0014991284 -0.00053006626 0.00019289606
000060 0a fb 06 ba 72 ee 88 b9 c9 ca 7d 3a 04 7c 08 3d
       -0.0005149102 -0.00026117597 0.00096814014 0.033321396
000070 a0 a6 8e ba d8 a4 4c 38 40 28 60 39 5d fd 8b b9
       -0.0010883398 4.8790913e-05 0.00021377299 -0.00026700916
000080 22 a4 cf b8 83 a2 93 ba fd 85 3a ba 08 05 89 39
       -9.901101e-05 -0.0011263642 -0.0007115303 0.00026134425
000090 85 6b 56 39 f1 19 c5 bc 4a ff 63 ba 30 05 b4 b5
       0.00020448685 -0.024060221 -0.0008697404 -1.3412555e-06
0000a0 22 66 4f b9 19 7f 13 ba 56 4a 89 b9 0a 74 5a b8
       -0.00019779106 -0.0005626544 -0.0002618606 -5.208332e-05
0000b0 ca 58 94 b8 4c d6 8e 38 d7 81 dc 39 94 0e 47 b8
       -7.073728e-05 6.8110035e-05 0.00042058408 -4.7458874e-05
0000c0 f5 1e 5a 3a eb 69 37 3a a5 f8 f1 ba 54 c4 2a 3a
       0.0008320653 0.0006996679 -0.0018460943 0.00065142405
0000d0 94 b0 1d ba 9c a5 68 3a 6c 62 e4 3a 5f ab 9c 38
       -0.0006015387 0.00088747754 0.0017424352 7.47058e-05
0000e0 f6 9c 83 39 d9 7e 1e b9 4f c4 e3 b9 fb eb 1c 3a
       0.00025103212 -0.00015115309 -0.00043443075 0.00059860916
0000f0 4c a8 3f 3a c9 b4 3c 3a 02 34 1d 3a 6c 23 2c 3a
       0.000731115 0.000719857 0.00059968245 0.00065665576
000100 95 39 a4 bc b2 69 aa b9 27 3b 1b 3d 58 6d 2b 3d
       -0.020046989 -0.00032503676 0.03789821 0.041852325
000110 8b 0c ea bc 8b d0 67 39 f6 ef 35 b9 4d 83 d0 bc
       -0.028570434 0.00022107565 -0.00017350898 -0.025453234
000120 d9 d1 01 ba 28 b2 15 3a 15 0f 19 39 a8 e2 c9 3c
       -0.0004952229 0.0005710446 0.00014596836 0.024644211
000130 a4 0a 8e 3a 46 8b f4 bc 60 e2 b1 b8 7e 21 62 39
       0.0010836911 -0.029851567 -8.482183e-05 0.00021565516
000140 f4 b0 b5 bc 67 f5 ac 3a 72 6a 4e b8 0a 23 03 3a
       -0.022179104 0.0013195694 -4.9213362e-05 0.00050024746
000150 9d 83 e0 3c c9 35 a8 39 4d 74 e1 bc e3 61 89 3a
       0.027406508 0.0003208353 -0.027521277 0.0010481443
000160 90 6d a2 b9 06 3d a9 ba 23 e6 a7 ba 21 18 4a ba
       -0.00030980678 -0.0012911863 -0.0012809675 -0.0007709284
000170 b9 a4 43 3a a6 2a b7 39 71 d9 75 39 03 e8 f6 39
       0.0007463205 0.00034936256 0.00023446024 0.0004709364
000180 d0 25 24 b9 1b f7 1c 3a b8 47 72 3a f5 44 6f 3a
       -0.00015654345 0.00059877493 0.00092422543 0.0009127402
