Quantum/1 qubit/complete/models/2_latent.pt (torch, 93607 bytes, 6 tensors)

encode.0.weight f4 [100, 10]
-0.1795896 -0.21925873 0.57765484 -0.24728231 0.84169596 0.3070543 -0.06567753 -0.19119635
0.2889117 0.026996603 0.021665033 -0.4701878 0.39224592 -0.17549351 0.6112321 0.14715587
0.28973868 -0.33160776 -0.27462438 -0.02858962 -0.10997021 0.42648616 0.15086296 -0.27745503
-1.1311657 0.32311007 -0.011105089 -0.16464779 0.1845674 -0.46012422 -0.14804867 -0.77947724
-0.06803427 0.80821353 1.1747868 -0.05602271 0.31490785 -0.17028032 0.42634112 0.80114853
0.066840746 0.35116583 0.20252742 0.18747514 -0.30672765 0.27950823 -0.14797087 -0.2951531
0.005539214 -0.52347237 -0.024704082 0.43515348 -0.2635203 0.27824512 -0.4995857 0.15412426
-0.25197828 -0.15924753 0.6014856 0.16117755 0.34015512 0.38442755 -0.43348745 -0.86127937
-2.811167 0.48853943 -0.15909626 0.16677378 -1.5431824 -0.9258838 0.41901958 0.45168877
-0.6183631 -0.24835047 -2.3139262 0.3178234 -0.43012708 0.1635073 -1.0192652 -0.48998526
0.3587903 -0.23188652 -0.20081015 -0.6469664 -1.2273471 0.18171608 -0.14533548 0.19967213
-1.2752353 -0.08607719 0.38058257 0.30917454 -0.9901548 -0.38425636 -2.5828931 -0.12787178
0.017553292 0.41641244 -1.6754982 -0.40398273 0.016839132 0.08268834 0.39962712 0.26348943
0.30845416 -0.19392301 0.13962835 -0.23551275 0.49766073 -0.20886661 0.0020135494 -0.12157379
0.66755146 -0.2327623 1.6737361 -0.07482431 0.0715881 -0.2322959 0.39609998 -0.28570113
-0.17412284 0.079167195 0.24611425 -0.22418559 0.97950965 -0.00036552857 0.18109563 -0.30786464
0.12788418 0.19997342 -0.12830904 -0.25568375 0.53720206 -0.4766983 1.0204716 0.09720337
-0.019785238 -0.057237886 -0.4358594 0.22215861 -0.10984952 -0.2630493 0.03446125 -0.83020556
-0.39877975 0.12626876 0.39731112 0.17411958 -1.4369631 -0.28399628 0.21713072 0.6086309
0.07461824 0.19081502 -0.6252495 0.26789138 -0.5149362 -0.27769053 -0.24984902 -0.12610003
0.14427884 0.41788888 -0.1149486 -0.0075239143 -0.77197224 0.12909506 -0.17768392 -0.12551115
-0.36221734 -0.2615137 0.017247226 0.43852141 0.058844578 -0.2070412 -0.9229588 0.4085936
-0.5026437 0.1914468 -0.46610254 -0.5626665 -0.055539805 -0.031005358 -0.6707491 -0.45768863
-1.7500509 0.113244005 0.19685899 0.32280228 -1.0916891 0.060990974 -0.26015872 0.52584636
0.06577879 0.70218503 -0.08180814 -0.23970264 0.044707004 -0.21207349 0.66719913 0.35940337
-0.21206243 0.02194645 0.24573952 0.27252573 0.07675657 0.03634751 -0.030437885 0.015318786
0.48892248 -0.039423034 0.20151971 0.37910056 -0.10639501 0.29820445 -0.5308985 -0.054593302
-0.15368319 -0.32458606 0.47711828 0.20265721 0.3801791 0.6295858 0.21879348 -0.12889422
-0.12142021 0.023070022 -0.26649272 -0.29929578 -0.40555227 -0.6852336 -0.06179095 0.40720978
-0.5508014 -0.020741815 -1.5648706 -0.05967906 0.17273527 0.042370915 -0.45488662 0.07757805
-0.29593408 -0.42185333 0.19279297 0.8772001 1.1440814 -0.434791 0.24088126 0.0034846389
0.50139654 0.9842351 0.21887316 -0.36212397 -0.33951235 -0.52593994 -0.36650428 0.38178605
00000000: 56e6 37be 5c85 60be 30e1 133f 9337 7dbe
00000010: 6379 573f 3936 9d3e f181 86bd fac8 43be
00000020: 3cec 933e fb27 dd3c de7a b13c 75bc f0be
00000030: 75d4 c83e 92b4 33be b579 1c3f 07b0 163e
00000040: a158 943e 7ec8 a9be 919b 8cbe c734 eabc
00000050: 1038 e1bd 655c da3e d27b 1a3e 960e 8ebe
00000060: 0aca 90bf af6e a53e 1ff2 35bc 6e99 28be
00000070: 3dff 3c3e 6795 ebbe 129a 17be d28b 47bf
00000080: 8d55 8bbd 15e7 4e3f 6a5f 963f 1278 65bd
00000090: 9a3b a13e f75d 2ebe 6249 da3e 1218 4d3f
000000a0: cde3 883d 02cc b33e 5963 4f3e 7cf9 3f3e
000000b0: 680b 9dbe b41b 8f3e ad85 17be 4f1e 97be
000000c0: 4b82 b53b 4902 06bf 3760 cabc 70cc de3e
000000d0: 22ec 86be 2576 8e3e b2c9 ffbe c0d2 1d3e
000000e0: 4c03 81be c911 23be f6fa 193f ba0b 253e
000000f0: d028 ae3e b0d3 c43e 11f2 ddbe ce7c 5cbf
00000100: 29ea 33c0 d721 fa3e 21ea 22be bfc6 2a3e
00000110: 0087 c5bf b906 6dbf bc89 d63e c043 e73e
00000120: 0b4d 1ebf 964f 7ebe 5e17 14c0 c0b9 a23e
00000130: 9e39 dcbe 756e 273e 4877 82bf 59df fabe
00000140: 5db3 b73e a973 6dbe 2da1 4dbe 979f 25bf
00000150: b619 9dbf c813 3a3e d3d2 14be da76 4c3e
00000160: e93a a3bf 3d49 b0bd b8db c23e 204c 9e3e
00000170: c97a 7dbf 40bd c4be 1f4e 25c0 d2f0 02be
00000180: eccb 8f3c 0334 d53e ba76 d6bf d3d6 cebe
00000190: 38f2 893c 8158 a93d ed9b cc3e 16e8 863e
000001a0: b4ed 9d3e c193 46be bcfa 0e3e 412a 71be
000001b0: 63cd fe3e 21e1 55be c1f5 033b aefb f8bd
000001c0: a7e4 2a3f 3e59 6ebe fc3c d63f 7d3d 99bd
000001d0: c89c 923d fade 6dbe 9ecd ca3e 6b47 92be
000001e0: 424d 32be 6922 a23d 6005 7c3e e890 65be
000001f0: 25c1 7a3f 6aa4 bfb9 2271 393e 6fa0 9dbe
00000200: 12f4 023e d5c5 4c3e 7263 03be fbe8 82be
00000210: 1386 093f cd11 f4be d09e 823f 8f12 c73d
00000220: a714 a2bc 4672 6abd f728 dfbe 8c7d 633e
00000230: c9f8 e0bd 66ae 86be 3d27 0d3d 5a88 54bf
00000240: dc2c ccbe 994c 013e 5d6c cb3e 674c 323e
00000250: 68ee b7bf f667 91be 8457 5e3e 3ccf 1b3f
00000260: 73d1 983d 0365 433e 5a10 20bf 0f29 893e
00000270: dcd2 03bf 742d 8ebe 6cd8 7fbe 5e20 01be
00000280: d5bd 133e 88f5 d53e 2c6a ebbd 2b8b f6bb
00000290: f99f 45bf 7f31 043e c6f2 35be ff85 00be
000002a0: 8d74 b9be 20e5 85be 0e4a 8d3c e185 e03e
000002b0: 0307 713d 9c02 54be 0747 6cbf 2e33 d13e
000002c0: 42ad 00bf a10a 443e fea4 eebe e90a 10bf
000002d0: b57d 63bd f3fe fdbc 37b6 2bbf 2a56 eabe
000002e0: ab01 e0bf 79ec e73d 6795 493e 5746 a53e
000002f0: 78bc 8bbf acd1 793d 8633 85be de9d 063f
00000300: 08b7 863d 66c2 333f 078b a7bd 9c74 75be
00000310: b11e 373d cb29 59be 90cd 2a3f b803 b83e
00000320: e526 59be 0bc9 b33c 24a3 7b3e 7e88 8b3e
00000330: 8c32 9d3d 20e1 143d df58 f9bc a5fb 7a3c
00000340: 0c54 fa3e 0c7a 21bd 2f5b 4e3e 7819 c23e
00000350: a1e5 d9bd 41ae 983e f7e8 07bf 3a9d 5fbd
00000360: 205f 1dbe 2530 a6be d948 f43e 5f85 4f3e
00000370: d6a6 c23e 892c 213f 660b 603e d9fc 03be
00000380: 29ab f8bd 58fd bc3c bc71 88be 4c3d 99be
00000390: 8ca4 cfbe 786b 2fbf 8218 7dbd cd7d d03e
000003a0: 5201 0dbf bdea a9bc ae4d c8bf 0872 74bd
000003b0: 84e1 303e 208d 2d3d e6e6 e8be 3ee1 9e3d
000003c0: ac84 97be 29fd d7be 856b 453e 3090 603f
000003d0: 4271 923f ed9c debe 94a9 763e 8a5e 643b
000003e0: 865b 003f d5f6 7b3f 4920 603e 5068 b9be
000003f0: 90d4 adbe 00a4 06bf 73a6 bbbe 7679 c33e

encode.2.weight f4 [100, 100]
-0.27264765 -0.2005716 0.30835357 -0.5820431 0.1280476 0.021024918 0.5856829 0.3502684
0.33869976 0.07753603 -0.12752615 -0.4074884 -0.17443286 -0.34201917 -0.1111766 0.40130147
0.43096453 0.6453188 0.20254803 -0.013412974 -0.07002835 0.055576865 0.25786334 0.37900367
-0.6123544 0.018798253 -0.9415061 -0.20638022 -0.04471943 -0.17515711 0.356561 -0.22278182
0.8579279 0.5209619 0.37332442 -0.5089299 -0.35138705 -0.106297195 -0.034416463 0.37757143
-0.10253423 0.15510651 0.25936443 0.017937258 -0.19669062 0.103370436 -0.27446464 0.10371281
-0.25899115 -0.04573474 0.321067 0.3156841 0.17143849 0.29728863 0.37469956 0.45646867
0.09941326 0.31261742 0.41353157 -0.3686953 -0.41323417 -0.0108601535 0.35295084 0.35110977
-0.5858351 -0.011987304 -0.13547888 0.37091678 -0.2853524 -0.68901455 0.35622728 -0.31206155
-0.14122511 0.25223663 -0.53298056 -0.9047699 0.07633007 -0.51692104 -0.590967 -0.09614097
0.6051028 0.060523868 0.2004737 0.49831963 0.35207367 0.4162392 -0.5450864 0.44495347
-0.6943727 0.22166575 0.13827601 -0.32274574 0.19475144 0.4779386 -0.02748334 0.23158132
-0.2360709 0.12084719 0.060279187 0.0855676 -0.13680784 -0.31155023 0.26047632 -0.024635136
0.050905414 0.15683196 0.09678897 0.26710626 0.08517804 0.18295327 -0.14762805 -0.097463004
-0.00014542183 -0.44812506 -0.12648626 0.42847928 0.107998565 0.102051586 0.1661207 0.09564828
0.087567136 0.2134875 0.096396245 0.37268007 -0.15694575 -0.07322473 -0.116242364 -0.14992912
0.12397032 -0.11858738 0.12676099 -0.083791815 0.22077248 0.6040116 0.58580387 -0.16111785
-0.32846677 0.03886953 0.025215441 0.34791914 0.07760028 0.15719856 -0.17289393 0.25213313
-0.055055946 -0.04047425 0.052080505 -0.3156676 0.09378541 -0.0011667055 0.09802226 0.33055958
-0.067759395 -0.14018555 0.14590174 0.15049818 0.000789667 0.13201201 0.22992064 -0.029693784
0.0650069 0.24829292 0.311493 -0.14709684 -0.040061437 0.080013976 0.28738698 0.26526824
-0.06914248 -0.2568144 0.2897805 -0.06397547 -0.09285077 -0.0030411317 -0.18477245 -0.0982494
-0.13822368 -0.005000278 -0.14640394 0.10342005 0.25107986 0.07029486 0.17806976 0.24726386
0.118028946 0.08551715 -0.08757657 0.23326933 -0.14643961 -0.05346097 0.20669007 -0.028342377
0.18207847 0.2966052 -0.12131798 0.07768189 -0.056181915 0.041040156 -0.026455028 -0.030740846
0.06521453 0.099674486 -0.16812636 0.0767674 -0.005498157 -0.021591587 -0.109564774 0.0038312043
0.044512417 -0.13624945 0.020061774 0.08307151 0.037651315 0.04764253 0.09099015 -0.038402475
-0.04811595 0.04315635 -0.11617777 -0.11681209 -0.054738905 -0.14021382 -0.0682633 -0.22668298
0.042276412 0.13322853 0.074564785 0.098897904 -0.19826445 0.2387905 0.04360058 -0.071256205
-0.037527386 -0.28797388 -0.38201386 0.13574703 0.17223825 -0.13959338 -0.06994144 -0.08565582
0.062336434 -0.008311703 0.16525313 -0.07995951 0.05998678 0.02666183 0.08908107 0.22206336
0.10894106 0.13186331 0.07144436 0.020920759 0.094409764 -0.03219316 0.038954142 -0.14889841
00000000: 7998 8bbe a462 4dbe 85e0 9d3e c700 15bf
00000010: e91e 033e 733c ac3c 51ef 153f 6156 b33e
00000020: 0e6a ad3e 36cb 9e3d 3796 02be 52a2 d0be
00000030: 879e 32be 231d afbe 8fb0 e3bd 6377 cd3e
00000040: 62a7 dc3e 9d33 253f c068 4f3e 17c2 5bbc
00000050: 066b 8fbd 91a4 633d aa06 843e c50c c23e
00000060: 42c3 1cbf cbfe 993c 8b06 71bf 5655 53be
00000070: b92b 37bd 635c 33be 2a8f b63e eb20 64be
00000080: 2aa1 5b3f c25d 053f 6124 bf3e 3b49 02bf
00000090: 01e9 b3be 58b2 d9bd 47f8 0cbd 0b51 c13e
000000a0: 77fd d1bd 3ed4 1e3e 6acb 843e 28f1 923c
000000b0: 4469 49be e1b3 d33d a186 8cbe 6267 d43d
000000c0: 7d9a 84be 5a54 3bbd e562 a43e 59a1 a13e
000000d0: 928d 2f3e 3736 983e 9fd8 bf3e 43b6 e93e
000000e0: 2e99 cb3d 640f a03e 69ba d33e a1c5 bcbe
000000f0: 6e93 d3be c9ee 31bc f9b5 b43e a9c4 b33e
00000100: 4af9 15bf 6666 44bc faba 0abe cee8 bd3e
00000110: b619 92be 4263 30bf 6c63 b63e 88c6 9fbe
00000120: 519d 10be 2925 813e 6a71 08bf 009f 67bf
00000130: f152 9c3d f054 04bf 9d49 17bf 8fe5 c4bd
00000140: 04e8 1a3f e0e7 773d fa48 4d3e c023 ff3e
00000150: 0043 b43e 4e1d d53e c88a 0bbf f1d0 e33e
00000160: 69c2 31bf 59fc 623e 3a98 0d3e ee3e a5be
00000170: ec6c 473e 5eb4 f43e be24 e1bc a723 6d3e
00000180: 92bc 71be bb7e f73d 4fe7 763d 113e af3d
00000190: 5b17 0cbe 8383 9fbe 275d 853e a0cf c9bc
000001a0: 3282 503d 8f98 203e 4c39 c63d 27c2 883e
000001b0: d371 ae3d 1a58 3b3e cf2b 17be af9a c7bd
000001c0: 607c 18b9 a670 e5be 9d85 01be a361 db3e
000001d0: 5a2e dd3d 6c00 d13d 8b1b 2a3e 3fe3 c33d
000001e0: 6656 b33d 789c 5a3e 656b c53d eccf be3e
000001f0: 63b6 20be d9f6 95bd 7a10 eebd 0587 19be
00000200: 27e4 fd3d f1dd f2bd a2cd 013e 0b9b abbd
00000210: 2e12 623e 81a0 1a3f 3ef7 153f 14fc 24be
00000220: cc2c a8be a835 1f3d 9d90 ce3c 7522 b23e
00000230: e5ec 9e3d a9f8 203e 1b0b 31be 9817 813e
00000240: 5882 61bd 54c8 25bd 5e52 553d 2f9f a1be
00000250: 9112 c03d 24ec 98ba e5bf c83d 1b3f a93e
00000260: 70c5 8abd cd8c 0fbe 4467 153e 321c 1a3e
00000270: a801 4f3a 282e 073e 5170 6b3e 6140 f3bc
00000280: 5622 853d 8040 7e3e 037c 9f3e 8ea0 16be
00000290: 7617 24bd 5ede a33d 6324 933e 3dd1 873e
000002a0: 939a 8dbd 2d7d 83be 1c5e 943e 9205 83bd
000002b0: 8b28 bebd b94d 47bb fd34 3dbe fb36 c9bd
000002c0: 828a 0dbe 5fd9 a3bb eaea 15be e4cd d33d
000002d0: 8a8d 803e c0f6 8f3d eb57 363e bd32 7d3e
000002e0: 29b9 f13d 9e23 af3d 585b b3bd 28de 6e3e
000002f0: 44f4 15be e4f9 5abd 90a6 533e 462e e8bc
00000300: c772 3a3e a3dc 973e 9075 f8bd af17 9f3d
00000310: 021f 66bd b919 283d 37b8 d8bc 3ad4 fbbc
00000320: 328f 853d 2322 cc3d 5129 2cbe 3a38 9d3d
00000330: e229 b4bb d7e0 b0bc 7f63 e0bd f114 7b3b
00000340: a752 363d fa84 0bbe 9758 a43c 6521 aa3d
00000350: 4438 1a3d d024 433d 0b59 ba3d ea4b 1dbd
00000360: 3b15 45bd b6c4 303d 9cee edbd 2d3b efbd
00000370: e735 60bd 3694 0fbe a1cd 8bbd 951f 68be
00000380: 082a 2d3d 0f6d 083e 6cb5 983d fc8a ca3d
00000390: d605 4bbe 7f85 743e 8696 323d c6ee 91bd
000003a0: 51b6 19bd 5071 93be 5297 c3be 4501 0b3e
000003b0: 395f 303e 91f1 0ebe 753d 8fbd 526c afbd
000003c0: 7d54 7f3d cf2d 08bc 1e38 293e d0c1 a3bd
000003d0: b3b4 753d e969 da3c 2370 b63d 9464 633e
000003e0: 7e1c df3d 2d07 073e 6c51 923d 0362 ab3c
000003f0: e859 c13d fadc 03bd 618e 1f3d d378 18be

encode.4.weight f4 [4, 100]
-0.039930068 -0.2512925 0.13743003 -0.07602595 -0.07259697 -0.07922786 -0.029167278 -0.17062332
-0.007549673 0.016643526 0.000121705474 0.19262171 0.13717192 -0.5696765 0.18640798 -0.11583795
0.34724176 0.41174033 0.56944776 0.0112196645 -0.00024016952 -0.07141945 0.03451352 0.04155139
0.2217697 0.00022393394 -0.38905954 -0.0019342855 0.1216542 0.19046323 0.14872028 -0.036362085
-0.15859449 -0.11984731 0.08473488 0.25914004 -0.098112315 -0.18752152 -0.22888967 -0.006541207
0.018963303 -0.05922475 0.14097783 0.09170037 0.0006110045 0.056122214 0.050872646 0.055539247
0.047776815 -0.21274838 -0.27116308 -0.042731214 -1.5538753e-05 0.06786861 -0.031149836 0.050663296
-0.35766116 0.40015927 -0.01751977 -2.4250672e-05 -0.19384868 -0.31150782 0.15079193 -0.00011208794
0.06350538 0.0005241602 -0.07432219 -0.025546277 -0.047951724 0.5720769 1.2454198e-05 -0.75610363
-0.4019655 -0.077233344 -0.0001459072 -0.108117215 0.11403846 -0.112538725 -0.23647463 0.00014734025
0.048032835 -0.39583188 0.009339696 0.11328733 0.012863962 0.19505452 0.32580218 0.3070329
0.01316221 -0.5355819 0.0059361667 0.018080844 -0.35071272 -0.106873184 0.66467077 0.007918136
0.4612219 0.000101895144 0.07108354 0.072801135 0.24899392 0.07839797 -0.032181032 -0.17744516
-0.21315283 0.16343926 0.15065323 0.20169906 0.33944356 0.058936898 0.00018979322 0.41030687
0.14497845 0.30670202 -0.5266912 0.2023313 -0.47828704 -0.11874216 -0.26871037 -0.08378953
1.7695076e-05 0.10244404 -0.15075314 -0.15076257 0.3568345 6.247753e-05 0.28610393 0.15511447
-0.18320085 -0.35072392 0.024128588 0.25124475 -0.092061184 0.23394455 -0.04981359 0.34767258
0.32679883 -0.004394316 -0.18140952 0.23001759 -0.06501431 -0.45702484 -0.07864518 0.17391557
-0.0011273336 -0.13905647 -0.059288755 0.11649836 -0.21897255 -0.13881132 -0.0018631804 -0.16233382
-0.000120820725 0.008876323 0.2013308 -0.11995501 0.20492172 -0.17054611 0.19795622 3.8370454e-05
0.26586837 -0.14853589 -0.14811093 -0.00034779124 -0.13257457 -4.1352076e-05 -0.03173288 -0.3259687
-0.1763631 -0.22905397 4.4069086e-05 -0.12800105 0.15711224 0.033387344 -0.00018688003 -0.16830935
-0.11025868 -0.17715153 -0.36116335 0.00013102309 0.44566575 -0.5311868 0.5105723 0.35261202
-0.14238098 0.104265004 -0.2953756 -0.20494127 0.33351657 -0.24535589 0.0850722 -0.2005549
-0.33273664 -0.07553115 0.35894552 0.029192451 0.18447079 -6.550063e-05 0.09961281 -0.10453551
0.40559274 -0.101414 -0.2867875 0.130331 0.2345115 0.19436571 0.16729914 0.14012314
-0.114394106 0.051640056 0.00029500088 0.056167524 0.15939476 0.1413073 0.09738501 0.18670052
0.024093809 -0.06987936 -0.10585232 0.10454209 0.02686844 0.11596624 0.42193636 0.24987003
0.0060038622 0.037928533 -0.027892413 -0.21651047 0.15932044 -0.097484194 -0.50662315 -0.33044013
-0.40721557 -0.059273314 -0.3194978 0.014670558 0.14320531 -0.22344868 0.012833173 -0.24083076
0.26757687 0.029916583 -0.1491341 0.22723591 -0.043423846 0.20330219 -0.0886009 -0.22667488
0.0702912 -0.015451007 -0.019323165 0.08980655 -0.023592405 0.05141701 0.42789257 0.0060124244
00000000: b68d 23bd 69a9 80be 75ba 0c3e 7eb3 9bbd
00000010: b8ad 94bd 3742 a2bd 37f0 eebc e1b7 2ebe
00000020: 3f63 f7bb 0158 883c 213c ff38 a03e 453e
00000030: cc76 0c3e 52d6 11bf bce1 3e3e 723c edbd
00000040: acc9 b13e a1cf d23e 54c7 113f afd2 373c
00000050: 04d6 7bb9 5c44 92bd 0c5e 0d3d ca31 2a3d
00000060: 9917 633e cfcf 6a39 d032 c7be da87 fdba
00000070: d625 f93d cb08 433e 214a 183e 69f0 14bd
00000080: 9866 22be 8272 f5bd 7b89 ad3d 01ae 843e
00000090: 1cef c8bd a405 40be 0e62 6abe 9f57 d6bb
000000a0: ee58 9b3c a795 72bd 7e5c 103e 67cd bb3d
000000b0: d12b 203a 68e0 653d d65f 503d 1f7d 633d
000000c0: 9fb1 433d b6da 59be e3d5 8abe ed06 2fbd
000000d0: 3859 82b7 b3fe 8a3d f12d ffbc 5184 4f3d
000000e0: 5d1f b7be ade1 cc3e 9f85 8fbc ec6d cbb7
000000f0: 4580 46be f47d 9fbe 3369 1a3e c110 ebb8
00000100: 1c0f 823d cc67 093a 3b36 98bd 6d46 d1bc
00000110: 0769 44bd a273 123f 60f2 5037 0290 41bf
00000120: 6cce cdbe 842c 9ebd aafe 18b9 8f6c ddbd
00000130: ff8c e93d b47a e6bd 6826 72be 597f 1a39
00000140: 14be 443d 7aaa cabe 8605 193c 3003 e83d
00000150: 5ec3 523c 5fbc 473e 8bcf a63e 6b33 9d3e
00000160: 4fa6 573c e51b 09bf 2d84 c23b 471e 943c
00000170: 9e90 b3be 54e0 dabd dd27 2a3f 12bb 013c
00000180: 4725 ec3e 8ab0 d538 3f94 913d c318 953d
00000190: 43f8 7e3e 1d8f a03d 42d0 03bd 2fb4 35be
000001a0: bc44 5abe 9f5c 273e d744 1a3e 338a 4e3e
000001b0: 8ccb ad3e d167 713d 3b03 4739 be13 d23e
000001c0: 3b75 143e 0c08 9d3e 3cd5 06bf f02f 4f3e
000001d0: 0ae2 f4be 172f f3bd 6894 89be d899 abbd
000001e0: e36f 9437 2ece d13d 085f 1abe 8161 1abe
000001f0: 03b3 b63e 5e06 8338 377c 923e 54d6 1e3e
00000200: 0199 3bbe 1692 b3be 51a9 c53c 27a3 803e
00000210: 938a bcbd 298f 6f3e 5609 4cbd 2402 b23e
00000220: 2d52 a73e 32fe 8fbb 6bc3 39be bb89 6b3e
00000230: 3926 85bd 29ff e9be b910 a1bd ec16 323e
00000240: 0ac3 93ba d264 0ebe c4d8 72bd b196 ee3d
00000250: 573a 60be 8e24 0ebe f635 f4ba d63a 26be
00000260: 2261 fdb8 ff6d 113c a929 4e3e f9aa f5bd
00000270: 00d7 513e a4a3 2ebe 09b5 4a3e f6ef 2038
00000280: e61f 883e cb19 18be 64aa 17be c057 b6b9
00000290: a1c1 07be 7471 2db8 56fa 01bd 5fe5 a6be
000002a0: 8798 34be 208d 6abe d2d6 3838 b512 03be
000002b0: 08e2 203e 2bc1 083d 3af5 43b9 4959 2cbe
000002c0: 4ecf e1bd 3667 35be 67ea b8be 3e63 0939
000002d0: 4d2e e43e dcfb 07bf deb4 023f 9089 b43e
000002e0: 52cc 11be e488 d53d 783b 97be 20dc 51be
000002f0: afc2 aa3e 933e 7bbe 553a ae3d 445e 4dbe
00000300: 755c aabe 13b0 9abd b5c7 b73e 0225 ef3c
00000310: e9e5 3c3e 625d 89b8 cd01 cc3d b716 d6bd
00000320: daa9 cf3e 25b2 cfbd d0d5 92be 7d75 053e
00000330: c823 703e ce07 473e 7750 2b3e 717c 0f3e
00000340: 7547 eabd 8684 533d 59aa 9a39 eb0f 663d
00000350: 6138 233e dcb2 103e cb71 c73d 6c2e 3f3e
00000360: 6160 c53c e91c 8fbd 1ac9 d8bd 2a1a d63d
00000370: 341b dc3c b57f ed3d 0b08 d83e eedd 7f3e
00000380: 0cbc c43b f35a 1b3d a17e e4bc ecb4 5dbe
00000390: e624 233e cba5 c7bd 0eb2 01bf 732f a9be
000003a0: 8f7e d0be 93c8 72bd 3795 a3be c85c 703c
000003b0: 6aa4 123e bbcf 64be 3b42 523c 579c 76be
000003c0: d6ff 883e 9f13 f53c 9cb6 18be 88b0 683e
000003d0: 34dd 31bd 732e 503e 6374 b5bd 761d 68be
000003e0: d5f4 8f3d 3826 7dbc 9d4b 9ebc 7fec b73d
000003f0: dc44 c1bc a59a 523d bc14 db3e df03 c53b

decode.0.weight f4 [100, 12]
0.11987833 0.5365054 0.0036563291 -0.06543685 -0.14298937 -0.15248534 -0.121842355 -0.061808724
-0.19796927 -0.38936287 0.15273426 0.24595903 -0.4313802 0.11565979 0.20997089 -0.30478218
-0.38029414 -0.052646913 -0.022793047 0.059061326 0.10686736 0.16068757 0.27535364 -0.4002562
-0.3057626 0.21124788 0.051134955 0.08279656 0.25376824 -0.30852062 0.23430362 0.20213932
0.22179446 0.17142479 -0.3017091 0.09676094 0.123465806 0.20273955 0.028754372 0.10923238
0.039983712 0.19035421 -0.05356053 0.109650776 -0.30769753 -0.22732969 0.10300454 -0.17093334
-0.03994893 -0.09562638 -0.20302963 -0.23378426 0.04761315 0.1343385 -0.1494777 0.081542045
0.012016851 0.22061287 -0.30221322 0.21064094 0.08006554 -0.02183434 0.30145034 -0.1817696
0.047438774 -0.16609336 -0.18493468 0.25183737 0.032803 0.21124396 -0.08745408 -0.40058023
0.10980959 0.05604245 0.16138706 0.074269466 0.17555058 0.35716566 0.15763454 -0.09915193
-0.33053195 -0.07813466 -0.22176553 0.26479045 -0.24904795 -0.017016819 -0.40272078 0.1070089
0.27151963 0.29902297 -0.056290623 0.07187476 0.06809828 0.1192827 -0.09144033 -0.18257806
-0.31081423 -0.35053173 0.26432022 0.12176323 0.14974947 -0.30460244 -0.23070236 -0.13128437
0.2862841 0.13182513 0.182173 -0.26784658 -0.022650644 -0.3382589 0.32212842 -0.31695905
-0.012853659 -0.074968904 -0.05872358 0.37652197 -0.19153911 -0.20114681 -0.03273765 0.09751874
0.49480522 -0.0060344175 0.27537486 0.25657356 0.020360285 0.027402034 -0.20396882 0.21043454
0.22903864 0.04980376 0.16918992 -0.27458212 0.3887228 0.15454888 -0.019489715 -0.19508098
-0.15525775 -0.39468604 0.050993294 -0.16860586 0.34683904 0.27594626 -0.07687683 -0.0003600243
-0.65600693 -0.5395811 0.20648618 -0.3567426 -0.40137604 -0.23154299 -0.22561345 -0.3434166
-0.013173596 0.02605818 0.11440618 -0.034457467 -0.046487235 -0.34534496 -0.34490407 0.3541349
0.14179276 0.37715173 0.20420964 -0.2543727 -0.42103615 0.10641813 0.2337386 0.3138683
-0.15870151 -0.1402901 -0.18998621 -0.032905348 0.020881796 0.093377195 0.25231472 -0.05449301
-0.057855498 0.12347229 -0.49210444 -0.06174927 -0.02721464 0.12349879 -0.0040517575 -0.3333458
0.09008116 0.03951849 0.098335 0.20388065 -0.46809578 -0.0058659394 -0.019617341 0.111513026
0.5443231 -0.26068962 0.17684 0.16134046 -0.09267348 0.13976644 -0.13935791 -0.34542936
-0.35686883 -0.27572203 -0.18354475 -0.3799141 0.11955773 0.09971509 -0.31282064 -0.108083114
0.009381979 0.24623914 0.2764913 -0.3321303 0.124757454 0.12751696 -0.3638157 -0.10010034
-0.2726026 0.53588134 0.16157067 0.05329996 -0.37056065 -0.16066515 -0.2407464 0.032549962
-0.09968502 -0.0044122413 0.19867975 0.09851461 0.62956834 -0.33715 -0.18863507 -0.25145236
0.054775745 -0.5277728 -0.033269826 0.021699544 0.416231 -0.04865043 -0.018026877 -0.23196824
0.12705451 -0.24800374 -0.0077123586 0.08067299 0.019156575 -0.32196888 -0.2698682 -0.24981481
0.153522 -0.19138908 -0.10562893 -0.36809406 0.03084024 -0.35889176 -0.288794 0.12497274
00000000: c582 f53d 6b58 093f 069f 6f3b c103 86bd
00000010: ce6b 12be 1e25 1cbe 7c88 f9bd 252b 7dbd
00000020: 75b8 4abe 925a c7be 5f66 1c3e afdc 7b3e
00000030: dedd dcbe 0adf ec3d 9c02 573e 690c 9cbe
00000040: eab5 c2be 4aa4 57bd 7cb8 babc 4aea 713d
00000050: 46dd da3d 488b 243e 27fb 8c3e 61ee ccbe
00000060: ea8c 9cbe 5d51 583e e372 513d 3e91 a93d
00000070: e9ed 813e 6af6 9dbe 4aed 6f3e 9cfd 4e3e
00000080: 161e 633e fb89 2f3e 9d79 9abe 9a2a c63d
00000090: a4db fc3d f59a 4f3e 4a8e eb3c 3ab5 df3d
000000a0: f6c5 233d 37ec 423e 4962 5bbd 9690 e03d
000000b0: 888a 9dbe 1dc9 68be 0bf4 d23d 2609 2fbe
000000c0: 7da1 23bd c3d7 c3bd 00e7 4fbe 2465 6fbe
000000d0: 0206 433d 0890 093e af10 19be 84ff a63d
000000e0: 54e2 443c 57e8 613e b1bb 9abe 42b2 573e
000000f0: 67f9 a33d eedd b2bc b357 9a3e cf21 3abe
00000100: 294f 423d 6114 2abe 845f 3dbe d4f0 803e
00000110: 705c 063d 5650 583e 201b b3bd da18 cdbe
00000120: dae3 e03d c58c 653d a642 253e 971a 983d
00000130: 88c3 333e 6bde b63e f36a 213e 2b10 cbbd
00000140: 7c3b a9be 1105 a0bd 8116 63be 9d92 873e
00000150: 6d06 7fbe db66 8bbc 6b31 cebe 7b27 db3d
00000160: 9f04 8b3e 8a19 993e ff90 66bd 1333 933d
00000170: 1c77 8b3d 7d4a f43d 1145 bbbd bef5 3abe
00000180: 0b23 9fbe e578 b3be fb54 873e 005f f93d
00000190: ed57 193e daf4 9bbe 3d3d 6cbe 696f 06be
000001a0: d493 923e 2bfd 063e 8f8b 3a3e 3023 89be
000001b0: d88d b9bc 4530 adbe 04ee a43e 7548 a2be
000001c0: 2798 52bc 4c89 99bd 2388 70bd 7dc7 c03e
000001d0: d422 44be 6ef9 4dbe ea17 06bd e8b7 c73d
000001e0: 1c57 fd3e 5dbc c5bb effd 8c3e 9c5d 833e
000001f0: 9dca a63c 3b7a e03c 34dd 50be 277c 573e
00000200: 1b89 6a3e 07ff 4b3d 1f40 2d3e 0796 8cbe
00000210: ad06 c73e 1042 1e3e e5a8 9fbc 4fc3 47be
00000220: e3fb 1ebe 4a14 cabe 58de 503d 04a7 2cbe
00000230: e394 b13e d448 8d3e 9971 9dbd a5c1 bcb9
00000240: 12f0 27bf fd21 0abf 1d71 533e f7a6 b6be
00000250: 2981 cdbe 9b19 6dbe 3607 67be 4dd4 afbe
00000260: 11d6 57bc f777 d53c ca4d ea3d 4623 0dbd
00000270: 6669 3ebd 0ed1 b0be 4497 b0be 2b51 b53e
00000280: 1f32 113e 081a c13e 551c 513e 233d 82be
00000290: 0d92 d7be c0f1 d93d 2c59 6f3e 59b3 a03e
000002a0: a682 22be 35a8 0fbe bf8b 42be c2c7 06bd
000002b0: 4d10 ab3c 8b3c bf3d 652f 813e 1034 5fbd
000002c0: e3f9 6cbd 0adf fc3d 1df5 fbbe cdec 7cbd
000002d0: 3df1 debc efec fc3d 9bc4 84bb 4dac aabe
000002e0: 797c b83d 24de 213d dc63 c93d 17c6 503e
000002f0: 40aa efbe 1137 c0bb 8cb4 a0bc f160 e43d
00000300: c258 0b3f 1c79 85be 8c15 353e 6f36 253e
00000310: 98cb bdbd ef1e 0f3e d7b3 0ebe 1edc b0be
00000320: 83b7 b6be 702b 8dbe 28f3 3bbe 1a84 c2be
00000330: afda f43d 6d37 cc3d 072a a0be ae5a ddbd
00000340: dfb6 193c 1d26 7c3e 4590 8d3e fc0c aabe
00000350: d680 ff3d ce93 023e 0d46 babe 6801 cdbd
00000360: 9192 8bbe 852f 093f c872 253e 0f51 5a3d
00000370: 20ba bdbe 6885 24be 3986 76be 1c53 053d
00000380: a927 ccbd 9094 90bb b472 4b3e 07c2 c93d
00000390: 642b 213f ed9e acbe 8d29 41be 5dbe 80be
000003a0: 885c 603d 1e1c 07bf f145 08bd 3ec3 b13c
000003b0: 3b1c d53e ac45 47bd 1aad 93bc 1589 6dbe
000003c0: 941a 023e b1f4 7dbe f4b7 fcbb e137 a53d
000003d0: 40ee 9c3c 1bd9 a4be 2a2c 8abe 74cf 7fbe
000003e0: df34 1d3e 80fb 43be fb53 d8bd d376 bcbe
000003f0: aca4 fc3c a9c0 b7be cfdc 93be b5f1 ff3d

decode.2.weight f4 [100, 100]
-0.123016864 0.0367562 -0.04946377 -0.078393675 -0.09437193 -0.13571697 -0.14474182 0.047452725
0.16119394 -0.069745064 0.060764786 -0.013604031 -0.032865047 -0.06456786 -0.08047655 0.022790197
-0.16709849 0.1444998 0.10881274 0.07733889 -0.12474717 -0.08294078 -0.004919776 0.0013908604
0.12391526 -0.039646704 0.11382088 -0.0925361 0.06261786 -0.028997567 0.022684783 -0.15775687
-0.15923446 0.05260921 -0.08945461 0.15723504 -0.07058119 -0.04496584 -0.10509671 0.045997597
0.10070437 -0.0065214313 0.053748578 -0.17338489 -0.04786757 -0.008130085 -0.22659034 0.017933981
0.011584617 -0.122304045 0.029228717 -0.010057007 -0.09052968 -0.019754779 -0.06566615 0.12601557
-0.058129083 0.19700834 -0.08100849 -0.040839646 -0.14800338 0.06418134 -0.10275157 -0.08218205
0.07000824 -0.17649312 -0.022750402 -0.28700462 0.041699667 0.08552563 0.087782815 0.1492791
-0.10165884 -0.016109496 0.020532902 0.0328919 0.021486077 0.040453132 -0.06439705 0.028194722
0.008102968 -0.06968914 0.057843696 -0.040603325 0.041040353 0.07809036 0.030745523 -0.044663586
-0.049587626 -0.13712828 0.07921683 -0.095992066 -0.13056102 -0.19309303 -0.05066449 -0.0792358
-0.18031053 -0.08656469 -0.058366634 0.111447625 -0.069240056 0.004448382 -0.06839065 -0.11971944
0.028273748 -0.081235 -0.15309095 0.090758726 0.0030592608 0.0312418 -0.23387775 -0.0047689774
0.048821267 -0.070148095 0.15756203 -0.12524886 0.047618717 0.04198789 -0.16065899 -0.22045901
0.019106952 0.17367162 0.12523638 -0.07235703 -0.30057317 -0.07983311 -0.10351345 -0.050135028
-0.032975703 -0.11149222 0.033582326 0.18999256 -0.13505651 -0.14512911 0.025723549 -0.080222845
-0.09626917 -0.12668802 -0.057648674 -0.04152261 -0.10331025 -0.052122854 -0.110859774 0.1458367
-0.05275885 -0.12499213 0.020739293 -0.09170631 -0.052491434 -0.011165974 -0.19706836 0.014279311
-0.043555185 -0.16918844 -0.08709518 0.052890755 -0.0032984174 -0.051690727 0.11906295 -0.122638226
0.069061324 -0.11821923 0.05207741 -0.29539824 0.045375224 -0.055943422 0.111197196 -0.03440216
0.082744345 -0.060197283 -0.006811319 0.0096938955 0.10949982 0.09584266 -0.08381226 -0.20679587
-0.0936996 0.039628357 0.0450482 -0.10422368 -0.09844161 -0.08140996 -0.050710287 -0.19010475
-0.113352805 -0.004691927 0.07229946 0.061979488 0.09893182 -0.07046026 -0.056066323 -0.0718827
-0.0077579743 -0.03839608 -0.068815455 0.021798866 0.06326594 0.08503789 -0.15276347 0.09775123
0.028594082 -0.07486911 0.013225763 -0.005550646 -0.044337872 -0.109759115 0.0072236373 0.097227275
-0.0011678613 -0.023666693 -0.096588075 -0.03466973 -0.012867645 0.030778447 0.018687049 0.014101735
-0.070408866 0.025354352 0.04255536 -0.043973386 -0.0038667924 0.01612538 0.022447458 0.0069415607
0.070243806 -0.09575176 0.07189774 0.07704709 0.096347034 -0.042355873 0.04028541 -0.073768966
-0.009979252 0.08489599 -0.044599205 -0.03221247 -0.045355942 -0.007202722 0.081804655 -0.033880174
-0.05893828 -0.0030448984 0.047312435 0.05128257 -0.06314847 -0.018601794 0.060803324 -0.13324468
-0.055554904 -0.037591234 0.02053571 -0.053730026 0.0415216 -0.036853455 -0.086405255 0.06452022
00000000: 44f0 fbbd ab8d 163d 869a 4abd dd8c a0bd
00000010: 1246 c1bd 64f9 0abe 3337 14be ca5d 423d
00000020: 0610 253e 80d6 8ebd 7fe4 783d 71e3 5ebc
00000030: 809d 06bd 273c 84bd e4d0 a4bd 82b2 ba3c
00000040: de1b 2bbe c1f7 133e 37d9 de3d da63 9e3d
00000050: 727b ffbd dbdc a9bd 1336 a1bb 884d b63a
00000060: 49c7 fd3d 9564 22bd ec1a e93d 9183 bdbd
00000070: cb3d 803d 4e8c edbc 70d5 b93c 048b 21be
00000080: 5c0e 23be c17c 573d fb33 b7bd 3902 213e
00000090: df8c 90bd 1a2e 38bd f23c d7bd fa67 3c3d
000000a0: 183e ce3d bbb1 d5bb 7827 5c3d cf8b 31be
000000b0: c910 44bd 0c34 05bc 4c07 68be 49ea 923c
000000c0: 68cd 3d3c 8b7a fabd 1071 ef3c 25c6 24bc
000000d0: a067 b9bd c6d4 a1bc f97b 86bd 3a0a 013e
000000e0: c318 6ebd 8ebc 493e c7e7 a5bd 7947 27bd
000000f0: 338e 17be 8271 833d 6a6f d2bd 104f a8bd
00000100: 7b60 8f3d 9dba 34be 0d5f babc 45f2 92be
00000110: 45cd 2a3d 1028 af3d 7ac7 b33d 9fdc 183e
00000120: 8332 d0bd 10f8 83bc 9e34 a83c a8b9 063d
00000130: 9203 b03c 2fb2 253d 9ae2 83bd 9ef8 e63c
00000140: 50c2 043c 2eb9 8ebd 83ed 6c3d ac4f 26bd
00000150: ee19 283d d7ed 9f3d 09de fb3c 2af1 36bd
00000160: 651c 4bbd 5b6b 0cbe 6f3c a23d 7d97 c4bd
00000170: cab1 05be 2eba 45be 9185 4fbd 6146 a2bd
00000180: 53a3 38be d448 b1bd da11 6fbd a73e e43d
00000190: bbcd 8dbd bcc3 913b 6610 8cbd 772f f5bd
000001a0: 599e e73c 895e a6bd e0c3 1cbe b6df b93d
000001b0: e17d 483b ceee ff3c a67d 6fbe 1545 9cbb
000001c0: cff8 473d cea9 8fbd f157 213e 3d41 00be
000001d0: d80b 433d 7efb 2b3d ca83 24be 02c0 61be
000001e0: 2f86 9c3c f9d6 313e f73d 003e ec2f 94bd
000001f0: bae4 99be 8b7f a3bd dcfe d3bd 635a 4dbd
00000200: 8811 07bd 0856 e4bd 9f8d 093d 698d 423e
00000210: 414c 0abe ba9c 14be 31ba d23c e04b a4bd
00000220: c528 c5bd 81ba 01be 0421 6cbd 9d13 2abd
00000230: 5394 d3bd c67e 55bd 730a e3bd 3756 153e
00000240: aa19 58bd e0fb ffbd 73e5 a93c 85d0 bbbd
00000250: 4201 57bd 7df1 36bc 4acc 49be c5f3 693c
00000260: ec66 32bd bc3f 2dbe f55e b2bd faa3 583d
00000270: 432a 58bb a8b9 53bd 47d7 f33d c029 fbbd
00000280: 0670 8d3d ec1c f2bd 1f4f 553d 703e 97be
00000290: 5fdb 393d ee24 65bd 5bbb e33d 48e9 0cbd
000002a0: de75 a93d 6d91 76bd 7c31 dfbb 25d3 1e3c
000002b0: 7141 e03d 2849 c43d c3a5 abbd 4cc2 53be
000002c0: 93e5 bfbd 5851 223d 7684 383d 3a73 d5bd
000002d0: c19b c9bd 44ba a6bd 97b5 4fbd d2aa 42be
000002e0: 8425 e8bd bdbe 99bb bd11 943d 34de 7d3d
000002f0: c49c ca3d 784d 90bd cda5 65bd 3d37 93bd
00000300: 9b36 febb 3545 1dbd 1eef 8cbd 8993 b23c
00000310: 9391 813d 5828 ae3d 076e 1cbe cc31 c83d
00000320: 233e ea3c fa54 99bd dfb0 583c 32e2 b5bb
00000330: a19b 35bd 63c9 e0bd 43b4 ec3b 181f c73d
00000340: ec12 99ba a7e0 c1bc f8cf c5bd d901 0ebd
00000350: d1d2 52bc 1523 fc3c 9515 993c f70a 673c
00000360: 8632 90bd eeb3 cf3c 874e 2e3d 701d 34bd
00000370: 036a 7dbb 5f19 843c bbe3 b73c 0876 e33b
00000380: fcdb 8f3d 8019 c4bd 1f3f 933d ddca 9d3d
00000390: 9851 c53d 5a7d 2dbd 5002 253d 2f14 97bd
000003a0: 0480 23bc f3dd ad3d a8ad 36bd 39f1 03bd
000003b0: 27c7 39bd d004 ecbb 3389 a73d f0c5 0abd
000003c0: 4469 71bd eb8c 47bb afca 413d ac0d 523d
000003d0: fc53 81bd ca62 98bc e80c 793d 4b71 08be
000003e0: 8a8d 63bd 44f9 19bd 813a a83c 0414 5cbd
000003f0: 8e12 2a3d a6f3 16bd 3df5 b0bd 2d23 843d

decode.4.weight f4 [1, 100]
0.06382799 -0.035756677 -0.0006927908 -0.00023895195 -0.04753025 0.00040527555 0.000596946 -0.100184225
-0.0008663103 -0.0006522113 -0.00030485063 -0.045011967 -0.012824284 -0.06722367 0.02020494 0.062810354
0.00054203515 0.041434918 -0.06326277 -0.00041422874 0.00049866753 -0.0001570819 -0.072443835 0.2384363
0.044920232 0.00019985423 -0.0007402443 -0.09122035 -0.07828885 -0.05331346 -0.0010288778 -0.08015591
0.0012642542 0.00017822179 -0.00020717323 -0.100250036 -0.00022987612 0.0002637676 0.00010549158 0.0006519045
-0.0004690164 -0.028430803 0.07081623 -0.07133486 0.070308425 -0.07133976 0.00073138427 -7.2434545e-05
-0.0932565 -0.04498785 -0.00011936945 -0.0014400856 -0.00061862834 0.00019416906 -0.047745083 0.06815454
-0.050815612 0.0013759654 0.0004790978 -0.07092749 -0.15895005 -0.09736012 0.0011233044 0.0005827166
0.00034618762 0.08235227 -0.00066372653 -0.066526964 0.00025555003 0.0001675902 -8.60608e-05 -0.2162068
0.08994181 -0.029082304 -0.065950125 0.08666478 0.0003125405 -0.04977509 -0.024791822 0.35005236
-0.074727915 -0.0006993155 0.049035035 -0.081536 -0.09661058 -4.413744e-06 0.00020975889 -2.2332444e-05
0.08813991 -0.046312843 -0.08116006 -0.20704268 0.05253858 -0.032369565 -0.02993892 0.00044528366
0.00010163524 0.02002353 0.098468386 0.0849441
00000000: 40b8 823d 9875 12bd 679c 35ba 2d8f 7ab9
00000010: 14af 42bd 2a7b d439 5e7c 1c3a 632d cdbd
00000020: 1a19 63ba 29f9 2aba 5cd4 9fb9 785e 38bd
00000030: f21c 52bc 90ac 89bd d584 a53c b7a2 803d
00000040: 5d17 0e3a a9b7 293d e98f 81bd d72c d9b9
00000050: 03b9 023a 5ab6 24b9 6f5d 94bd a528 743e
00000060: 47fe 373d f68f 5139 f40c 42ba bcd1 babd
00000070: e855 a0bd 375f 5abd 69db 86ba c828 a4bd
00000080: 55b5 a53a 0ce1 3a39 a43c 59b9 e44f cdbd
00000090: e70a 71b9 4a4a 8a39 5c3b dd38 92e4 2a3a
000000a0: 51e6 f5b9 b7e7 e8bc 1908 913d 0318 92bd
000000b0: ddfd 8f3d 951a 92bd 5eba 3f3a 00e8 97b8
000000c0: 44fd bebd 2e45 38bd fc55 fab8 41c1 bcba
000000d0: 722b 22ba dc99 4b39 5990 43bd 9c94 8b3d
000000e0: 0824 50bd bd59 b43a 6b2f fb39 6f42 91bd
000000f0: cdc3 22be be64 c7bd d73b 933a 73c1 183a
00000100: 8480 b539 4fa8 a83d effd 2dba 4a3f 88bd
00000110: 58fb 8539 27bb 2f39 8a7b b4b8 5165 5dbe
00000120: 6933 b83d 033e eebc dc10 87bd 4e7d b13d
00000130: 7adc a339 f7e0 4bbd 3818 cbbc 103a b33e
00000140: f30a 99bd 4552 37ba f6d8 483d 59fc a6bd
00000150: c5db c5bd c619 94b6 b9f2 5b39 8f56 bbb7
00000160: b282 b43d 89b2 3dbd 3f37 a6bd ff02 54be
00000170: b232 573d f395 04bd 7742 f5bc f674 e939
00000180: 0125 d538 6308 a43c cba9 c93d 2cf7 ad3d
