Quantum/1 qubit/complete/models/3_latent.pt (torch, 94759 bytes, 6 tensors)

encode.0.weight f4 [100, 10]
00000000: e284 c53e 7957 1c3e 56e6 053e 3d93 9a3e
00000010: 3ed8 abbe a419 8fbd 1e9f 8ebe 0df5 30be
00000020: 257f 61be a2a1 14be b159 8fbc b617 afbd
00000030: 387d fcbd 843b 68be fd1d 863b 3dae e6be
00000040: ec40 a53e ef68 473e e1ec a13d 0ce6 d13e
00000050: 311c 4b3c 954e b43e 63dc 683e 281b ea3d
00000060: c07d afbe 4f7a d03d ea6c bb3d 2096 4ebe
00000070: 5664 873e c478 b3bd 4e59 013e 6524 6a3e
00000080: 9a4b 1fbe add4 4b3e 75d8 9e3e ee14 6abe
00000090: f38c 46be 8db1 683e 7d1e 8bbe 8b92 3abe
000000a0: c591 1a3e be7b 6d3e 005d 433e e2a0 263d
000000b0: 41c4 88be 6ce2 a9bd 9559 78be bb4b 23be
000000c0: 1fed 6e3e 7d8f 2cbd 1e66 8c3d fb25 04be
000000d0: a31e 883d 197f 1cbe 0a6e 2dbe 19b0 923e
000000e0: 1b26 82be cca4 073e 73de 803d a879 8fbe
000000f0: 20fb 803e 94cd a03e 846f 87bc 8a55 ccbd
00000100: 3708 adbd 7328 cb3e 58d1 97bd 27e5 09bd
00000110: 90dd 033d dd45 7cbe 13ff 1a3e 0825 7dbb
00000120: f944 7dbe 7b50 cfbd 68c5 613d 9887 a7be
00000130: 149a 8bbe 9ddc 673e cd70 14be 3e44 873e
00000140: 46b8 533e 29be 7abe 2e92 b43d 88e2 0f3e
00000150: 3f62 8cbd 66e2 6abe 1278 afbd 7458 9e3d
00000160: 653f 45bd 60b3 483d 20da 4ebe 7ca9 b93d
00000170: 4c1f 5b3c cb12 a0be d722 293c 8394 3b3d
00000180: 387d 17be 94de 6b3e f10c 4a3d ef86 6a3e
00000190: eeb4 c93c dd7d ccbe 54da fe3d 5f55 c93d
000001a0: 8dca b83e f448 0c3e 2c77 8f3e 1481 6c3e
000001b0: 0cc2 22be 3a68 3fbd 54e6 f63c a5b5 dc3c
000001c0: 869b ae3c d27f c5be ba0d 133e 7f82 d23d
000001d0: 6529 003e 13a3 5abe 96cc 1a3e 094e 383e
000001e0: 3bf6 8abd f727 e0bd 6bb6 743e 06c5 993d
000001f0: 4a17 12be e36c 9ebd ac55 13be 9a68 a73e
00000200: 27f8 d9bb fb5c a9bd 83e2 0f3d f4bd 3cbe
00000210: cf53 6f3e 8792 be3d f395 95bc a501 a7be
00000220: 72cd 373e 5966 453e 8f5d 403d d901 a5bc
00000230: 1439 343e e3c7 853e 1325 a2be 26d9 5d3e
00000240: f674 a2be 481c f63d 8fe5 bebd d964 463e
00000250: 0504 84be b543 32be 42c4 9bbd 21f6 a13e
00000260: cb45 bbbe f886 2b3e ceef bfbe adf0 b43d
00000270: 04f3 00be b606 913e 8747 493e 1141 67be
00000280: 824c 2cbe 75b7 16bd e7ce 18be 4147 35be
00000290: 4d94 95be cd68 963e 399e 883e d8a5 2d3e
000002a0: 0d5c ebbd 8890 d03d e5d3 d1bd bcfa eebc
000002b0: d98b 5cbe 3a1d 893e ec12 8b3d c3e5 313e
000002c0: 3a5d 8d3e 2e8d 57be 8ea7 f43c 4d1a 80be
000002d0: e9be 8bbe 0ef7 e63d 5993 48be 6f2c b63d
000002e0: ee26 a3be 6591 a8bb 6f75 0c3e 8350 08be
000002f0: 0ada 64bd 81b0 df3d 4190 41be fcce eebe
00000300: fd40 bc3e 178b 8bbe 5715 b23e 554f 893e
00000310: 2030 b63d 704b 033e 58a9 34be 491c 50bc
00000320: dc90 4ebe 25b8 b0be 08ee 0e3e 53b4 883e
00000330: 0b64 0dbe 6fdc a5be 142c 8a3e 3116 313e
00000340: 9903 813e 221d 423e fb26 85be 3a22 48be
00000350: b26e 0b3e eba9 94bc c3d2 3e3e 9512 94be
00000360: e9c9 6bbe e262 7abe afec 5c3e 9e65 073e
00000370: 55a9 a03c 5490 8dbd db54 f2bd 066b 693e
00000380: ff23 25be 6ea8 bdbd 3b6f 05be 2752 403e
00000390: 58c5 8e3e 1f1a a13d bd36 843e eea5 a1bc
000003a0: 033c 433e b6c5 6dbe 39bd adbe 8fa8 283e
000003b0: 41ce 6d3e 5746 7a3d 2f6b 8cbe df54 953d
000003c0: 957f 373e e317 97be f1fc 5f3e 7185 72bd
000003d0: e114 c73e 9224 50be f7cc df3c 06b6 023e
000003e0: 7a9d 8e3d 9a68 8fbe 0dc4 b5be 6489 64be
000003f0: 75b9 b03e 1497 b33e 8db3 bc3e 0d25 66be
0.38577944 0.15267743 0.13076147 0.3019046 -0.33563417 -0.069873124 -0.27855772 -0.1728098
-0.22021158 -0.14514783 -0.017498823 -0.085494444 -0.12328571 -0.22678953 0.0040929304 -0.45054808
0.32276094 0.19473623 0.07906509 0.40995824 0.012396858 0.35216203 0.22740321 0.11430961
-0.34275627 0.101795785 0.09151633 -0.20174456 0.26443738 -0.087632686 0.12631723 0.22865446
-0.15556183 0.19905348 0.3102452 -0.22859547 -0.19389705 0.2272398 -0.27171698 -0.18219964
0.15094669 0.23191735 0.19078445 0.040680774 -0.2671223 -0.0829514 -0.24252923 -0.15946858
0.23332642 -0.04212903 0.06855415 -0.12905113 0.066464685 -0.15282859 -0.16936508 0.28649977
-0.25419697 0.13246459 0.06292429 -0.28022504 0.25191593 0.31406844 -0.016532667 -0.09977253
-0.084488325 0.39679298 -0.07412976 -0.033665802 0.03219372 -0.24636026 0.15136366 -0.0038626809
-0.24733342 -0.10122772 0.055119902 -0.32720637 -0.2726599 0.22642751 -0.14496155 0.26419252
0.20675763 -0.24486603 0.08816944 0.14051259 -0.068546765 -0.22937927 -0.085678235 0.07731715
-0.04815616 0.04899919 -0.20200396 0.0906553 0.013374161 -0.31264338 0.010323248 0.04579593
-0.14793861 0.23034126 0.049328748 0.22903036 0.024622407 -0.39939776 0.124439865 0.09830736
0.36092034 0.13699704 0.28020608 0.23096114 -0.15894336 -0.046730258 0.030139126 0.026942084
0.021314394 -0.38574082 0.14360705 0.102787964 0.12515791 -0.2135127 0.15117106 0.17998518
-0.06785246 -0.10945123 0.23897712 0.07508282 -0.14266697 -0.07735612 -0.1438815 0.32696992
-0.0066518965 -0.08269688 0.035128128 -0.18431836 0.23371814 0.093052916 -0.018259978 -0.32618442
0.17949465 0.19277324 0.046964224 -0.020142483 0.17599899 0.26129064 -0.3166891 0.21664867
-0.3172986 0.12017113 -0.093211286 0.19374408 -0.25784317 -0.1740864 -0.076057926 0.31633094
-0.36576685 0.16750705 -0.37487644 0.08834968 -0.12592703 0.28325433 0.19656192 -0.22583415
-0.1682606 -0.036796052 -0.14922677 -0.17702962 -0.29214707 0.29376832 0.26683214 0.16957796
-0.11492167 0.10183817 -0.10245494 -0.029172294 -0.21537723 0.2678011 0.067907184 0.17372803
0.2761019 -0.2104995 0.029865053 -0.25020066 -0.2729409 0.11277591 -0.19587459 0.08895194
-0.31865638 -0.0051442855 0.13716672 -0.13311963 -0.055872 0.10922337 -0.18902685 -0.46642292
0.36768332 -0.27254555 0.34781906 0.26818338 0.08895898 0.12821746 -0.17642725 -0.012702056
-0.20172447 -0.3451549 0.13957989 0.26700076 -0.13807695 -0.3239474 0.26986754 0.17293622
0.25198057 0.18956426 -0.26006302 -0.19544306 0.13616446 -0.01814743 0.18635087 -0.28920427
-0.23026241 -0.24451783 0.21574663 0.13222358 0.019611994 -0.06912294 -0.11832591 0.22794732
-0.16127013 -0.09260641 -0.13030712 0.18781339 0.27884936 0.0786631 0.25823012 -0.019732442
0.19065861 -0.23219952 -0.33933428 0.1647055 0.23223211 0.061102238 -0.27425525 0.072915785
0.17919762 -0.29510412 0.21873833 -0.05920929 0.38883117 -0.2032645 0.027319415 0.12764749
0.0696363 -0.28009492 -0.35501137 -0.22318035 0.34516492 0.350762 0.36855736 -0.22475071

encode.2.weight f4 [100, 100]
00000000: ecb8 d83d 9e93 54bd 2455 79be 13ec f2bd
00000010: 07a8 7f3c 087e 383e 74be 17be 36f3 823e
00000020: d4fd 06be 93d7 bebc dcd0 7fbe af90 a9bd
00000030: 2f22 aa3d 17dc e2bd 2ef3 bf3e 8ae2 303e
00000040: e258 1f3d d31f c5bd 6886 203e e02c 9cbe
00000050: 1b5d d5bd e630 1e3d 4444 f0bd 11f2 03be
00000060: f6d2 9cbe 314e 23bd 3432 1b3e 0949 953e
00000070: 1d05 98bd 0027 b8bd adab a93d 69ff 8d3b
00000080: b4da 68bd acb6 5c3e d951 58be 772b 9c3d
00000090: 7ea6 9b3c 9bff 3e3e b893 683e 6634 96bd
000000a0: 212d 30be 3a98 45be 9e92 a83d 580a 2e3d
000000b0: 5e04 303c d300 a5bd b0ea 8fbd bee7 3c3e
000000c0: 6fdf 72bd 7196 06be db60 513d 1828 6a3c
000000d0: d99e c33d 7993 4b3e 834c 0f3e fb19 3dbc
000000e0: 7be1 0bbe cc54 a3be 0ff1 bc3c 5f31 87bd
000000f0: 84c4 a43e 0836 aabd 7a28 093d 74ab 96be
00000100: 7210 2cbe f5ad 48bd 40d7 9f3c 2376 ebbd
00000110: ef44 23be 8eb8 eebd 5bc0 363e d642 3abe
00000120: 338e 223e c90e 85bd 63f7 9f3d 1955 6a3d
00000130: 0419 67be 8621 fe3c 012b f13d b044 21be
00000140: 39f6 303e 99ee b43d 946b a2bc 29b2 b93e
00000150: 153c 193e 36b9 2dbe 5a8a 2f3e 97a2 513e
00000160: 9f4c 1a3e ad69 8fbd 2425 06bd 81d3 25be
00000170: 3b14 10bd 4197 2bbe 4127 56bd 9034 e1bd
00000180: 6c99 433d 315b 76be 7ac2 edbd a6db c6bd
00000190: f764 d33c 8603 03bc 59ae 8d3c 02bd 92bd
000001a0: b57e 1ebe 44b2 df3c a9ec 313e 6383 ad3c
000001b0: 75a6 6bbd abbc d03c 16ca 0c3d 0579 5cbd
000001c0: 8353 f23c 255d 413c 5863 103e c5f1 093e
000001d0: f448 773e 5cfe 1d3d 04d0 993c 2cc9 9abd
000001e0: fce8 3ebe 8531 73be 7138 7c3c 3bcf b23d
000001f0: 47b4 b7bd ee94 8abe dfbf 94bd 25cb 9e3c
00000200: bf71 353d 86c0 463e 7c79 163d e875 94bd
00000210: fe88 803e 0bed 0fbe b05b b2bd f063 853e
00000220: 7bcd 06bd 2981 853e 3c90 14bd 4e23 723d
00000230: 90c0 0bbe cac8 00be 89b0 193e 6277 4a3e
00000240: 7188 b83b 018e 84bd 19aa eb3c 8711 883d
00000250: 24b5 16bd f798 003d 9300 c83c beef d53b
00000260: 8a38 a8bc 6d99 fb3c 48c1 82bc 15d1 d43c
00000270: cf01 553e 1df5 b7bd c415 1d3d f85f 89bd
00000280: c5b5 2ebe 6c96 0cbd c246 ccbc b83e b93c
00000290: db12 c33b eaa9 ea3a 9797 703c e2f0 9e3c
000002a0: 6ab1 883b 2111 22bd 12ee f23e af9c 033d
000002b0: b291 d2bc 3f4e a83e ddbf a73c 6e5c 4bbe
000002c0: 8bcf 5d3c 6af8 c8bc 7f48 b3be dcb5 00bd
000002d0: 91db 903d b3d7 99bd 5581 513d db98 ee3d
000002e0: a86d 0dbd 1d85 3dbe bf2d 08bd 2d0a 91bc
000002f0: a07c d9bb df06 223e 46db 1c3e 4eee 063e
00000300: 413d 07bd 2740 17bd 5c2c 65bb 3c02 54be
00000310: 5a82 693d 0034 7e3d 8b83 703d 3b1b 2fbd
00000320: d9d6 503d a39a 57be 0a6f a33d 2d81 8b3d
00000330: 77f1 903d 1412 f43d 031f efbc 14f9 183e
00000340: c723 f83d 7407 21ba 7fd5 52be ec3b 06be
00000350: 8806 83bd 6e6f ce3a 0fd2 373e 4e46 763e
00000360: b7b5 a6bd e8f0 ddbc ee82 a43c 669e 33be
00000370: c603 8ebd 1cd7 11bd 57ff 04bc 9624 9abc
00000380: e9ff 5dbd e1a5 47be 0e39 da3d 292e fa3d
00000390: 6ccc 67bc 5cd1 413e 5ab7 7fbd 39d4 6cbe
000003a0: 91bf ba3d cda5 013e da0d fabc 9c2d e83d
000003b0: 644c 193e 4ca7 4b3e 9db5 023e 9645 aa3c
000003c0: cd57 09be 06b0 88bd 3957 2c3c c22c 83bb
000003d0: b730 62bd 0682 b33c af43 653c b2e5 fb3d
000003e0: 8b0f 11be 3b5e cbbd 980c a4bb b95c 9abd
000003f0: 0320 043e 8e8d 343d 259c 89bc f77b d13c
0.10582146 -0.05189859 -0.24348885 -0.11861434 0.015604026 0.18016827 -0.14818746 0.2557618
-0.13182765 -0.023296153 -0.24982017 -0.08279549 0.08307301 -0.11077135 0.3749022 0.17273918
0.038903125 -0.096252106 0.15676272 -0.30502987 -0.10418149 0.038620852 -0.11731771 -0.1288531
-0.306297 -0.03986949 0.1515587 0.29157284 -0.0742285 -0.08991814 0.08284698 0.004333426
-0.056849197 0.21554059 -0.21124972 0.07625478 0.019000288 0.18652193 0.227126 -0.07334213
-0.17204715 -0.19296351 0.0823109 0.042490333 0.010743229 -0.08056798 -0.07027185 0.18447778
-0.059295114 -0.13143326 0.05111776 0.014291786 0.09551782 0.19880475 0.1399403 -0.011541839
-0.13660233 -0.31900632 0.023064164 -0.06601214 0.3218118 -0.08311087 0.033485867 -0.29427683
-0.16803148 -0.048994023 0.019511819 -0.11497142 -0.15944265 -0.11656295 0.17846815 -0.18189558
0.15874557 -0.06496961 0.07810857 0.05721006 -0.22568136 0.031021845 0.117757805 -0.15748858
0.17281426 0.088345714 -0.019826688 0.36268738 0.14964326 -0.16965184 0.1714262 0.2047218
0.15068291 -0.07002578 -0.032750264 -0.16193964 -0.035175543 -0.16756918 -0.05228353 -0.109963536
0.047753736 -0.24058224 -0.11609359 -0.09709863 0.02580498 -0.0079964455 0.01729505 -0.07164957
-0.15478022 0.027306683 0.17375435 0.021180814 -0.057531793 0.025480589 0.03437241 -0.05382635
0.029580837 0.011801993 0.14100397 0.13471134 0.24148923 0.038572654 0.018775947 -0.07557902
-0.18643564 -0.23749359 0.015394316 0.08730932 -0.08969932 -0.2706675 -0.07263159 0.019383976
0.04429793 0.1940938 0.03673695 -0.07249051 0.25104517 -0.14055268 -0.08708894 0.2605281
-0.032910805 0.26075104 -0.036270365 0.0591157 -0.13647676 -0.12576595 0.15008749 0.19772103
0.0056314995 -0.064723976 0.028767632 0.06643968 -0.036793843 0.03139588 0.024414336 0.0065288236
-0.020534772 0.030712808 -0.015961304 0.025978604 0.20801471 -0.089822985 0.038350835 -0.06707758
-0.17061527 -0.03432314 -0.024936084 0.022612914 0.0059531755 0.0017903422 0.014684579 0.019401971
0.00417154 -0.039567117 0.47447258 0.032131847 -0.025704239 0.32872197 0.02047723 -0.19859478
0.013538252 -0.024532516 -0.35016248 -0.031423435 0.07073129 -0.075118445 0.05114873 0.116502486
-0.034528404 -0.1850781 -0.033246752 -0.017705048 -0.006637171 0.15822934 0.15318021 0.13176844
-0.0330174 -0.036926415 -0.0034969067 -0.20703977 0.05700908 0.06206131 0.0587192 -0.04275058
0.050986145 -0.21055083 0.079801634 0.06811748 0.07077306 0.11917511 -0.029189592 0.14938766
0.12116199 -0.0006142773 -0.20589255 -0.13108796 -0.0639773 0.0015749761 0.17951225 0.24050257
-0.08140128 -0.027092412 0.020081963 -0.17540893 -0.069343135 -0.035605535 -0.008117518 -0.018816274
-0.054199133 -0.19496872 0.106554136 0.122158356 -0.014147859 0.1892752 -0.062430717 -0.23127832
0.0911857 0.12660904 -0.030524183 0.11336824 0.14970547 0.19888037 0.12764592 0.020785134
-0.134124 -0.06674199 0.010518842 -0.0040031383 -0.05522224 0.021912586 0.013993188 0.1229967
-0.14166085 -0.099300824 -0.005006384 -0.07537217 0.12902837 0.04408031 -0.016798088 0.025571806

encode.4.weight f4 [6, 100]
00000000: a6ba 453c c306 0cbe 8b21 b0bd e5c2 d839
00000010: 4e81 44bd 8e28 87bd 1490 acb8 845b 9839
00000020: e1d8 92be 0e46 54bd 40d8 8abd 2b5c 043d
00000030: 8f23 e03c 29f0 9bb9 b99d 063d 73ca 973d
00000040: a78c aabd a42a 04ba 649f ca3e 07d6 a939
00000050: 2ae1 2239 5ded 17b9 e95c be38 ee33 c1bd
00000060: a3ca e13b 97ea 6bba a263 20bc 75f9 18b9
00000070: 083b 86b9 579b 18b8 929d 5fbd 7f99 6439
00000080: 47d9 003e 95c2 ceb9 6c91 04ba 5eb3 55b9
00000090: ba8e 5db9 a028 7bb9 41dc 6c38 780b 91b9
000000a0: 2497 7abc 164b 4bbe cd8e 963b 77f1 ae3c
000000b0: 1921 17b8 9ea1 7eba 4842 6c37 db42 df38
000000c0: 5a6c bdb9 c218 cc39 5aa7 91bd 6090 68b8
000000d0: 74f8 2cbe ab59 d3ba d292 893d cd67 0f39
000000e0: d06f 15b9 983f af39 5d77 f83b 5b16 d5bc
000000f0: 1fc4 d8bd e112 26b9 70ab cc3c dd33 01bd
00000100: 5939 be38 e5c0 95b9 f8a0 333d fe4c d239
00000110: 030e 8a39 a794 1d39 0072 2fbc 4c1b ea3b
00000120: bd55 10ba 3843 9f3c 4c56 e3bd 3a49 083e
00000130: 0ded 063d 6c4a 293d 56b5 893d 1d0e 8d3d
00000140: 7005 49bb cde3 cc3d 1a59 08bc 7d7a 6abc
00000150: 84be 563d 0551 b1b9 b543 a4b8 84fb 5fb8
00000160: 0ad8 f73b eacf a1bd f0f9 e038 c5b9 27ba
00000170: 847e 9737 d8e9 2939 af92 27be c6c7 e63b
00000180: 0fc4 61bd a859 1ebe 6de7 97bb a687 0c3d
00000190: 94bf 9bbb 392c af3d 5ca9 213d fd17 2b3a
000001a0: 0763 93bd dfdd d43d 1008 2ab9 0838 dcb8
000001b0: fbe8 093c 281b 593d 972f 93bc ec5e c3bc
000001c0: af85 a03c 6189 ca38 6e2a b73c 538f a63d
000001d0: 96e8 8d3d 214d 3c39 20d4 ed3c c625 67b9
000001e0: 3c16 863a 887e 27ba e3c6 87b9 048b 19bd
000001f0: 1d87 173e d9cd f03c b06a ec39 3575 6eba
00000200: 027c 5f39 1412 a939 bf66 ad3d 2669 c939
00000210: 2171 1b3e 6ad5 d63a 8d1b 0fbb 12bf 2aba
00000220: cff2 41bb 9892 84b9 6832 ae39 f4a8 3eb9
00000230: 898f 80bc 0ed5 023e 74ff 44bb 7c02 c8bc
00000240: 42ba a6b8 7770 ccbc 3e69 b5b9 f704 b739
00000250: a765 beb9 8c39 003b 5f32 13bd 19a3 8fb8
00000260: 1166 0c3d 7c47 fcba 3d26 b0bd 37c5 0a3a
00000270: e76f 9dba 414f 6c39 5142 07bb 5987 023d
00000280: 15d3 213c 43e2 baba 5c68 b33c 83a0 5bbd
00000290: a626 b4b8 cc04 a3b6 efcd 1c3d f4d9 6539
000002a0: bf18 2b39 ec22 b239 2733 923e 9262 0b3d
000002b0: 0ac8 13b7 eb2b aebc befe 58bd c79b f8bd
000002c0: b059 b3be 1743 05bd badb 8abc 8321 853d
000002d0: 7ebf ed3c fdc8 183e 8a8d 233b 9b4c 953c
000002e0: 7e57 62bd f257 62ba d87c 113a d360 8e39
000002f0: 022e 7f3c cc0e dabd b88d afb9 3ded 03bb
00000300: a585 4cb9 686b d939 eabe 00be c134 b93c
00000310: c698 703d f772 cc3c b69f 143c 57bf b3bc
00000320: 0e76 50bd 800d a9bd b3cc 313b 5926 19b9
00000330: 0a50 b93d 53a3 903d fcfe 7b38 1215 bc38
00000340: c836 5cbc 0550 df3c 48f7 35bd e31d d538
00000350: b128 03be 6ce1 2739 2e46 8dbc fb75 e1bd
00000360: dd29 80bd 22c7 a5b9 208a 08bc 3687 8d39
00000370: 0c92 e3b7 cf4d 22ba d044 873a 520c 62bd
00000380: a22d 32bc 88bd 56be 9e68 193c 48ca 4039
00000390: a239 67b8 d000 65b9 9b39 1d3d 744a bbb9
000003a0: 6633 f0bd 45a0 5e3b f2b6 e639 d663 7939
000003b0: 966a c9bb e1e4 71b9 2c91 08b9 74dc c538
000003c0: 3fde 9cbd 6784 be3d 4f0c e43c 55dd 3abb
000003d0: 9b6c 293a 7cf4 a63c b436 c639 fb6f c1b8
000003e0: ca99 45b8 824a 3d3b dc7c 893d 47ef 6bb9
000003f0: b347 4d3d 8ed8 90bb 46da 9dbd 4004 34b9
0.012068426 -0.13674454 -0.08600148 0.00041343938 -0.047974877 -0.06599532 -8.228436e-05 0.00029059884
-0.2868109 -0.05182462 -0.06779528 0.03231446 0.027360706 -0.00029742837 0.03286526 0.07411661
-0.083276086 -0.00050417543 0.3957473 0.00032393655 0.00015533404 -0.00014488907 9.077212e-05 -0.09433733
0.0068906113 -0.0008999495 -0.009789379 -0.0001458878 -0.00025602453 -3.6384296e-05 -0.05459363 0.00021800956
0.12582885 -0.00039436357 -0.000505707 -0.00020380082 -0.00021129372 -0.0002395236 5.6471912e-05 -0.000276651
-0.015294824 -0.19852862 0.00459466 0.021355374 -3.603203e-05 -0.0009713414 1.40821285e-05 0.000106459214
-0.00036129617 0.00038928358 -0.07111998 -5.544757e-05 -0.16891652 -0.0016124746 0.06717457 0.00013676212
-0.000142514 0.00033425982 0.0075825886 -0.026011636 -0.10584282 -0.00015838027 0.024984092 -0.0315436
9.070588e-05 -0.00028563212 0.043854684 0.00040111685 0.0002633185 0.00015028064 -0.010708332 0.0071443673
-0.000550594 0.019441232 -0.11100444 0.13309184 0.032940913 0.04133074 0.0672404 0.068874575
-0.0030673407 0.10004387 -0.008322025 -0.01431143 0.052427784 -0.00033820435 -7.832741e-05 -5.3401585e-05
0.0075635957 -0.079009846 0.00010727707 -0.0006398226 1.8059516e-05 0.0001620421 -0.16364549 0.007042858
-0.055118617 -0.15463889 -0.0046357424 0.034309052 -0.0047530625 0.08553357 0.039468154 0.0006526707
-0.07196622 0.10393881 -0.00016215467 -0.00010500854 0.008417363 0.053004414 -0.017967029 -0.023848973
0.019594995 9.6576994e-05 0.0223591 0.08132806 0.06929128 0.0001795781 0.029031813 -0.00022043948
0.0010230015 -0.0006389399 -0.0002589739 -0.03748609 0.14797635 0.02939503 0.00045092916 -0.00090964447
0.00021313134 0.0003224766 0.08466863 0.0003841605 0.15179874 0.0016390507 -0.002183649 -0.0006513457
-0.0029594188 -0.00025286223 0.00033225422 -0.00018182752 -0.015693443 0.12776586 -0.0030059488 -0.024415247
-7.95019e-05 -0.024955971 -0.00034601422 0.0003490818 -0.0003631536 0.001956555 -0.03593671 -6.849151e-05
0.034277026 -0.0019247378 -0.086010434 0.00052936695 -0.0012011499 0.00022536238 -0.0020638893 0.03186736
0.009876986 -0.0014258105 0.021900348 -0.053619873 -8.590268e-05 -4.858337e-06 0.03828233 0.00021920336
0.0001631705 0.00033976824 0.2855465 0.03402955 -8.808458e-06 -0.021261176 -0.052977316 -0.12139087
-0.35029364 -0.032534685 -0.016950477 0.065005325 0.029021975 0.14920421 0.002495619 0.018225005
-0.05525922 -0.00086343207 0.0005549914 0.0002715649 0.015574934 -0.106473535 -0.0003348419 -0.0020130419
-0.00019504743 0.0004146949 -0.12572828 0.022608163 0.058739446 0.024957163 0.009071281 -0.021941824
-0.050893836 -0.08254528 0.0027130067 -0.00014605503 0.09048469 0.070624016 6.0080536e-05 8.968463e-05
-0.013440795 0.027259836 -0.04442528 0.00010162198 -0.12808491 0.00016010337 -0.017245378 -0.11008831
-0.06257985 -0.00031619618 -0.008333713 0.00026994356 -2.7128517e-05 -0.0006191404 0.001032019 -0.05518753
-0.0108751375 -0.20970738 0.009363322 0.00018385903 -5.5128367e-05 -0.00021839445 0.038385015 -0.0003572289
-0.117285535 0.003397004 0.00044005323 0.00023783682 -0.0061467392 -0.00023068815 -0.00013024051 9.4347546e-05
-0.076595776 0.093025975 0.0278379 -0.0028513272 0.0006463022 0.020380251 0.0003780626 -9.223815e-05
-4.7111687e-05 0.0028883521 0.06713268 -0.00022500484 0.050117206 -0.0044203466 -0.07707648 -0.00017167721

decode.0.weight f4 [100, 13]
00000000: b02d 21bd 777d 3f3e 46dc f73d 3716 a1bd
00000010: 4d68 8c3e 24f5 403e 75c5 3ebd 8aa4 0f3e
00000020: 4295 d2be 51c0 a53b c8e6 2bbe aaf8 d3bd
00000030: 938d 0d3e 5b0c 713e e536 05bd 541e f23b
00000040: 56e0 383e 27f1 873a 1467 eb3d 517f debe
00000050: fe61 78be 330d 4b3e 096a da3e b61f b43d
00000060: 81c1 763d 3eb2 08be baea d9bd 67ac 1a3d
00000070: 7ebd 033e 0e70 72be 0ffd 193e 0d6d 493d
00000080: c85c 0b3f 7a1f 723d b764 91be ee00 fbbe
00000090: 829b 5abe 307c 833e 8106 ce3e 3e34 873e
000000a0: 43d2 6a3e 363f 03be 4abd 17be 5dd4 2e3e
000000b0: ced0 61be db2d e23d 5d28 a2bd fc06 c6be
000000c0: c8ab 123c c419 0fbe d88e 82bd f9fd a8bd
000000d0: f3d8 3f3d 2dd6 98be 4f04 c1be 2029 4ebe
000000e0: 45e8 81bc f754 813e c49e 04be 4ecb 303e
000000f0: 3143 6ebe 4294 9abe 5c92 483c 8707 d0bd
00000100: d16a 45be b31c 2fbe 627d cebe 3b6b 0e3d
00000110: 23c1 6a3e 1152 513e 224c fbbd e35f afbd
00000120: 4c5b 36be 5fb8 a9be 188b 9b3c edc4 04be
00000130: e3c0 443d af1c 68be 59ce 1bbd dea1 b53e
00000140: 0fa9 a93e 4708 4f3e 8199 0b3d 9640 19be
00000150: d3c7 78be 0acb 6dbe e46a 9c3e 7214 c7bd
00000160: 3919 46be 5820 e9bd 3c29 8dbe a6a8 393d
00000170: 1cf5 983e c697 88be 8ae4 3c3e 9d4d 08bd
00000180: a945 613e ede6 11be bac0 963e 1858 553d
00000190: cd66 b9be 2498 b6be a841 02be dbde b53e
000001a0: 4a52 d6bd 1a3f 8cbe 3183 c93e 6b9d c13c
000001b0: 5136 483e c027 79bd 365a fd3d 8446 88be
000001c0: 2a11 9fbe b815 513d db1f 973e fe7e 653d
000001d0: 3e60 4dbe 9c23 8f3d 1279 99be 060c 773e
000001e0: 12b6 e43c 304d 353e a2bd 69be ae0d 923d
000001f0: 16b8 343e 9eab 9f3e d22e abbe 2b70 ab3d
00000200: 2561 db3c 93b0 a93e 7c99 043d 29a1 aa3c
00000210: cc9d 7b3a f2c1 723e d2a0 883d a1cb e63d
00000220: 8abd 97be 3e4a 513d ef0b 8ebe 8cf1 113d
00000230: 90ec 1dbe c4f7 e13d 9bb4 a53c 4dd3 d83e
00000240: cbda 33bc 79f8 b9bc 285e be3e 9d49 773d
00000250: cf35 bb3d 100f e13b ea40 cabd c5c8 4bbe
00000260: 4af9 da3d ceb6 bdbd 0225 ef3d 3be4 87be
00000270: 4676 a3be 2edc 66be f5bf a8bd 9e4b 453e
00000280: 8bf9 823c 144e 9a3c 5c04 953e c0d3 713e
00000290: 1c69 a7bd d57a cfbd 7572 9bbd 6831 973e
000002a0: e211 173e b71c 0fbe 2dba 6e3e e775 cc3d
000002b0: ff3b 9e3e 9193 b3be e72f 86be ef42 ebbd
000002c0: 58df 43bc 24c1 813d 3a40 ae3e 3283 e2bd
000002d0: 3c76 26be 09ac 3ebd c1f2 9d3e 9379 7ebe
000002e0: 5ff6 9dbc b239 553c 2d42 a8bc 5d8b 9fbe
000002f0: c103 fdbe f61f 0c3e 5968 4c3e 729c a33e
00000300: 2d5d 933e d499 ac3d ac0c bcbd 419d 8fbc
00000310: 6d31 bfbe e566 4c3e b70e 1a3e 0233 22be
00000320: f339 3ebe ad66 00be f1c3 67be c9e3 8fbe
00000330: 9bc1 d0bb 87fc 833d 6bc2 6e3e 5557 0fbe
00000340: 0bb8 85bd 8265 b03e 844a 94be fcb7 1ebe
00000350: 95b6 6f3d b938 0abe f2ff fd3d e095 31bb
00000360: 2870 1e3d f148 edbe 3714 17be 4717 243e
00000370: 0531 453e 9765 4a3d af81 58be 4215 57bd
00000380: 8517 973e 79bd a0be 04bf ae3d d5d6 a63b
00000390: e13a a5be 6064 5ebd 8bbf 893e 70a5 783e
000003a0: 37f2 383e 2656 98bd 6748 003d c8c0 3bbe
000003b0: 0521 ef3e 08b1 c53b 098c 5abe 384e 53be
000003c0: 8faa 963d 7ef7 10be a3f6 aabe c2fa 613e
000003d0: b17e 9fbc b5e4 3b3d a855 c9be 6279 94be
000003e0: 3292 943d 0e09 ce3e 2d93 3a3e e265 973e
000003f0: 4148 65be 88d7 263e c217 8bbe 0f34 e9bc
-0.03935021 0.18700205 0.12102561 -0.07865565 0.27423325 0.18843514 -0.04657503 0.1402761
-0.411295 0.0050583263 -0.16787255 -0.10350163 0.13823538 0.2353987 -0.032523055 0.0073888693
0.18054327 0.0010371552 0.1149427 -0.4345651 -0.24256131 0.19829254 0.42659023 0.08795111
0.060243133 -0.13349244 -0.10640474 0.037762072 0.12865254 -0.23675558 0.1503794 0.049176265
0.5443845 0.05911205 -0.28397152 -0.49024147 -0.21348384 0.25680685 0.40239337 0.26407045
0.22931771 -0.12817082 -0.14818302 0.17073198 -0.22052309 0.110439025 -0.07917855 -0.38677204
0.008952089 -0.13974673 -0.063749015 -0.082515664 0.04683776 -0.29850903 -0.376986 -0.20132875
-0.015857825 0.25260136 -0.1295119 0.17265055 -0.23267819 -0.30191237 0.012241926 -0.10157686
-0.19279028 -0.17100792 -0.40330034 0.03477023 0.22925238 0.20441462 -0.122703806 -0.08563211
-0.17808264 -0.33148476 0.018987224 -0.12965746 0.048035514 -0.22667192 -0.038038585 0.35475057
0.33136794 0.20218001 0.03408194 -0.14966044 -0.24294977 -0.23221985 0.305503 -0.097206965
-0.19345559 -0.11383122 -0.27570522 0.04532685 0.29874504 -0.26678294 0.18446556 -0.033277143
0.2199923 -0.14248247 0.29443914 0.052085966 -0.36211243 -0.3566295 -0.12720358 0.35521588
-0.10464914 -0.27391893 0.39357904 0.023634633 0.1955197 -0.060828924 0.12370722 -0.266163
-0.31067783 0.051046103 0.2951649 0.056029312 -0.20056245 0.06989214 -0.29975182 0.2412568
0.02791885 0.17705226 -0.22826245 0.071315154 0.17648348 0.3118562 -0.3343416 0.08371004
0.02677972 0.33142528 0.032372937 0.0208288 0.00095984037 0.23706797 0.06671299 0.11269308
-0.29636794 0.051096193 -0.2774348 0.035630748 -0.15422273 0.11033586 0.020227721 0.4234871
-0.010977457 -0.022701489 0.3718121 0.060372937 0.091411225 0.0068682507 -0.098756626 -0.19900806
0.10692079 -0.09263383 0.116769806 -0.26541314 -0.31926173 -0.2254493 -0.08239738 0.19267127
0.015988132 0.018836059 0.29104888 0.23615932 -0.08174345 -0.1013085 -0.0759019 0.2952988
0.14752916 -0.13975798 0.23313208 0.099834256 0.30905148 -0.35073522 -0.26208422 -0.11487376
-0.011955105 0.06335667 0.34033376 -0.1106018 -0.1625604 -0.046550784 0.3084927 -0.24851064
-0.019282518 0.013014244 -0.020539368 -0.31161013 -0.49416927 0.13684067 0.1996168 0.31955296
0.28782025 0.08427778 -0.091821045 -0.01753104 -0.37342396 0.19961126 0.15044676 -0.1583977
-0.18576793 -0.12539168 -0.2263334 -0.28103474 -0.006370736 0.0644465 0.23316352 -0.13998158
-0.06529244 0.34452444 -0.289631 -0.15499872 0.058523733 -0.134982 0.12402333 -0.002709739
0.03868118 -0.46344712 -0.14753805 0.16024505 0.1925698 0.04941329 -0.2114322 -0.052510507
0.2951013 -0.31394556 0.08532527 0.005091528 -0.32271484 -0.054294944 0.26903948 0.2428186
0.18061148 -0.074383065 0.03131905 -0.18335259 0.4670488 0.0060330667 -0.21342482 -0.20635307
0.0735675 -0.14156911 -0.33391294 0.22068313 -0.01946959 0.04587241 -0.39323163 -0.28998858
0.07254447 0.40241283 0.18220206 0.29569918 -0.22390844 0.16293156 -0.27166563 -0.028467206

decode.2.weight f4 [100, 100]
00000000: 2c27 e33d c7fe dabd 105e 86bd 73c2 2cbd
00000010: 30f2 0d3d 1da9 b1bc 10a2 2fbd 6c35 01bd
00000020: c8cd 11bd b9aa 8fbc 1e3f 9bbd d76e 433d
00000030: 458c 9cbd 58df 2abd 5570 cabc b481 f03c
00000040: b804 5a3d 6460 b63d 1309 68bd 1991 a83c
00000050: e515 453b 64d7 b3bc af2d f0bd 53c6 eabd
00000060: 8777 f3bc 35fe e8bc f718 20bd 90e5 293b
00000070: 1189 27bd 2321 933c da70 6b3c f277 843d
00000080: 8bbc 813d 7134 7fbd 12bb 11bd 7f45 953d
00000090: 9929 313d c4e8 8dbb 0c18 7f3d b37a 53bd
000000a0: 688f 86bd 7423 b7bd 016f 6bba 070b 853d
000000b0: acda 9a3b 5941 c23d 5db2 883d f976 a7bd
000000c0: d610 1dbd f941 d63c dfb1 57bd 450d bcbd
000000d0: e0c2 e4bb b9a2 c93c 7d6b 64bd b0d2 b73d
000000e0: e5b9 ff3c aa90 78bd b255 973d db01 e4b9
000000f0: e48d 9bbd dc8e 063d 11ff 333d dc1d af3d
00000100: 1cee 533d e2b9 1f3d 6ace 2ebd eefd e73b
00000110: 4ef5 86bc 84bd 8fbd 5bec 93bc 1a03 f5bc
00000120: b1c6 c2bd 22f2 bdbc cae3 31ba e993 5f3d
00000130: 85e2 43bd dd23 0e3d 49f7 38bd bc08 2dbd
00000140: c286 f4bc 7962 ca3d dafd 003c 53aa 413d
00000150: 470c b5bb ebdc 42bd fdf7 a8bd 92ed 213c
00000160: 4376 833d 3fee 783d 40e0 ac3c c92f 7cbc
00000170: f425 e4bc b959 7c3d ebfd 04bc f3e9 51bd
00000180: ae7a 593c 3c79 983c 175c 453d 757d f1bc
00000190: 6982 c13c 862a 283e 60a0 8cbe 53e8 3d3e
000001a0: 0372 c3bd f010 51be d575 4fbd 3356 3c3d
000001b0: 011a f0bd ded8 9cbd 66f3 e33d adee 54bd
000001c0: 5fdb b7be 24ee 20bc 1ca6 e93d de48 ff3c
000001d0: 88ff 2ebd 601e f5bd 91ec 933d 3cfd d33b
000001e0: ad43 c33c 0766 d63d 67fd 8fbd 17c3 263e
000001f0: 2884 bf3d 5dfd a4bd 5c98 1c3e e9da e2bd
00000200: a629 6e3d 863d 8dbb 5d80 7e3d da29 68bd
00000210: f4bd 40bc f551 003d 2cf9 ae3d 95de 023e
00000220: ae6f 71bc 4a80 da3d e89d 233c 47ea a63c
00000230: 4126 823d 14d6 b3bc 9d06 b3bb 3aa7 3ebd
00000240: 2455 bdbc d2f0 e83d 4534 2e3d 2aa6 14bc
00000250: ca16 cf3d 9b98 67bd 6e27 1c3e 7cb2 e4bd
00000260: 4622 16be 7092 4e3e bfe0 1ebe ff13 f23d
00000270: 64b9 583c a421 0c3d 10af f3bd 3e92 553e
00000280: dd52 01be 72a7 9b3d d445 9d3d c7de 9abe
00000290: a99f 64bd 39f2 7e3e ff72 0d3e acd5 4dbd
000002a0: 42bd 883c f69e 8ebb 8ff8 7dbd dfe4 a63d
000002b0: 8e48 ab3d 8b35 533e ba9d 2dbd 7ec1 343d
000002c0: ffbb 383d 28b6 c4bd 11f0 96bd cd55 b83c
000002d0: b0a1 113b 708a 4f3d 1a60 d3bd b802 423d
000002e0: 9ee4 c7bd 919a 7bbd 1da5 7abd 418a c93d
000002f0: 9f8c 1f3d 3e00 b2bc 2c92 253e bb59 bfbc
00000300: ddcf 953d 5637 59be 8020 52bd 43d0 cdbd
00000310: ca52 c03d 8b47 f13d 5f85 6ebe 9829 143e
00000320: 5818 f1bd 2204 9a3b ea9b 4ebd 8000 973d
00000330: a3c9 22bd 4945 03bc 3a2e e03c d6a4 9dbd
00000340: 10e0 a83c 3fb9 45bd 8643 8b3d 6e59 b13d
00000350: 067e 56bc 2061 cabd 8fed 953d 93de 8b3c
00000360: 6683 413d bf48 efbd c42d a7bc ac91 b13d
00000370: 2feb e83d c6b9 3dbd 5fbf fe3b bee1 14ba
00000380: efb7 213a eccc eebd aa56 483d 6b2d 19bd
00000390: b48d 3f3d 05dc d1bc f491 abbc ce63 c83c
000003a0: 94ee 46bd b373 3f3d c279 43bb 5e34 bcbd
000003b0: 3251 9bbd a989 8fbd a532 62bb 2723 91bc
000003c0: e29b 933d 0b2f e63d e9dd 39bd 39be eb3c
000003d0: 4fa5 823a 292b 6cbd 5ce2 02be e800 7b3d
000003e0: a41c b53c f7c2 b6bd 1d09 e73c 2705 613c
000003f0: 3239 883c 0f64 c53c 9778 dc3d 1e94 91bd
0.11091456 -0.10693126 -0.0656091 -0.04217763 0.034654796 -0.021687085 -0.042879164 -0.031545088
-0.03559664 -0.017537462 -0.07580398 0.047713127 -0.07643942 -0.041716903 -0.024711767 0.029358722
0.053227156 0.08905104 -0.05664928 0.020577 0.0030072865 -0.021953292 -0.117274635 -0.114636086
-0.029720081 -0.028441528 -0.03908631 0.0025924183 -0.0409022 0.017960137 0.014370168 0.0646819
0.0633479 -0.06230587 -0.035578795 0.07288646 0.04325256 -0.0043307263 0.062278792 -0.051630687
-0.06570321 -0.08942309 -0.00089810794 0.06496244 0.0047257748 0.0948512 0.06674645 -0.08176989
-0.038346134 0.026154505 -0.052659865 -0.091822185 -0.0069812387 0.024613725 -0.05576657 0.08975732
0.031216571 -0.060684837 0.07389392 -0.0004348893 -0.07595423 0.032851085 0.043944422 0.08550617
0.05174075 0.03899563 -0.04267732 0.0070798313 -0.016474392 -0.07018569 -0.018057039 -0.029908706
-0.09510554 -0.023186747 -0.00067859574 0.054584417 -0.047823448 0.03470217 -0.045157705 -0.042244658
-0.029849414 0.098820634 0.007873023 0.047281574 -0.005525145 -0.047573965 -0.08250425 0.009883301
0.06419041 0.060774084 0.021103024 -0.015392252 -0.027850129 0.061609004 -0.008117179 -0.051248502
0.013273878 0.018612497 0.048183527 -0.029478768 0.023621755 0.16422471 -0.27466106 0.18545656
-0.095432304 -0.20416617 -0.050649483 0.045980643 -0.1172371 -0.07658552 0.11130409 -0.05198543
-0.35909554 -0.009822402 0.11408636 0.031162675 -0.042724162 -0.11968684 0.07222856 0.006469397
0.023835981 0.10468679 -0.070307545 0.16285358 0.09351379 -0.08056138 0.15292495 -0.1107691
0.058145188 -0.0043103127 0.062134136 -0.056680538 -0.011764038 0.03132816 0.085436195 0.12780221
-0.014736099 0.106690004 0.009986378 0.020375384 0.063549526 -0.021952666 -0.005463435 -0.0465462
-0.023111887 0.11374058 0.042530317 -0.00907282 0.101117685 -0.05654202 0.15249416 -0.11166856
-0.14661512 0.20173049 -0.15515421 0.1182022 0.013227794 0.03421177 -0.11898625 0.20856568
-0.12629266 0.07600297 0.07679334 -0.3024809 -0.055816326 0.24897088 0.13813399 -0.0502526
0.016691808 -0.0043524457 -0.062004622 0.081491224 0.08363448 0.20625894 -0.042386748 0.04412984
0.045101162 -0.09605056 -0.07370008 0.02250185 0.0022221617 0.050669134 -0.10321064 0.047365874
-0.09760402 -0.061426703 -0.06119262 0.09840823 0.038952466 -0.021728631 0.16169041 -0.023358217
0.073150374 -0.21212515 -0.051300526 -0.100494884 0.09390791 0.11781224 -0.23293065 0.14468992
-0.11772221 0.0047001997 -0.05044166 0.07373142 -0.039743077 -0.008012124 0.027365793 -0.076974556
0.020614654 -0.048272368 0.067999884 0.086596355 -0.01309157 -0.098818064 0.07320701 0.017073905
0.047244452 -0.11683797 -0.020407565 0.08670363 0.11372983 -0.046319745 0.007774278 -0.000567939
0.0006169071 -0.116601795 0.048910774 -0.03739683 0.046765998 -0.025617609 -0.02094362 0.024461653
-0.04856737 0.0467412 -0.0029827212 -0.09189676 -0.07583846 -0.070086785 -0.003451505 -0.017716957
0.07207467 0.112394415 -0.045377646 0.028777229 0.0009967479 -0.05765835 -0.12781662 0.06128016
0.022108383 -0.08923905 0.028202588 0.013734139 0.016628835 0.024095563 0.10765188 -0.07108329

decode.4.weight f4 [1, 100]
00000000: f57e 22b9 9495 193d 5a68 5cb9 fa77 5e38
00000010: abbf 0639 8d72 f7b9 5f75 753d f6bd b3bd
00000020: 0d7b 8fbd 131f 3b3d 9976 beb7 902e 2839
00000030: 89c0 97bd 1bbb 863d 10fa 873a ff59 f337
00000040: 0377 163a 5966 fe38 ce57 6c3d 4f4c b1bd
00000050: 5a7e e83c d8f0 3dba ab79 96bc c19a e53c
00000060: 8772 07bd 0bfa cbbd 8851 713d 8b2f 9cb9
00000070: 7786 bbbd c05a 2d3d ab90 e6b9 3f4d 653d
00000080: e37d 163d 2d98 21b9 15b8 dc3b 6834 9ebc
00000090: 8708 7639 3b99 a33d 05f0 5fbd 1683 49b8
000000a0: 4d13 4739 9526 3f3d 0e01 9d3d 6b91 08bd
000000b0: ee03 49bd 1d49 513d e9e4 5fbd 4e78 5338
000000c0: 50b4 413d f380 553d 4a90 47bc ce5e 743d
000000d0: 3413 b3b9 0afc 10b9 c177 29bd 44ff f839
000000e0: da2f b1b7 ce02 8fbc 5eb8 9e3d 2c9c 20b9
000000f0: c667 093a 30d0 0d3d 7cfa 18ba 8ed2 b6bd
00000100: b08a 753d d015 5939 1339 3f3d 9222 aabd
00000110: e17f 223d 83b2 8e3d 202c 35bd 642e 6fb9
00000120: c598 853d 446e 12bd 037a 01bd 0673 25bd
00000130: d272 67bc 9e47 50bd 5273 0c36 b137 2ebd
00000140: 0329 6d3d e2ff 8cbd 5068 2cbd c923 87bd
00000150: 9821 3239 8406 1f3a c85a c83d 9b58 b738
00000160: ae40 21ba 8234 e1bc 82aa aab8 2fd2 03bd
00000170: 218a 2fbd 497c afbc 8f9c 4c3d 7106 88bd
00000180: 0df6 8139 ea53 7f3d 630f 863c 0815 83b9
-0.00015496819 0.037496164 -0.00021019709 5.304066e-05 0.00012850638 -0.00047196858 0.059926387 -0.087764665
-0.07005892 0.04568393 -2.2704991e-05 0.00016039074 -0.0740977 0.06578656 0.0010374207 2.9009765e-05
0.000573978 0.000121307276 0.057700925 -0.08657133 0.028380562 -0.00072456663 -0.018368563 0.028027894
-0.033068206 -0.09959801 0.058915645 -0.0002979006 -0.091565065 0.042322874 -0.00043976805 0.05598187
0.03674115 -0.00015410846 0.0067358115 -0.019312099 0.00023463565 0.07988211 -0.05467226 -4.8044218e-05
0.00018985309 0.046667654 0.07666217 -0.033341806 -0.049076013 0.051095117 -0.054661665 5.0418363e-05
0.0472911 0.05212493 -0.012180397 0.059660725 -0.00034155848 -0.00013826802 -0.04137397 0.00047492434
-2.1122327e-05 -0.017457392 0.07750009 -0.00015316968 0.00052415987 0.03462237 -0.0005835665 -0.08926879
0.059946716 0.00020702858 0.04668529 -0.08307375 0.039672736 0.06967642 -0.044231534 -0.00022810098
0.06523279 -0.03574969 -0.0316105 -0.040392898 -0.014126496 -0.05084955 2.092875e-06 -0.04253358
0.05790044 -0.06884743 -0.042091668 -0.06598622 0.00016987917 0.00060663396 0.0978294 8.742624e-05
-0.00061513006 -0.027490858 -8.137991e-05 -0.03218287 -0.04285634 -0.021421568 0.049953993 -0.066418536
0.0002478812 0.062335886 0.016364759 -0.00025001937
