Quantum/models/1_latent.pt (torch, 92327 bytes, 6 tensors)

encode.0.weight f4 [100, 10]
00000000: 29fa 253f ee99 7abf e97f cd3e ff5e 103f
00000010: 49ef eabe f47e babd c5aa 333e b6b3 81be
00000020: 091d e8be a99b ad3e 5264 da3e 530f 46bf
00000030: b8cb 153f 4fac 083f 7505 0fbf d595 55be
00000040: 37dd b63d 8e23 dabe 955f debe d016 283f
00000050: 340f 16bf 0f43 073f 9e92 8bbe 9947 c6be
00000060: 5d76 41be f002 933e 494f f7be 5771 ea3e
00000070: 40b4 5a3e 963c 30bf 44bf a43e 5e00 3a3d
00000080: fee4 aabd d7e2 9f3d 38c3 3c3f 4a73 343e
00000090: 5395 623f cba3 4dbe cd75 d03d a59f c93e
000000a0: 76bb 2cbf a2b6 253f 3d9c 18bf 1fcb 16be
000000b0: a16b a73c cac3 c93e 3841 cbbe 0705 453e
000000c0: 2a9c c03e 22fd 3bbf 1a1a 7ebf 3042 883f
000000d0: 8a02 23bf a8cb 18bf 1409 843e 4893 c03d
000000e0: 8fc5 edbd 1417 ff3e 2563 5c3e b3e7 2bbf
000000f0: 4b41 73bf 4261 a63f 991d e7be c9a3 b1bd
00000100: 1e18 813e 5dfc 0c3d 714d 1bbe 0d70 f33e
00000110: 5a4d 0f3f 7f2f 5cbf 819c 523e 8213 9dbf
00000120: d894 4d3e b494 193f 4665 d3bf 5bea a13e
00000130: 5b25 f2bd 5602 533d 451e c0bf d4d9 0a3f
00000140: 4d72 b7be ae58 403f 288e 02bf 1134 f7be
00000150: 99b4 883d 7962 cb3e c4eb 84be 063a 993e
00000160: 7684 6d3e c304 4cbf ccd3 01bf d851 453f
00000170: 64a2 50bf 3b28 c9be c22d 233f 2534 88be
00000180: 9cb1 243e 2e54 a23e 07ff 1d3f 6327 b3be
00000190: 856f 533f ba41 83bf 6c93 f63e 13b6 ab3e
000001a0: 766f 22bf c37a 8ebe 039f 0a3f 953c e7bd
000001b0: 88cc 00bf 7ce3 0e3f 4856 003f f34c 50bf
000001c0: f8df 583e c7a5 1dba f326 15bf 6db8 813e
000001d0: ae72 a5bd f52f f7bd 8905 21bf c19e 1a3f
000001e0: d7cc fa3e 6f2a 6abf 2833 0f3f adc9 f33e
000001f0: ee04 ffbd 1058 e4bd ef38 af3d 691c 9fbe
00000200: 2cd6 1cbf b1a0 df3e e7ad d53d f5b5 38bf
00000210: 2887 2c3f 90e8 c03e 7fce 0ac0 b5b7 953e
00000220: d0b2 04bf d905 ac3d 3dfb 0fc0 cffa 013f
00000230: 3f5a 31be 0b47 71bd bb01 e6be 1cdf 98bc
00000240: d52a dbbd 42fc cc3d ebbe 19bf 57d8 d03e
00000250: 2747 93be 7f08 cbbe e905 013e 7c43 383d
00000260: 4d70 cfbe 4855 2fbe 0c6e 933e d9cf c73c
00000270: 143a 473e 59c4 fb3d d001 003e 8d13 d3be
00000280: e7ce b4be 14cf dc3e bbd5 6abe 9b10 b43d
00000290: fe29 913e baf2 d6bd 27d2 87bd b47b 493d
000002a0: 2d42 8d3e ebf2 a9bd 9e97 113f b608 a3be
000002b0: f283 913e b5d1 093e 8b84 a03e fea6 36be
000002c0: 1cca 0c3f 310a b2bd 4a03 2b3e 6d20 c33e
000002d0: 181a 923f f662 aebf d737 473f 5487 553e
000002e0: c8d0 a1be 1f5c 15be 2483 2c3e 3524 87be
000002f0: 405a 35bf cf8d 3c3f ac44 3cbf 1146 643f
00000300: 4efe 52be cea3 f2be b2c9 9b3e 812b a83e
00000310: b003 d4bd cd11 cf3e 56ad 3a3e b57e 12bf
00000320: 41e4 163f e570 183e 7707 963e 34fc a5be
00000330: 1c93 c33e 58c1 8cbc 5c34 513f e28a 3bbe
00000340: 455a e63e 5b07 163e 5e7f 963e 8332 123d
00000350: 0391 a63e 3e83 803e dcc2 453e 63b8 03be
00000360: a40c 193f cf6d 87be a938 0c3f fac7 fbbc
00000370: 54bb afbe ccd3 543f ecc4 21bf d238 b4be
00000380: 03fa 093e 691d ca3d 382f 653c bbed ba3e
00000390: d2ee f73d 047c b0be e213 41be 4a65 c2be
000003a0: f679 833e ae7b c3bd 7f24 38bf a63e 3bbd
000003b0: abee 1bbf 0045 323e 542b 4cbf 8c66 843e
000003c0: 29cf 2d3d 2790 19bf 9ab0 6a3e 1bc5 6bbe
000003d0: 30a5 2cbf 6a84 683e 7b79 b3bc 2f1f ea3d
000003e0: 551a 46bf 2cf4 713e 3258 0fbf bef4 283f
000003f0: 595f 8abe 573d 0cbf 3e04 83bc d0db e83c
0.6483484 -0.9789113 0.4013665 0.5639495 -0.45885685 -0.09106246 0.17545612 -0.2533242
-0.45334652 0.33907822 0.42654663 -0.7736713 0.58513975 0.5338792 -0.558677 -0.20857938
0.08928912 -0.4260525 -0.43432298 0.6565981 -0.5861695 0.528367 -0.27260298 -0.387265
-0.18892808 0.2871318 -0.48302677 0.45789596 0.21357822 -0.68842447 0.32177174 0.045410506
-0.08344458 0.07806938 0.7373538 0.17622104 0.885091 -0.20082013 0.10178719 0.39379612
-0.6747354 0.647318 -0.596134 -0.14725922 0.020437064 0.39407188 -0.39698195 0.19240199
0.37619144 -0.73433125 -0.9925858 1.0645199 -0.6367575 -0.59685755 0.25788176 0.09403092
-0.11609947 0.49822295 0.21522196 -0.6715042 -0.95021504 1.2998431 -0.4513977 -0.08673818
0.25213712 0.03442036 -0.1516626 0.47546425 0.55977404 -0.86009973 0.20567514 -1.2271578
0.2007631 0.5999253 -1.6515281 0.31624112 -0.11823531 0.0515159 -1.5009238 0.5423863
-0.35829392 0.75135314 -0.50998163 -0.4828191 0.06675071 0.39723566 -0.25961125 0.2992708
0.23195061 -0.79694766 -0.507138 0.7707801 -0.8149779 -0.39288506 0.63741696 -0.26602283
0.16083378 0.3170485 0.61717266 -0.34990987 0.8259204 -1.0254433 0.4815935 0.3353735
-0.63451326 -0.27828035 0.5414888 -0.11290852 -0.5031209 0.55815864 0.50131655 -0.81367415
0.21179187 -0.00060137775 -0.58262557 0.25336018 -0.08078514 -0.12069694 -0.6289907 0.6039849
0.48984405 -0.91471 0.55937433 0.47614804 -0.12452112 -0.11149609 0.08555781 -0.31076363
-0.612643 0.43677285 0.1043356 -0.72152644 0.6739373 0.3767743 -2.1688535 0.2924172
-0.51835346 0.08399553 -2.2497094 0.5077333 -0.17319582 -0.058905642 -0.44923195 -0.018661074
-0.10701529 0.10009052 -0.6005694 0.40790054 -0.28765222 -0.3965492 0.12599911 0.044986233
-0.40515366 -0.17122376 0.28794897 0.024391102 0.19455749 0.1229331 0.12500691 -0.41225854
-0.35314104 0.43126738 -0.22933094 0.0879223 0.2835235 -0.10495515 -0.0663188 0.049190238
0.2758955 -0.08298286 0.56871974 -0.31842583 0.2842098 0.13458903 0.31351122 -0.1783714
0.54995894 -0.0869335 0.16700473 0.38110676 1.1414213 -1.362395 0.7781958 0.20852405
-0.316046 -0.14585923 0.16846901 -0.2639481 -0.70840836 0.7365388 -0.73542285 0.8916941
-0.20604822 -0.47390598 0.3042732 0.3284569 -0.10352266 0.40443268 0.18230185 -0.5722459
0.5894204 0.14886816 0.2930257 -0.32418978 0.38198173 -0.017182037 0.8172052 -0.18314698
0.44990745 0.14651243 0.29394048 0.035692703 0.3253251 0.2510013 0.19312614 -0.12863307
0.59784913 -0.26450965 0.54773957 -0.030735005 -0.34322608 0.83135676 -0.63191104 -0.351996
0.13474278 0.09868891 0.013988309 0.365095 0.12106098 -0.34469616 -0.18855241 -0.37967902
0.25678986 -0.095450744 -0.7193069 -0.045714043 -0.60911053 0.17409134 -0.79753613 0.25859487
0.04243389 -0.59985584 0.2291893 -0.23024409 -0.67439556 0.22706762 -0.021908512 0.11431729
-0.7738393 0.236283 -0.5599395 0.65998447 -0.2702587 -0.547811 -0.015993234 0.028425127

encode.2.weight f4 [100, 100]
00000000: db98 5fbe 8a6a 4bbe 7cf0 4c3e b21e 3d3c
00000010: 73f9 b93d ac35 c23c bb50 7c3e a4ae e03a
00000020: b205 f43c 3c17 5dbe 2558 b5be ca9c 7a3b
00000030: c82e 2ebe b995 37be c630 f63d f9d6 b0be
00000040: 716b 433d b087 88bd 7f35 a3be 4b86 7f3e
00000050: 11ad 9a3d 7a0b d93d 6041 733e fd50 c63d
00000060: 5779 a03d 46d1 1ebd aa09 22be e702 c0bd
00000070: 8d7d 3c3d 9c28 273e ac4c fdbb 9c8f 6bbe
00000080: 2976 123f a4fd b1bc 5be7 00bd c8e8 f9be
00000090: c41f 023e 32ed 733d fbfd 033e 623e e0be
000000a0: 338b 6ebd a9dd b4bd fe46 cfbc 3c6c 3b3c
000000b0: e239 45be 6b0d 133d 3125 de3b ba4d 1e3d
000000c0: 2b6d e3bc 9393 b5bd aa9e 50bc f85e d93d
000000d0: 9abe ebbc 1d03 17bd 6e0c 3cbd 9478 023e
000000e0: c222 b6bd a1d4 d83d 8560 bf3d d6f6 84bd
000000f0: dad3 a7bd f2e0 f9bc df3b 3e3e 4270 23be
00000100: 42ce 4b3c a464 fabb 880c 3bbd ad6d 373d
00000110: 6f2b d43e a88d 28be b445 1b3d 975a c4be
00000120: bbf0 15be 343b 503e f396 60be af1a 2b3d
00000130: 30dd f73d 2675 d43d f644 423e 616f cabe
00000140: 2389 34bd a3bf ff3d 16aa 25bf 35c1 26be
00000150: 1694 033e d1df b03e ff11 d0bc 541b 893d
00000160: 24d3 c4be 84c4 9b3e c28f bdbb 8af0 07be
00000170: 6a5d e23d 572e debc f089 43be f98a 0ebd
00000180: 56b5 b9bd 5727 863d ebc2 dc3e 7e28 bb3e
00000190: 8a1d 7b3c a66e 313a 676c 743d 3b37 a23d
000001a0: edb4 063c 45ff 693d d84e d23c 17da e83c
000001b0: d5b2 22bd fecf c5bd fe9a 00be 3ce5 90bc
000001c0: edb6 7fbd ff9b 3bbd 29c3 94bc c8d6 5cbd
000001d0: 50f3 4a3d 2333 ce3d 7c84 63bc 0942 5abd
000001e0: 6566 44bc cc9a af3d 1e84 58bd 82ab 003d
000001f0: 38a7 b83d 9972 c43b 090a de3d 4c8c b13c
00000200: 7237 16bd 7662 4d3d 404b b33c 074a 56bd
00000210: 8e46 dfbc 8c23 b13d fb1a 20bd 1ee5 23ba
00000220: 4725 243d 2058 21bb c8a5 75bd 15a2 c43c
00000230: 28db bbbd 1fff 9f3d eb7c b1bd b1eb 96bd
00000240: afec 453d b360 c33d e356 15bc 6472 78bc
00000250: c83b 053d 5b3d b63d 1733 a6bd ab7b 7c3d
00000260: de75 ad3d 648c a3bd dd4c 193d 0188 9dbd
00000270: 35aa c73c f46c 93bb 956c a23d 3064 99bd
00000280: 2916 33bd d33f 17bd 553a 9cbc 956c adbd
00000290: a673 6fbd 7e92 013d c78b dc3c e4a1 eb3c
000002a0: d629 d4bc 35d8 9abd 1533 953d b605 ab3d
000002b0: 870a 44bb 6d8c c8bd 3239 ffbc 34ed 043e
000002c0: 46b5 85bd 6789 a9bd d1b4 a7bd c0a7 373d
000002d0: f525 673c 99ff a83d 49fd 83bd 89d9 53bd
000002e0: 259b 813d da00 753d 29ae 27bb d24f 7f3c
000002f0: a004 39bd 05bd 8dbd bd79 dcbb 9703 023d
00000300: 983e 2e3d fb3a 91bd b0fc 55bd ec2c d53d
00000310: 7398 6ebd 062a 9ebc 130b bcbd 99cf 7a3d
00000320: 3b14 a5be b8b4 72be 752d 933d a0e3 ffbe
00000330: 7839 10be 0e8c 1cbf 56f5 e8bc 4c3c 5e3e
00000340: a4cd 50bc 471f aebe 2214 00bf 73c1 b7bc
00000350: eef1 dcbe 60fa b33e 6f69 a83e 7ae2 73bd
00000360: 738a e4bd a236 eebe ef7b ecbe 1cde 1abe
00000370: 987f cdbe 0352 9bbe 4596 61be a263 4c3e
00000380: 58dd be3d 20da 5b3e 54b7 9bbe 8eb3 603d
00000390: 53ee 86be 7c5c 68be 2e2c e63e fb9f aa3e
000003a0: c4ff 153d 5df1 9abe ddaa fc3e 078a 4c3b
000003b0: 4974 3ebe 96c2 8c3e 6cd2 a0bf eb8e f2be
000003c0: 1edf 9a3e 3fa0 f13e 57d2 de3e 08f1 b4be
000003d0: 216e 013f 4987 efbe c50e 883e 5194 62bf
000003e0: 1797 4fbf 27b5 6a3e adce 30bf 72a0 97be
000003f0: 722d ac3c 0224 e73e f323 023f 6530 3abe
-0.21835653 -0.1986486 0.20013613 0.011542963 0.09080782 0.023707233 0.24640171 0.0017141891
0.029787872 -0.21590894 -0.3541881 0.0038240426 -0.17010033 -0.17928208 0.120210215 -0.3453901
0.047709886 -0.06666505 -0.31876752 0.24953572 0.07552541 0.10597892 0.23755407 0.09683416
0.07835644 -0.038773797 -0.15823999 -0.093755536 0.046018172 0.16324085 -0.0077300873 -0.23004001
0.5721155 -0.02172739 -0.031470638 -0.4881041 0.1270743 0.05955238 0.12889855 -0.43797594
-0.05823822 -0.08831341 -0.025302406 0.011439379 -0.19260362 0.03590147 0.006779336 0.038648345
-0.027762016 -0.08866038 -0.012733141 0.10613817 -0.02877741 -0.036868203 -0.04591029 0.1274131
-0.08893348 0.10587431 0.093445815 -0.06492393 -0.08194704 -0.03050277 0.18577527 -0.15960792
0.012439312 -0.007641392 -0.045666248 0.04478233 0.41439387 -0.16460288 0.03790827 -0.38350365
-0.14642613 0.20335084 -0.21932583 0.041773494 0.12102735 0.10373907 0.18971619 -0.395381
-0.044076096 0.12487724 -0.64712656 -0.1628464 0.12849459 0.34545758 -0.025399206 0.066946656
-0.38442338 0.30423367 -0.0057849595 -0.13275352 0.110529736 -0.027121706 -0.19095588 -0.034800503
-0.0906779 0.06550472 0.4311746 0.3655433 0.015326867 0.0006768502 0.059673693 0.079206906
0.008221847 0.05712821 0.025672361 0.028424306 -0.03972133 -0.09658812 -0.12559125 -0.017687432
-0.06243031 -0.045803066 -0.018159466 -0.05391577 0.049548447 0.10068347 -0.013886567 -0.053285632
-0.011987303 0.08574447 -0.05286037 0.031413563 0.090162694 0.0059951064 0.10841758 0.021673344
-0.03667397 0.050142728 0.021886468 -0.05231669 -0.027255323 0.08649358 -0.03908823 -0.00062520977
0.040074613 -0.0024619177 -0.059972554 0.024003068 -0.0917266 0.07812332 -0.08666404 -0.07369173
0.048321422 0.09539928 -0.009114954 -0.015163992 0.032527715 0.088984214 -0.08115213 0.061641376
0.08469747 -0.07985762 0.03742682 -0.07691956 0.024373153 -0.004499072 0.07930867 -0.074898124
-0.043722305 -0.036926102 -0.019070784 -0.08467976 -0.0584599 0.031633846 0.02692212 0.028763719
-0.025898855 -0.075607695 0.07285134 0.08350699 -0.0029913501 -0.09792409 -0.031155203 0.12981111
-0.06528716 -0.082781605 -0.08188785 0.044837713 0.014108171 0.082518764 -0.06444795 -0.05172113
0.063284196 0.059815265 -0.0025585985 0.0155829955 -0.045170426 -0.06920818 -0.0067283795 0.031741705
0.042540163 -0.07091328 -0.052242935 0.10408959 -0.058250856 -0.019307148 -0.091818 0.061233137
-0.32241997 -0.23701751 0.071864046 -0.49978352 -0.14084423 -0.61151206 -0.028437298 0.21702689
-0.012744341 -0.34008238 -0.5003072 -0.022431111 -0.43153328 0.35151958 0.3289294 -0.059542157
-0.111592196 -0.46526057 -0.46188304 -0.1512379 -0.4013641 -0.30336007 -0.2202998 0.19959882
0.09319562 0.21469927 -0.30413306 0.054858737 -0.26353702 -0.2269153 0.4495558 0.3332518
0.03662087 -0.3026227 0.49349108 0.00312102 -0.18599047 0.27492207 -1.2564216 -0.47374663
0.3024835 0.4719257 0.43519852 -0.35340142 0.5055867 -0.46782902 0.26573768 -0.8850756
-0.8108992 0.22920667 -0.6906536 -0.29614598 0.021017764 0.4514466 0.50836104 -0.18182524

encode.4.weight f4 [2, 100]
00000000: 03dd 1d3e cf8b 1bba 8fc9 523e 86dc 483d
00000010: 9445 71bd ef04 9abe a79d 2b3f 88a1 6b38
00000020: 96d1 60be a9ad 89be c069 b4bd d07f f5bc
00000030: 2bed b3be f6b6 38be 1fa4 413e 4eba 7a3e
00000040: 0c75 10ba 8483 9bbe 2433 33bd fc5c 723e
00000050: cfcb 623e bfac 383e e06d 873b ed37 71b9
00000060: 4cdc ab3d c8ed 5d3e 547f cebe 23ff 4d3e
00000070: db57 cebe 9584 95be da83 0539 de5a f53d
00000080: e49a b339 6700 073e fa19 8bbe 4f2f 8dbe
00000090: 8f64 153e 2dd3 7ab9 0a5c 683e ed6c 733d
000000a0: bbf4 8bba 0467 4db9 4ac3 4f3e c574 06b9
000000b0: 1069 1b3a fe95 21bc b2fb 773d 8b14 023e
000000c0: 4941 a2b8 8e13 c83d 8a6a 743e 2bf4 53ba
000000d0: dc82 d2bb 77e8 d9bd c000 3ab9 d39a 8e38
000000e0: 0960 10ba d770 383e c137 f6b7 98cd 6fbe
000000f0: 5e1b 6438 87df b139 7ed5 18b9 25bb 5d3d
00000100: b499 1f3a 072e 913e ec20 7abe ed46 1fba
00000110: cbaa d53d 5a79 0a39 7a8d e63b 9ca1 593b
00000120: b66b aeb9 44f5 da3a 9606 84be 6967 9cbe
00000130: f0b8 ee3d 56c2 2c3a 6eeb 9fbc 499b 603e
00000140: 6b1e 9039 c14a 80b7 bdc7 6ebe 4088 c8bd
00000150: 4c91 99be b60a efbd 3d03 563e bfc4 823e
00000160: 1755 dcbd 97b4 9939 e356 abb8 7da3 0b39
00000170: e15c b1be 4193 b2be e534 8e3e a741 64be
00000180: 5ed9 733e 8c0d 2a3d 5021 e3b9 1ce9 793e
00000190: 9235 80bd 9fa2 c73b e87e 013e 5828 843e
000001a0: 6cba 423d a86f d03d 7dfe 9dbc f602 c3bc
000001b0: 1859 343d 9b7f f43c 5a6a b53e f832 20bf
000001c0: 7cbb a63d 26cc dd3e bc4f 4d3e 78fd e4bc
000001d0: 35f4 2d3c dbbc db3d 8226 563e 9b29 823c
000001e0: b9ab 2d3d 23bd a13e e560 1bbe 4c74 2239
000001f0: 6ea3 80bd 937a 0a3d 9a8a 273d 9ffb 1e3e
00000200: 12f4 f0bd 7300 a33d 4b84 053c fb50 db3e
00000210: 9cae a2bc 4390 8c3e fbfb a43d f013 393e
00000220: e71f a53e 21ef 4eba db7c 093e 963d b23d
00000230: cbd9 a43c 4928 b5bb 6d11 913d a1b0 523c
00000240: 877a e9bb 4830 2d3e 37d7 a9bd f99e 953e
00000250: 2f89 e23b ffff 7a3e db7e 01bd e67a 393c
00000260: 110b 193d ea12 fdbd 231b 3e39 562f bc3b
00000270: 7f2a cbb9 449c 663c 6125 6bbb 995a 953d
00000280: 427b 39bb 4c5b a13b b57f 903b 9eac 913d
00000290: ce59 a1ba ff6f 463d 2e37 3fbd 78f2 ba3b
000002a0: 384d 9a3d 32fc cdbc 6a05 3a3d 2f8a 36bf
000002b0: fc44 c0ba 139f 1dbf 0985 cbbc 4381 4b3d
000002c0: bc6b d8bb 01ec ffbe b2af 023e 24af ba3e
000002d0: 851a 913b 6a78 96bb 73fa cf3d bcd5 39be
000002e0: 2cea 53bb be5e df3b 5482 8a3d 8c42 733e
000002f0: db7c c03d a3c5 8abb a036 0d3c e04b 6b3a
00000300: 1c9b 263e 58cb 7f3d c00c 1bbd 19f1 27bc
00000310: 0efc c73c 6411 663e d99f f73b 0f9e afbc
0.1541634 -0.0005933614 0.20584701 0.049038433 -0.058904245 -0.3008189 0.67037433 5.6178804e-05
-0.2195495 -0.26890305 -0.08809233 -0.029968172 -0.35141882 -0.18038544 0.18910263 0.24485132
-0.00055106054 -0.30373776 -0.043749943 0.23668283 0.2214806 0.18034647 0.004132971 -0.00023004385
0.08391628 0.21672738 -0.4033152 0.20116858 -0.40301403 -0.29202715 0.00012732987 0.11980222
0.00034256943 0.13183747 -0.27168256 -0.27575156 0.14589141 -0.00023920527 0.2269136 0.05943005
-0.0010677794 -0.000195887 0.2028934 -0.00012822736 0.00059284363 -0.009862421 0.06054277 0.12703149
-7.736922e-05 0.09769355 0.23868766 -0.0008085395 -0.006424291 -0.10640042 -0.00017738622 6.799926e-05
-0.00055074744 0.18011795 -2.9351448e-05 -0.23418272 5.4384924e-05 0.00033926612 -0.00014575382 0.054133553
0.0006088272 0.2835543 -0.24426621 -0.00060759374 0.10432967 0.00013205913 0.0070359083 0.00332079
-0.00033268117 0.0016705175 -0.25786275 -0.30547646 0.11656368 0.00065902376 -0.019521441 0.21934237
0.00027488483 -1.5293599e-05 -0.23318382 -0.097916126 -0.29993665 -0.11671965 0.20899673 0.2554073
-0.10758417 0.00029316984 -8.170099e-05 0.00013316977 -0.34641173 -0.3487797 0.2777473 -0.2229067
0.23813388 0.041516826 -0.00043321634 0.2440533 -0.06260218 0.006092384 0.12646067 0.2581203
0.047541067 0.10177547 -0.019286389 -0.023805123 0.04403028 0.029846003 0.35432702 -0.6257777
0.081412286 0.43319815 0.20049948 -0.027952895 0.0106173055 0.10729381 0.20913127 0.01588898
0.042400096 0.31589612 -0.15173681 0.00015492848 -0.06281172 0.033808302 0.040903665 0.15525673
-0.11765303 0.0795907 0.008149217 0.4283522 -0.01985865 0.27453813 0.08055874 0.18074012
0.32250902 -0.00078939094 0.13426535 0.08703153 0.020123383 -0.005528484 0.07083402 0.012859494
-0.007125202 0.16912949 -0.08293002 0.2922285 0.006913326 0.24511717 -0.03161512 0.011320805
0.03736407 -0.12357123 0.00018129921 0.0057429476 -0.0003875084 0.014075343 -0.0035880434 0.07292671
-0.0028302227 0.0049242135 0.004409755 0.07113002 -0.0012310089 0.04844665 -0.046683483 0.005705174
0.075342596 -0.02514467 0.04541532 -0.713046 -0.0014668996 -0.61570853 -0.02484371 0.04968382
-0.00660464 -0.49984744 0.12762335 0.36461747 0.00442821 -0.004591991 0.10155191 -0.1814794
-0.0032335622 0.006816714 0.06763139 0.23755854 0.09398814 -0.004234986 0.008618981 0.0008975845
0.16270107 0.062449783 -0.037853956 -0.010250353 0.024412181 0.22467571 0.007556897 -0.021437673

decode.0.weight f4 [100, 11]
00000000: 3a28 0f3e 0299 4abe 0bd5 87be 35dd 173e
00000010: 854a 8e3e c0e9 abbd ebc1 5cbe 015c 99bc
00000020: 4301 80bd 84d3 873e f598 8d3e b6cc dd3b
00000030: 1f39 e6bd 3308 27bd e96f c8bc c89d b83e
00000040: 163d bd3e 2ed9 d2be 943c 903c 08ec 51be
00000050: bec9 a63e 18f3 9c3d 7c68 123e 7dc9 af3e
00000060: 9129 97be 26a9 3abe c60d bb3c 4e5e 5d3e
00000070: 728b 7bbc 3828 6c3e 8324 233e 08b5 3ebe
00000080: 935e 9bbe 034d cebc 1fd3 a1bd 1c6a c03e
00000090: b3a0 b03e d53b afbd 8003 85bd 54e9 d63d
000000a0: c1b5 d8be ec96 6d3c 2a69 14bd 7542 44bd
000000b0: 442e b7be 935b 6b3d 6b91 3cbe 7243 4b3e
000000c0: 6f41 583e 0c37 7bbe 40a8 a6be e032 51be
000000d0: 069e c8be aff6 9c3d 4c71 833e 5f2d abbd
000000e0: a279 bc3d 6cca 36bc 330d 1e3d cb8b 1c3d
000000f0: 0ad6 4a3d 08c5 f7bd 4aeb debd b4fa 5d3e
00000100: c51e 32bd 8ad6 5bbe 3ceb 883e 3d57 373e
00000110: 2b2f c5be 207e 52be d176 0b3d 6f2e 0bbe
00000120: 4448 b4bd 280f c03e 77a4 23bd fcb1 93be
00000130: ef99 383e c709 1abf cbd7 ae3d b980 6cbe
00000140: d4fc 073d 9fdf 313e 101c 913e 0740 4bbd
00000150: 9b3f 833e a63a a4bd 9d84 763e bd9f 73be
00000160: 97e8 0bbd eb39 ee3d 266c 0fbe 6ec5 ef3d
00000170: 095f 443c d2bf 9e3d c28d 703c 73bc b8bd
00000180: 7bff 263d c182 58be a800 8b3d 25bc 37be
00000190: 64ce 3abe e0f9 17be f9cf 913b 4aaf 173e
000001a0: c6f7 babd 72df 16be ea62 773d 6e1f 4bbd
000001b0: 3d26 af3e ae92 9abd dc81 b33c c579 183c
000001c0: 67e9 3ebe 8fa4 aebb 3995 b43d b078 3b3e
000001d0: b99b 34be 57ec 8ebe 46cc 253e 53d5 e6bb
000001e0: fdff 143e 953b 473f e1f5 8dbe b269 413d
000001f0: 7b5c e6bd 8033 04be 4736 4f3e 3d7a 10bf
00000200: 3390 eabe 1407 8abd d5ee 6d3e effa 373e
00000210: b5de c5ba b7da cdbe c338 273e a344 af3e
00000220: 41c6 0d3f 229f 903d 0454 cebe e4a6 d6be
00000230: a5fb dabd d1ac 8c3e 5460 ba3e f9c6 3a3d
00000240: 033c cf3d 3b2e 94bc fa94 2dbe 0838 1ebd
00000250: a090 8fbe 260c 0c3e 7abd 463e c885 5b3d
00000260: d86e 573d 4ab7 43bd 2b47 acbb e3c2 9fbe
00000270: 6004 463c acf3 343e 7dc0 333d 3208 cc3d
00000280: a35d 2dbe ad09 f53c 36a8 823d b44f d0bd
00000290: a978 dd3d 1be8 9a3e 895f 393e c790 54be
000002a0: 5e89 713d 97e9 e3bd 19fb 97be 63e0 83be
000002b0: d74b f63d 0692 a6bd 0d8a 99be c7dd 993e
000002c0: 0b5b f73e 6aed a33e 0b0c 613e 2738 40be
000002d0: 6d6c 9abe ea22 7abe 1191 0c3e 771c f8bd
000002e0: 631c 4d3d ce4a 8abe a6b9 15be d4a2 783c
000002f0: 1a88 393e bafc f7bd 5019 93bd 9b19 e73d
00000300: 5782 42be 4275 b63c a26d b3ba 90e7 bc3e
00000310: 7edf 0cbe 5345 5abe 1417 8dbf 900d 7f3e
00000320: 3ffe 74be ea71 ebbd 9441 42be 2585 c0bd
00000330: 9726 083f c333 5b3e fc5c be3e 7ece 85be
00000340: 6bfd f63c 9845 aabe 7e48 b43d 84d0 93be
00000350: 7ba2 a4be 998e 2f3e 661c ebbd 83da 583b
00000360: fec6 8f3e 60c0 debd 146d 05bd 37d4 8fbc
00000370: 1165 ad3f 6f06 8e3e 74d5 ecbd e52d 613e
00000380: 8305 51bb 0109 97be d866 613e 2ab8 49be
00000390: 1e0a 3c3e 1a4b 2bbe 6eff 16be d2d7 9c3c
000003a0: 0e57 21be 9e68 00be 4743 acbd 42f3 be3d
000003b0: c894 3ebe 01c6 6f3c 993d a0bd 8333 fe3d
000003c0: b175 86bd 8eb3 c63e 72bb 23bd 9dba c03d
000003d0: 27e0 f63d 54a2 8c3d 0048 0bbd f996 d23d
000003e0: 2b59 99bc 6956 8cbd 8faa 8abd 31c5 6dbe
000003f0: 5060 da3d 9012 e1be 38f7 113e 9dbb 8ebd
0.13980189 -0.1978493 -0.26529726 0.14830478 0.2779123 -0.08394194 -0.21558349 -0.018720629
-0.06250241 0.2652856 0.2765576 0.006768788 -0.11241364 -0.040779304 -0.024467425 0.36057878
0.36960667 -0.4118132 0.01760701 -0.20500195 0.32575792 0.07663554 0.1429767 0.3433341
-0.295239 -0.18228588 0.022833716 0.21618006 -0.015353071 0.23062217 0.15931897 -0.18623745
-0.30345592 -0.025183206 -0.07901596 0.37580955 0.34497604 -0.08556334 -0.06494808 0.104937226
-0.42326167 0.014501315 -0.036233105 -0.04791494 -0.35777485 0.05746038 -0.18414848 0.19849947
0.21118711 -0.24532717 -0.3255024 -0.20429564 -0.39183062 0.07664239 0.25672376 -0.08358263
0.09202887 -0.01115666 0.038586807 0.038219254 0.04952053 -0.120981276 -0.108847216 0.21677667
-0.043486375 -0.21468559 0.2674197 0.17904373 -0.3851255 -0.20555925 0.03404886 -0.13591932
-0.08802846 0.37511563 -0.039951768 -0.2884673 0.18027471 -0.6017117 0.08537253 -0.23095979
0.0332001 0.17370461 0.28341722 -0.049621608 0.25634465 -0.08018999 0.24074025 -0.23791404
-0.03415736 0.11632141 -0.14006099 0.117075786 0.011985549 0.077514306 0.014682235 -0.09020319
0.04077099 -0.21143629 0.067872345 -0.17942865 -0.18242794 -0.14841413 0.004449841 0.14812961
-0.0912929 -0.14733675 0.060397066 -0.04959052 0.3420886 -0.07547508 0.021912508 0.009306376
-0.18643723 -0.0053296755 0.088175245 0.18307757 -0.17637528 -0.27914688 0.16191205 -0.007044473
0.14550777 0.7782529 -0.27726653 0.04721994 -0.11248108 -0.1291027 0.20235549 -0.5643652
-0.4581314 -0.06739631 0.23235638 0.17966817 -0.0015096279 -0.4020593 0.16330247 0.34232053
0.55380636 0.07061602 -0.40298474 -0.41924202 -0.10692529 0.27475598 0.36401618 0.04559991
0.10118868 -0.01808845 -0.16951361 -0.038627654 -0.28040028 0.1367651 0.19408217 0.05359438
0.052595943 -0.04778222 -0.0052575073 -0.31203374 0.012086004 0.17671078 0.043884743 0.09962501
-0.16930251 0.02991184 0.0637974 -0.10171452 0.1081403 0.30255207 0.1810285 -0.20758353
0.058968894 -0.11128538 -0.2968376 -0.2575713 0.12026184 -0.081333205 -0.29988137 0.30052015
0.48311648 0.3201707 0.2197725 -0.1877142 -0.30160847 -0.24427381 0.13727213 -0.12114804
0.0500759 -0.27010196 -0.146216 0.01517554 0.18118325 -0.12108751 -0.07182562 0.11284181
-0.18995033 0.02227271 -0.0013689289 0.36895418 -0.1375713 -0.21315508 -1.1022668 0.24907517
-0.23925112 -0.11496337 -0.18970329 -0.09400395 0.53183883 0.21406464 0.37180316 -0.26134104
0.030150136 -0.3325622 0.08802889 -0.28870022 -0.32155213 0.1714424 -0.11480026 0.0033089228
0.28081506 -0.10876536 -0.032574728 -0.017557247 1.3546468 0.27739283 -0.115641505 0.21990164
-0.0031894154 -0.29499057 0.22011888 -0.1969916 0.18363234 -0.16727868 -0.14745876 0.01914588
-0.15755865 -0.12539908 -0.0841127 0.093237415 -0.18611443 0.01463461 -0.07824249 0.12412169
-0.065654166 0.38808864 -0.039973684 0.09410594 0.120544724 0.06866899 -0.03400421 0.10282702
-0.018719276 -0.06852419 -0.06770813 -0.23219754 0.106629014 -0.43959475 0.14254463 -0.06969378

decode.2.weight f4 [100, 100]
00000000: 3bc6 0cbd 5714 b13c fe09 ab3c 9c5c 263b
00000010: 3ed6 dabb a75e e6bc f148 953c 8686 18bc
00000020: a50d c13c da74 c33d c99d bdbd d4ee 333c
00000030: 3428 283d 96c5 973d 9d64 36bd 27fb d23d
00000040: bd26 54bd 15e6 37bd 7e49 533d c823 893b
00000050: e106 893c 6691 01bd a11f a1bc 2709 6dbd
00000060: fea4 2ebd 997b 80bd cc0d 8a3d 44e0 d4bc
00000070: 8aa1 bcbd e220 28bd 1e3e 04bd 419e babc
00000080: 9d95 773c 80c4 ac3d 1fda 4bbb 7fef 503d
00000090: 4c3c 2dbd f41a 8a3d 56fb 3dbd d153 1f3d
000000a0: 8f24 71bc e2c5 63bd fa0a 2abc f565 17bd
000000b0: 2135 a4bb b2b7 853b 8412 d1bd bd0f 91bc
000000c0: d866 bcbc fb6b 753d 0178 ad3d 964a c93b
000000d0: 1ac6 633d f2fe 5fbd 874c 243c c333 07bc
000000e0: 3b13 aa3d d87e 87bd 0ae1 30bd ac86 63bd
000000f0: 0357 62bc ce11 e2bc bd14 923d 5e44 1d3d
00000100: 215d c63b c036 c6bd 2467 7cbd 4244 85bc
00000110: 00d1 27bd 593a ad3c 9341 73bd c131 b33d
00000120: 61b2 d73c 1b0b 0f3d b2d7 5c3d 782d e7bc
00000130: e890 8d3d 780e 95bd ba98 923d fbbe 0c3d
00000140: 62ce 28bd 732d a93d 20cd 0c3b d802 bfbc
00000150: b632 6abc eb62 703d 5bb3 b3bd 30fd e43d
00000160: d58a e3bb 33a9 38bd 93e9 9cbc c5af a6bd
00000170: 55d2 d63c 844f 1fbd 8a20 94bc f5a5 aa3d
00000180: 93ea 8ebd 7ce5 bebd ecab 4abd 449e a13d
00000190: 3f79 d1bd 8a96 2abd cb63 0ebd 83b4 66bd
000001a0: bcea 933d b228 e03c 7101 05bd c0a3 1d3c
000001b0: 9090 5bbc 19dc c5bc bf37 43bd 3d38 ef3c
000001c0: 8d69 afbd d440 043d 2c94 afbc 5c23 47bc
000001d0: 2bcd c23c f5af 273d f920 22bd b061 69bd
000001e0: 75fc 91bd a418 003e 777b 3dbb 9cbd 76bb
000001f0: f059 653c 6607 603c 00b2 5a3d 7cc3 5cbd
00000200: f57d a3bd c5ef 8c3c 3823 89bd fbce 573d
00000210: 5e09 84bd b42c 66bb a5c1 643d da1d 983d
00000220: fd1e 0a3d b8fb 99bd ff30 dc39 be94 c0bc
00000230: df4d 133d 3d64 863d 5b78 48bd 5259 1fbd
00000240: dd5f 0cbd 63c8 313d fc04 1fbd e24d dabd
00000250: abbd a6bd 11f1 6f3d 007a a33d 061d c93c
00000260: bc70 25bc 9826 073d 0d74 75bd 785a 863c
00000270: 54f9 b03d af47 e03a b7cf b43d 7c3d ab3d
00000280: 30d5 bcbd 0ece dbbd 953e d3bd 12b6 a1bd
00000290: c8b3 8ebd e9df 99bd 9b70 c1bd 775f 5e3d
000002a0: f2ad 1b3d 4905 543d 5922 cbbc fd0c 87bd
000002b0: 3ece debd 354c 72bd daba 173d af07 a63d
000002c0: b31a 023d 1e28 513d 2c73 c73b b963 963d
000002d0: bcfb 023d 07c8 9c3d 773d 9f3d 33d4 013d
000002e0: 23a6 ed3d 4b53 653c e868 a8bd 306e 74bd
000002f0: b060 94bd c085 19bd 140e bcbd 46f2 2b3d
00000300: fbfa e13c 9e0f 7d3d 7cb3 33bd 2b1c 083e
00000310: 6fc0 8c3a 5a31 223d cf7a 5e3d a3d5 7d3d
00000320: 666a ff3d b7d0 643e 45cc 15be 8168 7c3c
00000330: 6b6b 723d ee8a 82bd 9efc c6bc c668 c1bd
00000340: e322 9d3c 2fc3 bfbd bdcc 283e 5d12 9b3d
00000350: f619 5f3e a904 babd 8866 373e b3ba 1e3e
00000360: 895d a13d 9902 acbd 4d3f 5dbe a6b3 ffbd
00000370: cbe1 5c3d fe7d 723d 7f6d 793c 1cb8 1cbe
00000380: abf1 c4bd 240e a5bd cf04 903d 82a4 933e
00000390: 6633 183e f1af a23d 4839 56bd b010 dbbd
000003a0: 775a 76be c074 e7be 6cf9 4bbd 8f5d 03be
000003b0: 04b7 05bd 8fb9 343d 5c71 853d 0311 d2bd
000003c0: 5e83 683d b464 f6bb 6baf 73bc f1ae 21bd
000003d0: c933 6d3d a09b ee3d 3f0c a13e 8b1e 96bd
000003e0: c6a0 f0b9 f66e 483e 5881 bc3c 7a4b a33d
000003f0: e01b 85bc 9413 4b3e 3ff2 fdbd 18be 933d
-0.034368735 0.021616144 0.020878788 0.002538479 -0.0066783717 -0.028121306 0.018223258 -0.009309417
0.023566077 0.09543772 -0.09258611 0.010982234 0.041053966 0.074107334 -0.044529546 0.1030181
-0.051794756 -0.044897158 0.05158376 0.0041851737 0.016726913 -0.031632803 -0.019668402 -0.057870056
-0.042637818 -0.062735744 0.06740913 -0.025985844 -0.09210499 -0.041046984 -0.032285802 -0.02278054
0.015111354 0.08435917 -0.0031105352 0.05100965 -0.04229383 0.06743422 -0.04638227 0.038898293
-0.014718189 -0.055608638 -0.010378594 -0.03696247 -0.0050112163 0.004080736 -0.1020861 -0.0177077
-0.022998258 0.05991743 0.084701546 0.0061429245 0.055608846 -0.054686494 0.010028011 -0.008252087
0.08304449 -0.066159904 -0.043183364 -0.055548355 -0.0138146905 -0.02759638 0.07132862 0.03839528
0.0060535823 -0.096784115 -0.0616218 -0.0162679 -0.040970802 0.021145986 -0.05938871 0.08749724
0.026330175 0.0349227 0.05391664 -0.028219923 0.06912404 -0.0727815 0.071580365 0.03436182
-0.041212447 0.08260622 0.0021484569 -0.023316786 -0.014294317 0.058688086 -0.08774444 0.11181104
-0.0069440403 -0.045083236 -0.019154346 -0.08138994 0.026223341 -0.03889419 -0.018081922 0.08332435
-0.06978335 -0.093211144 -0.049480364 0.07891515 -0.10228204 -0.04164747 -0.03476314 -0.056324493
0.072225064 0.027363155 -0.032472078 0.009621561 -0.013401166 -0.024152802 -0.047660585 0.029201621
-0.08565054 0.032288387 -0.021432959 -0.012154426 0.023779472 0.04093929 -0.039582226 -0.056977928
-0.071282305 0.125094 -0.0028912702 -0.0037649637 0.013998494 0.013673639 0.05339241 -0.053897366
-0.07983009 0.017204175 -0.066961706 0.052687626 -0.06447099 -0.003512186 0.055848736 0.07427569
0.03372096 -0.07518715 0.00041998175 -0.023508426 0.035962936 0.06562088 -0.048942905 -0.038903542
-0.03427111 0.043403994 -0.038823113 -0.10659386 -0.08141645 0.05857951 0.07982254 0.024549972
-0.010097679 0.03299579 -0.059925128 0.01640056 0.086413056 0.0017111207 0.08828681 0.083613366
-0.0922035 -0.10732661 -0.10314671 -0.07896055 -0.06967884 -0.075134106 -0.09445306 0.05429026
0.038007684 0.051762853 -0.024796652 -0.06594274 -0.10879181 -0.059154708 0.03704343 0.08106934
0.031763744 0.05106365 0.0060867276 0.07343239 0.031978354 0.0765534 0.07775395 0.03169651
0.11603954 0.013996909 -0.08223134 -0.059675395 -0.07245004 -0.03748107 -0.09182373 0.041979097
0.027585497 0.06178247 -0.04387234 0.13291995 0.0010738502 0.039597847 0.05431634 0.061971318
0.12471466 0.22345243 -0.14628704 0.015405775 0.059184473 -0.06374155 -0.02429038 -0.09443812
0.019181674 -0.093634 0.16484351 0.07571862 0.21787247 -0.0908292 0.17910206 0.15500908
0.078791685 -0.08398933 -0.21606179 -0.12485437 0.05392627 0.059202187 0.01522386 -0.15304607
-0.09616407 -0.08059338 0.07032167 0.28836447 0.14863357 0.079437144 -0.05230072 -0.10696542
-0.24057947 -0.4520626 -0.049798414 -0.12828659 -0.03264524 0.044122275 0.06515762 -0.10257151
0.056765907 -0.007519329 -0.014873366 -0.039473478 0.057910714 0.11650777 0.31454656 -0.07330044
-0.00045896153 0.19573578 0.023010895 0.079733804 -0.016248643 0.19831687 -0.123997204 0.07213992

decode.4.weight f4 [1, 100]
00000000: 7c4c 33b9 468e b939 5cd4 b53d a6e3 c6bd
00000010: 85c3 5939 555f 2ebd f646 9d39 be40 8bbd
00000020: 7a90 6739 c194 003a 6b75 ae39 2770 8d39
00000030: a8b8 22b9 eecf a4b8 7dcb c63c 4259 9839
00000040: e611 263a 6552 de3d 2cff a2b9 c65d 5c39
00000050: 1a5c dc3d eabf 3c39 a9ef baba 8d3a 8eb9
00000060: 531a 583c 142e a43d b0e0 0c36 2e02 843c
00000070: 08c9 13bd 34ae a93d 8186 af39 be8d 36bd
00000080: ceaa 033d 7a73 5039 2fa3 07ba 4089 3236
00000090: 98d3 dcb9 3ff6 08b9 eff9 94b9 0c84 05be
000000a0: 3442 f839 6d30 443e dc9c 82b9 dd61 20be
000000b0: 60c5 5f39 53bb b4b9 f9be b6b9 1a74 4038
000000c0: 867a 24be 569d 8eb9 8a14 1f39 83ac 9539
000000d0: f409 8839 b993 14bb 91da be39 ef2a 6639
000000e0: 9808 113d 11b9 a339 1806 ef38 7814 023e
000000f0: 70ca 23bd f6fe 3b39 0251 9337 364d 0cba
00000100: 91dd 2339 4265 32b8 41aa 0739 edf8 c9bd
00000110: 2afa 8739 3fc4 15b9 4771 083d 5809 2638
00000120: ab15 0abe 3a05 21b9 7f1c 103e cf58 b839
00000130: da7e a5bd 929b 063a a279 a039 a787 8b3c
00000140: e11f 15ba c340 24b9 9fc9 d4bd aa33 ad39
00000150: a890 76b6 50f5 55b9 2272 c439 2ec6 703d
00000160: eb44 0e3a 391d f739 74d2 6738 b030 f839
00000170: d803 7c38 1154 54bd 75f6 abbd f2b4 41b9
00000180: eebe e2b8 9f18 85b9 8c22 53b6 de61 d53d
-0.00017099263 0.00035391952 0.08878395 -0.09711389 0.0002076757 -0.042571384 0.00029998244 -0.06799458
0.00022083698 0.00049049786 0.0003327535 0.00026977176 -0.00015518314 -7.858859e-05 0.024266953 0.00029058201
0.00063350645 0.10855559 -0.00031089166 0.00021015768 0.107597545 0.0001800057 -0.0014262098 -0.00027127974
0.01318987 0.08016601 2.099241e-06 0.01611432 -0.03608039 0.0828518 0.00033478814 -0.04456877
0.032145314 0.00019879444 -0.00051741576 2.6603957e-06 -0.0004211932 -0.00013061705 -0.00028414975 -0.13038653
0.0004735157 0.19159098 -0.00024912402 -0.15662332 0.00021340465 -0.00034471843 -0.0003485603 4.5884495e-05
-0.16062364 -0.00027201575 0.00015171073 0.00028548026 0.00025947357 -0.0022671057 0.0003640247 0.00021950503
0.035408586 0.00031227668 0.00011397543 0.1270312 -0.03998798 0.0001792869 1.7561488e-05 -0.00053520815
0.00015627431 -4.253281e-05 0.00012938028 -0.09861932 0.00025935593 -0.00014282855 0.033311155 3.9586186e-05
-0.13484828 -0.00015356104 0.1407337 0.00035161382 -0.08080836 0.0005134876 0.00030608202 0.017032458
-0.0005688649 -0.00015664384 -0.10390019 0.00033035624 -3.6741058e-06 -0.00020404649 0.0003746907 0.05878275
0.00054271397 0.00047133284 5.527069e-05 0.0004733852 6.008506e-05 -0.051837984 -0.08396617 -0.00018473322
-0.00010812083 -0.0002538608 -3.146156e-06 0.10419057
