Quantum/models/2_latent.pt (torch, 93607 bytes, 6 tensors)

encode.0.weight f4 [100, 10]
0.2656556 -0.22608344 0.03442655 -0.08002744 -0.07889199 -0.4713367 0.2559647 -0.4937814
0.0059962515 -0.0086241355 -0.21283881 0.08292799 -0.436531 -0.41236654 0.14743513 -0.34062245
-0.047338013 0.24773894 0.0737563 -0.42179826 -0.18022911 0.49861798 -0.235528 -0.028161386
-0.115318134 -0.1333984 -0.24488969 -0.16057022 0.11207737 -0.38497397 -0.049201787 0.013581405
0.14630832 0.3212963 -0.3993255 -0.20701526 -0.18739375 0.30153155 -0.2988479 0.16645165
-0.2850573 0.035042007 0.19094425 -0.119335026 -0.14061804 0.3201634 -0.2436669 -0.016570533
0.082267374 0.03514633 -0.23684813 0.1417258 -0.21049736 0.28061834 0.14719927 0.031070676
0.0129807135 -0.22332929 -0.12918237 0.18254036 -0.22332424 -0.15065472 0.032723583 0.19327341
0.01917801 -0.2260825 0.3808318 -0.2252019 0.15162292 0.015001679 -0.12289603 0.13752812
0.2201624 0.07301565 0.060122762 -0.31146148 -0.09779819 0.05153608 -0.08961737 0.07757378
-0.23414676 0.12781318 -0.35170102 -0.3921622 0.17337659 0.12636362 -0.23923776 0.003675291
0.1476381 -0.49466088 0.2512068 0.14619943 -0.19081634 -0.4613005 0.103639 -0.36971262
0.09579428 -0.43038493 0.16446456 -0.028018663 -0.017809693 -0.28847998 -0.33320108 -0.32496387
0.07232424 -0.082928196 0.3511832 -0.45000547 0.23099403 0.06848794 0.05853503 0.19343947
0.08943024 -0.005368486 0.043541286 -0.01071428 -0.3103177 -0.19710425 -0.011011381 0.14913644
-0.36774403 0.25792947 -0.040576305 -0.09644402 0.20459852 0.12992267 0.1335252 -0.001749566
-0.11686263 -0.0053161313 -0.02154984 -0.43672863 -0.17425461 -0.2606986 0.123851046 -0.2695785
0.2690686 -0.7090363 0.19478995 0.008459782 -0.03341307 -0.5870448 -0.0798011 0.34401414
0.099892 0.21627566 -0.07040764 -0.22366577 -0.22051682 0.045207217 -0.3986999 -0.06397043
-0.02579531 -0.13399093 -0.29488564 0.1888122 -0.23057969 0.24093667 -0.22501406 0.06283432
-0.110020064 0.2631203 -0.20654792 -0.25232574 0.1930134 -0.1395933 -0.038248725 0.25242403
0.112317055 0.22945279 0.06187889 -0.025747048 -0.41227782 -0.22653508 0.40032038 -0.44888225
-0.030612523 -0.30630684 0.15515745 -0.0634386 0.14516 -0.026819456 0.062469456 0.10734126
0.16037273 -0.31302428 0.12061274 -0.09798965 0.030552318 -0.087352745 -0.32616633 -0.28703535
-0.104375415 0.043426022 0.15449256 -0.05148856 0.15725918 0.21097381 0.107879154 0.094956756
0.24000363 -0.23760706 0.15668298 0.32295114 -0.018139008 -0.26556394 0.31011713 -0.113019384
0.15467015 0.08780891 -0.056671545 -0.29347676 0.25539562 -0.014161816 0.018214475 -0.3908559
0.22962967 -0.47801775 0.3328787 -0.17774314 0.21375343 -0.015497128 -0.05732542 0.035320453
0.14366318 -0.17877217 -0.15893348 0.17284968 -0.14334553 -0.008680897 0.05348459 0.40651506
-0.14359397 -0.33190727 -0.015980177 -0.07631982 0.34512812 0.34828717 0.34872347 -0.17051618
-0.103354245 -0.15158714 -0.11866548 0.22533634 0.052961964 0.06286088 -0.07498989 -0.042372033
0.21316363 -0.061808594 -0.22439393 -0.059471875 0.24101429 0.121932685 -0.111205846 0.23894909
00000000: 0304 883e 6b82 67be db02 0d3d 6de5 a3bd
00000010: 2092 a1bd 0b53 f1be ce0d 833e ead0 fcbe
00000020: 347c c43b 3f4c 0dbc 6bf2 59be 26d6 a93d
00000030: fe80 dfbe b521 d3be 3cf9 163e 1166 aebe
00000040: 81e5 41bd 47af 7d3e 8b0d 973d f1f5 d7be
00000050: fb8d 38be db4a ff3e 412e 71be b5b2 e6bc
00000060: ea2b ecbd 9799 08be 5dc4 7abe 856c 24be
00000070: d288 e53d 4f1b c5be d087 49bd 8b84 5e3c
00000080: d9d1 153e f380 a43e 6474 ccbe cffb 53be
00000090: 26e4 3fbe 5862 9a3e 9802 99be 4d72 2a3e
000000a0: 08f3 91be 3588 0f3d e486 433e ec65 f4bd
000000b0: 2dfe 0fbe 75ec a33e d183 79be edbe 87bc
000000c0: cc7b a83d 99f5 0f3d 5188 72be 9120 113e
000000d0: 9f8c 57be 35ad 8f3e 68bb 163e ee87 fe3c
000000e0: 0fad 543c 6fb0 64be 6248 04be dceb 3a3e
000000f0: 1caf 64be 3b45 1abe 2a09 063d 77e9 453e
00000100: 341b 9d3c 2c82 67be 63fc c23e 549b 66be
00000110: 0a43 1b3e 9ac9 753c eab0 fbbd 2cd4 0c3e
00000120: 4172 613e 3b89 953d 4943 763d e177 9fbe
00000130: 6b4a c8bd 7f17 533d 5089 b7bd 01df 9e3d
00000140: 2bc4 6fbe 75e1 023e 2812 b4be 7cc9 c8be
00000150: a289 313e 7765 013e befa 74be 27dd 703b
00000160: 712e 173e 3144 fdbe 2d9e 803e 4eb5 153e
00000170: 5c65 43be 942f ecbe af40 d43d f94a bdbe
00000180: cb2f c43d 6a5b dcbe 6669 283e 6587 e5bc
00000190: a2e5 91bc a6b3 93be 5599 aabe aa61 a6be
000001a0: bb1e 943d 42d6 a9bd 49ce b33e 1e67 e6be
000001b0: b389 6c3e 6843 8c3d 6dc2 6f3d ff14 463e
000001c0: 3427 b73d 20ea afbb 5958 323d f38a 2fbc
000001d0: f6e1 9ebe b2d5 49be 1469 34bc 39b7 183e
000001e0: f248 bcbe 550f 843e 5733 26bd 7184 c5bd
000001f0: 4682 513e 730a 053e d4ba 083e b251 e5ba
00000200: ad55 efbd f132 aebb 4a89 b0bc e59a dfbe
00000210: cd6f 32be 497a 85be 9ea5 fd3d 3106 8abe
00000220: 5cc3 893e 6783 35bf 0477 473e e69a 0a3c
00000230: 25dc 08bd 9148 16bf c26e a3bd 9f22 b03e
00000240: 2d94 cc3d 5e77 5d3e e131 90bd a408 65be
00000250: 29cf 61be 342b 393d 6522 ccbe ee02 83bd
00000260: b050 d3bc eb34 09be 40fb 96be fc57 413e
00000270: 151d 6cbe 1ab8 763e 166a 66be 48af 803d
00000280: 3352 e1bd b4b7 863e 4c81 53be d730 81be
00000290: 4ea5 453e 8cf1 0ebe b2aa 1cbd b93d 813e
000002a0: 7c06 e63d acf5 6a3e b874 7d3d 79eb d2bc
000002b0: 1416 d3be d0f8 67be cbf6 cc3e e5d3 e5be
000002c0: 1dc7 fabc 40d4 9cbe 98e1 1e3e 19ec 81bd
000002d0: d3a4 143e 7ab4 dbbc f9df 7f3d bcd5 db3d
000002e0: c038 243e b844 a0be d003 f73d ccae c8bd
000002f0: db48 fa3c ffe5 b2bd 46ff a6be 4cf6 92be
00000300: c7c2 d5bd 7cdf 313d 4c33 1e3e abe5 52bd
00000310: 8d08 213e 8509 583e bfef dc3d b078 c23d
00000320: 83c3 753e 444f 73be 8171 203e da59 a53e
00000330: 4298 94bc fff7 87be acc7 9e3e b576 e7bd
00000340: da61 1e3e 28d5 b33d 6c20 68bd 9642 96be
00000350: 37c3 823e f606 68bc 8636 953c 441e c8be
00000360: 0a24 6b3e bebe f4be 146f aa3e 4c02 36be
00000370: 2ee2 5a3e aae7 7dbc 0fce 6abd 2eac 103d
00000380: 711c 133e 0d10 37be 75bf 22be 82ff 303e
00000390: 2cc9 12be 523a 0ebc a812 5b3d be22 d03e
000003a0: 4c0a 13be c0ef a9be dce8 82bc 914d 9cbd
000003b0: a2b4 b03e b252 b23e e28b b23e cb9b 2ebe
000003c0: 64ab d3bd a939 1bbe e306 f3bd 92be 663e
000003d0: a5ee 583d 34bd 803d 4d94 99bd 4c8e 2dbd
000003e0: 9147 5a3e 022b 7dbd 86c7 65be c898 73bd
000003f0: 73cc 763e d8b7 f93d e4bf e3bd 12af 743e

encode.2.weight f4 [100, 100]
-0.0608614 0.038436126 0.08285653 -0.10641108 0.09376183 0.0022966247 -0.014510721 -0.08405753
0.041425817 0.037266698 0.025603805 -0.043097902 0.040974915 -0.05106564 -0.067477405 -0.03859387
0.07742464 -0.07779929 0.044039767 -0.022791475 -0.07900227 0.06843414 0.0077312347 -0.04748663
0.03592735 -0.006005246 0.08329242 0.020491688 -0.045614492 -0.015649837 0.10515061 -0.06960687
-0.044049595 0.0552862 0.060421348 0.020329315 -0.06641099 -0.06281954 0.08800986 0.021135088
-0.017515229 -0.008135687 -0.021319147 0.02477582 0.0027379103 0.00014201859 -0.05650329 -0.04934641
-0.032797508 -0.04391986 0.045368135 0.04207598 0.009807877 -0.032357097 -0.071171656 0.029831503
-0.007885266 -0.049516864 -0.040900704 0.0552203 -0.05603882 -0.045898594 -0.07959541 -0.061864484
-0.020040955 0.098870575 -0.05747844 -0.0080077015 0.01784458 0.016042275 0.0024160263 0.12017698
-0.085223705 -0.039488476 -0.03423593 0.060752615 -0.03487896 0.00577911 0.0041731815 0.053758588
0.068552196 -0.024266178 -0.015754245 0.08699495 0.026636656 -0.0109623615 0.028977495 -0.05672223
-0.0012517694 -0.028308459 0.026646152 -0.0113080805 0.02424889 0.00040158807 -0.06705257 0.0069826376
0.0470447 0.018587416 -0.039798476 0.034053948 0.16233934 0.450712 0.19380744 -0.05613251
0.12062793 -0.07895893 -0.0059718466 0.057108834 0.40411097 0.28681156 0.18040809 0.06123062
-0.12204685 0.15308452 0.008443495 0.074287996 0.023537165 0.10599846 -0.10974608 -0.0322169
-0.25242582 -0.015253101 -0.015641324 0.06678792 0.057141855 -0.14797503 0.18118256 0.024718503
0.060599685 0.012765274 -0.097312175 0.022354506 0.06149597 0.25103632 0.18661962 0.014927594
0.13603827 0.27773994 -0.026905613 -0.10015779 0.038002674 0.07818524 -0.012666806 0.03592808
0.063593715 -0.24654603 -0.011067089 -0.081429034 0.025792798 0.23074883 -0.059515335 0.0758965
0.006821092 0.010363774 0.07167454 0.066725954 -0.031325433 -0.085575335 -0.065118685 -0.13412024
-0.0415718 0.00741499 -0.16270912 0.13317148 -0.21764679 -0.17125432 0.008227482 -0.0737828
0.10649064 -0.087641045 0.047289737 0.0037426858 0.24679482 0.045378912 -0.09372495 -0.06664852
-0.11913973 -0.050445795 0.3053783 0.08686979 -0.0024232897 0.11595303 -0.019709753 -0.015507017
-0.12466441 0.16757813 0.17878038 -0.11367297 0.027550435 0.099536255 0.23544152 0.23827276
-0.02130758 0.10425703 0.06067835 0.052954596 0.029069358 -0.06719832 -0.0038413627 0.026581937
-0.05264871 -0.018581942 -0.038366474 -0.096733116 0.087636895 -0.049874913 0.05311201 -0.024944564
-0.00337222 0.04468256 0.044561494 0.017807133 0.09394253 -0.06576408 0.108152606 0.0059895897
0.08239331 -0.06913282 -0.09369298 -0.04942097 0.092083074 -0.053026915 -0.0059402273 0.0076715145
0.0068256357 0.007073398 0.062183157 -0.08306442 -0.010264845 -0.02987111 0.06664273 0.057641853
0.027620433 0.08809207 0.05176 -0.013894864 -0.05449858 0.06230593 -0.08631432 0.08091645
-0.04937964 0.07172171 -0.040635962 0.016175447 -0.048849326 0.08105396 0.025269203 -0.1025665
0.015248591 -0.07915465 0.044415858 -0.064240426 0.023446549 0.09583927 -0.019650936 -0.07597208
00000000: ce49 79bd 336f 1d3d afb0 a93d 0dee d9bd
00000010: 3406 c03d f882 163b 60be 6dbc 5b26 acbd
00000020: 1eae 293d f7a4 183d 12bf d13c 6d87 30bd
00000030: 50d5 273d 342a 51bd 9831 8abd 9b14 1ebd
00000040: cf90 9e3d 3c55 9fbd 0b63 343d 30b5 babc
00000050: f1cb a1bd 3327 8c3d 4c56 fd3b 5781 42bd
00000060: 8f28 133d a8c7 c4bb 3795 aa3d 2fde a73c
00000070: 43d6 3abd 1634 80bc 3459 d73d 0c8e 8ebd
00000080: 596d 34bd c873 623d 607c 773d aa89 a63c
00000090: 7c02 88bd 88a7 80bd 833e b43d 7e23 ad3c
000000a0: 197c 8fbc 8b4b 05bc 7ea5 aebc a9f6 ca3c
000000b0: 836e 333b d3ea 1439 fe6f 67bd 761f 4abd
000000c0: ae56 06bd 50e5 33bd f0d3 393d dd57 2c3d
000000d0: 38b1 203c e088 04bd 72c2 91bd 3261 f43c
000000e0: 3431 01bc 32d2 4abd 7f87 27bd ae2e 623d
000000f0: f688 65bd 2a00 3cbd eb02 a3bd 9d65 7dbd
00000100: ee2c a4bc a87c ca3d 836e 6bbd bc32 03bc
00000110: cc2e 923c 176b 833c 3256 1e3b 591f f63d
00000120: c489 aebd abbe 21bd f93a 0cbd bcd7 783d
00000130: 3edd 0ebd b05e bd3b 2fbf 883b f731 5c3d
00000140: 1865 8c3d ddc9 c6bc 0c0f 81bc 692a b23d
00000150: 1e35 da3c 7a9b 33bc 3662 ed3c 9255 68bd
00000160: 6912 a4ba 24e7 e7bc 0849 da3c 8745 39bc
00000170: 9ca5 c63c 3d8c d239 dc52 89bd 9cce e43b
00000180: f1b1 403d a344 983c ba03 23bd 277c 0b3d
00000190: 493c 263e b9c3 e63e 7575 463e 34eb 65bd
000001a0: c70b f73d 38b5 a1bd 7baf c3bb f4ea 693d
000001b0: a2e7 ce3e f7d8 923e e6bc 383e f5cc 7a3d
000001c0: b3f3 f9bd 30c2 1c3e 9656 0a3c 4e24 983d
000001d0: 03d1 c03c b815 d93d 8ec2 e0bd def5 03bd
000001e0: f53d 81be 24e8 79bc 3c22 80bc 1bc8 883d
000001f0: 940d 6a3d c486 17be ec87 393e 757e ca3c
00000200: 6037 783d 7125 513c 9b4b c7bd cc20 b73c
00000210: 33e3 7b3d d587 803e 3719 3f3e de92 743c
00000220: 9e4d 0b3e ee33 8e3e 2969 dcbc 871f cdbd
00000230: b1a8 1b3d 951f a03d 6f88 4fbc 5329 133d
00000240: 6c3d 823d 9076 7cbe bc52 35bc 44c4 a6bd
00000250: 6b4b d33c 6c49 6c3e 5ac6 73bd a06f 9b3d
00000260: 7883 df3b d2cc 293c 1aca 923d 9ea7 883d
00000270: 194f 00bd 1f42 afbd f25c 85bd d156 09be
00000280: 3147 2abd 72f9 f23b 389d 26be 1b5e 083e
00000290: cdde 5ebe 4b5d 2fbe 90cc 063c 701b 97bd
000002a0: c417 da3d 267d b3bd e2b2 413d d947 753b
000002b0: c8b7 7c3e 3ddf 393d def2 bfbd 057f 88bd
000002c0: 88ff f3bd 40a0 4ebd 8b5a 9c3e cae8 b13d
000002d0: 0ed0 1ebb c878 ed3d 5976 a1bc 2511 7ebc
000002e0: 0e50 ffbd 9a99 2b3e 3412 373e 60cd e8bd
000002f0: 73b1 e13c aad9 cb3d 9517 713e c6fd 733e
00000300: 3c8d aebc b684 d53d dd89 783d ebe6 583d
00000310: dd22 ee3c 469f 89bd 5fbf 7bbb 5dc2 d93c
00000320: 2ca6 57bd 2839 98bc 2a26 1dbd 031c c6bd
00000330: f97a b33d a349 4cbd fb8b 593d 8b58 ccbc
00000340: 7700 5dbb 0f05 373d 1d86 363d 44e0 913c
00000350: f164 c03d 51af 86bd 1d7f dd3d 5244 c43b
00000360: d3bd a83d 8295 8dbd 1be2 bfbd a56d 4abd
00000370: 0d96 bc3d c032 59bd 3da6 c2bb 5461 fb3b
00000380: 95a9 df3b f7c7 e73b c4b3 7e3d ae1d aabd
00000390: e12d 28bc 42b4 f4bc fc7b 883d dd19 6c3d
000003a0: 3f44 e23c 9d69 b43d 4b02 543d 49a7 63bc
000003b0: e739 5fbd 8134 7f3d 90c5 b0bd 86b7 a53d
000003c0: 4e42 4abd d5e2 923d e571 26bd 5f82 843c
000003d0: 3b16 48bd 9eff a53d 5c01 cf3c 630e d2bd
000003e0: 3ad5 793c d51b a2bd 67ed 353d 7c90 83bd
000003f0: fa12 c03c 6147 c43d 00fb a0bc 4097 9bbd

encode.4.weight f4 [4, 100]
0.00028339584 -0.0926748 0.00012590292 -0.00012290716 -0.00018766525 -0.007532427 -0.22792764 3.1873966e-05
-0.0007188481 0.00032475847 -5.2107145e-05 -0.0613983 -0.00020266465 -0.00023527544 0.0724424 -0.0018868902
0.0001304029 -0.00031935383 -0.00010320436 -7.651997e-05 -0.00011929657 -0.0002180627 -0.000119706354 9.885128e-05
-0.11696699 0.06746548 0.00016176859 0.04677815 0.00011451127 -0.14249589 -1.7323246e-05 0.023734722
-2.9749292e-05 -9.972898e-05 -0.00018936546 -0.15485004 3.265055e-06 -0.00031963628 -0.00025831893 0.015684722
-0.00039126506 -4.1835345e-05 0.00012912003 0.00045582946 0.00030430776 -0.00010996273 -0.0001945821 -0.02860308
3.691484e-05 5.1837866e-05 0.051065292 -4.783131e-05 9.250101e-05 0.0001090637 5.4974083e-05 0.012289854
0.13718495 1.9278235e-05 -0.097554766 -1.0883668e-05 -5.9263566e-05 -0.03928773 1.44490095e-05 -3.473972e-05
-0.00016488772 -0.02221874 -0.0003367224 0.00015066273 -0.12895522 -0.057589073 0.007233594 0.00023672251
-0.023279212 0.043226384 -6.352547e-05 0.00013580099 0.00029517527 -2.555655e-05 -0.0005108347 0.00020787714
-0.0001506979 -0.06738029 -6.178456e-05 -0.000117567324 0.00020202859 0.30787522 0.072158426 -4.708382e-05
0.00013586294 0.13778427 -0.010939114 0.12036091 1.3520825e-05 -0.1946702 0.23802441 -0.04176328
-0.00015337557 -0.10672792 -1.5982272e-05 5.6111847e-05 -0.00023451005 -0.024644842 3.8084363e-07 1.707067e-07
-3.5886183e-05 0.18098642 0.13985014 -0.0006199901 9.7498036e-05 0.00084732263 -0.00034800006 0.24906614
-0.00019617085 -0.0002596028 -0.059074998 -0.13242172 -0.00012286102 -0.00019899714 -0.0008553147 3.0458832e-05
0.00032680546 0.00050635426 -0.00036322392 -0.00057467516 -0.14445543 -0.19883253 -0.00017357146 -0.010278425
2.138723e-05 0.08012177 -0.0003910416 0.025612157 0.00019988627 0.00017504461 0.00018590291 0.03987886
-0.00045436673 0.00040809528 0.00027596395 -0.06830583 0.000160955 -0.00046972279 -0.0007840554 0.06399364
-0.00027959503 0.00064162345 -0.00014286497 0.042446677 -4.9988863e-05 -0.00025091632 -0.2536356 0.0005523771
-0.00076250016 -0.00037726865 0.00027805436 -0.029094497 0.09216938 0.000411861 0.027881129 -8.6753615e-05
-7.102539e-05 -0.08440239 0.00022512687 0.00049193075 -0.00013152132 -0.012206173 -0.00024224173 0.0004955721
0.13047604 -0.1838218 0.060843967 0.00035999328 -0.06554865 0.0050329585 -0.00032670653 -0.00031148246
-1.582623e-05 -0.00035201613 0.0004466731 -0.00020527882 -0.0002214837 -0.028165638 0.00053154666 -7.020191e-05
-0.00018102826 0.01581428 0.15838832 -0.0007927578 0.0005220409 0.30350688 0.030695533 -0.07251867
-0.00042582751 -0.025343487 -0.066281565 0.015955511 -0.0005218084 -0.026866732 -1.4627926e-05 -0.00042762613
-0.0031460542 0.2737466 -0.0021482825 -0.002510584 -0.0012835343 0.21280733 0.20349908 -0.0073336046
-0.19334207 0.0073393257 0.0035965377 0.07237101 -0.0009574908 0.0004914475 -0.4462879 0.028773898
0.003649599 -0.0007077033 -0.004682387 0.0021926619 -0.00086782465 -0.0014503523 0.001709337 0.0004541755
-0.054162398 0.0613988 -0.005737136 0.3125167 -0.0030207282 -0.37837535 -0.0012329912 0.19992742
-0.002461914 -0.00096280326 0.003326892 0.2996294 -0.0037342268 0.003923883 -0.0035192915 0.15699634
0.003289246 -0.0033218346 -0.0026488998 -0.0024578166 0.0019760004 -0.0022672238 -0.0016843016 -0.10871509
-0.00059882295 0.004142655 0.1580214 0.003523532 -0.006166082 -0.0035790757 0.0069559636 -0.3303792
00000000: bf94 9439 49cc bdbd cf04 0439 a4e0 00b9
00000010: 02c8 44b9 94d2 f6bb dd65 69be 69b0 0538
00000020: 1471 3cba 5844 aa39 9f8d 5ab8 c97c 7bbd
00000030: 6182 54b9 45b4 76b9 ae5c 943d 8751 f7ba
00000040: c3bc 0839 f26e a7b9 6b6f d8b8 5979 a0b8
00000050: dc2e fab8 c3a7 64b9 dc0a fbb8 604e cf38
00000060: 648c efbd 572b 8a3d 6da0 2939 729a 3f3d
00000070: c525 f038 71ea 11be 6351 91b7 526f c23c
00000080: 1e8e f9b7 9725 d1b8 6790 46b9 0291 1ebe
00000090: 381d 5b36 db94 a7b9 fb6e 87b9 3f7d 803c
000000a0: b522 cdb9 5c78 2fb8 6564 0739 65fc ee39
000000b0: 7f8b 9f39 cb9b e6b8 bc08 4cb9 0251 eabc
000000c0: 02d5 1a38 7c6c 5938 d729 513d 7a9e 48b8
000000d0: 1afd c138 21b9 e438 f993 6638 625b 493c
000000e0: 367a 0c3e b2b7 a137 cbca c7bd 0099 36b7
000000f0: c591 78b8 2cec 20bd 066a 7237 7eb5 11b8
00000100: b6e5 2cb9 1304 b6bc 1e8a b0b9 38fb 1d39
00000110: d60c 04be 85e2 6bbd c907 ed3b b738 7839
00000120: 0cb4 bebc 260e 313d fa38 85b8 cd65 0e39
00000130: c1c1 9a39 4662 d6b7 89e9 05ba 98f9 5939
00000140: a904 1eb9 adfe 89bd 5592 81b8 7a8e f6b8
00000150: a3d7 5339 d2a1 9d3e ccc7 933d de7b 45b8
00000160: 6e76 0e39 5217 0d3e f839 33bc c87f f63d
00000170: 80d7 6237 a057 47be acbc 733e f90f 2bbd
00000180: 71d3 20b9 2b94 dabd ab11 86b7 a359 6b38
00000190: d0e6 75b9 fbe3 c9bc c076 cc34 804b 3734
000001a0: 7f84 16b8 8154 393e e034 0f3e d586 22ba
000001b0: dc77 cc38 dc1e 5e3a c773 b6b9 320b 7f3e
000001c0: 36b3 4db9 4c1b 88b9 a0f8 71bd 8f99 07be
000001d0: 41d4 00b9 e3a9 50b9 3337 60ba d881 ff37
000001e0: 1657 ab39 dcbc 043a 176f beb9 cca5 16ba
000001f0: 20ec 13be c19a 4bbe bc00 36b9 d766 28bc
00000200: ba68 b337 e216 a43d b704 cdb9 96d0 d13c
00000210: 9098 5139 2e8c 3739 efee 4239 0458 233d
00000220: 1238 eeb9 9ff5 d539 41af 9039 ede3 8bbd
00000230: 07c6 2839 2045 f6b9 1189 4dba 190f 833d
00000240: 9c96 92b9 9f32 283a 06ce 15b9 91dc 2d3d
00000250: 22ab 51b8 6b8d 83b9 86dc 81be 66cd 103a
00000260: 85e2 47ba 24cc c5b9 d3c7 9139 9557 eebc
00000270: 4dc3 bc3d 0cef d739 f766 e43c 7eef b5b8
00000280: 77f3 94b8 29db acbd 0910 6c39 eaf4 003a
00000290: fce8 09b9 66fc 47bc 4502 7eb9 48e9 013a
000002a0: 839b 053e c83b 3cbe 8637 793d 7bbd bc39
000002b0: 5f3e 86bd 84eb a43b cf49 abb9 784e a3b9
000002c0: 92c2 84b7 ce8e b8b9 732f ea39 1d40 57b9
000002d0: 143e 68b9 a0bb e6bc 7e57 0b3a 5d39 93b8
000002e0: 67d2 3db9 f38c 813c 8c30 223e 13d1 4fba
000002f0: 92d9 083a 4165 9b3e 3375 fb3c ab84 94bd
00000300: 9a41 dfb9 259d cfbc a1be 87bd 22b5 823c
00000310: f8c9 08ba 9f17 dcbc 776a 75b7 0233 e0b9
00000320: 082e 4ebb 8428 8c3e 33ca 0cbb 9c88 24bb
00000330: 443c a8ba 2aea 593e 1062 503e bc4e f0bb
00000340: 77fb 45be ba7e f03b e4b3 6b3b 4137 943d
00000350: 1f00 7bba 7cd4 003a d97f e4be 3db7 eb3c
00000360: 1c2e 6f3b 2a85 39ba b66e 99bb c3b2 0f3b
00000370: ba7e 63ba bf19 beba d50b e03a 671e ee39
00000380: 64d9 5dbd 4f7d 7b3d 96fe bbbb 3002 a03e
00000390: 69f7 45bb 6aba c1be 529c a1ba c6b9 4c3e
000003a0: 1058 21bb a264 7cba fc07 5a3b 0669 993e
000003b0: eeb9 74bb eb93 803b eaa3 66bb a6c3 203e
000003c0: 6490 573b 23b3 59bb 2a99 2dbb 5213 21bb
000003d0: c97f 013b b495 14bb c9c3 dcba 04a6 debd
000003e0: 54fa 1cba 1cbf 873b 5dd0 213e 0feb 663b
000003f0: d80c cabb ed8e 6abb daee e33b 7627 a9be

decode.0.weight f4 [100, 12]
0.0006260586 -0.0005536376 0.15955421 -0.112746775 -0.001616862 -0.15936719 0.1579643 0.19495058
-0.16680951 -0.23840976 -0.0721531 0.23954678 -0.00090371835 -0.00064076664 -0.03621763 0.04862512
0.10744449 0.024338698 0.014962138 -0.112630524 0.2026725 -0.08845105 0.010677733 -0.17602809
0.0015189354 0.0033512346 0.1593268 -0.0030051963 0.10450788 -0.034808602 0.21030551 -0.11122433
0.014816447 -0.07710039 -0.119485535 -0.14954948 0.07519547 0.23563816 0.06172776 -0.35392323
-0.41861627 -0.25930768 0.27429375 0.20839 0.36798418 0.35580015 -0.3631944 -0.38630518
0.00033533806 3.5868532e-05 0.026264474 -0.032124795 0.0698289 0.033964794 -0.016742505 -0.023048978
-0.041357957 0.07523715 0.09929219 -0.19160745 -0.10679133 0.040556867 -0.14590028 -0.26316753
-0.031501483 0.34917283 0.11688982 -0.07549561 0.025879622 -0.1197744 -0.13195163 -0.0058444235
-0.38431022 -0.11370553 -0.4412467 -0.38719955 -0.34762868 0.13241963 0.33916077 -0.21350834
0.040041424 0.19204952 0.062078778 -0.34896556 -0.1896262 -0.37422106 -0.3032733 0.2745835
-0.033591066 0.1870061 -0.21824664 -0.42824945 -0.053053416 -0.068118855 0.36734793 0.20765938
-0.04318277 0.006503003 0.07398384 0.2731105 -0.050888505 -0.07885489 -0.0630058 0.061054766
-0.21912472 0.21658196 -0.009842774 -0.25345954 -0.11637136 -0.028104741 0.36118564 0.09569967
-0.37632892 -0.23651809 -0.09481489 0.2834025 0.022794075 0.30792707 -0.37406397 0.007914327
0.0388005 0.2485617 -0.14957692 -0.1602397 0.36302063 -0.061983533 -0.27167076 -0.4642634
-0.049516093 -0.06749505 -0.04308678 0.17594121 0.0019934587 -9.968023e-05 0.027709855 -0.05376033
-0.1344138 0.18182547 -0.1616295 -0.14485656 0.18099554 -0.048851065 -0.03851941 0.19796701
-0.03400774 0.018500933 -0.21683577 -0.21163847 0.13925426 -0.057522137 -0.24099015 0.17572218
0.19061 -0.11535148 0.19407812 0.07498761 0.39318055 -0.18475814 0.12036978 -0.2430784
-0.25154933 -0.006594356 -0.18960662 0.37948403 0.2330035 0.16154078 0.10502564 -0.31545177
-0.34791163 0.18192907 0.10764633 0.38499302 -0.01134527 0.15363812 -0.26803514 0.055548295
-0.12256065 -0.26225644 0.06599807 0.16323338 0.07204675 -0.003229205 0.20807496 -0.28372616
-0.120957755 0.18695147 0.2082263 -0.13763551 -0.16437407 -0.09606021 0.17860642 -0.06970159
-0.06914549 0.42117614 -0.18676028 -0.42140195 -0.094871946 0.016198978 0.1468534 0.32171482
0.17529601 0.113108434 0.16796418 -0.16700934 0.023785703 -0.29395455 -0.39469543 -0.25471354
0.32328162 -0.11915308 0.071742505 0.041663174 -0.16605377 0.19613302 0.25142542 0.0067789047
-0.022797452 -0.33854073 -0.12037861 -0.037237246 -0.35783374 -0.14194882 0.3867013 0.37052608
0.0131234825 0.09818489 -0.32926974 -0.28912818 0.06074061 0.01472434 0.13894492 0.23106326
0.0625681 0.43199202 -0.12480833 -0.38932723 -0.28062996 -0.10371085 0.3476785 -0.1745666
0.39452422 0.472023 -0.10303205 -0.35591695 -0.4764858 0.37009317 0.25955757 0.17920214
-0.038753346 -0.11814516 0.024215072 -0.16110232 0.0292419 0.014378403 -0.35265183 0.025843399
00000000: 151e 243a fe21 11ba 2e62 233e c8e7 e6bd
00000010: e3ec d3ba 2731 23be 65c1 213e 20a1 473e
00000020: 1dd0 2abe b021 74be 01c5 93bd c04b 753e
00000030: 83e7 6cba 1ff9 27ba f058 14bd 222b 473d
00000040: db0b dc3d f361 c73c c123 753c d5aa e6bd
00000050: 6189 4f3e d325 b5bd a9f1 2e3c b540 34be
00000060: 0417 c73a 63a0 5b3b 9126 233e d4f2 44bb
00000070: 3a08 d63d 7793 0ebd 545a 573e 95c9 e3bd
00000080: afc0 723c cfe6 9dbd d5b4 f4bd 8023 19be
00000090: 1500 9a3d 214b 713e 3fd6 7c3d 6d35 b5be
000000a0: df54 d6be fac3 84be 3b70 8c3e 3064 553e
000000b0: 6c68 bc3e 702b b63e 9ef4 b9be cbc9 c5be
000000c0: 50d0 af39 8b71 1638 9828 d73c 4a95 03bd
000000d0: 7402 8f3d ab1e 0b3d 9427 89bc 36d1 bcbc
000000e0: f666 29bd ef15 9a3d b459 cb3d be34 44be
000000f0: 6ab5 dabd f51e 263d e266 15be e5bd 86be
00000100: b307 01bd c8c6 b23e ee63 ef3d 719d 9abd
00000110: 8001 d43c 484c f5bd 541e 07be 9482 bfbb
00000120: 4fc4 c4be 72de e8bd 16eb e1be 053f c6be
00000130: 63fc b1be 0399 073e 7ba6 ad3e eea1 5abe
00000140: 7a02 243d a1a8 443e 5146 7e3d 9dab b2be
00000150: 5f2d 42be e799 bfbe a346 9bbe 3596 8c3e
00000160: c996 09bd 877e 3f3e 0c7c 5fbe 8343 dbbe
00000170: 8a4e 59bd e681 8bbd 0715 bc3e a9a4 543e
00000180: 6be0 30bd 2517 d53b d784 973d 24d5 8b3e
00000190: 7770 50bd ac7e a1bd 2f09 81bd 9014 7a3d
000001a0: 3b62 60be a9c7 5d3e 9643 21bc 73c5 81be
000001b0: 1c54 eebd ea3b e6bc 53ed b83e 30fe c33d
000001c0: 2fae c0be cc31 72be 4f2e c2bd 221a 913e
000001d0: a4ba ba3c 9ea8 9d3e 5085 bfbe 18ab 013c
000001e0: 46ed 1e3d f586 7e3e b12a 19be e015 24be
000001f0: d7dd b93e 72e2 7dbd 6e18 8bbe efb3 edbe
00000200: 63d1 4abd d83a 8abd c37b 30bd ef29 343e
00000210: b0a4 023b 6a0b d1b8 c7ff e23c cb33 5cbd
00000220: c5a3 09be 7530 3a3e 3482 25be 4755 14be
00000230: e556 393e 0e18 48bd 87c6 1dbd ddb7 4a3e
00000240: b34b 0bbd 458f 973c 320a 5ebe c1b7 58be
00000250: ab98 0e3e 559c 6bbd 1fc6 76be 84f0 333e
00000260: 452f 433e 663d ecbd 6abc 463e 1b93 993d
00000270: f64e c93e 3d31 3dbe 6e84 f63d 8be9 78be
00000280: 13cb 80be 7815 d8bb 3d28 42be bb4b c23e
00000290: 7898 6e3e f26a 253e af17 d73d e582 a1be
000002a0: 7921 b2be 9d4b 3a3e ae75 dc3d ce1d c53e
000002b0: 83e1 39bc 5053 1d3e e73b 89be 9c86 633d
000002c0: 1401 fbbd 7a46 86be ff29 873d a726 273e
000002d0: 3f8d 933d 12a1 53bb 9a11 553e 8e44 91be
000002e0: b3b8 f7bd 3570 3f3e 4639 553e 53f0 0cbe
000002f0: ad51 28be 37bb c4bd 9ae4 363e b5bf 8ebd
00000300: 279c 8dbd 66a4 d73e 163e 3fbe ffc1 d7be
00000310: 394c c2bd b8b3 843c bd60 163e ceb7 a43e
00000320: cc80 333e 65a5 e73d cdfe 2b3e 7f04 2bbe
00000330: 3cda c23c 3681 96be 8515 cabe d069 82be
00000340: 2b85 a53e 8806 f4bd bced 923d 01a7 2a3d
00000350: 000a 2abe 18d7 483e d5ba 803e 9321 de3b
00000360: b9c1 babc 3655 adbe 1089 f6bd 1586 18bd
00000370: fc35 b7be 085b 11be b6fd c53e 98b5 bd3e
00000380: e003 573c 2915 c93d 0b96 a8be 9c08 94be
00000390: 25cb 783d 5c3e 713c 9447 0e3e d99b 6c3e
000003a0: b423 803d 0f2e dd3e 829b ffbd e655 c7be
000003b0: bbae 8fbe 5b66 d4bd eb02 b23e 96c1 32be
000003c0: 14ff c93e 00ad f13e 7802 d3bd bf3a b6be
000003d0: f2f5 f3be da7c bd3e bbe4 843e c480 373e
000003e0: d4bb 1ebd 17f6 f1bd b05e c63c 02f8 24be
000003f0: b68c ef3c 6593 6b3c c88e b4be 89b5 d33c

decode.2.weight f4 [100, 100]
0.052503254 -0.016047135 -0.019362384 0.1023446 -0.0019186598 0.010803151 -0.023482574 0.01301861
-0.015195193 0.059098303 0.07386643 -0.0455006 -0.03549594 -0.03864802 0.006645576 -0.034538377
-0.102209605 0.012443353 0.04733126 0.056609076 -0.0117238 0.044377998 0.006739318 -0.03518506
0.00041223454 0.03337299 0.02683792 0.019229492 -0.0015850696 -0.0896777 -0.097153194 -0.0003586669
0.0064397817 -0.08850573 0.00023506342 -0.02850465 -0.03879179 0.08144583 0.05993193 0.030028598
0.041233625 0.00078873325 0.006273777 -0.010121114 0.036311228 0.12586533 -0.008600097 -0.051854815
-0.002474851 0.073131494 0.023738274 -0.016391704 0.05041509 -0.06444821 -0.018300429 0.012247411
0.03526662 0.0012618783 -0.02952029 -0.0018987465 -0.051323865 -0.021765323 0.00075342733 0.014368223
0.017546108 -0.014051729 -0.10087445 -0.053062834 -0.056515213 -0.028325764 -0.09409422 0.060519744
0.0097174635 -0.058854148 -0.031324174 -0.056971397 0.016206179 -0.062091388 0.07672475 0.018980855
0.03354189 -0.07805447 0.056111444 0.0031430172 0.005052313 0.076346 0.040296074 0.12659974
0.038021017 0.08242253 0.1069232 0.039320815 0.038923908 -0.031816017 -0.061142143 -0.013256748
0.04899333 -0.01278395 -0.007526235 0.026539473 0.005473838 0.022728387 -0.101050064 0.16920269
-0.006230425 0.18703786 0.072806634 0.095819406 -0.020378334 0.17391145 -0.13445234 0.016689217
-0.16329484 0.17587908 -0.09179841 0.04044847 -0.09008127 0.13660079 0.3274308 -0.08294986
-0.1287176 0.048316732 -0.030426497 0.32631138 -0.13800299 0.1708428 0.011802492 0.081258245
-0.005973611 -0.024673512 0.10517198 -0.013951145 0.13631073 -0.17642847 -0.06755735 -0.10639266
-0.29424372 -0.16384545 -0.08940291 -0.015594551 -0.08758063 -0.03048545 0.019344408 0.038098466
0.00043794606 -0.06809078 0.05191615 -0.045100007 0.34292382 -0.037346568 -0.12052778 -0.08665127
-0.039943196 -0.0054800054 0.01933999 -0.026975617 0.24460512 -0.006420493 -0.12259026 0.022956412
0.12066692 0.022017026 -0.20618281 0.10623096 0.026965203 0.07997126 0.21132328 -0.12763233
0.06488775 0.014115277 0.037326474 0.07163233 0.114061624 -0.06722493 0.027969087 0.11464982
0.042834267 -0.0057513868 -0.034007356 0.14459287 0.05848804 0.13479206 0.122880764 -0.0056586065
0.019815132 -0.10846842 -0.04539545 0.00038041538 0.01923391 -0.090253 -0.038205523 -0.071554914
0.04945681 0.03228346 0.24690191 -0.026006188 -0.068968825 0.002745061 -0.19091965 6.9238835e-05
0.008440966 0.0055879797 0.007245342 0.050460663 0.027162148 -0.038541175 0.027665073 0.007583742
0.07697842 -0.008278463 -0.027512163 0.021752974 -0.032328445 -0.045336805 0.026627356 -0.076086916
-0.024565278 0.03732213 -0.023758218 0.086084306 -0.06102686 0.08706402 -0.033631194 0.057214826
-0.047283985 0.0803179 -0.017118992 0.072508186 0.0057923235 -0.05981869 0.026997892 0.042404413
-0.046726413 -0.046128646 0.0045750747 0.028147897 0.027103143 -0.030329255 0.014293709 0.016602634
0.102658704 -0.031451833 0.031499192 -0.049866054 -0.022142828 0.00019782591 0.022304615 0.054357838
0.09600247 -0.11388821 -0.13174404 0.054733843 -0.021914752 -0.077915005 -0.06218521 -0.043768078
00000000: a70d 573d 4875 83bc dd9d 9ebc 0c9a d13d
00000010: 8a7b fbba b3ff 303c 875e c0bc 024c 553c
00000020: 42f5 78bc 1011 723d 4847 973d d65e 3abd
00000030: 3164 11bd 634d 1ebd 22c3 d93b 1d78 0dbd
00000040: 4553 d1bd 35df 4b3c 6cde 413d ebde 673d
00000050: 2e15 40bc b4c5 353d 7fd5 dc3b 361e 10bd
00000060: 2f21 d839 1eb2 083d 33db db3c 2b87 9d3c
00000070: 1cc2 cfba f1a8 b7bd 41f8 c6bd 750b bcb9
00000080: ce04 d33b 7e42 b5bd 5b7b 7639 9582 e9bc
00000090: 24e4 1ebd 12cd a63d 2f7b 753d 89fe f53c
000000a0: 97e4 283d fec2 4e3a 4294 cd3b 07d3 25bc
000000b0: 15bb 143d d7e2 003e 6ce7 0cbc b765 54bd
000000c0: 1c31 22bb f7c5 953d c576 c23c e547 86bc
000000d0: 0e80 4e3d 6cfd 83bd c8ea 95bc 5da9 483c
000000e0: bb73 103d 9c65 a53a 89d4 f1bc 5cdf f8ba
000000f0: f938 52bd 314d b2bc a781 453a b268 6b3c
00000100: dbbc 8f3c 3939 66bc 4397 cebd 6a58 59bd
00000110: 7f7c 67bd 6f0b e8bc 78b4 c0bd 8de3 773d
00000120: ff35 1f3c 0c11 71bd c74d 00bd d75a 69bd
00000130: d2c2 843c 8a53 7ebd de21 9d3d bd7d 9b3c
00000140: 3963 093d 06db 9fbd 1dd5 653d 14fb 4d3b
00000150: e08d a53b 4b5b 9c3d 7f0d 253d 5da3 013e
00000160: edbb 1b3d 25cd a83d 8dfa da3d dd0e 213d
00000170: ad6e 1f3d 8351 02bd 2f70 7abd d532 59bc
00000180: 3bad 483d c673 51bc a39e f6bb 4f69 d93c
00000190: e25d b33b e230 ba3c 56f3 cebd 7843 2d3e
000001a0: 9828 ccbb da86 3f3e a51b 953d f73c c43d
000001b0: 77f0 a6bc d815 323e e0ad 09be d3b7 883c
000001c0: c336 27be a519 343e ce00 bcbd 4bad 253d
000001d0: 877c b8bd 14e1 0b3e 03a5 a73e 9ee1 a9bd
000001e0: 8cce 03be c4e7 453d fd40 f9bc 4912 a73e
000001f0: a850 0dbe 6af1 2e3e 3d5f 413c b96a a63d
00000200: 48be c3bb 1b20 cabc 6864 d73d 5893 64bc
00000210: 0a95 0b3e aaa9 34be 825b 8abd 65e4 d9bd
00000220: 1da7 96be 1ac7 27be df18 b7bd 4a80 7fbc
00000230: 795d b3bd 9fbc f9bc 2a78 9e3c 230d 1c3d
00000240: 209c e539 2e73 8bbd 07a6 543d c9ba 38bd
00000250: b693 af3e b7f8 18bd 45d7 f6bd 3976 b1bd
00000260: 7a9b 23bd 9e91 b3bb e66e 9e3c f8fb dcbc
00000270: c479 7a3e 0063 d2bb 9a10 fbbd 160f bc3c
00000280: 3820 f73d 0d5d b43c 9621 53be 9e8f d93d
00000290: 21e6 dc3c f9c7 a33d 2165 583e 0db2 02be
000002a0: dee3 843d c343 673c a5e3 183d f9b3 923d
000002b0: 2499 e93d 39ad 89bd 6d1f e53c 86cd ea3d
000002c0: fc72 2f3d 2176 bcbb 4c4b 0bbd 2710 143e
000002d0: 2891 6f3d ee06 0a3e e9a8 fb3d d56b b9bb
000002e0: 5853 a23c b124 debd 94f0 39bd 7d72 c739
000002f0: 6f90 9d3c 91d6 b8bd 657d 1cbd 628b 92bd
00000300: 3993 4a3d a93b 043d dbd3 7c3e ee0a d5bc
00000310: 873f 8dbd 7be6 333b 7180 43be 5134 9138
00000320: fa4b 0a3c 5f1b b73b 556a ed3b d7af 4e3d
00000330: 2783 de3c 5add 1dbd dda1 e23c 0a81 f83b
00000340: dda6 9d3d 64a2 07bc 3061 e1bc 4b33 b23c
00000350: d56a 04bd 16b3 39bd 9d21 da3c 75d3 9bbd
00000360: 1f3d c9bc 17df 183d 98a0 c2bc f84c b03d
00000370: 4df7 79bd 9f4e b23d ddc0 09bd 185a 6a3d
00000380: daac 41bd b67d a43d 213d 8cbc 2c7f 943d
00000390: 88cd bd3b 7104 75bd af2a dd3c 40b0 2d3d
000003a0: 3264 3fbd 64f1 3cbd 82ea 953b 6b96 e63c
000003b0: 6907 de3c 0f75 f8bc 2930 6a3c 3f02 883c
000003c0: ba3e d23d a3d3 00bd 4c05 013d 5940 4cbd
000003d0: e064 b5bc 7d6f 4f39 2bb8 b63c 53a6 5e3d
000003e0: f19c c43d 393e e9bd e9e7 06be 9830 603d
000003f0: 9186 b3bc e791 9fbd ebb5 7ebd 2846 33bd

decode.4.weight f4 [1, 100]
0.00038501152 -0.03645741 -0.0009357786 -0.00048702004 -0.048755344 -4.448709e-05 -0.0646251 -7.448504e-05
0.00055568333 0.06663362 -1.8723518e-05 -0.00052277825 0.00015193636 -8.24199e-05 -0.021170432 0.0564074
2.8968434e-06 0.00028492222 -0.00043833148 0.045739193 0.086881034 -0.00014796128 -0.0003882425 0.0001125196
0.00062065717 0.00050736766 5.1378665e-05 0.00014671638 -9.185511e-05 -0.00034699595 0.042775106 -0.00033705385
7.989827e-05 0.0005779004 -0.07286788 -0.0002102765 0.00012715002 -0.00013360675 -0.0003086209 0.00022939953
-0.00020628939 -0.000126823 0.00017000592 -0.053929195 1.26535e-05 0.08681903 -5.1066316e-05 -0.00035124377
-3.383408e-05 -0.0003319127 5.0006616e-05 -0.00012296205 0.00057261344 0.00030105858 -0.067181185 0.00058026507
-0.014363099 -0.00020558889 -0.00050967396 -0.00066982565 0.00022071615 -0.0009836212 0.00072808843 -0.032166876
-0.00045016553 0.00021000448 -0.044069257 0.00033834338 0.00021534634 -0.00028155203 -5.6777084e-05 0.00074202276
-0.00058601494 5.029269e-05 -0.0001861114 0.00029925586 -0.00045078076 -0.00040563548 0.059995964 -0.069958344
-0.00025313583 -0.037418768 -0.00052938116 0.00035117992 1.938161e-05 0.00023983255 0.057748675 -0.031996056
-0.00013620025 0.0003689862 -0.0327177 0.0007227409 -0.00026077946 0.0004047377 -0.0006754659 0.000390679
-0.00025233292 0.076846674 -0.0007236968 -0.0002884443
00000000: 5fdb c939 5d54 15bd 0a4f 75ba b956 ffb9
00000010: afb3 47bd a697 3ab8 2a5a 84bd da34 9cb8
00000020: 47ab 113a 3577 883d 7310 9db7 0e0b 09ba
00000030: 1b51 1f39 d9d8 acb8 9d6d adbc 720b 673d
00000040: 6467 4236 9d61 9539 dbcf e5b9 0559 3b3d
00000050: afee b13d 0e26 1bb9 078d cbb9 80f8 eb38
00000060: 99b3 223a de00 053a 6c7f 5738 e1d7 1939
00000070: 56a2 c0b8 02ed b5b9 f334 2f3d 9ab6 b0b9
00000080: 0f8f a738 3d7e 173a c13b 95bd ab7d 5cb9
00000090: 9353 0539 ca18 0cb9 65ce a1b9 f88a 7039
000000a0: 634f 58b9 cafb 04b9 9e43 3239 dce4 5cbd
000000b0: 5e4a 5437 2dce b13d 0a30 56b8 2427 b8b9
000000c0: 11e9 0db8 9204 aeb9 32be 5138 60ef 00b9
000000d0: 701b 163a 66d7 9d39 4a96 89bd ee1c 183a
000000e0: 3453 6bbc 5993 57b9 a49b 05ba 3d97 2fba
000000f0: 0a70 6739 daec 80ba 30dd 3e3a 6ac1 03bd
00000100: 3204 ecb9 a634 5c39 f781 34bd ae63 b139
00000110: 98ce 6139 469d 93b9 ee23 6eb8 4e84 423a
00000120: cc9e 19ba 5df1 5238 e626 43b9 71e5 9c39
00000130: c556 ecb9 79ab d4b9 54be 753d 5246 8fbd
00000140: 51b7 84b9 6c44 19bd 2bc6 0aba 921e b839
00000150: b195 a237 8f7b 7b39 e089 6c3d 4c0e 03bd
00000160: fad0 0eb9 7d74 c139 ff02 06bd 5276 3d3a
00000170: 3ab9 88b9 f932 d439 c011 31ba 0cd4 cc39
00000180: 8d4b 84b9 ca61 9d3d 78b6 3dba 573a 97b9
