Quantum/models/2_latent.pt (torch, 93607 bytes, 6 tensors)

encode.0.weight f4 [100, 10]
-0.37199736 0.90859526 0.37745076 -0.46761024 -0.01873757 1.3379953 0.29365608 -0.03983517
-0.08637354 0.36510426 -0.2057287 0.7660333 -0.4592917 0.18140267 0.15480627 0.021018429
-0.035425935 -0.2109205 -0.28013697 0.33386087 0.3764505 -0.23977983 0.48771143 0.122899435
-0.39428544 -0.1712607 0.06311277 -0.14608008 -0.2324701 -0.04329426 -0.080604546 0.08353772
-0.10845613 -0.05752075 -0.11093909 -0.0224696 -0.09146433 0.19476567 0.11307665 0.19049224
-0.09933836 -0.66949224 0.10281816 -0.11283034 0.054821793 0.03944492 0.39229515 0.19087358
-0.12643774 -0.48636162 -0.14910357 0.13137719 -0.82465327 0.10550542 0.4181906 -0.24785557
0.28259796 -0.22625707 -0.26761243 -0.5586491 -0.23546764 0.07281531 0.697714 -0.021464875
-0.33067638 0.1191593 -0.18628757 0.4381377 0.29834303 0.6883824 0.065239996 0.27379343
-0.7187041 0.067206465 0.3775914 0.046560906 -0.25702888 -0.34425458 -0.103256226 0.050120894
0.30275783 0.7578615 -0.32178354 -0.08485039 -0.15210952 0.95273805 -0.073356345 -0.3660238
-0.14236033 -0.13314746 0.12327002 -0.82941914 -1.1991873 0.32989502 0.7854324 -1.0810329
0.028501822 -0.52889395 -0.28366125 -0.75595015 -0.0848505 -1.132581 -0.4166063 0.38608986
0.25648832 -1.2981542 0.23625356 0.11546592 -0.11294473 -0.58947337 0.32944062 -0.81571794
0.13214062 -0.033967517 -0.13956109 -0.4372542 0.15087311 -0.05905257 0.071444735 -0.12325069
0.40972486 -0.18697459 -0.98365825 0.046149004 0.65135014 -0.66760826 -0.31739962 -0.4218318
-0.32770967 -0.46591103 0.31530705 0.34745526 0.071018085 -0.3482632 -0.041942313 0.2947871
0.33985442 -0.33144614 -0.3962158 -0.13528486 0.009617067 0.041190114 0.062299054 -0.019299308
-0.1259595 0.037919313 0.030595226 -0.024003716 -0.16990277 0.08466678 -0.15241714 0.5566169
-0.1891444 -0.21682945 0.17261915 0.78810483 -0.157117 -0.13594176 -0.08652351 0.5969665
-0.03370059 0.24253549 -0.70398027 0.11723523 0.42126945 -0.01201969 0.003554093 -0.3057936
-0.38999096 -0.38930106 -0.12482667 1.2869306 0.56217176 -0.335041 -0.36106783 1.3864874
-0.062014688 0.0671763 0.1510472 0.57427406 0.47636852 -0.96262586 -0.13740987 0.16881065
0.10124143 -0.22307457 -0.171908 -0.13799995 -0.21425241 -0.7937078 0.16174917 -0.07859973
0.8992765 -0.3479043 -0.4860647 0.5768217 -0.12334989 0.40915957 0.36373374 0.3421537
-0.4615502 -0.06264315 -0.4055265 0.24366648 0.34744695 0.024910953 -0.29995564 0.14012267
0.06853279 0.39429584 -0.21454874 0.5299132 -0.36742833 -0.026423767 0.19337897 0.1752071
0.13270089 0.13265753 -0.41062632 -0.02082692 0.029072138 0.316368 0.10969127 -0.27956408
-0.09969095 -0.49183273 -0.09049498 0.48910102 0.5219915 0.11936705 0.14469758 -0.12553054
0.569907 0.20671709 -0.48297694 -0.5572714 -0.02221258 0.06759687 0.30124334 0.29973915
-0.17749786 -0.19094788 -0.60087097 0.14934273 0.42300183 -0.6631012 -0.52452815 0.32852432
0.2967442 0.26360208 0.023003206 -0.18608633 -0.32816184 0.34441093 -0.1704768 -0.74193704
00000000: 7076 bebe b399 683f 3a41 c13e 9c6a efbe
00000010: 887f 99bc 6e43 ab3f 175a 963e 342a 23bd
00000020: 9ce4 b0bd f2ee ba3e 8baa 52be c21a 443f
00000030: 4828 ebbe 9fc1 393e 8985 1e3e d72e ac3c
00000040: c91a 11bd 8bfb 57be 1d6e 8fbe d0ef aa3e
00000050: 1fbe c03e d888 75be 50b5 f93e b3b2 fb3d
00000060: c8df c9be f75e 2fbe 4541 813d 0496 15be
00000070: a40c 6ebe 5255 31bd ff13 a5bd d315 ab3d
00000080: 3f1e debd e19a 6bbd 0934 e3bd 2b12 b8bc
00000090: a751 bbbd a770 473e bb94 e73d 6610 433e
000000a0: e971 cbbd d863 2bbf 5492 d23d 9813 e7bd
000000b0: d18c 603d ff90 213d e9da c83e 5d74 433e
000000c0: e578 01be 6404 f9be 9bae 18be be87 063e
000000d0: 7a1c 53bf 3a13 d83d 141d d63e dacd 7dbe
000000e0: aeb0 903e efaf 67be 7f04 89be a103 0fbf
000000f0: 6e1e 71be 3120 953d 629d 323f 1bd7 afbc
00000100: 6a4e a9be cb09 f43d 2bc2 3ebe 9653 e03e
00000110: 6bc0 983e d439 303f 8c9c 853d a72e 8c3e
00000120: fefc 37bf 8ba3 893d a953 c13e a6b6 3e3d
00000130: 4a99 83be 2342 b0be 0078 d3bd 914b 4d3d
00000140: 1303 9b3e 3603 423f d0c0 a4be 0bc6 adbd
00000150: 99c2 1bbe a4e6 733f da3b 96bd 7967 bbbe
00000160: e8c6 11be cf57 08be fe74 fc3d d054 54bf
00000170: f87e 99bf 00e8 a83e 1912 493f 495f 8abf
00000180: a77c e93c 9865 07bf 0c3c 91be f385 41bf
00000190: 19c6 adbd 6af8 90bf 6c4d d5be 92ad c53e
000001a0: 7052 833e eb29 a6bf 74ec 713e 6579 ec3d
000001b0: 914f e7bd bae7 16bf 71ac a83e e4d2 50bf
000001c0: df4f 073e 8621 0bbd 1ae9 0ebe c8df dfbe
000001d0: 7b7e 1a3e 1ce1 71bd 9e51 923d dc6a fcbd
000001e0: 75c7 d13e 4476 3fbe 07d1 7bbf bd06 3d3d
000001f0: e2be 263f 60e8 2abf 3482 a2be 56fa d7be
00000200: 90c9 a7be e48b eebe ed6f a13e a8e5 b13e
00000210: ee71 913d 8e4f b2be b4cb 2bbd 56ee 963e
00000220: 6601 ae3e 4fb3 a9be ccdc cabe 1d88 0abe
00000230: e790 1d3c f7b6 283d 4b2d 7f3d 9519 9ebc
00000240: 87fb 00be 4851 1b3d d7a2 fa3c 71a3 c4bc
00000250: fefa 2dbe c765 ad3d 3d13 1cbe 727e 0e3f
00000260: 12af 41be 8a08 5ebe 13c3 303e 3dc1 493f
00000270: 47e3 20be 5134 0bbe 3d33 b1bd ccd2 183f
00000280: a109 0abd 395b 783e 0d38 34bf 0619 f03d
00000290: a1b0 d73e 3cee 44bc c9eb 683b fb90 9cbe
000002a0: e5ac c7be 7852 c7be 20a5 ffbd 24ba a43f
000002b0: 7dea 0f3f 7e8a abbe e2dd b8be 6b78 b13f
000002c0: 1d03 7ebd ba93 893d 1eac 1a3e a003 133f
000002d0: 93e6 f33e a66e 76bf 2cb5 0cbe b3dc 2c3e
000002e0: ab57 cf3d a96d 64be a708 30be dc4f 0dbe
000002f0: fc64 5bbe 6f30 4bbf 93a1 253e e5f8 a0bd
00000300: fc36 663f 8320 b2be 79dd f8be 96aa 133f
00000310: de9e fcbd 5d7d d13e 4f3b ba3e c52e af3e
00000320: 4f50 ecbe 0d4b 80bd 2ba1 cfbe b583 793e
00000330: 91e4 b13e 0e12 cc3c c993 99be 517c 0f3e
00000340: eb5a 8c3d 25e1 c93e aab2 5bbe 64a8 073f
00000350: 911f bcbe a876 d8bc 2305 463e 7d69 333e
00000360: bee2 073e 60d7 073e 9d3d d2be 389d aabc
00000370: b128 ee3c fdfa a13e d1a5 e03d 0623 8fbe
00000380: c52a ccbd 80d1 fbbe 6f55 b9bd 736b fa3e
00000390: 3ca1 053f b676 f43d 9a2b 143e 148b 00be
000003a0: 6de5 113f a5ad 533e c148 f7be 57a9 0ebf
000003b0: 28f7 b5bc 3a70 8a3d 913c 9a3e 6977 993e
000003c0: 00c2 35be d787 43be aed2 19bf 4ded 183e
000003d0: b293 d83e 00c1 29bf 7a47 06bf 5734 a83e
000003e0: dbee 973e daf6 863e 3871 bc3c 6a8d 3ebe
000003f0: d404 a8be a156 b03e 7891 2ebe 96ef 3dbf

encode.2.weight f4 [100, 100]
-1.2320368 -0.10950925 -0.29305404 -0.112523064 0.11748315 1.7314811 -1.8257309 1.1330932
-0.8197603 2.5939224 1.3745403 0.3146351 2.0928805 -0.664509 -0.30881956 -1.205534
1.2433065 -1.4126676 0.7055744 -2.166823 0.15871714 -0.23784435 -0.58504564 -0.50873387
1.216935 0.7235118 -0.17067248 -0.6376377 0.8578584 -1.5867095 0.7260097 -0.7228367
-0.14130643 -0.9624442 0.3359777 0.26738235 0.94686663 -1.48445 0.3303182 -0.12703773
1.7949694 -1.5693719 -1.3301003 -1.6010712 -1.4074215 1.5695413 -0.34854928 -0.87075573
-0.9322327 -0.9610453 2.2037706 -1.6034616 -0.6542748 -0.32486466 1.0556282 2.6195128
-0.81730056 -1.4484227 0.3895224 -0.14442126 -0.81271684 0.87218004 0.6698831 2.1491463
0.80713606 0.45878965 -0.4455175 0.78964144 -0.9726119 1.5510024 1.3617193 0.20013028
-0.6747829 0.99896896 0.25625417 0.10501124 -1.3743783 -1.6272677 -1.104396 1.1794058
2.574118 1.1080905 1.3767558 -0.46459994 1.0678157 -0.7184602 2.706187 -1.3273269
-0.95838255 -0.256315 -1.2769986 2.0550988 -1.0387124 -1.7020314 -0.98919165 -1.2398145
-0.7909058 -2.2914362 1.9206883 1.1078293 -1.3425436 -0.57598954 -0.016901841 0.054629743
0.38302475 1.4792417 -1.674309 0.32917675 -0.8146339 2.274078 1.5349084 0.92870235
1.7029663 -0.27818638 -0.26343504 -1.5447547 0.84584963 -1.6506071 1.0414106 -1.626297
-0.4251024 -0.33395842 -0.65651983 -0.3722565 -0.71294516 0.36045885 -0.10539875 -0.54969084
-0.1710451 -1.467953 1.2213266 -0.42729306 0.044248123 -0.77159476 1.0416979 -0.07522201
0.7727813 -1.3260828 0.40029013 0.06444837 1.9155948 -1.5885706 -1.7683663 -1.4912906
-1.7601622 1.9428272 0.22314523 -1.2502536 -0.27414852 -0.91229635 2.2946124 -1.7831764
0.2250525 -0.11051004 1.6847084 2.7009299 -0.60238624 -1.326785 0.051663715 -0.06421811
-0.80539465 0.32829913 1.2779136 2.1846733 1.1267853 0.43047065 -0.88311046 0.55194694
-1.2270807 0.801824 0.8598949 0.93352133 -0.7617777 0.15206417 0.49953988 1.3724483
-1.6523781 -1.9252527 -1.2125205 1.2876015 2.3237765 0.61703026 1.3661007 -0.5332978
0.45031568 -0.7178779 2.3159673 -0.43547946 -1.7136301 0.052616596 -0.99107575 1.7252705
-0.9827263 -1.4113631 -1.3779118 -0.5047487 -0.7840239 -1.7275974 1.5551522 0.39980093
0.018866433 -0.035393476 0.05635863 -0.07984189 -0.093785584 0.16898526 -0.022253376 0.2420454
0.035985637 0.009905396 -0.10102209 -0.016377147 0.15219109 0.034400906 -0.0044365064 -0.084987506
0.032800414 -0.065198205 -0.059678376 0.0036289615 0.02360856 -0.026364962 -0.05301944 -0.017817913
0.098791726 0.08072083 -0.07922778 -0.018271312 0.030982833 0.028221503 -0.20291679 -0.039719414
0.053011484 0.046265736 -0.21938062 0.0642205 0.1005985 -0.096395776 0.038797703 -0.08329588
0.04424138 -0.033707727 -0.020857519 0.050707247 0.0034974937 -0.16563874 0.00095300586 0.10360917
-0.037767623 -0.04080261 -0.14430411 0.033831257 0.15000387 0.07250043 -0.16397811 -0.168313
00000000: 62b3 9dbf 6346 e0bd 2e0b 96be 7e72 e6bd
00000010: 019b f03d 2ca1 dd3f 8db1 e9bf 3309 913f
00000020: d0db 51bf d302 2640 f0f0 af3f da17 a13e
00000030: c1f1 0540 431d 2abf 991d 9ebe f04e 9abf
00000040: ab24 9f3f 4bd2 b4bf 86a0 343f 3aad 0ac0
00000050: bf86 223e 788d 73be 8dc5 15bf 623c 02bf
00000060: 87c4 9b3f 1238 393f c4c4 2ebe 393c 23bf
00000070: 9c9c 5b3f 4c19 cbbf c6db 393f d30b 39bf
00000080: a2b2 10be be62 76bf 4505 ac3e 57e6 883e
00000090: da65 723f 7502 bebf 781f a93e 2e16 02be
000000a0: 8fc1 e53f 2ee1 c8bf ba40 aabf e7ef ccbf
000000b0: 6326 b4bf bbe6 c83f 0d75 b2be d9e9 5ebf
000000c0: cda6 6ebf 1107 76bf 940a 0d40 3b3e cdbf
000000d0: 8e7e 27bf a954 a6be d31e 873f 19a6 2740
000000e0: 9c3a 51bf ea65 b9bf 7b6f c73e 2be3 13be
000000f0: 360e 50bf 3147 5f3f 757d 2b3f 9d8b 0940
00000100: 78a0 4e3f 7ae6 ea3e df1a e4be f125 4a3f
00000110: 18fd 78bf 3f87 c63f d14c ae3f f4ee 4c3e
00000120: 92be 2cbf 6ebc 7f3f bf33 833e 2210 d73d
00000130: a1eb afbf 4f4a d0bf d95c 8dbf c5f6 963f
00000140: 59be 2440 e9d5 8d3f 8939 b03f 0be0 edbe
00000150: 2fae 883f 02ed 37bf 2b32 2d40 d9e5 a9bf
00000160: 8f58 75bf b83b 83be b174 a3bf bd86 0340
00000170: 87f4 84bf 2adc d9bf aa3b 7dbf 3eb2 9ebf
00000180: cd78 4abf e4a6 12c0 1dd9 f53f 5acd 8d3f
00000190: 78d8 abbf 0d74 13bf bb75 8abc 70c3 5f3d
000001a0: d21b c43e cb57 bd3f c24f d6bf db89 a83e
000001b0: d98b 50bf 7e8a 1140 e177 c43f 70bf 6d3f
000001c0: cdfa d93f 726e 8ebe f5e0 86be 86ba c5bf
000001d0: 9a89 583f 1847 d3bf f14c 853f 802a d0bf
000001e0: 06a7 d9be 99fc aabe af11 28bf 6798 bebe
000001f0: 9383 36bf 108e b83e 4ddb d7bd 8ab8 0cbf
00000200: 7226 2fbe e2e5 bbbf 6e54 9c3f 28c6 dabe
00000210: 853d 353d 3c87 45bf 5b56 853f ff0d 9abd
00000220: ffd4 453f 15bd a9bf d4f2 cc3e 82fd 833d
00000230: 3632 f53f 4856 cbbf d459 e2bf 9ce2 bebf
00000240: ff4c e1bf 90ae f83f 2f80 643e 4f08 a0bf
00000250: 325d 8cbe 418c 69bf eeda 1240 203f e4bf
00000260: 2a74 663e 1653 e2bd 86a4 d73f 09dc 2c40
00000270: fc35 1abf 17d4 a9bf 559d 533d c984 83bd
00000280: 582e 4ebf d316 a83e ac92 a33f b0d1 0b40
00000290: 803a 903f a666 dc3e 8713 62bf 654c 0d3f
000002a0: fb10 9dbf 5644 4d3f 1222 5c3f 41fb 6e3f
000002b0: dd03 43bf b6b6 1b3e b1c3 ff3e 63ac af3f
000002c0: 2081 d3bf ae6e f6bf df33 9bbf 20d0 a43f
000002d0: c1b8 1440 b2f5 1d3f 63dc ae3f 3486 08bf
000002e0: c78f e63e d9c6 37bf cf38 1440 2af7 debe
000002f0: 3b58 dbbf 8084 573d 24b7 7dbf aad5 dc3f
00000300: f393 7bbf 8ca7 b4bf 6a5f b0bf 3637 01bf
00000310: cab5 48bf e921 ddbf 3a0f c73f b5b2 cc3e
00000320: c78d 9a3c c0f8 10bd 4fd8 663d 2584 a3bd
00000330: a812 c0bd 790a 2d3e b64c b6bc c0da 773e
00000340: ad65 133d 3e4a 223c abe4 cebd 5e29 86bc
00000350: fbd7 1b3e f7e7 0c3d 1d60 91bb ee0d aebd
00000360: ba59 063d a386 85bd 5071 74bd dfd3 6d3b
00000370: bd66 c13c 55fb d7bc ea2a 59bd dff6 91bc
00000380: 5153 ca3d f650 a53d 2d42 a2bd b8ad 95bc
00000390: b6cf fd3c c830 e73c 6bc9 4fbe d3b0 22bd
000003a0: 9222 593d 2481 3d3d 50a5 60be 0a86 833d
000003b0: 9606 ce3d 266b c5bd 57ea 1e3d 0897 aabd
000003c0: 7336 353d 1d11 0abd 63dd aabc 67b2 4f3d
000003d0: 3536 653b 349d 29be 24d3 793a 0b31 d43d
000003e0: 39b2 1abd a320 27bd 75c4 13be a592 0a3d
000003f0: 9d9a 193e 1b7b 943d e1e9 27be 3e5a 2cbe

encode.4.weight f4 [4, 100]
-0.24475525 0.020597916 -0.054849666 0.035086323 0.18235023 0.36735356 -0.0634019 0.54852307
-0.13913104 -0.10401189 0.000186205 0.040904667 -0.123883106 0.12034012 -0.5037947 -0.10424885
-0.27185637 0.009659134 -0.12796639 -0.14085707 -0.00010183388 -0.07075064 -0.013655546 -0.06598383
-0.32793495 0.51962334 -0.12799127 0.5310362 0.18551944 -0.25045413 0.16295256 0.29459694
-0.2925866 -0.09307552 -0.09992806 0.04175349 0.017099652 -0.030653233 0.37293494 0.20867118
-0.09044694 -0.31106672 -0.54243463 0.00011533093 -0.32501307 -0.00010252019 0.00023591712 0.016578188
-0.4008108 -0.022994645 0.56083226 -0.16653894 -0.23973715 0.27094018 -0.13687855 -0.000434692
-0.04319573 0.00035664457 -0.13776481 0.19815718 -0.3487917 0.25381848 -0.04785192 -0.22028404
-0.096392155 -0.23345093 -0.21878096 -0.21578506 2.2668395e-05 4.9560982e-05 0.27761573 0.45453155
-0.06201825 0.00025103675 0.13453256 -0.116190694 -0.13452573 0.10840902 -0.28523695 -0.42119303
-0.40985817 -0.24212253 0.0001300241 0.14322388 0.34776342 0.096947975 -0.036714893 0.1884496
-0.011532411 0.124919996 0.00013036813 0.00019522166 -9.013267e-05 -0.15039289 0.14484246 -5.6757817e-05
0.39491618 -0.10399143 -0.11026459 0.4370267 0.249565 -0.4126402 0.02379662 -0.12116071
0.5905599 -0.21722752 -0.23900262 0.23569004 -0.023751121 0.28217375 0.0005759355 -0.7137654
0.06778235 -0.102852575 -0.11991712 -0.08795346 -0.26575708 0.02456164 0.3250869 0.22898047
0.00025909254 -0.11336711 -0.038927473 -0.14197141 0.17482649 -0.15187433 -0.21847409 0.39142773
-0.14188184 -0.30563363 0.17405985 -0.2997425 0.20529363 0.16800806 -0.3652088 -0.09765021
-0.052435517 -0.12256224 -0.13714488 -0.45262516 0.16037038 0.08597211 -0.12839234 -0.00036477856
0.33965364 -0.00036813307 0.0010775737 0.08696977 0.26335147 -0.14816746 0.47876313 -0.59993875
-0.04747477 0.0109095555 -0.15863545 -0.00067721686 -0.0072227097 0.0003626163 -0.21644495 0.5108547
-0.22187887 0.16216989 0.08848012 -0.15486649 -0.2170811 -0.06001122 -0.06854219 -0.10583365
7.5601325e-05 -0.0004393895 -0.340716 0.4534134 0.062296513 -0.00035727522 0.0029282593 0.27999288
0.071043424 -0.21522397 0.2674778 -0.25198853 0.05749236 -0.3289269 -0.00034832567 0.26079822
0.31200662 -0.118610084 -0.0035368737 0.51783663 0.3405798 0.18604803 -7.2557676e-05 -3.688974e-05
0.00039506523 0.19918603 0.16404146 -0.0003920658 -0.33447075 -0.023516044 0.07275875 -0.20818803
-0.11440506 0.21736583 -0.17525704 0.06767135 0.17737831 0.040362153 0.5669921 -0.010234799
-0.10430354 0.49560243 0.02965701 0.3032316 -0.13125108 0.023647869 -0.2550204 -0.10073768
-0.010014183 -0.30887938 0.050702926 0.1446606 0.028182466 0.16767153 -0.018153714 0.1590842
-0.015676204 -0.0537455 0.25623947 0.09762661 0.038479403 0.0083812885 0.28622398 -0.014232698
0.1763797 0.28644413 0.0076701874 0.15545654 -0.2162677 0.06384259 -0.24554083 -0.021275098
0.257514 0.0549275 -0.25916788 -0.026138814 0.14538938 -0.05196437 0.015271223 -0.10644508
0.04540077 0.16374396 -0.028361775 0.20172024 -0.09920945 -0.29049078 0.16593374 -0.05050539
00000000: 1fa1 7abe f6bc a83c 0baa 60bd adb6 0f3d
00000010: 05ba 3a3e c415 bc3e dbd8 81bd 026c 0c3f
00000020: 5e78 0ebe 3004 d5bd 0640 4339 a78b 273d
00000030: 6db6 fdbd e174 f63d b1f8 00bf 6c80 d5bd
00000040: c230 8bbe 5841 1e3c 9f09 03be d63c 10be
00000050: a68f d5b8 b6e5 90bd 83bb 5fbc 8822 87bd
00000060: 17e7 a7be 0906 053f 2510 03be fdf1 073f
00000070: cff8 3d3e 863b 80be 09dd 263e 69d5 963e
00000080: e9cd 95be 619e bebd 15a7 ccbd b505 2b3d
00000090: 9214 8c3c 7d1c fbbc 54f1 be3e e6ad 553e
000000a0: 3f3c b9bd 2344 9fbe ffdc 0abf d2dd f138
000000b0: 1d68 a6be 1c00 d7b8 8560 7739 fbce 873c
000000c0: 1337 cdbe 445f bcbc b492 0f3f 2f89 2abe
000000d0: a87d 75be acb8 8a3e e429 0cbe 5fe7 e3b9
000000e0: 01ee 30bd 06fc ba39 3812 0dbe b7e9 4a3e
000000f0: d394 b2be 7ff4 813e 6000 44bd 2492 61be
00000100: 4069 c5bd c30d 6fbe 1e08 60be c2f6 5cbe
00000110: 0228 be37 b3df 4f38 a623 8e3e 5cb8 e83e
00000120: d906 7ebd 959d 8339 e7c2 093e 63f5 edbd
00000130: 1dc1 09be 8c05 de3d 940a 92be 9da6 d7be
00000140: eed8 d1be f8ee 77be 1457 0839 48a9 123e
00000150: 0c0e b23e a98c c63d 5b62 16bd eff8 403e
00000160: 70f2 3cbc 0ed6 ff3d 6eb3 0839 6ab4 4c39
00000170: 9c05 bdb8 9800 1abe 9551 143e 3e0f 6eb8
00000180: 7432 ca3e 75f9 d4bd 67d2 e1bd f7c1 df3e
00000190: f88d 7f3e 9445 d3be 21f1 c23c 1b23 f8bd
000001a0: ef2e 173f e470 5ebe 1abd 74be bb58 713e
000001b0: b691 c2bc 1479 903e 61fa 163a 54b9 36bf
000001c0: 79d1 8a3d 5fa4 d2bd 1b97 f5bd f220 b4bd
000001d0: 5011 88be 7e35 c93c ca71 a63e db79 6a3e
000001e0: d0d6 8739 042d e8bd 6a72 1fbd f460 11be
000001f0: b705 333e f284 1bbe acb7 5fbe 3769 c83e
00000200: 7949 11be 037c 9cbe bf3c 323e d977 99be
00000210: 7e38 523e 4e0a 2c3e a6fc babe d5fc c7bd
00000220: a0c6 56bd e901 fbbd b56f 0cbe 7cbe e7be
00000230: 2238 243e 2512 b03d 4879 03be c03f bfb9
00000240: 15e7 ad3e fc01 c1b9 603d 8d3a 351d b23d
00000250: 01d6 863e 36b9 17be 7120 f53e 9695 19bf
00000260: e874 42bd febd 323c 5571 22be 4187 31ba
00000270: 7bac ecbb 891d be39 bfa3 5dbe 60c7 023f
00000280: 3734 63be dd0f 263e 1135 b53d 5295 1ebe
00000290: 824a 5ebe 53ce 75bd d95f 8cbd 50bf d8bd
000002a0: 278c 9e38 dc5d e6b9 5472 aebe cd25 e83e
000002b0: a12a 7f3d ab50 bbb9 0ae8 3f3b 3a5b 8f3e
000002c0: 377f 913d ac63 5cbe daf2 883e a404 81be
000002d0: 1c7d 6b3d 1b69 a8be 7b9f b6b9 5887 853e
000002e0: 55bf 9f3e d8e9 f2bd e5ca 67bb f190 043f
000002f0: 7a60 ae3e 6083 3e3e 1b2a 98b8 0fba 1ab8
00000300: c220 cf39 6cf7 4b3e 7cfa 273e 2e8e cdb9
00000310: c03f abbe b8a4 c0bc 8a02 953d 3e2f 55be
00000320: 334d eabd 2695 5e3e 9576 33be 4797 8a3d
00000330: a9a2 353e c952 253d 6526 113f dcaf 27bc
00000340: 189d d5bd 9abf fd3e 42f3 f23c 2c41 9b3e
00000350: af66 06be 2db9 c13c 0992 82be 8f4f cebd
00000360: 8712 24bc 7025 9ebe dfad 4f3d e921 143e
00000370: eade e63c 16b2 2b3e 19b7 94bc f8e6 223e
00000380: 626b 80bc 3e24 5cbd d231 833e 76f0 c73d
00000390: 949c 1d3d ac51 093c f38b 923e 4330 69bc
000003a0: e19c 343e cea8 923e 3256 fb3b 0030 1f3e
000003b0: 4875 5dbe e7bf 823d 0e6f 7bbe 1d49 aebc
000003c0: e0d8 833e a9fb 603d a7b1 84be 1121 d6bc
000003d0: f4e0 143e 97d8 54bd 2734 7a3c e1ff d9bd
000003e0: 28f6 393d 7fac 273e f456 e8bc c08f 4e3e
000003f0: 532e cbbd 35bb 94be 89ea 293e bdde 4ebd

decode.0.weight f4 [100, 12]
-0.010160903 -0.18156846 -0.13869964 0.029005475 0.10267971 0.14953236 -0.25226012 -0.3073992
-0.015069724 -0.36042237 0.026626728 0.01876338 -0.41621786 0.9026195 0.24018218 -0.06247562
-0.26806858 -0.10349507 -0.15720533 -0.4446304 0.073842034 -0.13622563 -0.36166257 0.11258562
-0.016011707 -0.06414541 0.22458667 -0.010773604 -0.34311453 -0.08125753 -0.3092789 0.19184454
0.018233785 0.058027573 0.0019491994 0.09423962 -0.12467208 -0.2832805 -0.028361328 0.1599666
-0.1837531 -0.16207433 -0.04758927 0.26429465 -0.25163138 -0.13928784 0.25653103 -0.29031113
-0.30259314 -0.09439066 0.16198266 -0.08283728 0.099663 -0.43556988 -0.28291017 0.13413563
-0.33334953 -0.11544725 -0.3539449 0.20241207 0.36595997 -0.2786503 0.27003837 0.16161412
-0.30425704 -0.013222665 0.086167 -0.2774464 -0.07838809 -0.056474432 0.21523878 0.36185032
-0.18534736 0.42724207 0.0017197801 -0.14615165 0.42891595 -0.29892722 0.050446842 0.28234968
-0.14242323 -0.17413515 -0.16646014 -0.46788764 -0.29225633 0.22027019 0.37432605 0.19708966
0.3062372 0.16751692 -0.25497752 0.218996 0.07886836 0.12120594 -0.1604329 -0.24873056
0.008353414 0.004700425 0.04836948 -0.13359854 -0.047462337 0.105974935 0.00059753365 0.07209674
0.18822625 -0.05492192 -0.14802791 -0.012407891 0.32106578 -0.15297858 -0.15078102 -0.13002661
0.18056703 0.43156055 0.241084 0.14261352 -0.19386032 0.019675447 -0.07401609 0.22128324
-0.04987105 -0.21015586 -0.04454501 0.28885496 -0.003257009 -0.25962463 0.052872773 0.2508135
0.24059308 -0.020419436 -0.27544788 -0.17683753 -0.19717994 -0.08065422 -0.116925165 0.26700416
-0.21690558 -0.2137775 -0.24903186 -0.020624248 0.17917761 -0.211081 0.17293325 0.027356483
0.22080237 -0.09182485 0.00796664 0.15322392 0.24340747 -0.039321262 0.23690833 0.0836446
-0.21865356 0.1932559 -0.2970019 -0.06112426 -0.6848954 -0.2687163 -0.30313936 -0.050997086
0.025537467 0.24196786 0.022353664 0.3257022 -0.28513703 -0.3408544 -0.21782614 -0.37882504
-0.59954554 -0.27818403 -0.293282 -0.020007458 -0.17548172 0.18917987 0.08335415 -0.103204325
-0.35789615 0.20323868 -0.32927093 0.22122529 -0.0055973125 0.0029692075 -0.07681497 0.054864977
-0.029641997 -0.23997071 0.15417783 0.07282223 -0.12614611 -0.08077813 0.028205276 0.18914954
0.16474974 0.14345944 -0.34131745 -0.17699562 -0.10140829 0.11269539 0.02127905 0.16579512
-0.3674306 0.24584703 -0.00084894395 -0.07950914 -0.11090902 -0.42116502 0.010537043 -0.24107215
0.296306 -0.027197022 -0.14281736 -0.06866759 -0.27861506 0.20743412 -0.01605764 -0.3796919
0.21740548 0.20143335 -0.0561648 -0.36550704 0.026333267 0.17949894 0.25082833 -0.21382913
-0.11587941 -0.29421723 0.15652224 -0.13773087 0.3801858 0.3350331 0.13048653 0.03209264
-0.18186939 -0.17390579 -0.3526535 -0.25905365 -0.06312026 -0.19515957 0.22618364 0.27901068
-0.35177886 0.3720792 0.07479896 -0.273556 -0.31423345 0.08682958 -0.38795388 -0.18761067
0.08927125 -0.435053 0.24206027 0.17852809 0.19103956 0.113646425 -0.0351497 -0.20866099
00000000: eb79 26bc 15ed 39be 4707 0ebe e49c ed3c
00000010: bd49 d23d 031f 193e 3d28 81be 6e63 9dbe
00000020: 01e7 76bc 4889 b8be 4c20 da3c a9b5 993c
00000030: 821a d5be 1212 673f 51f2 753e 70e6 7fbd
00000040: 4940 89be 39f5 d3bd 6ffa 20be 99a6 e3be
00000050: 7e3a 973d bb7e 0bbe d62b b9be 4a93 e63d
00000060: fc2a 83bc ab5e 83bd 0cfa 653e c583 30bc
00000070: b5ac afbe 596a a6bd ce59 9ebe e572 443e
00000080: 055f 953c 52ae 6d3d 477c ff3a b400 c13d
00000090: 1354 ffbd 240a 91be 0456 e8bc 49ce 233e
000000a0: c629 3cbe d0f6 25be f7ec 42bd a151 873e
000000b0: d4d5 80be 79a1 0ebe 0958 833e a9a3 94be
000000c0: 7ded 9abe e44f c1bd c8de 253e 98a6 a9bd
000000d0: 1d1c cc3d 0403 dfbe 9ad9 90be da5a 093e
000000e0: caac aabe 9c6f ecbd 4438 b5be 1c45 4f3e
000000f0: 1b5f bb3e 41ab 8ebe 7842 8a3e 2c7e 253e
00000100: 94c7 9bbe e0a3 58bc 5378 b03d 740d 8ebe
00000110: ef89 a0bd bc51 67bd 8e67 5c3e 7244 b93e
00000120: b3cb 3dbe 79bf da3e 3f6a e13a c7a8 15be
00000130: df9a db3e fd0c 99be 59a1 4e3d 2390 903e
00000140: 65d7 11be 7c50 32be 8774 2abe f88e efbe
00000150: 9fa2 95be 828e 613e aaa7 bf3e dfd1 493e
00000160: 1fcb 9c3e 8e89 2b3e 6a8c 82be 7d40 603e
00000170: bc85 a13d d23a f83d 8648 24be 39b3 7ebe
00000180: c2dc 083c 0606 9a3b 131f 463d 0ece 08be
00000190: de67 42bd 6309 d93d cea3 1c3a 75a7 933d
000001a0: 62be 403e cff5 60bd a194 17be 784a 4bbc
000001b0: bc62 a43e 6ba6 1cbe 5766 1abe b225 05be
000001c0: 90e6 383e 81f5 dc3e b9de 763e 4709 123e
000001d0: 5283 46be 672e a13c bf95 97bd 1398 623e
000001e0: 9645 4cbd 1933 57be d474 36bd cce4 933e
000001f0: 8b73 55bb 85ed 84be 1f91 583d a16a 803e
00000200: 085e 763e a946 a7bc 8107 8dbe e614 35be
00000210: 8ae9 49be 0a2e a5bd 7676 efbd c5b4 883e
00000220: 7f1c 5ebe 7de8 5abe 3502 7fbe 2ff4 a8bc
00000230: 567a 373e 9e25 58be 6a15 313e b41a e03c
00000240: 041a 623e ab0e bcbd 8386 023c bbe6 1c3e
00000250: cf3f 793e 550f 21bd 1998 723e dc4d ab3d
00000260: b8e6 5fbe e0e4 453e a210 98be 6f5d 7abd
00000270: 4e55 2fbf 2f95 89be 1535 9bbe 52e2 50bd
00000280: f333 d13c 6cc6 773e 081f b73c 70c2 a63e
00000290: 7bfd 91be 7884 aebe d10d 5fbe 5bf5 c1be
000002a0: d17b 19bf 236e 8ebe 0f29 96be aee6 a3bc
000002b0: 7bb1 33be 5eb8 413e 95b5 aa3d ca5c d3bd
000002c0: 2a3e b7be cd1d 503e 3396 a8be e288 623e
000002d0: a969 b7bb 0997 423b 2b51 9dbd 19ba 603d
000002e0: c6d3 f2bc e2ba 75be cbe0 1d3e d223 953d
000002f0: 722c 01be 016f a5bd c00e e73c 6bb0 413e
00000300: 28b4 283e 08e7 123e 29c1 aebe 573e 35be
00000310: 26af cfbd d7cc e63d 6751 ae3c 32c6 293e
00000320: dd1f bcbe 53bf 7b3e aa8b 5eba b0d5 a2bd
00000330: 4524 e3bd f1a2 d7be 90a3 2c3c 9edb 76be
00000340: 6cb5 973e 4acc debc b73e 12be 98a1 8cbd
00000350: a2a6 8ebe 9c69 543e 508b 83bc fa66 c2be
00000360: 8b9f 5e3e 8b44 4e3e 100d 66bd bd23 bbbe
00000370: ddb8 d73c 92ce 373e 926c 803e 06f6 5abe
00000380: 2f52 edbd a4a3 96be 5e47 203e 5209 0dbe
00000390: b7a7 c23e 7589 ab3e 439e 053e 9273 033d
000003a0: f83b 3abe 5c14 32be 008f b4be aea2 84be
000003b0: 3245 81bd e9d7 47be af9c 673e 7dda 8e3e
000003c0: 5c1c b4be 2a81 be3e 3230 993d 880f 8cbe
000003d0: 35e3 a0be b5d3 b13d e4a1 c6be 031d 40be
000003e0: d8d3 b63d 44bf debe a6de 773e 11d0 363e
000003f0: e09f 433e 75bf e83d 22f9 0fbd 3aab 55be

decode.2.weight f4 [100, 100]
-0.050315544 0.03894497 -0.1743947 -0.056035392 0.0008721935 -0.07823431 0.16404958 0.09136923
-0.055488594 -0.062319424 -0.16024172 0.09265132 -0.047554415 -0.08083424 -0.03621188 0.0069336076
0.20678762 -0.1759038 0.17375977 -0.038071074 -0.072213314 0.027316112 0.13044144 0.011584484
-0.07567874 -0.08697064 -0.032948602 -0.28209436 0.10950404 -0.18698691 -0.25655514 -0.25622636
0.037061248 0.13115692 0.064928696 0.10939545 -0.032885887 0.12435989 0.105335735 -0.053365566
0.03289759 0.030761814 -0.032341056 -0.08077944 0.03689386 -0.126068 -0.23045789 -0.09816721
0.07121688 0.05213595 0.028146956 -0.09876799 -0.097042136 0.065755196 -0.00571721 0.007290082
-0.0338872 0.09891771 0.05457514 0.14368339 -0.07226209 0.17590678 0.08099997 0.06402189
-0.1439036 0.03961109 0.19494574 -0.0007433895 -0.22380666 -0.023977848 -0.06655349 -0.17573765
-0.08962545 0.06139897 -0.10534754 -0.28986096 0.06513711 0.089238726 0.011145396 0.07482352
0.0052918056 -0.03506252 0.04563116 -0.12408054 0.012569465 0.054753244 -0.21169011 -0.18994209
0.013246689 0.055495456 -0.023367401 -0.02121843 0.018393958 -0.17515977 0.033052485 0.1480938
-0.14391516 -0.22989772 -0.0693396 0.21319743 -0.04706177 -0.09135283 0.06831565 0.08540602
0.17697904 -0.047243483 0.07618718 0.019227477 -0.018896678 -0.15331562 0.036830783 0.15155934
0.05666439 -0.03999292 0.057087887 -0.025500448 -0.1285529 0.026293196 0.028337281 -0.20584464
-0.24176691 -0.104126565 -0.05367499 -0.04699212 0.07543139 0.04931276 0.020672038 0.02541075
-0.08326369 -0.060764596 -0.13790028 -0.028164119 -0.1904451 0.035962615 -0.17091298 0.04060137
0.036618568 -0.052979022 0.091519184 0.03845043 -0.06775219 -0.0105987005 0.10165648 0.07044473
-0.03838979 -0.09989929 0.106150165 -0.013642779 -0.1026904 -0.018233785 -0.02974982 -0.13149759
-0.0008223811 -0.07478828 -0.030240443 -0.04846717 0.0653206 0.08715255 0.026938092 -0.27205458
0.058131937 -0.021937462 -0.00291911 0.04525657 0.050886538 0.010051734 -0.015245634 -0.2269087
-0.019677684 -0.24485056 -0.14120445 0.0624153 0.09526214 0.08942464 -0.14467414 0.07760141
0.023055186 0.025628576 0.04866909 -0.19978549 0.049924206 0.12012016 -0.009985932 -0.10875392
-0.16656038 -0.18982401 0.021390446 0.06616375 0.055848163 0.038807303 0.12568437 0.034480833
-0.21203153 -0.058569558 -0.27289844 0.09064018 -0.04316063 0.15619075 0.05910434 0.019327432
-0.052579354 -0.01756266 0.03728735 0.033068117 -0.066294044 0.010095939 -0.021334779 -0.049578402
-0.013808776 6.311909e-05 -0.06261219 -0.035037532 -0.084224865 0.08479968 -0.061816182 0.028149465
-0.049825896 -0.056191303 -0.083667524 0.053529885 0.04768301 -0.019299716 0.087033644 0.060551677
-0.0087178685 0.06643194 0.020842612 0.018547978 0.006664986 0.062776946 0.03464315 -0.068789184
0.01606941 0.012390902 -0.0033755975 0.0056954497 0.0879394 0.080284834 -0.07761873 -0.10375353
-0.047583573 -0.010477771 0.028913625 0.06650355 0.05013316 -0.070230834 -0.06481649 -0.078233175
0.068288736 -0.01223659 -0.056862 -0.11350377 0.08327098 -0.052740056 -0.017614303 0.07619619
00000000: ac17 4ebd c384 1f3d 8694 32be 5e85 65bd
00000010: eaa3 643a 4f39 a0bd 9dfc 273e ca1f bb3d
00000020: 0248 63bd a742 7fbd 6816 24be fabf bd3d
00000030: 6bc8 42bd 6c8c a5bd e952 14bd 5133 e33b
00000040: 22c0 533e 2020 34be 15ee 313e 6af0 1bbd
00000050: 93e4 93bd 0ac6 df3c 7192 053e d9cc 3d3c
00000060: 75fd 9abd aa1d b2bd 1df5 06bd ac6e 90be
00000070: a743 e03d 7f79 3fbe 325b 83be 1a30 83be
00000080: 89cd 173d 004e 063e 56f9 843d b90a e03d
00000090: 5ab3 06bd 66b0 fe3d 43ba d73d da95 5abd
000000a0: a0bf 063d 3300 fc3c 0e78 04bd b16f a5bd
000000b0: 041e 173d f817 01be 27fd 6bbe e40b c9bd
000000c0: 28da 913d 828c 553d 7294 e63c df46 cabd
000000d0: 07be c6bd a9aa 863d 6f57 bbbb a4e1 ee3b
000000e0: 4ecd 0abd 5e95 ca3d 2f8a 5f3d bd21 133e
000000f0: 26fe 93bd e820 343e 50e3 a53d e91d 833d
00000100: 775b 13be 3d3f 223d db9f 473e 06e0 42ba
00000110: 932d 65be 316d c4bc 324d 88bd 92f4 33be
00000120: 8c8d b7bd 7d7d 7b3d 73c0 d7bd a868 94be
00000130: 9b66 853d cbc2 b63d 2e9b 363c 133d 993d
00000140: e266 ad3b b89d 0fbd bde7 3a3d f01d febd
00000150: 28f0 4d3c f044 603d 4bc5 58be 2e80 42be
00000160: a408 593c 344f 633d fe6c bfbc 46d2 adbc
00000170: edae 963c 155d 33be 0b62 073d e7a5 173e
00000180: 7f5e 13be 4f6a 6bbe ec01 8ebd 6d50 5a3e
00000190: d8c3 40bd 3117 bbbd 13e9 8b3d 5ae9 ae3d
000001a0: fe39 353e 6282 41bd 0608 9c3d f182 9d3c
000001b0: 35cd 9abc c5fe 1cbe e0db 163d 5f32 1b3e
000001c0: eb18 683d 9ecf 23bd fdd4 693d 51e6 d0bc
000001d0: 5fa3 03be d464 d73c 9623 e83c f0c8 52be
000001e0: bf91 77be 4f40 d5bd 4eda 5bbd cf7a 40bd
000001f0: c67b 9a3d 2dfc 493d 6858 a93c 352a d03c
00000200: 2786 aabd 4ce4 78bd bb35 0dbe 70b8 e6bc
00000210: 0a04 43be 894d 133d d003 2fbe 9f4d 263d
00000220: 5afd 153d 8800 59bd 696e bb3d 337e 1d3d
00000230: a9c1 8abd 2ca6 2dbc 4631 d03d 5445 903d
00000240: 9d3e 1dbd 0098 ccbd 4265 d93d f685 5fbc
00000250: 584f d2bd 055f 95bc e5b5 f3bc 4ea7 06be
00000260: 1095 57ba 992a 99bd ceba f7bc 8385 46bd
00000270: cfc6 853d 097d b23d 46ad dc3c bd4a 8bbe
00000280: c11b 6e3d 31b6 b3bc 8a4e 3fbb f45e 393d
00000290: 676e 503d 07b0 243c d3c8 79bc c15a 68be
000002a0: 1833 a1bc 1bba 7abe e697 10be 30a7 7f3d
000002b0: cc18 c33d 4424 b73d 7525 14be 7ded 9e3d
000002c0: 3bde bc3c 05f3 d13c 3d59 473d 9194 4cbe
000002d0: 537d 4c3d 8f01 f63d 099c 23bc 60ba debd
000002e0: ce8e 2abe 3a61 42be 043b af3c dc80 873d
000002f0: 0bc1 643d 68f4 1e3d 67b3 003e c63b 0d3d
00000300: cb1e 59be a2e6 6fbd 58b9 8bbe 8fa1 b93d
00000310: 33c9 30bd 78f0 1f3e 6417 723d 9054 9e3c
00000320: 735d 57bd 91df 8fbc 9fba 183d 6f72 073d
00000330: 2cc5 87bd 7069 253c 46c6 aebc b912 4bbd
00000340: 343e 62bc ce5e 8438 d23a 80bd 8483 0fbd
00000350: 167e acbd 74ab ad3d f732 7dbd b599 e63c
00000360: 3d16 4cbd da28 66bd e159 abbd 2742 5b3d
00000370: 434f 433d 701a 9ebc b23e b23d 0905 783d
00000380: 64d5 0ebc 780d 883d 20be aa3c eef1 973c
00000390: f465 da3b 3391 803d fae5 0d3d 58e1 8cbd
000003a0: ffa3 833c 3603 4b3c 2139 5dbb e5a0 ba3b
000003b0: 9219 b43d 606c a43d 92f6 9ebd bb7c d4bd
000003c0: fee6 42bd f5aa 2bbc 44dc ec3c 0333 883d
000003d0: 6e58 4d3d 2fd5 8fbd 82be 84bd b738 a0bd
000003e0: f7da 8b3d fa7b 48bc 21e8 68bd aa74 e8bd
000003f0: fa89 aa3d f505 58bd df4b 90bc c00c 9c3d

decode.4.weight f4 [1, 100]
0.09622121 0.094164185 0.00080169673 -0.046418693 0.050384317 0.0031211174 -2.642555e-06 0.04619863
-0.00014093638 0.00032821816 -0.05085073 -0.043721158 0.00023742425 -0.047580972 0.00052678934 0.00018613588
0.014204482 -0.0813593 0.00018389532 0.04055271 -0.15390988 -0.114643976 0.15924582 -7.2579365e-05
-0.07727583 0.09175521 0.08854885 -0.111670285 0.03149604 0.08513564 4.022744e-05 -5.9599108e-05
-9.584097e-05 0.11880107 0.0002779452 0.08688511 0.07484511 -0.054048587 -0.0003446086 0.087537766
-0.07332778 0.08116271 0.0006879552 -0.049163867 0.11985889 -0.08781633 0.05171308 -0.07019267
0.07591183 0.00014557042 0.09840524 0.060856014 -0.08149177 0.10353499 -0.06354061 -0.06726272
0.0005103979 0.10322933 4.2289566e-06 0.00018961728 0.09494585 0.11366086 0.06233495 -0.11955209
-0.00024501255 0.00064914685 0.0003376043 -0.021818852 0.00030880808 -0.07166908 0.035835233 -0.00022597128
-0.037234414 0.06555859 -0.00016226899 0.092063725 -0.006736301 -0.089022584 -0.00016241184 -0.12974805
-0.0002863439 0.0016448459 -5.1695057e-05 0.33908755 -0.05669774 -0.1426082 0.043647565 -0.0002954603
-0.09520726 0.00097369554 0.12520562 -0.08324389 -0.03802169 0.00043885646 -0.000115733055 0.0066941436
0.042320598 5.609629e-05 0.00014546124 -0.0003683576
00000000: a00f c53d 27d9 c03d f528 523a 8721 3ebd
00000010: c95f 4e3d a98b 4c3b c056 31b6 c63a 3d3d
00000020: 52c8 13b9 b214 ac39 db48 50bd f514 33bd
00000030: 16f5 7839 44e4 42bd 3c18 0a3a 782d 4339
00000040: eab9 683c b49f a6bd 06d4 4039 991a 263d
00000050: 8d9a 1dbe 76ca eabd 5611 233e c035 98b8
00000060: ca42 9ebd 28ea bb3d 1959 b53d 64b3 e4bd
00000070: fe01 013d 985b ae3d e3b9 2838 0efa 79b8
00000080: 3bfe c8b8 fa4d f33d 2cb9 9139 d2f0 b13d
00000090: 6548 993d 0d62 5dbd 95ac b4b9 0047 b33d
000000a0: e02c 96bd a338 a63d e457 343a 0d60 49bd
000000b0: 9478 f53d 0cd9 b3bd 18d1 533d 2dc1 8fbd
000000c0: a977 9b3d 43a4 1839 b088 c93d 2844 793d
000000d0: 28e5 a6bd 270a d43d 9421 82bd 09c1 89bd
000000e0: 39cc 053a e669 d33d 76e6 8d36 00d4 4639
000000f0: f872 c23d 06c7 e83d ef52 7f3d bad7 f4bd
00000100: 0775 80b9 822b 2a3a 7b00 b139 73bd b2bc
00000110: 85e7 a139 3dc7 92bd f7c7 123d b4f2 6cb9
00000120: 1d83 18bd 9543 863d c026 2ab9 e88b bc3d
00000130: 30bc dcbb 7951 b6bd 194d 2ab9 acdc 04be
00000140: 6d20 96b9 df97 d73a 25d3 58b8 e29c ad3e
00000150: e43b 68bd e207 12be cac7 323d 03e8 9ab9
00000160: 06fc c2bd 9a3f 7f3a e735 003e c67b aabd
00000170: a2bc 1bbd 5116 e639 b6b5 f2b8 8c5a db3b
00000180: 5d58 2d3d ef48 6b38 f486 1839 1f20 c1b9
