Quantum/models/2_latent.pt (torch, 93607 bytes, 6 tensors)

encode.0.weight f4 [100, 10]
000000 4b 8d 99 be 84 4e d4 3e 10 19 97 3d 94 4b 2f be
       -0.2999061 0.41466153 0.07377827 -0.17118675
000010 18 73 73 3e 52 34 1d be d2 de b8 be 60 30 58 bd
       0.23774374 -0.1535199 -0.36107498 -0.05278051
000020 81 14 ea be 52 8e a3 be 0a 0e b8 bd 60 9c 4f 3e
       -0.45718768 -0.3194452 -0.08987053 0.20274496
000030 9e 20 ae be 57 3b 94 3e 4c e0 e0 3d 70 be 01 be
       -0.3400926 0.28951523 0.10980281 -0.12670302
000040 27 9b 35 3e 24 4f dd 3d 51 7a 96 be b6 ac 86 3d
       0.17734967 0.108061105 -0.29390195 0.06575911
000050 a8 0e ad 3e ac 6f f7 be c9 c9 be be d7 c3 2d bf
       0.33800244 -0.48327386 -0.37263325 -0.6787695
000060 be c5 3d 3d 62 91 ab 3e d3 13 9c 3d a1 e4 c1 be
       0.04633116 0.33509356 0.07620969 -0.37869743
000070 df 4f 50 bd 11 5c 49 be 69 da 0e 3e d7 e6 14 be
       -0.05085742 -0.19664027 0.13950504 -0.14541183
000080 16 d4 e3 bd 50 b7 5b 3e 39 84 eb bd 5d 57 15 bc
       -0.111244366 0.21456647 -0.11499829 -0.009115067
000090 04 15 f7 3d bb 53 a6 bd 74 51 f4 bd 9f fb de 3d
       0.12064555 -0.08121439 -0.119295985 0.10887837
0000a0 d7 85 92 3d c5 9f 7f 3e 8c 55 8c bd 03 d2 24 3e
       0.07154434 0.24963291 -0.06852254 0.16095738
0000b0 7f 6a 5d 3d 2d c8 53 be c5 99 86 be c5 90 76 bc
       0.05405664 -0.2068183 -0.26289192 -0.015049164
0000c0 53 fa 74 bd bd 01 0f 3e c5 5b 40 3e d8 e3 02 be
       -0.05980904 0.13965507 0.18785007 -0.12782228
0000d0 8e 5c 91 bc 22 07 e5 3c ed 88 bd 3c ed 8a f9 bb
       -0.017744329 0.027957503 0.02313658 -0.007615438
0000e0 dd 0f 80 be 68 3d 09 3e d0 42 56 3c 1f 5a bb 3c
       -0.25012103 0.13402331 0.013077453 0.022870122
0000f0 01 2c aa 3e 82 08 7e 3e 79 6b 40 3e 63 b5 27 3c
       0.33236697 0.24807933 0.18790998 0.010236117
000100 bb 55 a9 3d 3a 0e 8d 3e f2 cb 05 be 3b 90 84 be
       0.08268305 0.27549917 -0.1306608 -0.2589129
000110 21 2b 3b be d1 9a 90 be 61 71 49 be 00 d3 de 3d
       -0.18278171 -0.28243116 -0.19672157 0.10880089
000120 92 81 67 be 0a bf 71 3c 9c c1 88 be 1a e9 4f bd
       -0.22608021 0.01475502 -0.26710212 -0.050759412
000130 10 1e c3 bc 89 93 42 3c dd 5f d4 3e 0a b6 58 3e
       -0.023818046 0.011875995 0.41479388 0.21163192
000140 b9 40 8e 3e b4 71 aa 3e 91 f8 71 be c5 88 9d 3d
       0.27783754 0.33289874 -0.23629977 0.07692102
000150 a5 62 ab 3b 37 2a d9 3e fd ea 05 be 9f 06 8b 3d
       0.005230265 0.4241502 -0.13077922 0.06788372
000160 a7 a3 1c be 94 9e 9e be f3 b8 30 3e 5a c8 6a 3e
       -0.15296803 -0.3098036 0.17258053 0.2292799
000170 73 9b 17 3e e6 6d 55 be 12 83 8e 3e cc be 98 be
       0.14805393 -0.20842704 0.27834374 -0.29833066
000180 da 9c ed bd 5b aa 6a be d2 29 8f bd 63 ce be 3d
       -0.11602183 -0.22916548 -0.069903985 0.09316709
000190 84 48 ac be a8 e0 8a 3e 08 bc 41 bd d2 2c e7 3e
       -0.33649075 0.27124524 -0.04729846 0.45151383
0001a0 98 0c fa 3d d7 5f 42 be 3f d2 29 be 2f f6 b0 3e
       0.12209433 -0.18981872 -0.16584109 0.34562823
0001b0 b7 90 8d be 77 ec 91 bd 89 cf 87 3e 17 b6 1e bf
       -0.2764947 -0.0712518 0.26525524 -0.619966
0001c0 c1 73 4c bd cc 40 db be d3 4c b1 3d 95 0e 1f be
       -0.04991508 -0.42822874 0.08657231 -0.15532906
0001d0 c7 8b ce 3e 66 0e c7 be 2f 25 65 3d 1c fc 34 3d
       0.40341017 -0.38878173 0.055943664 0.044185743
0001e0 70 8c 81 3b 74 8a 1a bd 5e 39 71 3e d1 55 eb 3d
       0.003953509 -0.037729695 0.2355704 0.114909776
0001f0 12 8b 56 3e 10 1b 6e 3d 1b b6 09 be 95 15 b7 be
       0.20951489 0.058131278 -0.13448374 -0.35758653
000200 ad 2e bc bd 38 d5 ac ba f7 6c 55 be 6d 40 07 3e
       -0.0918859 -0.0013186103 -0.20842348 0.1320817
000210 ef 7c 92 3e 62 3b 51 be f5 47 7c bc 5a 60 20 3e
       0.28610942 -0.20432809 -0.015398015 0.15661755
000220 e0 f8 fc 3d 35 77 0f be 28 3b 85 be a0 ab 0b 3e
       0.12352157 -0.14010318 -0.26021695 0.13639688
000230 2c 79 18 bd 17 71 96 3e fd 71 83 be dc 10 5d 3e
       -0.037224934 0.29383156 -0.25672904 0.21588463
000240 e5 b2 bf bb 96 eb 37 3e a8 81 17 bd 30 74 03 3e
       -0.0058501833 0.17960963 -0.036988884 0.12837291
000250 18 b1 3a be 8e 35 70 bd dd e6 1f 3e 6b 7f 02 be
       -0.18231618 -0.058644824 0.15615411 -0.12743919
000260 0a ea 9a 3d fe 22 9f be 8f 54 dd bd 29 72 99 3e
       0.07564171 -0.31081384 -0.10807144 0.2996991
000270 4c e6 50 3d b9 3e 4b be 27 57 b7 3e c2 14 42 be
       0.05100088 -0.19848146 0.3580868 -0.18953231
000280 d7 93 fa 3c e6 ad 34 3e 9b 23 30 be 8f 44 60 be
       0.030588074 0.17644462 -0.17201082 -0.21901153
000290 fa fa 55 be a3 2d 4a be 4c f4 d8 bc d1 6e 26 3e
       -0.20896521 -0.19743972 -0.026483677 0.1625321
0002a0 1a 7b 1a 3e 21 dd 9b 3e 1f 08 8a be 75 53 6d be
       0.15086022 0.30442145 -0.2695932 -0.23176368
0002b0 90 38 16 3e b8 f5 c7 be 53 5c a2 3e 9c 41 1e 3e
       0.14670014 -0.39054656 0.31711063 0.15454715
0002c0 68 4d 48 3e 24 05 78 3e a9 4d 27 3e 91 00 8f 3e
       0.19560778 0.24220711 0.16338219 0.2793012
0002d0 f4 ae 8e be 3c 9a c0 bd dd e9 01 3e cf 5b 63 3e
       -0.27867854 -0.09404418 0.12686868 0.22202991
0002e0 3b 0e fe ba 01 66 9c 3e 24 d8 a5 3d 96 34 cf be
       -0.0019382903 0.30546573 0.08097866 -0.40469807
0002f0 c6 2d b5 bd 56 27 03 3e 23 15 6e 3e 7e 75 18 3e
       -0.08846621 0.12807974 0.2325025 0.1488857
000300 50 f3 73 be f8 e1 23 3e f4 b8 35 3d 66 06 83 be
       -0.23823285 0.16004169 0.04436584 -0.2559082
000310 8e ed f6 bd 71 dc 0b 3e ef 3a ae be 65 58 9a be
       -0.12057029 0.1365831 -0.34029338 -0.30145565
000320 12 d3 42 bd 3e 19 57 3d f4 8d ad 3d fd 06 c5 bd
       -0.047564574 0.052514307 0.08474341 -0.096204735
000330 35 5e 8e be 0b ee 02 bc 1e 6f fc bc 55 bc 0f 3e
       -0.2780625 -0.007991324 -0.030814704 0.14036687
000340 d4 93 9c 3d ce ca d6 3d 9e bf b3 be c7 9a 16 bf
       0.076453835 0.10487901 -0.3510713 -0.5882992
000350 c2 6a 0a be 10 d6 69 be 3a 63 a6 3e fe 04 ab be
       -0.13517287 -0.22835565 0.3249758 -0.33402246
000360 39 26 bb 3e d7 ef 03 3e 20 fe c3 3e 07 cb e8 bd
       0.365526 0.1288446 0.3827982 -0.113668494
000370 eb 23 87 bd 4b a0 bb 3e d0 b7 aa be 05 60 ac bd
       -0.06598648 0.3664573 -0.33343363 -0.08416752
000380 b0 c7 5e be 43 df 7c 3e 5d 3d 30 bd 3d 68 68 be
       -0.21755862 0.24694543 -0.04302727 -0.22696014
000390 10 b2 42 3d 7e 3b e3 3d 23 6d 46 be 58 9f 91 be
       0.047533095 0.110953316 -0.1937757 -0.28441882
0003a0 08 f6 6a be 18 4f 1c 3e c7 20 41 bd fd d5 2e 3e
       -0.22945416 0.15264547 -0.0471504 0.17073818
0003b0 57 b6 9e 3e 42 2c 85 be a7 c6 9e 3e 26 8a e0 3d
       0.3099849 -0.2601033 0.31010935 0.1096385
0003c0 d6 57 af 3e 14 45 5d 3d 62 40 c0 bd c3 3f 74 be
       0.342467 0.054020956 -0.0938728 -0.23852448
0003d0 71 bb 20 be 3e 16 48 bc 03 59 81 3d b4 9d a2 be
       -0.15696503 -0.012212334 0.06315806 -0.31760943
0003e0 55 4f 99 be 5f 38 88 be 43 97 75 be d8 2e 19 3e
       -0.29943338 -0.26605508 -0.23983483 0.14959276
0003f0 fc 3d e8 3d d0 77 66 be c9 f4 5a be d8 73 d9 3d
       0.113399476 -0.22506642 -0.2138244 0.106177986

encode.2.weight f4 [100, 100]
000000 7b 6e 3f 3d b4 95 31 ba 19 ca 18 be 5e 48 71 3d
       0.04673622 -0.00067743217 -0.14920844 0.058906905
000010 10 dc 92 bd c0 c0 f7 3b 02 94 0f 38 65 3a 88 3c
       -0.0717088 0.0075608194 3.42317e-05 0.016629407
000020 a1 8c 5c bc 46 f9 86 3c f6 f8 9d 3e dc cf 3a be
       -0.013461263 0.016476285 0.30854005 -0.18243355
000030 02 3b ce 3c 49 22 02 bd 97 3b 55 3d d4 b4 94 be
       0.025174621 -0.031770978 0.052058782 -0.2904421
000040 9d 7a a6 3b 08 72 a8 bd f6 33 39 3d 27 25 45 3c
       0.0050805346 -0.08224875 0.04521557 0.012032784
000050 46 7b 50 bc 3e b6 e2 3c 7d 78 26 bd 43 e0 2d 3d
       -0.012724703 0.02767479 -0.04064225 0.0424502
000060 e4 0f a6 3c e4 be db bc 8f 96 16 3b 50 67 08 3d
       0.02027125 -0.026824422 0.0022977924 0.03330165
000070 fd f4 d3 bc cf a7 f0 3d 46 07 8b 3c c5 f1 81 bd
       -0.025873655 0.11750757 0.016971242 -0.06344942
000080 e1 aa 2b bd b0 67 42 3d 88 09 1f be 39 eb ca bc
       -0.04191101 0.047462165 -0.1553098 -0.024770366
000090 99 85 67 bd 89 87 0c be 4f ca 0e 3d 8c 85 fe bd
       -0.056523893 -0.13723578 0.034860905 -0.12427816
0000a0 40 47 b2 bc 71 fa 0c 3e 40 45 e3 bd 3e 63 81 3d
       -0.02176249 0.13767411 -0.11097193 0.06317757
0000b0 c5 f1 98 3b 59 cd e9 bd 42 d7 c5 bd 2d 55 ba b9
       0.004667493 -0.1141612 -0.09660198 -0.00035540145
0000c0 29 0b 35 be 8e a0 8f 3d 2c 60 54 bd 35 e8 75 3b
       -0.17680039 0.07013045 -0.05184953 0.003752244
0000d0 54 51 81 bc e3 f6 f8 bc fe 7b 2e be 01 cf 71 bd
       -0.01578585 -0.030391162 -0.17039487 -0.059035305
0000e0 dd 4b 2e 3e f8 b3 ed 3c 4a dd b2 3d 2c c2 03 be
       0.17021127 0.02901648 0.08733614 -0.1286704
0000f0 bf ea 8c 3c 21 d3 fb 3b 4b 0c da bc e7 b2 9f 3d
       0.01720178 0.0076850806 -0.02661719 0.07797795
000100 ee 69 ba bc 46 b1 fb bd d6 a0 d7 3c 6b 93 e5 bc
       -0.02275559 -0.122896716 0.02632181 -0.028024396
000110 a2 00 93 3c 85 8e 2f bd 63 eb e7 bd f1 bf 2d be
       0.017944638 -0.042860527 -0.11324193 -0.16967751
000120 f6 d4 c0 3d af 39 63 bc 8b 4c 8e bc 49 09 f1 3c
       0.09415619 -0.013868733 -0.017370483 0.029423373
000130 5c ab 64 3c 3f cf d3 bd 91 ee 80 3d 79 f5 bc bd
       0.013956871 -0.103422634 0.06295503 -0.09226508
000140 f1 39 0b bd 83 5b d3 bd 22 68 28 3d cf 99 39 3e
       -0.033990804 -0.10320189 0.041114934 0.1812508
000150 d6 d1 d1 bb fc 77 36 3e 79 43 4c be 0f 10 a0 bc
       -0.006403188 0.17819208 -0.19947614 -0.019538907
000160 ca 43 f9 3d 47 1a 26 3e 0a 70 80 3d 8e c7 2c be
       0.12171133 0.16220962 0.0627137 -0.16872999
000170 a5 99 0e 3e af fd 25 3e 2e 8e b9 3d 1e 20 54 bc
       0.13925798 0.16210054 0.09060322 -0.01294711
000180 b1 cb df bd 0b 09 4b be e9 db 4f bd 55 6a d1 3d
       -0.10927523 -0.19827668 -0.050746832 0.10225359
000190 90 55 ea 3c 01 a8 b0 bc c1 29 c0 bd 75 2f 02 bc
       0.028605253 -0.021564486 -0.09382964 -0.007945885
0001a0 44 12 7f 3d 68 a0 d0 3b 32 30 27 3d 77 3d 82 bd
       0.06227328 0.006366778 0.040817447 -0.0635938
0001b0 c6 03 4e bc 01 7e 45 3d 85 14 0f bd 3a f7 92 bd
       -0.012574142 0.04821587 -0.03493168 -0.07176061
0001c0 9f 13 dc bc f6 aa ba bb e2 5a 53 3d ab f2 df 3c
       -0.026864825 -0.0056966497 0.051600344 0.027337393
0001d0 cd da 26 3c 9c b4 9d bd 89 e4 e0 3c 80 23 f5 bc
       0.010184002 -0.07700464 0.027452724 -0.029924154
0001e0 ff 27 cb 3c 91 7e 99 3d e4 be 69 3c 9b 5b 58 3c
       0.024799345 0.07494844 0.014266703 0.013205434
0001f0 01 da 9c 3c 15 6a fd bc 30 1a b9 bc af 08 3f 3d
       0.019146921 -0.030934373 -0.022595495 0.04663914
000200 a7 db 2d bb ab d5 8e 3d 0a af 20 3d f8 35 11 3d
       -0.0026528628 0.06974348 0.03922943 0.03545186
000210 c6 cf ad 3d c2 83 77 bd e0 6d 81 3c 30 5b cd 3b
       0.08486895 -0.06042839 0.015799463 0.006266974
000220 88 2f f1 bc 22 d4 b5 bd f3 66 33 bc 68 6a 01 3e
       -0.02944161 -0.08878352 -0.010949838 0.12638247
000230 f1 d4 a3 bc 40 0c 72 ba 4f 91 84 3d 7c b8 ae bb
       -0.019999 -0.0009233393 0.06473028 -0.005332051
000240 1f 93 f8 3a 45 43 29 bd 24 8f 85 3d d0 ca 10 bd
       0.0018964744 -0.04132392 0.065214425 -0.035349667
000250 20 dc 19 bd 72 00 d9 3d 2a f0 8f 3c c7 27 31 bd
       -0.037563443 0.10595788 0.017570574 -0.043250825
000260 27 35 d0 bd 18 8b d6 bd 83 b7 04 3c f6 f6 13 3c
       -0.10166388 -0.10475749 0.008100393 0.009031048
000270 9b 7a dc bd ec 67 53 bd 52 0c 37 bd 22 c5 2f 3c
       -0.10765573 -0.05161278 -0.044689484 0.0107281525
000280 c5 f6 34 bb 66 e7 01 bc 9b 94 2e bd 37 d8 af 3d
       -0.0027612906 -0.007928705 -0.04262219 0.085861616
000290 a4 77 af bb 6b 23 86 3c 5b 33 bd bb 22 c8 ee ba
       -0.0053548384 0.01637431 -0.0057739443 -0.0018217603
0002a0 3e f0 a5 bd 46 40 bf bc ba 60 a1 bd f1 6a 92 3d
       -0.08102463 -0.023346078 -0.07879777 0.07149304
0002b0 42 2f 81 3d 31 8e 52 bd 6e 06 c3 3c 74 0c 61 3d
       0.06307842 -0.051405136 0.023806777 0.054943517
0002c0 50 a8 71 bb c1 4d 0c 3d b2 5d 1b bd e3 a6 c9 3d
       -0.0036874004 0.03425384 -0.03793115 0.09846284
0002d0 31 e9 3f 3c 03 34 e4 bc dd 9e 24 bc b4 fa d0 3c
       0.011713312 -0.027856832 -0.010047642 0.02551017
0002e0 a8 f2 bc 3c 3f b0 4a 3d 43 51 29 3d 0d 62 4e bd
       0.023064926 0.049484488 0.041337263 -0.050386477
0002f0 16 cc d0 3b d6 36 8d 3d a8 8c 22 bd 45 a7 d6 bd
       0.006371985 0.06895225 -0.03968492 -0.10481123
000300 7a c2 69 3b 82 92 d8 bd e2 83 44 bd b8 1e 9d bd
       0.0035668896 -0.10574819 -0.047977336 -0.07671875
000310 4b 25 be bb a1 e2 83 3d 9a 10 a4 bd f3 5c 88 bc
       -0.0058027855 0.064397104 -0.08010979 -0.016645884
000320 4c c6 5d 3d f1 7b be bd 4f 41 b1 3d b8 95 a3 bc
       0.05414419 -0.09300984 0.08655035 -0.019968852
000330 71 5f 9d 3b 50 8c 95 3c 52 29 0d bc 6b 68 16 bc
       0.0048026373 0.018255383 -0.008615809 -0.009180169
000340 be 51 71 3c 25 b9 f0 b8 16 f8 47 3d 3b 51 c2 bb
       0.0147289615 -0.00011478578 0.048820578 -0.0059300936
000350 b8 53 bb bb 88 0b 8c 3c 3d b4 37 bd 4a be cb bc
       -0.005716767 0.017095342 -0.044849623 -0.02487101
000360 54 00 71 3b dc 24 88 3d 49 79 b4 bc 0a 81 a6 3d
       0.0036773877 0.06647655 -0.02203049 0.08130081
000370 b5 68 85 3d a3 bd 96 bd d2 f9 51 bd c3 ad c8 bd
       0.06514112 -0.07360389 -0.051263638 -0.097987674
000380 2e c7 7e bd 8b 2c 5a bc bd 8e 1a 3d 61 0f 2f bb
       -0.06220167 -0.013316284 0.037733782 -0.0026712047
000390 c6 b4 ad bc 65 2a 92 bc 06 20 95 ba 6f dc 0d 3d
       -0.021204364 -0.01784248 -0.0011377342 0.03463405
0003a0 a5 f6 d6 3c db 22 aa bd 41 82 d0 3c 53 7c 5d 3d
       0.026240656 -0.083074294 0.025452735 0.054073643
0003b0 fc 28 8e bd 5e 51 70 ba 5c 50 0b 3d 2c 15 ca 3d
       -0.06941411 -0.0009167398 0.034012184 0.098673195
0003c0 de f0 e0 bc 6b 24 62 3d 04 cc 8e 3d 98 20 e8 bb
       -0.027458604 0.055210512 0.06972507 -0.0070839636
0003d0 22 87 a8 bc 74 f7 46 3d 3d f8 94 3d 61 d9 4a bd
       -0.020572249 0.048575833 0.0727391 -0.049523715
0003e0 03 f1 a6 bd ce 45 75 bd e3 33 cd 3c 81 35 7d 3d
       -0.08151438 -0.059881024 0.025049156 0.061818603
0003f0 d2 71 bd ba bc eb 1b 3d a8 8f 05 3d a1 d0 85 3d
       -0.0014453477 0.03806661 0.032607704 0.065339334

encode.4.weight f4 [4, 100]
000000 50 46 26 3d e8 83 6d b9 3e d3 9f b9 51 61 6b b8
       0.0405944 -0.0002265122 -0.0003048423 -5.6119e-05
000010 1d 28 95 38 b6 33 c3 bc 56 ff 16 bd f0 bb 85 38
       7.112345e-05 -0.023828369 -0.0368646 6.37694e-05
000020 f7 9c 37 be f5 db 9d bd 45 bd 0d bd a5 47 54 39
       -0.17930971 -0.07707969 -0.03460433 0.00020244585
000030 60 2f e3 b8 72 36 fd 3b b1 39 ce 3d e8 1f 86 39
       -0.00010833028 0.0077274377 0.100695975 0.00025582244
000040 04 8f de bc da a9 51 3d 3c a3 3f 37 27 4b 3d 39
       -0.027167805 0.051187374 1.1422493e-05 0.00018052441
000050 7a 70 fe 39 e8 95 72 3a 3a 90 b1 39 29 74 92 39
       0.00048530457 0.0009253905 0.00033867528 0.00027933836
000060 01 7b 2e 3d 7c 52 84 3d 3c ba bd 38 3e 9b 34 be
       0.042597774 0.06461045 9.046911e-05 -0.17637345
000070 8b b0 77 b9 0e 45 1c 3e 57 62 12 be d6 a0 14 b8
       -0.00023621523 0.15260717 -0.14295326 -3.543574e-05
000080 00 39 b5 3c 97 a5 9d 38 77 a9 6e b9 f5 a5 d2 39
       0.022121906 7.517187e-05 -0.0002276058 0.0004017797
000090 4e 50 60 3e d6 91 9c 38 25 a9 f0 39 5b 6d b6 b9
       0.21905634 7.465824e-05 0.0004590239 -0.0003479522
0000a0 68 4a 4a b9 fd ff 84 b9 26 b5 34 3a 40 b2 04 be
       -0.0001929194 -0.00025367728 0.00068934483 -0.12958622
0000b0 9a 33 ca bd a5 e3 98 bd 95 ea 92 39 84 76 70 3e
       -0.098731235 -0.07465295 0.00028022067 0.2348271
0000c0 66 6a 1a 3a f1 45 be 38 86 93 ff 39 ae 71 2f 3e
       0.00058904884 9.0729336e-05 0.00048747304 0.17133209
0000d0 37 14 c0 39 ed f7 c1 bc c0 2c 0d 38 a0 3d b9 3d
       0.00036636155 -0.02367779 3.3658696e-05 0.09044957
0000e0 04 02 88 b9 6a b6 ab 39 fa 35 72 39 98 1e 5e b9
       -0.00025941443 0.0003275157 0.00023099026 -0.00021182967
0000f0 01 35 28 bc bc 70 9e b9 e9 f4 4c b9 dc de 90 3c
       -0.010266543 -0.00030220102 -0.00019546192 0.017684393
000100 1c 51 e3 39 ee b8 c0 39 10 d2 c8 39 16 1b d8 3a
       0.00043357245 0.00036758877 0.0003830348 0.0016487564
000110 88 87 f8 39 54 08 3e be 02 92 e9 3c 78 4b d7 bb
       0.00047403225 -0.18557864 0.028512005 -0.006570276
000120 9c e5 64 be 74 e1 52 3c 99 3e 98 39 f8 5a 97 39
       -0.22353214 0.012871135 0.00029038338 0.0002886874
000130 9b 05 03 3a 3e b6 f4 bc 0d 54 7a b9 f3 83 0b be
       0.00049980887 -0.029872056 -0.00023873169 -0.13624553
000140 1a 61 14 be 60 ba bb b9 37 09 be 3d 67 eb ea 39
       -0.14490166 -0.0003580628 0.09279101 0.00044807346
000150 ae f6 c9 39 6e cf 57 3e 39 34 b8 3d d4 dc 1b ba
       0.00038521498 0.21075222 0.08994336 -0.0005945687
000160 88 96 c5 3c 53 bd 0f ba 08 fb c5 35 93 12 69 b9
       0.02411963 -0.00054832286 1.4750703e-06 -0.00022227531
000170 ec 43 e2 b9 ec ee b9 39 2f a9 20 ba a6 c0 34 b8
       -0.00043156685 0.0003546396 -0.0006128726 -4.3094762e-05
000180 1a 6c 42 b9 99 c2 14 b9 df 62 e2 37 b4 94 3c 38
       -0.00018541553 -0.00014186873 2.698734e-05 4.4961183e-05
000190 9c 47 a5 bd 18 29 1b 3a 4d ab c0 b9 1e 34 49 3a
       -0.08070299 0.0005918904 -0.00036748723 0.00076753076
0001a0 da b1 f8 b9 07 cd 5e be 81 68 0c be ba cf 3b 3a
       -0.00047434756 -0.21757899 -0.1371174 0.00071644376
0001b0 6c 9a e7 bd 1f 52 0a 3e 4a fd 61 3e 86 59 05 bb
       -0.113087505 0.13507889 0.22069278 -0.002034755
0001c0 be 58 1c ba 4a 6a db 3d 02 21 0d be 45 01 4a ba
       -0.00059641514 0.107136324 -0.13782123 -0.00077058777
0001d0 a7 34 13 3d 60 32 1e be c9 06 00 39 7b 89 46 39
       0.035938885 -0.15448904 0.00012209559 0.00018933967
0001e0 6b fe 1e ba 8e 0b 8a 3b ad 37 15 b9 14 25 03 b9
       -0.0006065133 0.004212803 -0.00014230488 -0.00012506946
0001f0 c2 51 23 bd 0c 69 2a 3e 98 df 06 ba aa 7d c2 bd
       -0.039872892 0.16641635 -0.00051450124 -0.09496625
000200 a6 5c 21 ba 1a 49 9c 3d aa 89 7e 3d e3 4b dd 39
       -0.0006155468 0.076311305 0.062143005 0.00042208945
000210 a3 f1 89 bc 75 d5 e8 39 f8 86 e4 36 d3 7e 47 3a
       -0.016838854 0.00044409526 6.810642e-06 0.0007610146
000220 b5 fc 93 3d d6 b7 c5 b9 de a7 90 39 ab 8b 82 3a
       0.072259344 -0.00037711737 0.0002759089 0.0009959837
000230 34 5c 8c b9 09 79 dd 39 ad 25 28 3a ca bd 84 bd
       -0.00026771578 0.00042242583 0.00064143055 -0.06481512
000240 43 c4 4c bc ce 19 0e 3e 91 27 cf bd 34 40 9e 3b
       -0.012497964 0.13877031 -0.101149686 0.004829431
000250 cf 25 01 ba 1e c4 d0 39 72 5c 26 ba c2 31 0e bd
       -0.00049265934 0.0003981897 -0.0006346173 -0.03471542
000260 e0 e4 7e b9 fa 33 05 bd 28 86 2a 3a c6 54 21 3e
       -0.0002430859 -0.03252027 0.0006504976 0.15754995
000270 a6 09 3e 3a 86 66 48 ba 7d 2d 15 b9 e0 9e 62 39
       0.00072493625 -0.0007644672 -0.00014226693 0.00021612225
000280 77 08 a3 3d 96 10 1c b9 4b ee f1 b9 c3 50 08 be
       0.07960599 -0.00014883498 -0.00046144644 -0.13312058
000290 31 c4 62 3a 51 bc 8d ba fa ba 12 38 e1 f0 c3 bd
       0.00086504506 -0.0010813569 3.4983248e-05 -0.095674284
0002a0 4f 31 3d ba 32 b8 e8 bc 8d bd af 3c aa de 23 be
       -0.00072171254 -0.028408144 0.02145269 -0.16002908
0002b0 7b 99 14 3d 87 89 ed bd 95 d9 79 b9 88 67 a4 36
       0.036279183 -0.11598497 -0.00023827546 4.8996335e-06
0002c0 c1 7a d2 b8 c7 53 41 bc 1a ab 63 39 b1 cd 1e 3e
       -0.00010036445 -0.011799759 0.00021712147 0.15508153
0002d0 5d d1 20 3c d8 44 c5 b9 ad 9e 0a 3e 1d 30 5a 39
       0.009815541 -0.0003762606 0.13537093 0.00020808024
0002e0 9b 35 06 ba 59 0c 7e 3d b2 fe 08 bd 5a 8f d0 39
       -0.0005119682 0.062023494 -0.03344602 0.00039779657
0002f0 4f 54 c2 bd 4f 98 54 3a 13 df 95 b9 67 bf 0d 3a
       -0.09488737 0.0008109854 -0.00028585698 0.00054072443
000300 3e c3 39 3a 84 88 01 b9 bb 46 26 ba 57 4e 7c ba
       0.00070862833 -0.00012353255 -0.0006342937 -0.00096247107
000310 9a cf 56 3a 19 dd bb 39 a7 5a 0d 3a b2 88 52 ba
       0.0008194387 0.0003583215 0.00053922314 -0.00080312334
000320 e3 8e ba bd 03 de 0a 3c c1 97 b9 bb 2d 9a c7 3b
       -0.09109285 0.008475783 -0.0056638424 0.006091377
000330 64 8e 1a bb 34 94 a5 bd e4 72 96 3c 51 52 2b 3b
       -0.0023583407 -0.08084908 0.018365331 0.0026141594
000340 cf 2b 63 3e cc a0 d2 3d f7 5b 0a 3d 87 2c e0 3d
       0.2218468 0.10284576 0.03377911 0.10945993
000350 bd 9f b0 3c a0 84 90 bd 41 18 1d 3e 5c 80 bd ba
       0.021560544 -0.07056546 0.15341283 -0.001445781
000360 42 c5 75 3e 23 a5 50 be 2d f5 30 bb 24 b2 d4 bb
       0.24001029 -0.20375495 -0.0027001605 -0.0064909626
000370 e2 7b eb bb 6f da fd bd 6c db f9 ba 73 37 9b bb
       -0.007186399 -0.123951785 -0.0019062585 -0.0047368347
000380 29 50 70 3e 7d 2a b1 3c 35 0a 2c ba 0c 77 c8 3c
       0.23468079 0.021626705 -0.00065628 0.024470828
000390 6c ed 8e 3b 65 c9 9e 3e 91 b4 a8 bd 94 fa 5a 3b
       0.004361799 0.31013027 -0.08237565 0.0033413516
0003a0 8a 69 e6 3d 1b 76 0c 3c 08 bf 82 bb ac 32 a8 3b
       0.11250599 0.00857308 -0.003990058 0.0051329937
0003b0 7c ac 04 3e 9a b9 07 bc b1 96 1a bb bc 02 b8 3b
       0.12956423 -0.008283997 -0.0023588354 0.0056155603
0003c0 78 49 d3 38 7e b5 c3 3a 0b 01 8c 3a 70 05 82 3e
       0.00010074949 0.0014931408 0.0010681463 0.25394773
0003d0 fb 6c 01 3f fc 4f 90 be ae a1 12 3e 27 40 c2 3e
       0.50556916 -0.28186023 0.14319488 0.3793957
0003e0 d9 d1 0a bb 9d d7 87 3b b9 0e 96 b9 8c 18 1c 3f
       -0.0021182208 0.004145576 -0.000286212 0.60974956
0003f0 97 db 79 bb 92 9b a7 3d fd eb 1b 3c a5 ad b5 3d
       -0.003812527 0.081839696 0.009516713 0.08871011

decode.0.weight f4 [100, 12]
000000 f7 b0 67 3e 98 13 71 3e 83 37 9a be 04 16 9c be
       0.226261 0.2354263 -0.30120477 -0.30485547
000010 1c 9d 58 3e 7b 4c cd 3e 1d b1 d3 3e 5c 3f 3b 3e
       0.21153682 0.40097412 0.41346064 0.18285888
000020 f3 50 40 be dc 92 98 3c 3c 37 eb be 6f 16 bd be
       -0.1878088 0.018624716 -0.45940578 -0.36931178
000030 04 bd 3c ba 5a c7 38 b8 a6 dd b2 bb ab 27 94 bc
       -0.00071997964 -4.405468e-05 -0.0054585515 -0.018085321
000040 4b 6e e1 bd e3 27 a4 bd ba 62 9e 3d 3d 9e 47 3e
       -0.11007365 -0.0801542 0.07733674 0.19493957
000050 db 13 e0 bd 5e 82 98 3d 1d c0 64 bd 7b 9a 25 3d
       -0.10941287 0.074467406 -0.055847276 0.040430527
000060 a6 d5 77 be b3 76 9e be 65 c9 95 3c 48 5e cc be
       -0.24202594 -0.30949935 0.018284509 -0.3991568
000070 9c cd a8 be 79 1a 9b 3e 8c bd 9a 3e e9 4d 49 be
       -0.32969368 0.30293635 0.30222738 -0.19658627
000080 9b cb 9d 3e 39 87 f1 3d 16 10 d2 3d 8b f6 74 be
       0.308194 0.1179337 0.102569744 -0.23922174
000090 3e 6f 13 bd 04 21 18 3e 1d f5 52 bc e4 5f 5c 3e
       -0.03599476 0.14856344 -0.012875822 0.21520954
0000a0 4b d7 db 3d e7 59 80 be e6 a1 99 be 00 59 87 3d
       0.10734423 -0.2506859 -0.3000633 0.06608772
0000b0 c5 a5 67 be d2 04 57 be 17 8d 35 be 72 32 cf 3e
       -0.2262183 -0.20997933 -0.17729603 0.40468174
0000c0 d9 a8 a7 bd 9f d9 47 3d d2 30 f1 3d 6d 3d 29 be
       -0.08186502 0.048791524 0.1177689 -0.16527338
0000d0 1e 58 03 be 45 8d fb 3d 0c df 4d 3e a4 cd 2d be
       -0.12826583 0.122828044 0.20104617 -0.16972977
0000e0 f7 6b 4d 3e 2d 47 e0 3d 90 ed 46 be 05 c4 83 be
       0.20060717 0.10951076 -0.1942656 -0.2573549
0000f0 7b 64 dd be 97 fe 49 be f0 60 32 3d 65 09 01 3e
       -0.43240723 -0.19726025 0.043549478 0.1260124
000100 5d d6 8d be 05 d1 f4 bc 21 37 31 3e d4 4b 3c 3d
       -0.2770261 -0.029884825 0.17306186 0.045970753
000110 17 1d a0 3e 44 8f 7e 3e 58 c3 66 3e d5 9c 09 bf
       0.31272194 0.24859339 0.22535455 -0.5375493
000120 9f d1 17 3c 24 8e 99 3c b6 52 1d be 5f 66 e0 bd
       0.009266286 0.018744536 -0.15363583 -0.10957026
000130 7b 64 a9 3e 92 6a 5c 3e 97 38 69 be 00 82 4d be
       0.33084473 0.21525028 -0.22775494 -0.20069122
000140 44 c8 5d be 00 ed 25 be 30 bd 0d 3e c3 ea 64 3e
       -0.21658427 -0.1620369 0.138417 0.2235518
000150 ec 67 06 3e 5f d7 b6 be 40 f8 93 be 9c f5 de bd
       0.1312558 -0.3571119 -0.28900337 -0.1088669
000160 14 4e 7e 3e 0c 8d 98 3e fa e7 bb 3e da bb f1 bb
       0.24834472 0.2979511 0.36700422 -0.00737713
000170 69 7c ca be db 66 5c 3d 87 88 e7 be 82 8a 57 be
       -0.39548042 0.053809028 -0.4522135 -0.2104893
000180 a1 5a b2 39 1f f5 92 b9 59 ec 9f bd 0d a0 98 bc
       0.0003401833 -0.0002802992 -0.078087516 -0.018631006
000190 48 f1 35 3d d4 ea 5b be 64 f3 e4 3a 9a d7 34 3e
       0.044419557 -0.21476299 0.0017467556 0.1766037
0001a0 df b5 1c be 57 35 9d 3e 0f 45 06 3d bf 05 d8 bd
       -0.15303753 0.30704758 0.032780703 -0.10547971
0001b0 cb c2 f0 bd 28 e0 b7 3d 10 c0 97 bd b3 e0 61 3e
       -0.11755904 0.08978301 -0.0740968 0.22058372
0001c0 0c 3e f8 3d 98 4f 10 3e 44 76 4b be e6 5e fb bb
       0.121212095 0.14092863 -0.19869334 -0.007671225
0001d0 06 20 44 be a6 86 1c bd 10 33 0e be cd 0a 42 3d
       -0.19152841 -0.03821435 -0.13886666 0.04737358
0001e0 62 09 2e 3b 20 dd 64 ba 33 05 d0 bd e1 b4 8a bd
       0.0026555886 -0.000873046 -0.10157242 -0.06772781
0001f0 f5 e0 0b 3e ab 2b 2b be 23 7c b7 3d d2 71 b6 bd
       0.13660033 -0.16715877 0.08959224 -0.08908428
000200 12 a6 3c 3e 6f bf 83 3d 93 70 21 bd 13 8b 09 3c
       0.18422726 0.064329974 -0.039414 0.008394974
000210 c3 8c 2e be 85 b0 b5 bd 6b 5e 4a be fe fa e3 bd
       -0.17045884 -0.08871559 -0.1976258 -0.11131857
000220 d6 68 3c be 2a bf 21 3e 48 50 f5 3d ab ae 84 3d
       -0.18399367 0.1579558 0.11978203 0.06478628
000230 67 fa 54 3e 31 c7 6a 3d 18 5c 98 3d d6 26 e6 be
       0.20798646 0.05731887 0.074394405 -0.44951504
000240 9f 9d 91 bd 81 4a 96 3e ea 0a 86 be 76 6e 3e be
       -0.07110142 0.29353717 -0.26180202 -0.18596825
000250 64 2a 9d bc b2 10 a0 3e 60 be 41 3e 5d e7 27 3e
       -0.019185252 0.31262738 0.18920279 0.16396852
000260 ad 2e e6 bd e2 48 9a 3e 7f e7 a5 be 55 9a 98 be
       -0.112393714 0.3013373 -0.3240318 -0.29805246
000270 a8 17 86 39 8e 29 fd b8 22 89 2c be 33 d9 5c bd
       0.00025576097 -0.0001207172 -0.16849187 -0.053918075
000280 71 c4 cf bd b8 ee 8c 3d 60 10 39 be d6 17 cb 3d
       -0.1014489 0.068814695 -0.18072653 0.09916656
000290 00 80 96 3d 85 b7 77 3e 04 dc d8 bd 2f 67 01 3e
       0.07348633 0.24191101 -0.1058884 0.12637018
0002a0 fd 86 51 be 00 ba 6e bd 3b e2 48 3d d1 80 be 3c
       -0.2046165 -0.058282852 0.049043875 0.023254784
0002b0 88 3b 25 be b0 21 30 3d 1b b7 a1 bd 1f 3a 8f 3e
       -0.1613599 0.043000877 -0.07896253 0.2797403
0002c0 63 d5 10 bc ec 6a 20 3e c9 aa 72 bd 01 b6 09 bf
       -0.008839938 0.15665787 -0.059244905 -0.5379334
0002d0 40 c4 9f 3d 9e 15 da be ae df 0f 3e ab 4d 5a bc
       0.078011036 -0.42594618 0.14050171 -0.013324182
0002e0 9b 27 8d be 8e c0 bf be d9 a3 ae be ab 85 65 3e
       -0.2756928 -0.37451595 -0.3410938 0.22414272
0002f0 9f c4 85 bd 12 72 a4 be 8e ee d1 3e 9c 84 95 bd
       -0.06531643 -0.3211828 0.41002315 -0.07300684
000300 41 e8 7b b9 63 65 bb b9 44 70 a8 3d e1 1c dc 3b
       -0.00024023747 -0.00035742958 0.08224538 0.00671731
000310 6f fb 1e be d1 8e 67 3d 81 af b6 ba ab cf 62 3e
       -0.15525602 0.056532685 -0.0013937802 0.22149532
000320 47 ae 26 be 0d 3c f2 bc 15 7c 8f bd 63 bf 43 3d
       -0.16277419 -0.02956965 -0.07006089 0.047789942
000330 13 cf 32 be c4 a1 36 be 08 2f f3 3d 4f a4 8f be
       -0.17461805 -0.17835146 0.11874205 -0.28055045
000340 06 08 23 bd fd 98 29 bc a0 39 e2 3b 62 a6 46 bd
       -0.039802574 -0.010351417 0.006903842 -0.04849852
000350 3a b1 52 be 6d 71 7f 3e 88 f2 91 be 6d 8b d1 3d
       -0.20575419 0.24945612 -0.2850535 0.102316715
000360 aa ca a2 39 19 2c 58 b9 57 10 07 be 04 ca 3c 3e
       0.00031050044 -0.00020615793 -0.13189827 0.18436438
000370 44 db 83 bd f5 90 aa 3d b5 a5 2b 3e 92 e3 8a be
       -0.06438306 0.083284296 0.16762431 -0.27126747
000380 ad 99 db bd 69 71 d1 bd 66 26 98 3e 80 28 62 bd
       -0.10722671 -0.102267094 0.29716796 -0.055214405
000390 5a 64 5f b9 ea 21 57 39 8f ed 22 3e 8f 86 46 bc
       -0.00021304321 0.00020516632 0.15910934 -0.012117042
0003a0 37 af 37 3d 9b 0c ac 3d e9 88 26 bd 1b e2 b1 3c
       0.044844832 0.08400842 -0.04065791 0.02171426
0003b0 90 f2 33 bd 5d c8 28 be 09 ad 4a bc 0d 52 29 bd
       -0.043932498 -0.16482683 -0.012370356 -0.041338015
0003c0 6d ab 44 bd 8e 83 05 bd 8f 93 a7 bd fc 9a 4d be
       -0.048015047 -0.032596163 -0.081824414 -0.20078653
0003d0 21 17 fc 3d f8 c5 b7 3d 07 99 a4 3d a5 d8 e7 bd
       0.12309099 0.089733064 0.08037 -0.113206185
0003e0 b8 88 92 3d e9 ca 5f 3e 00 1e a5 3d f5 7e c3 be
       0.07154983 0.21854748 0.08062363 -0.38182798
0003f0 63 b4 4b 39 2a f7 1b b9 cd 04 36 be f8 13 47 be
       0.00019426788 -0.00014874028 -0.17775269 -0.19441211

decode.2.weight f4 [100, 100]
000000 e2 19 a9 bc 6a 20 b0 3c 81 3a 07 3d 65 e0 6d bc
       -0.020642225 0.021499831 0.033014778 -0.014518832
000010 df 4f b9 bd da ad 35 bd ad e9 24 3d 75 b5 e5 bb
       -0.09048437 -0.04435525 0.040261913 -0.0070101568
000020 4d e2 b4 bc b3 12 7f 3d 16 be bb 3c 31 48 5b bc
       -0.022080565 0.062273692 0.022917788 -0.013383911
000030 cc df b9 bd c7 6a 76 bc 3d 76 06 3d ed ee 1d bd
       -0.09075889 -0.015040106 0.032827605 -0.038557936
000040 8b 62 db 3c 60 6d 26 bd 21 6d 5b 3d 21 8d 3c bc
       0.026780387 -0.040631652 0.05357087 -0.011508257
000050 b4 1f 91 bd 1f b9 31 3c 60 7a 30 bd 28 63 13 3d
       -0.07086125 0.010847359 -0.043085456 0.035983235
000060 2f c1 47 3d ef 5c 4b bd ff c2 88 bc f7 f2 60 3c
       0.04876822 -0.049649175 -0.016694544 0.013729802
000070 f7 62 71 bd 65 9c 8b bd f9 6a 3d bd 58 7a c1 bd
       -0.05893227 -0.06816939 -0.046244595 -0.09447163
000080 45 16 70 bd ba 18 41 bd e0 c3 d3 3c 46 d6 ed bb
       -0.058614988 -0.04714272 0.025850236 -0.0072582094
000090 1e 46 75 bd 62 25 74 3d bb c7 98 bd fd 07 b1 3d
       -0.059881322 0.059605964 -0.074599706 0.08644102
0000a0 be a4 3d bc 9c 93 b3 bc 5a 58 ab bd c9 84 f8 bb
       -0.011574922 -0.021920972 -0.08366461 -0.0075841886
0000b0 d8 58 46 bd 37 99 8f bd eb 9f 0d 3d 40 df 67 bd
       -0.04842457 -0.07011645 0.034576338 -0.056609392
0000c0 10 63 86 3d b8 2a 82 3c 5f 20 19 3d 76 56 ba bc
       0.065618634 0.01588951 0.037384387 -0.022746306
0000d0 e8 a8 03 bd d1 d6 44 bc 40 2e d6 bc 14 45 5b 3d
       -0.032143503 -0.012014107 -0.0261451 0.053532675
0000e0 e4 6e 21 bd 1d 40 89 3c bb b0 72 3c bc b1 17 3d
       -0.039412394 0.016754204 0.014812644 0.037034735
0000f0 d6 6f d8 bc c4 07 de bb 10 da 5b 3d 9b 43 fa bc
       -0.026420515 -0.006775828 0.053674757 -0.030549815
000100 c4 67 88 3d 8c 53 0b bd 5f 01 22 bb f9 1d 00 bd
       0.06660417 -0.034015223 -0.0024720056 -0.031278584
000110 39 5d f9 3c 22 06 9b 3d 5b cb 33 3d 12 1d ae 3d
       0.03043996 0.07569529 0.043895107 0.085016385
000120 60 bd b3 3d 66 ff 37 3c 6e c3 e2 bc eb 7a 84 3a
       0.08776355 0.011230325 -0.027681079 0.0010107433
000130 05 75 29 3c 5c 3f d6 3c b1 fc fa bc dd 88 03 3b
       0.010342841 0.026153259 -0.03063807 0.002007059
000140 8d 1e da bc 78 2c cb 3b b8 cb 45 3a 4a 93 30 bd
       -0.026625896 0.0062003694 0.000754531 -0.043109216
000150 27 4a ad bd ef 4f d1 bc 60 b1 92 3d c8 9d 23 bd
       -0.08461409 -0.02555081 0.07162738 -0.039945394
000160 fc 71 45 bd a8 f3 31 3d b4 b1 0d bc 8b 1e b8 3c
       -0.048204407 0.04344526 -0.008648325 0.022475502
000170 d5 51 b9 3c a6 ae 3f bd b3 d9 66 3c 31 35 01 3d
       0.022622028 -0.046797417 0.0140899895 0.031544868
000180 df be 77 bc 49 f9 b6 bd da 2a fb bb c6 22 45 3d
       -0.015121191 -0.08934266 -0.0076650204 0.048128866
000190 0f cd 17 3d 0d 9e 9f ba 9c c2 35 3d a9 c1 ad bd
       0.037060793 -0.001217784 0.044375047 -0.08484203
0001a0 74 78 a6 bd 71 1d 0b 3d 77 31 43 bd 4c 28 8a 3c
       -0.08128443 0.033963624 -0.047654595 0.016864918
0001b0 a6 67 f0 bb e5 76 5d bc 4b 95 aa 3c 73 7d 9c 3b
       -0.0073365746 -0.013517116 0.020823142 0.004775697
0001c0 ae b2 79 3c 84 8e 77 bc c7 e8 5f bd 30 49 28 3d
       0.015240354 -0.015109662 -0.054665353 0.041085422
0001d0 fa 17 68 3c 9a 4f aa 3b 15 ff 83 bb 93 4d da bb
       0.014165873 0.0051974775 -0.004028211 -0.0066620796
0001e0 75 3c 83 bd e9 bc cf 3b ae 8e 8c 3d e9 a0 ba 3d
       -0.06408016 0.0063396585 0.068631515 0.091127224
0001f0 66 b6 83 3c 71 b0 fd bc e9 59 5c bd d7 c7 47 bc
       0.016078185 -0.030967923 -0.053796683 -0.012193642
000200 51 1a 98 bb 72 22 b3 3d ae e4 e3 bc 3b a2 95 3d
       -0.004641809 0.08746804 -0.027819004 0.07306334
000210 16 4d ef bc 6b 3c 86 bc be 74 a1 bb 40 74 b6 bd
       -0.029211562 -0.016386231 -0.004927247 -0.08908892
000220 59 ed 03 bc 07 6e a6 bc da 3a 3f 3d f6 e7 88 3d
       -0.008052194 -0.020316137 0.046686985 0.06684868
000230 17 0e b9 bd e0 9d f9 3c 8f d1 e3 3c 86 77 63 bd
       -0.090358905 0.030470788 0.027809886 -0.05553391
000240 00 0e 07 be 43 12 96 bd 21 cc 0f bd 6b b8 cf bd
       -0.13188934 -0.07327702 -0.035106782 -0.10142597
000250 fd 94 ea bd 80 dc 53 3d 79 9b d2 3c a2 74 67 bc
       -0.114541985 0.051723957 0.0257089 -0.0141269285
000260 d5 1b 88 bd 44 f0 51 bd 37 ed 94 3d 41 d7 ce bd
       -0.066459335 -0.051254526 0.07271808 -0.1009965
000270 00 9c ee 3c b6 32 38 bb e4 02 b3 3b 8c c9 0e bd
       0.029127121 -0.0028106398 0.005462991 -0.03486018
000280 06 5d 59 bd 3f 74 d1 3d 7a e8 74 bd b2 c9 04 bc
       -0.05306723 0.1022725 -0.05979202 -0.008104729
000290 70 55 d4 bc ea de 35 ba 72 d0 b5 bd 9e d3 8f 3d
       -0.025919646 -0.0006937819 -0.088776484 0.07022785
0002a0 a1 b8 e6 bc cb ab 24 3d 69 48 ef 3c ce f3 bd bc
       -0.02816421 0.040202897 0.029209333 -0.023187544
0002b0 8f 49 51 3d 3a 65 dd bd d2 48 3a 3d f8 b0 39 3d
       0.05109554 -0.10810323 0.045479603 0.045334786
0002c0 44 a6 6a 3d 4f 80 02 bd 09 2b f6 3d de 60 95 bd
       0.05728747 -0.031860646 0.12019927 -0.072938666
0002d0 72 b9 9a 3b bd 4c 17 3d f1 0e 8d bd 44 07 dd 3b
       0.004721814 0.036938418 -0.068876155 0.006745251
0002e0 48 0d 2b bd 1f 05 1c bd fc c5 a4 3d a4 68 3a bc
       -0.041760713 -0.03809082 0.08045575 -0.011377487
0002f0 aa 7d b5 3c 4d 4e c2 bc 66 b5 af 3c 92 da df bd
       0.022154648 -0.023718977 0.021448802 -0.10930361
000300 13 70 9c 3c 9b d6 82 bc fd 20 4f bd 8e a6 19 3d
       0.01909641 -0.015971472 -0.05056857 0.037512355
000310 b6 64 0b bc bb 66 66 3c 8a 9e bb bd aa e3 03 bd
       -0.008507898 0.014062579 -0.09161098 -0.03219954
000320 44 4e 78 be 61 39 14 3b c9 78 7d bd 15 7f 8e bd
       -0.24248606 0.0022617208 -0.061882768 -0.06957833
000330 cf fc 96 bc f2 19 a9 bd 48 d4 be 3c e0 42 dc bd
       -0.018431095 -0.08256902 0.023294583 -0.10754943
000340 13 8a ff bc 8c e7 7b bc 44 5a ff bc 00 e9 84 bd
       -0.031193769 -0.015375029 -0.031170972 -0.06489754
000350 ee 09 82 be dd 18 58 3c 5c 46 7c bc 56 4e ad 3e
       -0.253982 0.013189522 -0.015397634 0.33848828
000360 81 d1 86 3d 25 54 8d 3d 86 4d f8 bc 1e cc 81 3c
       0.065829284 0.06900815 -0.030310404 0.015844401
000370 3b 4a 67 bd 61 cc 5e bd 31 04 25 bc bf 11 80 be
       -0.056467276 -0.05439413 -0.0100718 -0.2501354
000380 c7 26 0d bd 2f b6 aa 3c 96 b8 bf bc d4 c5 a8 3c
       -0.03446081 0.020838825 -0.023403447 0.020602144
000390 26 2b 5c 3e 00 ba bf 3c 41 7b 29 bc 61 5e b9 bd
       0.21500835 0.023404121 -0.010344327 -0.090512045
0003a0 16 9b 01 3d e8 16 60 be a4 8d 29 bd 55 75 d9 3c
       0.031642042 -0.21883738 -0.041394845 0.026545206
0003b0 8f 4c 8b 3d 38 d4 6c 3d 12 be b1 bd ac 3c fc 3d
       0.06801712 0.057819575 -0.08678831 0.1231626
0003c0 63 db 4d bd 0e ec 04 bd ac e4 ae bc a2 60 e7 bc
       -0.05025805 -0.03245168 -0.021349274 -0.02824432
0003d0 a7 14 21 be 30 ea 10 bd a3 98 64 be 11 91 69 3d
       -0.15730534 -0.03537959 -0.22323851 0.05702311
0003e0 65 2e 41 3e 72 0c 61 bd 2b 4e d1 3c 6d 30 9f 3c
       0.18865354 -0.05494351 0.025549969 0.01943227
0003f0 e6 0e 7c bb 07 e6 f4 bc a9 92 1f 3e 95 c6 79 be
       -0.0038461029 -0.029894842 0.1558329 -0.2439216

decode.4.weight f4 [1, 100]
000000 b6 22 8e 39 c4 4a 4d 39 49 5a 54 bd 4a 9e f4 b8
       0.00027110212 0.00019578176 -0.051843915 -0.0001166431
000010 32 18 e9 3d d7 f0 a8 b9 14 6f 96 39 c6 24 dc 37
       0.11381568 -0.00032222897 0.0002869299 2.6243168e-05
000020 3e 34 4a 39 e9 d1 c9 38 d4 cb 11 39 d0 cd 8d bd
       0.00019283683 9.623526e-05 0.0001390421 -0.06924021
000030 df aa b2 39 b0 7a 57 39 c5 11 cd b9 a2 d6 84 3a
       0.00034078115 0.00020549702 -0.00039113886 0.0010134766
000040 9a 13 09 3d 04 00 09 38 fe a9 4e 38 cb db e5 39
       0.03346596 3.266336e-05 4.9272545e-05 0.00043842042
000050 20 34 f9 b9 d3 8f 03 39 0d af 0a 3a 66 b6 43 ba
       -0.00047531817 0.00012546712 0.0005290367 -0.0007465839
000060 67 7c 80 3d 10 9f bb 37 16 66 26 b9 52 44 09 3d
       0.06273728 2.2366206e-05 -0.00015869024 0.03351242
000070 09 aa c9 38 fb 17 16 3a 79 91 e8 38 20 cd b1 3d
       9.6160984e-05 0.0005725619 0.000110897185 0.086817026
000080 27 41 71 b9 a3 29 e6 39 9a 6b 2e 3a 6e 37 57 b9
       -0.00023007822 0.0004390004 0.0006653607 -0.00020524647
000090 25 96 6c ba 4e 6f 0b ba d2 bf cb 39 58 fb fc b9
       -0.0009025059 -0.0005319015 0.00038862095 -0.0004825245
0000a0 36 07 50 b9 4a 4d 02 39 ef 76 6a bd 32 81 c7 39
       -0.00019839112 0.00012426559 -0.05724233 0.00038052496
0000b0 f1 a9 20 b9 06 d1 22 bd 19 04 28 39 ec af a9 39
       -0.00015322097 -0.03975012 0.00016023255 0.00032365264
0000c0 5f 69 07 39 c0 5f 3d bd a9 15 97 38 14 e3 ad b7
       0.00012913857 -0.046233892 7.2042756e-05 -2.0728949e-05
0000d0 4e fa c9 38 11 f3 3a bd ce 54 88 b7 b4 40 df b8
       9.63105e-05 -0.045641962 -1.6251954e-05 -0.000106455205
0000e0 05 d3 e4 39 18 91 93 39 6a 3d 3d bd eb 3d a0 bd
       0.0004364477 0.00028146128 -0.046201147 -0.0782431
0000f0 d6 31 f7 b8 6e 5e 9d 39 0f 79 cc b9 ad b0 0f 38
       -0.000117871605 0.0003001573 -0.00039000108 3.42584e-05
000100 04 8e d9 39 f4 04 a3 bd b3 ee ce 38 2c 2e f0 b8
       0.00041495275 -0.07959929 9.867307e-05 -0.00011452692
000110 e2 47 78 b9 d4 2e 2f b9 34 12 d1 3d 21 bd 0b b9
       -0.00023677901 -0.00016706745 0.1020855 -0.00013326529
000120 08 5c da 39 b0 be ab b9 5e 9d a7 39 66 af 17 3a
       0.0004164877 -0.00032757735 0.0003196997 0.0005786329
000130 a7 42 24 ba 94 58 f1 b9 b6 22 12 3d ec e9 bc 39
       -0.00062660355 -0.00046033098 0.035677634 0.0003603244
000140 dd 1d 05 ba c1 c7 75 b9 9d 3f 2c 3a f5 0d 28 3a
       -0.00050779973 -0.00023439435 0.00065707584 0.0006410771
000150 50 6d 5a b9 18 e5 77 ba 9d 53 3c 3d bc 9e 54 39
       -0.00020830822 -0.000945644 0.045978177 0.00020277029
000160 5c 9b 86 b8 6b ec 2a ba 20 f1 13 39 c7 08 3d ba
       -6.418556e-05 -0.00065202144 0.00014108839 -0.0007211086
000170 93 2c 17 ba 19 5e 0c ba 25 c0 8a 3d 21 0b af b9
       -0.0005766835 -0.0005354598 0.0677493 -0.00033386893
000180 ba ff 25 3a cb ef 88 3a bc 19 97 37 d0 64 a0 b9
       0.0006332357 0.001044744 1.8012586e-05 -0.0003059269
