Quantum/models/3_latent.pt (torch, 94759 bytes, 6 tensors)

encode.0.weight f4 [100, 10]
000000 f2 6a 03 be 17 e3 50 be a0 a4 1b bc a1 38 8d 3e
       -0.12833765 -0.20399128 -0.009499699 0.27582267
000010 4a 02 7b be c8 2f ac 3e 4b 53 87 3e 61 58 90 3e
       -0.24512592 0.33630204 0.26430735 0.28192428
000020 b7 2f bb 3d d2 93 4f 3d c8 e0 33 3e 02 c8 2b be
       0.0913996 0.05067808 0.17566216 -0.16775516
000030 5a 58 2b be 3c c5 b5 3d b1 3d 77 3d 55 10 89 be
       -0.16732922 0.0887551 0.060361568 -0.26770273
000040 c5 c5 1b be b2 b9 03 bd b7 94 8e bd 84 33 0f be
       -0.15212162 -0.032159515 -0.06961959 -0.13984495
000050 fc 26 78 3e 89 8b fc 3d ac c4 9e 3d d4 fc ba bd
       0.24233621 0.12331302 0.07752356 -0.091302544
000060 d7 fd 4d 3e e2 e4 2e bd fe cc f8 3d 6f dc 3c be
       0.20116363 -0.04269875 0.12148474 -0.18443464
000070 ec 9b 05 3e af db 43 bc 5a d0 bd be 82 91 ad 3e
       0.1304776 -0.011954232 -0.37073022 0.33900076
000080 60 f3 ad 3e e0 23 8b be 87 7b 78 3e 0d 57 41 be
       0.33974743 -0.27175808 0.24265872 -0.18880863
000090 33 3d f5 3d 30 b8 10 be 5c 0e a1 3d ca 1e 7d 3e
       0.119745634 -0.14132762 0.07864067 0.24718776
0000a0 16 ee 60 3d d9 5e a5 3e 2a ff 2b be 25 ad 24 bc
       0.054914556 0.32298926 -0.16796556 -0.0100510465
0000b0 37 97 97 3e ac 7c 5c 3e 76 c1 5c bd 2e f8 81 3e
       0.29607555 0.21531934 -0.053895436 0.2538466
0000c0 4b b5 91 be b1 dc e4 bc 2f 54 1c be 41 e3 96 be
       -0.28458628 -0.027937265 -0.15266488 -0.29470256
0000d0 b5 e0 a3 bc 2b f5 13 be 78 54 5e 3d 5b 33 0a 3e
       -0.02000461 -0.14448993 0.054279774 0.13496153
0000e0 3d eb 5c be 53 ac a3 3e 1d de 42 bc 99 a6 00 bd
       -0.21574111 0.3196741 -0.011893776 -0.03140888
0000f0 40 f3 6b be d8 53 b9 3d a5 38 89 3e 78 09 c9 be
       -0.23042011 0.09049195 0.2680103 -0.39265037
000100 09 e7 a3 3e 02 ec ab be 12 fb 9d 3d b3 89 69 3e
       0.32012203 -0.33578497 0.077139035 0.22806434
000110 6a f8 19 3e 8e 3e 2f 3e 6b 0f 72 3e df 34 98 bd
       0.15036169 0.17113706 0.23638694 -0.07431959
000120 0a e8 9d bd e6 e6 0d 3e 9c 88 c7 bd b5 04 37 be
       -0.077102736 0.13857612 -0.09742853 -0.1787289
000130 a6 bd 09 be d0 c7 cd bd 12 bb 06 be 37 60 77 be
       -0.13451251 -0.10047877 -0.13157299 -0.24157797
000140 ed 1c cf bd 5b 3b b3 be 8b f4 8d 3e e4 82 96 3e
       -0.10112939 -0.35006222 0.27725634 0.29396737
000150 73 a3 a9 3c af ab f9 bc a4 5a 75 3e 29 c4 00 be
       0.020707821 -0.030477373 0.23960358 -0.12574829
000160 71 06 63 3e a5 44 95 be 81 ff ad be 27 e4 d7 3e
       0.22170426 -0.29153934 -0.33983997 0.42166254
000170 7f 7d 55 3e 18 d4 09 3d 51 37 0a be 94 74 9f be
       0.20848654 0.033649534 -0.13497664 -0.3114363
000180 c4 48 83 be 4d ca 7e 3e f4 c2 3f 3e c4 35 c8 3e
       -0.25641453 0.24881859 0.18726712 0.3910352
000190 22 84 9d 3e d6 20 0a bd b0 6b a0 3e 72 75 26 3e
       0.30764872 -0.03372272 0.3133216 0.1625574
0001a0 62 b7 9a 3e 4a 13 16 be 0a 2e 43 be db 0a a5 3e
       0.30218035 -0.14655796 -0.19060531 0.32234845
0001b0 35 0a b8 be 3f 71 0b be 86 d6 52 be ca 5d 32 3e
       -0.35945287 -0.13617419 -0.20589647 0.1741859
0001c0 cc 3d 67 be 8c 5b 7e be b2 2c 26 be f5 31 95 be
       -0.22582167 -0.2483961 -0.16227987 -0.29139677
0001d0 cb 6f 9e be 71 8b 77 be 94 70 e5 3c 47 bf a7 bd
       -0.30944666 -0.24174286 0.028007783 -0.0819078
0001e0 c7 9b 8b 3e 89 a9 9f 3e b5 05 20 be 42 d1 0f bd
       0.27267286 0.31184033 -0.15627177 -0.035111673
0001f0 5d ea 4f be aa a7 97 3e 10 a0 5c 3e bf 4a 56 be
       -0.20304246 0.29620105 0.21545434 -0.20926951
000200 c8 47 60 bd 33 fe 45 3e 82 ae d1 3d b3 3b 1a be
       -0.054755956 0.1933525 0.10238363 -0.15061836
000210 0f 8f 8b 3d 26 76 a1 3d 55 ac 8a be bb 7d a0 3e
       0.06814396 0.07883863 -0.27084604 0.31345925
000220 a3 52 22 3e ac f0 95 bd 4d d8 82 3e 87 ac 93 be
       0.15851836 -0.07321295 0.2555565 -0.28842565
000230 4d 7b 16 3e 79 f8 a0 3e 46 03 f5 3d 0c 45 3b be
       0.14695473 0.3143957 0.11963515 -0.18288058
000240 9b ed ae be ec 3e 83 3e ac af e7 bd e4 0f 0f bd
       -0.34165654 0.25633943 -0.113128036 -0.034927264
000250 ad 3e 6a be d0 39 a3 3e 80 90 ac be 33 72 e2 bd
       -0.22875471 0.31880045 -0.33703995 -0.11056938
000260 92 dd ce 3d 60 47 6b 3d d7 91 dd bd 9d 84 76 3e
       0.10100855 0.057441115 -0.10818832 0.24074025
000270 64 87 5c 3e a3 48 13 be da a6 83 3e d0 1e bc 3e
       0.21536022 -0.14383177 0.25713235 0.36742258
000280 93 df 35 be 92 8e c9 bd 99 6b 30 bd 6c 50 81 be
       -0.17761068 -0.09841646 -0.043071363 -0.2525667
000290 e2 62 97 3b b8 61 8d be e9 a2 e0 bd ff 8f 58 3d
       0.004619942 -0.27613616 -0.10968573 0.0528717
0002a0 5b e5 35 be 75 20 60 be 6b f3 30 3e 3d 4d 28 3e
       -0.17763273 -0.21887381 0.17280357 0.16435714
0002b0 64 37 d6 be fa 00 3f be 85 f3 46 be c9 d6 8f 3e
       -0.41839135 -0.18652716 -0.19428833 0.28093556
0002c0 a4 b6 a4 be 96 6d 7e 3e 7d bd bf 3e d2 a7 2b bd
       -0.32170594 0.24846491 0.37449256 -0.041908093
0002d0 71 06 45 be d0 5d cf 3c c7 6a 9a 3e e8 af 5e 3e
       -0.19240738 0.025313288 0.3015959 0.2174679
0002e0 53 c7 a4 bd 15 0c 7e be be ae 1a be 37 ff 36 3e
       -0.080458306 -0.24809296 -0.15105721 0.17870794
0002f0 16 f4 c4 bd 01 6b 84 be 9b e4 36 3e c6 28 ff bd
       -0.09616868 -0.25862888 0.17860644 -0.12458949
000300 10 62 9e 3c 3d d0 a3 bd d2 16 8a 3d af 04 79 3d
       0.01933387 -0.07998703 0.06742634 0.060795482
000310 18 64 38 3e 76 b6 be bd 1d 7a 82 3e 0b 83 39 bd
       0.18006933 -0.093121454 0.2548379 -0.045290988
000320 8a 9c 28 be de 41 67 3e 4f c0 44 3e f7 ac ce 3d
       -0.16465965 0.2258372 0.19213985 0.10091584
000330 dc 12 e4 bc ca b0 86 3e 6d da 8e 3e cd 5c 04 3d
       -0.027841024 0.26306754 0.2790102 0.032315064
000340 45 09 c6 bd ec 0a c3 bd 21 e6 6e bb 5a 3b 49 be
       -0.09669737 -0.095235676 -0.0036453085 -0.19651547
000350 51 ac 30 3e 35 38 f5 3d fa 34 94 3e 7c 61 43 3d
       0.17253233 0.11973611 0.28946668 0.04770039
000360 90 b0 c7 3d 28 68 8f 3e dd ae cc 3d 84 55 88 3e
       0.097504735 0.28009152 0.0999429 0.26627743
000370 18 59 e2 3d b4 44 16 be 7c 9b c2 bd f9 9d 0b 3b
       0.110521495 -0.14674646 -0.095023125 0.0021303876
000380 3c bc 0b bc 79 a4 7f be dc a8 df bc 35 ab ab 3e
       -0.008528765 -0.24965085 -0.027302198 0.33529058
000390 a9 68 0c 3d 05 7d 94 be bb c7 52 be a5 a6 b9 be
       0.0342795 -0.29001632 -0.20584004 -0.36259952
0003a0 39 dd c8 3d 0b 74 d1 bd dd e8 4f be ab 48 3b be
       0.0980782 -0.102272116 -0.20303674 -0.1828944
0003b0 c6 42 5b 3e 48 3b 83 be c4 f9 49 be da 59 82 be
       0.21412191 -0.25631166 -0.19724184 -0.25459176
0003c0 d0 4c ca 3d be c9 f3 bd d1 eb 05 bd 81 df 99 3e
       0.09877932 -0.11903714 -0.032695595 0.30053332
0003d0 e9 6e e6 3e ea 92 41 3e aa 7f e2 3d cc 35 88 bd
       0.45006493 0.189037 0.11059506 -0.06650886
0003e0 4b 30 42 be dc af 3c bc 79 97 34 3d b6 25 77 be
       -0.18963735 -0.0115165375 0.044089768 -0.2413548
0003f0 97 55 e5 3d 92 88 cb 3d ad cb 3d 3e 26 9d 72 be
       0.111979656 0.09938158 0.18534727 -0.2369276

encode.2.weight f4 [100, 100]
000000 d2 25 80 3a 58 0d 00 bd d7 b5 43 3d ff 9b ba bd
       0.0009776896 -0.031262726 0.047780838 -0.09111785
000010 f5 c7 1e 3e f4 4a 2a 3c 0b 17 49 bc dd 15 b6 bd
       0.15505965 0.010393847 -0.01227356 -0.08890889
000020 c0 46 09 bb 33 f6 b3 3b 79 cd a5 3b 3a 47 90 bd
       -0.0020946711 0.0054919957 0.0050598946 -0.070448354
000030 2f 4a 4e 3d bb ed 97 3d b2 54 fd bc 91 88 77 bd
       0.050363716 0.0741839 -0.030924175 -0.060432974
000040 a6 ee 0c be dc 91 3c 3e 3f 07 da bc 1d b8 bf 3d
       -0.13762912 0.18415016 -0.026614783 0.09361289
000050 dd 77 d1 bb 8f 65 f3 3c 70 b5 d0 3d 39 fc 13 3d
       -0.0063924626 0.029711513 0.101908565 0.03612921
000060 0e 93 54 bd a8 02 82 bd ae 49 bd bd 9d 59 c7 3d
       -0.051898055 -0.06348163 -0.09242569 0.09733889
000070 f1 1a a5 bd da 66 d3 bb a9 fb 96 3d 2e 1b 81 bd
       -0.08061779 -0.00645147 0.07372219 -0.06304012
000080 7c f5 ea bb 31 bd 27 3e 14 ab 90 3d 2f af b3 bd
       -0.0071703773 0.16380765 0.070638806 -0.08773648
000090 74 36 ab bc 88 52 07 3e 34 4b 29 3e d9 96 34 3d
       -0.020899989 0.13215077 0.16532594 0.044089172
0000a0 fa 31 80 bd 04 54 fd 3c 4f e2 ac bd 56 08 89 3d
       -0.06259532 0.03092385 -0.084416024 0.06691043
0000b0 f7 cf 37 3d 6d bf b4 3c 5e 66 ea bb d4 63 f7 3d
       0.044876065 0.022063935 -0.0071533164 0.120795876
0000c0 b4 3c 3d bc f2 b4 fb bd ae e5 f7 bd f2 cd ea 3c
       -0.011550117 -0.12290372 -0.12104355 0.028662656
0000d0 36 39 0b be b0 68 0e 3c 71 e3 a0 3d 82 29 08 bd
       -0.13596043 0.008691952 0.07855881 -0.03324271
0000e0 6a 07 aa bd ff 85 69 bd 07 1a 7e 3d 9b cc 7a bc
       -0.08302195 -0.057012554 0.06203654 -0.015307571
0000f0 b6 15 fa bd 12 fe 06 3e 7f d0 77 bc 6e 3d 06 be
       -0.12211172 0.13182858 -0.015125393 -0.13109371
000100 72 83 31 bd 3a e5 1f 3e ea 64 9f bd 36 f4 f8 bd
       -0.043338247 0.15614787 -0.0778292 -0.121559545
000110 df 0e 37 bd fb dd 08 bd 5c ff 45 bc 70 84 d4 bc
       -0.044691917 -0.033414822 -0.012084808 -0.025942057
000120 19 bc 79 3d af d7 d6 3d 48 0b d5 bd a3 c4 1c 3e
       0.0609704 0.10490357 -0.10402542 0.15309386
000130 2b 84 ab 3d e8 67 1f 3e 0d 49 3c 3d d1 b6 72 bd
       0.083748184 0.15566981 0.045968104 -0.05925638
000140 16 3e ed 3d ee 6d 26 bd 57 98 8d bc 6c 35 19 bd
       0.115841076 -0.04063218 -0.017284555 -0.037404463
000150 83 5e b2 bd d8 a3 f5 bd c8 07 05 3d 40 82 5e bc
       -0.08709433 -0.11994141 0.032478124 -0.013580859
000160 b7 34 7c bd bd dd 23 3d ea b9 97 3c 29 94 87 3d
       -0.06157371 0.040006388 0.018521268 0.06620056
000170 91 17 0e be c5 0b bd 3d f4 de 15 3e e8 41 86 3d
       -0.13876177 0.092307605 0.14635831 0.06555539
000180 35 5d 29 3e 9e b8 8f bd f6 64 89 bd 18 be c0 3d
       0.16539462 -0.07017635 -0.0670871 0.094112575
000190 fa 80 d6 3c 85 73 18 3d 54 24 4f bd ce 19 84 3d
       0.026184548 0.037219543 -0.050571755 0.06450234
0001a0 43 f4 bd bd 69 20 f3 bc 6a cb 26 3d eb ff 42 bd
       -0.09275105 -0.02967854 0.040721335 -0.047607344
0001b0 45 7c 25 bd 35 a3 43 3d d2 a3 1d bd 77 36 e3 3d
       -0.040401716 0.04776307 -0.03848631 0.11094373
0001c0 49 87 7b ba 73 bc 28 bd b0 ff 16 bd cc 8e 0c 3d
       -0.0009595049 -0.041195344 -0.036864936 0.03431587
0001d0 7b cd 1e bd 1b e2 0c 3e 3b 96 f6 3c 0f 2c 6d bd
       -0.03877018 0.13758127 0.030100932 -0.057903346
0001e0 03 49 c6 3d df 1d d4 bd 99 55 e1 bd f4 8b d5 bc
       0.09681895 -0.1035726 -0.110026546 -0.026067711
0001f0 e6 8d 69 bd 0e 7f c8 bd e2 ed cf bd ac b4 41 bd
       -0.05702009 -0.09789859 -0.101527944 -0.047291443
000200 50 05 bb bd cb a3 a9 bc 82 a4 5a bd a0 0f 14 3d
       -0.09131873 -0.020707985 -0.053379543 0.036147714
000210 78 ef 6a bd 93 5d 8a bd 07 45 ff 3c 5b f9 3d 3d
       -0.05735728 -0.06756129 0.031160844 0.046380382
000220 d6 87 d3 3d 6b 35 0c bd 44 94 23 be 92 e8 92 bd
       0.10328643 -0.03423063 -0.15974528 -0.071732655
000230 ea cb 27 3d 09 d3 1d 3e d6 51 2b bd 8f d1 ca bd
       0.040965952 0.15412535 -0.04182609 -0.099032514
000240 7a be 95 3c b5 f6 d3 bc b7 a2 42 3d 50 f8 9a bd
       0.018279303 -0.025874475 0.04751846 -0.07566893
000250 bf da 9f 3d 3a 7b b9 bd 13 73 f4 bb 1c 7a 12 bd
       0.078053944 -0.09056707 -0.007460007 -0.035760984
000260 33 3b 3a bd 60 67 1f bd 45 a7 1f 3d 79 70 1a bd
       -0.045466613 -0.038916945 0.03897788 -0.03770492
000270 a0 10 94 bd c9 c4 72 bb 35 01 f4 bd 98 34 17 bd
       -0.072297335 -0.0037043563 -0.11914293 -0.03691539
000280 84 f6 88 bd 92 c8 10 bc ec df 18 3d 79 40 c2 bd
       -0.06687644 -0.008836882 0.037322924 -0.094849534
000290 79 5b 25 bc 12 80 9d bc 91 69 91 bc 65 06 30 bd
       -0.01009261 -0.019226108 -0.017750533 -0.04297485
0002a0 6a e6 12 3d b9 d8 91 bb c1 c5 b1 bd 00 27 dc bd
       0.03586427 -0.004450884 -0.08680297 -0.10749626
0002b0 55 3a f8 3c 39 de 8a 3d 1a e7 cf 3c 95 54 91 3c
       0.030301252 0.06780667 0.025378752 0.017740527
0002c0 e9 b4 10 bd 79 a0 6a bd 40 65 39 bd cc b5 a9 3d
       -0.03532878 -0.057281945 -0.045262575 0.08286628
0002d0 4f 29 d1 3d d2 79 c0 3c 2c 6f e6 ba 64 db a2 3d
       0.10212957 0.023495588 -0.0017580739 0.07952002
0002e0 b8 2e ce bd 49 61 f2 bc 00 b2 19 3c 20 bb 3f 3d
       -0.10067505 -0.029587405 0.009380817 0.046809316
0002f0 28 9f 94 bc 04 b4 5a 3d 34 20 2b bb 15 20 83 bc
       -0.018142298 0.053394333 -0.0026111724 -0.016006509
000300 e1 88 a5 3b 91 52 bf 3d 0c 55 0b bc 51 92 b0 3d
       0.0050517176 0.0934192 -0.0085041635 0.08621658
000310 79 e4 e6 3d 5d 5a 90 bd ca 3b 24 bd ed 3d 70 bd
       0.112740465 -0.070484854 -0.04009608 -0.058652807
000320 dc 8d 42 bd 1e 8d 8d bd af d4 a2 ba 47 6a 07 be
       -0.04749857 -0.069116816 -0.0012423004 -0.13224135
000330 c8 03 07 3d ae f8 66 bc 9f b6 ac bd 2c 2e d1 3d
       0.03296259 -0.014097376 -0.0843327 0.10213885
000340 34 8c 28 3e 53 2f c9 bd 06 bb 27 3d 10 84 8b 3d
       0.16459733 -0.098234795 0.040949844 0.06812298
000350 a4 40 98 3c 34 93 45 3e f1 6a 63 3d dd c7 86 bd
       0.01858551 0.19294435 0.05552191 -0.0658109
000360 13 6d 85 3c 1c 27 84 bd d6 60 b2 3c 38 8d ea 3d
       0.016287362 -0.06452772 0.02177469 0.114527166
000370 53 f7 29 3c 8e 0a 48 3c b4 3a cc bd 9e e3 1e bd
       0.010373908 0.012209548 -0.09972134 -0.03879129
000380 34 13 2b 3e 81 e9 0f 3c 6c d7 e1 bc 35 f5 ea bd
       0.16706544 0.008783699 -0.027568541 -0.11472551
000390 75 12 90 bd 6d 1d 63 bb 3a 2b b5 39 30 92 c8 3c
       -0.070347704 -0.003465499 0.00034555217 0.02448377
0003a0 15 be 58 bd 4d 77 bd 3d b8 12 a5 bd 68 3a d4 bc
       -0.05291565 0.092512704 -0.08060211 -0.025906757
0003b0 31 b4 dc 3d 4e c1 c6 3d b0 86 05 bd d4 0e ba 3c
       0.10776556 0.09704839 -0.03259915 0.022712149
0003c0 5c 1e d1 3c f7 22 bd 3d c6 2a 57 3d bd 12 62 3d
       0.025527172 0.09235185 0.052531026 0.05519365
0003d0 9d 52 58 bd ee 80 9d bd a8 26 9a 3d d0 79 c1 bd
       -0.05281316 -0.07690607 0.07526904 -0.09447062
0003e0 da 9d 0c bd b3 01 9a bd 6a ef 9e 3b d7 e5 85 bd
       -0.034330226 -0.07519855 0.0048503177 -0.06537979
0003f0 49 97 91 3d 21 66 4d 3d a5 64 77 bc bc 7f bd 3d
       0.071089335 0.050146226 -0.015099679 0.09252879

encode.4.weight f4 [6, 100]
000000 2b 54 e8 3d 5c ee 79 3d 76 4b b3 bd c3 43 fa bd
       0.11344179 0.061018333 -0.087546274 -0.12219956
000010 d6 c8 28 3e c3 d0 f2 bd ad 61 10 be 26 10 0e bd
       0.16482863 -0.118562244 -0.1409976 -0.03468337
000020 8f df 84 bd 62 4a 57 bd 6e 3b 1c 3e 38 a9 36 3d
       -0.06487953 -0.05256117 0.15257046 0.044594973
000030 09 37 e6 bd a1 1d 21 be 1c 64 03 3e 56 2e df bc
       -0.11240966 -0.15733959 0.12831157 -0.027243774
000040 70 fd 24 3d 04 77 fa 3d 9f 7a 3e 3d b9 46 ec bd
       0.04028076 0.12229732 0.04650366 -0.11536927
000050 2b 5d b7 bd 72 64 dd 3d bd 84 5c 3c a0 a6 c2 bd
       -0.08953317 0.10810174 0.013459382 -0.095044374
000060 eb 06 1b 3e c8 ca f6 bd 1c 32 43 3c d4 42 27 bc
       0.15139358 -0.12050396 0.0119138025 -0.010208804
000070 ff 36 f2 3d 03 d0 40 be fd f5 84 3e 92 ae d5 3b
       0.11826896 -0.1882935 0.25968924 0.0065210545
000080 af 8e 1f be 1e 40 26 be f3 70 fc 3c c1 1d 06 bd
       -0.15581773 -0.16235396 0.030815577 -0.03274322
000090 f9 69 45 bd 94 cf 05 bd 68 0a 73 bc c6 29 fb 3c
       -0.048196767 -0.032668665 -0.014834024 0.030659568
0000a0 20 0d a1 3d 6f bc 9e 3d c5 a0 b9 bc ad 5a 12 be
       0.078638315 0.077507846 -0.022659669 -0.14292403
0000b0 4d 36 20 3e 39 02 1f be 89 86 de bd c3 28 06 3e
       0.15645714 -0.15528192 -0.10865504 0.13101487
0000c0 60 6a 3b bb a0 41 fe bc 09 b3 80 bd 85 09 01 3e
       -0.002859734 -0.031037152 -0.06284148 0.12601288
0000d0 58 3c 16 3e 2a ba 19 bd 5d fe a5 bd e3 43 a1 bd
       0.14671457 -0.037531056 -0.081051566 -0.078742765
0000e0 73 5c 06 3d b8 51 ea bc 1e 12 df bd af 9a 86 3c
       0.03280301 -0.02860342 -0.108921275 0.01643118
0000f0 42 af cf bd ed f1 cd 3c 3a 8d 46 3e 5f a5 0b 3e
       -0.1014085 0.025139773 0.19389811 0.13637303
000100 9e 13 05 3e 41 e6 b7 bd 16 c5 6b bd 89 21 73 3c
       0.12995765 -0.08979464 -0.057561003 0.014839538
000110 5e 7b 8e 3d 6c 68 0e be 9e db 59 bd 16 ed fb 3d
       0.06957124 -0.13907021 -0.05318796 0.1230108
000120 95 94 88 bd c2 44 22 3e f1 8a 36 3d c8 f7 83 bc
       -0.06668965 0.15846542 0.0445661 -0.016109362
000130 be 0d 44 be a5 3d 06 3b 41 d7 f6 bc c3 e0 bd bd
       -0.19145867 0.002048352 -0.030131938 -0.092713855
000140 c6 b6 e2 3d 8b b1 b1 bb 99 7a d6 bd c8 9b 07 be
       0.110700175 -0.005422776 -0.104726024 -0.1324302
000150 8d 3f 91 bd 69 0b 13 be 68 a4 bc bd e2 92 e4 bd
       -0.070921995 -0.14359821 -0.092110455 -0.11160828
000160 22 79 b9 3d fa 34 96 bc 71 01 0e bc 4d b7 9a 3d
       0.090563074 -0.018335808 -0.008667336 0.07554493
000170 81 ab e3 3c 28 9d 1f 3e 85 9f 89 bd e4 de a9 bd
       0.02779174 0.15587294 -0.06719879 -0.08294466
000180 2d 07 85 3c e1 30 c9 bd 5e 60 b7 bd 46 86 2f 3e
       0.016238773 -0.09823776 -0.089539275 0.17141065
000190 2a 24 00 3c 9d 72 04 be 0f 19 b5 3d 47 40 04 be
       0.007821122 -0.12934346 0.0884267 -0.12915145
0001a0 ec 44 90 bd c1 f7 71 3b 61 da 3d ba f3 da e0 bd
       -0.07044396 0.0036921354 -0.0007242319 -0.10979261
0001b0 11 da 38 bd 45 18 10 be 25 e3 8a 3d cb c8 af bd
       -0.04512984 -0.14071758 0.06781606 -0.0858322
0001c0 d5 c8 99 bd 45 a8 9c 3d 0f 9a 4e 3d b1 0d 44 3d
       -0.07509009 0.07649282 0.05043989 0.04786462
0001d0 6d 1f 84 3c 66 71 cb bd 87 2f 10 be 5e 76 c6 bd
       0.016128266 -0.099337384 -0.1408063 -0.096905455
0001e0 c3 3f 38 3d 22 02 13 be 49 b3 b5 3d e7 f1 e4 3d
       0.044982683 -0.14356282 0.088720866 0.11178952
0001f0 6e 45 11 bc ff 91 c4 bc 25 ba 5b 3d 14 6c 05 be
       -0.008866651 -0.023995398 0.053644318 -0.1302951
000200 66 03 09 be 60 4c c3 bd b3 ae 4b bc c7 e0 ee 3d
       -0.13380203 -0.09536052 -0.012431788 0.116639666
000210 58 02 2f be 37 55 58 be 05 bf 84 3d 2c 51 65 3c
       -0.17090738 -0.21126257 0.064817466 0.013996404
000220 9e ec 08 be ad 09 1b bd 1b b4 15 be 89 b9 08 be
       -0.13371512 -0.037851024 -0.14619486 -0.13352026
000230 3d 44 ff bc dd d4 1e 3e 3d 03 b0 3d d2 50 25 3e
       -0.031160468 0.15510888 0.08594368 0.16144112
000240 a0 a0 83 3d 16 14 ac 3d f5 0c 00 bd 19 be 42 bd
       0.06427121 0.084022686 -0.031262357 -0.047544573
000250 95 a1 70 3c bd 9d 92 3d 81 f6 06 be 3c 40 94 bd
       0.014686962 0.071589924 -0.13179971 -0.07238814
000260 ce bf 8d bd ed cd a6 3c a7 de 05 be 7f f9 a3 bd
       -0.069213495 0.020361865 -0.13073216 -0.08006572
000270 95 95 f6 3d 24 e7 60 bd b9 8b fd 3d 80 07 8a bd
       0.12040249 -0.054907933 0.123801656 -0.06739712
000280 ef 4f 87 bd a2 b6 90 bd 61 4e 28 bd 4e 02 0f 3e
       -0.06607043 -0.070660844 -0.041090373 0.13965723
000290 7f 4d a7 bd 9e e1 f5 3c af 5f db 3d cf 36 31 3a
       -0.08169078 0.03001481 0.107116096 0.0006760181
0002a0 9e b3 bc bd e7 ad f1 3d 08 51 9e 3d 9e 23 41 bd
       -0.09213947 0.11800747 0.07730299 -0.047153108
0002b0 76 34 c0 3d 1a f5 ef 3d fb b1 a4 bc 4c 7a 30 be
       0.09385006 0.11716671 -0.020104399 -0.17234153
0002c0 b7 d4 bd bc e5 af ac bd 09 c7 e7 bd 8e 80 f0 3d
       -0.02317272 -0.08431987 -0.1131726 0.1174327
0002d0 db 33 b2 bd 1e 57 f0 3d 9e d3 ff bd 24 e8 5a bd
       -0.08701297 0.11735366 -0.12491535 -0.053444043
0002e0 24 ee 0b 3c 4d ef a7 bd e0 98 f5 3d 81 ef 91 bd
       0.008540664 -0.0819994 0.11992049 -0.0712576
0002f0 3b 75 4c 3d 6d b9 80 bd fd a3 cf 3d e3 be f2 3d
       0.049916487 -0.06285367 0.101387 0.11852815
000300 ac dc b3 3d bd 18 cb 3d 72 24 21 3d 88 ba 36 be
       0.08782324 0.09916828 0.039341398 -0.17844594
000310 e8 60 d3 bd f9 fa 25 be 36 0a c4 3d 07 54 50 3c
       -0.10321218 -0.1620902 0.0957226 0.012715346
000320 ed 93 2a bd 61 36 04 be c7 26 c4 bd be 4b 4c bd
       -0.04164498 -0.12911369 -0.09577709 -0.04987692
000330 5d a9 21 bb b2 ac da ba f4 a1 60 bd b7 ac 94 bd
       -0.0024667599 -0.0016683547 -0.05484195 -0.07259505
000340 de 86 e7 3c c1 ed de 3c af d6 fe bd 58 14 75 bc
       0.028262552 0.02721298 -0.124432914 -0.014958464
000350 2e b7 d8 3d 02 87 e7 3c 7f 62 2f bd 4b 09 99 3d
       0.10581814 0.028262619 -0.042818543 0.074724756
000360 e8 10 d2 bd fb 6b e5 3d 9e 1b 2d 3e 24 b7 2f be
       -0.10257131 0.11202236 0.16905066 -0.17159706
000370 6a 78 c2 bc e5 13 29 bd c7 a2 12 3d b3 e5 1e be
       -0.023739059 -0.04127874 0.035799768 -0.15517311
000380 0d 51 29 bd a7 26 b6 3d 23 4f 52 bd 46 14 52 bd
       -0.04133706 0.08894091 -0.051345002 -0.051288866
000390 95 d7 51 bd af bb 3f be fe 1f d8 bd ff e6 eb bd
       -0.051230986 -0.1872394 -0.10552977 -0.115186684
0003a0 5c 36 0a 3d 32 45 df 3d 40 3f 39 3e 42 89 95 bd
       0.033743247 0.1090187 0.18090534 -0.073015705
0003b0 fb eb be bd 99 19 2c bd 3b 7a 31 3d 71 47 88 3d
       -0.093223535 -0.0420166 0.04332946 0.06654251
0003c0 d4 f6 28 bd d7 e9 43 3d fd 29 b3 bd 83 ae 79 3d
       -0.04125102 0.04783043 -0.08748243 0.060957443
0003d0 8e 74 97 3c e7 a1 9f 3d bb 03 13 bd 7f 83 a2 bd
       0.018488195 0.07794552 -0.03589223 -0.07935237
0003e0 18 e0 2d 3d 66 35 c2 bc 6f f9 b5 3a cb 0f 24 be
       0.04245004 -0.023707103 0.0013883541 -0.1602165
0003f0 6a ac 39 bd 7d 45 c0 3d f5 e7 97 bd 0a 7f 4c bd
       -0.045330442 0.09388254 -0.07417289 -0.04992584

decode.0.weight f4 [100, 13]
000000 53 74 6b 3c 4e 56 5d be 82 da ad bd ac 25 b5 bc
       0.014370996 -0.21614954 -0.08488943 -0.02211269
000010 a2 53 5d be 8f aa 97 3d 55 fb 2f 3e d8 d9 47 be
       -0.21613935 0.07405578 0.1718572 -0.19516695
000020 49 b7 2b 3e 48 26 04 be cb 80 79 be 39 90 30 3e
       0.16769136 -0.12905228 -0.24365537 0.17242517
000030 6e e4 41 3e b8 bd 61 3e 87 2c 39 3e 46 0a 83 bd
       0.18934795 0.22045028 0.18083392 -0.06398444
000040 2a 49 a0 3d 71 98 18 be e4 7b 78 3e b3 8d 29 be
       0.07826455 -0.14901902 0.2426601 -0.1655796
000050 35 3a eb bd e5 c8 67 3e 86 63 22 be 06 28 89 3e
       -0.114857115 0.22635229 -0.15858278 0.26788348
000060 69 5e 6e 3e 4e 6b 76 be dc be 78 bd 09 70 1a 3d
       0.23278202 -0.24064371 -0.060728893 0.0377045
000070 8c 7c 54 3d 8d 0c 12 bd c6 07 de 3d 1e 0e aa 3c
       0.05187659 -0.0356565 0.108413264 0.020758685
000080 f4 27 f7 3d e4 45 bf bd e9 c2 7c 3c ee 21 e5 bd
       0.12068167 -0.093395025 0.01542733 -0.11188112
000090 3c 0b 22 3e f9 45 4c 3e f9 f4 ff 3d c8 bb 9a bd
       0.15824598 0.19948567 0.12497897 -0.07555348
0000a0 d1 9a 1e be 8f 52 10 be f5 2b 5a bb 90 79 78 3e
       -0.15488745 -0.14093994 -0.003329036 0.24265122
0000b0 c3 6e a7 3b 01 f3 21 3c 0b 7a 99 bd 4b 0a d2 3d
       0.0051096394 0.009884597 -0.07493981 0.102558695
0000c0 b8 72 69 3e 2f ef 5a be 23 4c 26 3d c3 8a 7f be
       0.22797668 -0.21380304 0.040599953 -0.24955277
0000d0 f4 cf 94 3e 85 75 70 3d 0b c9 44 bc 82 08 32 3e
       0.29064906 0.058705825 -0.012010823 0.17386058
0000e0 d0 08 74 be f5 7f fa bd 0e ff 7c 3d fa fb 0f 3e
       -0.23831487 -0.12231437 0.061766677 0.14060965
0000f0 5c 1f 53 3c 48 f5 6d bd 0d c3 91 be 56 ab e7 bd
       0.012885895 -0.058095247 -0.28469124 -0.113119766
000100 47 a5 2d 3d 98 62 9a 3d c0 ff 91 3e 56 f2 59 3d
       0.04239395 0.075383365 0.28515434 0.053209625
000110 2e e7 6d 3e 26 58 74 3e f5 9a 18 bd 6c f5 32 3d
       0.2323272 0.23861751 -0.037257154 0.043691084
000120 e3 6c d3 3c b3 49 b1 3d 2c 53 e6 3d 5e f5 c1 3d
       0.025808757 0.08656635 0.112463325 0.09470628
000130 ec db 5a 3d ce 4f 5e be 20 a0 34 bd bd 15 74 be
       0.05343239 -0.2171013 -0.04409802 -0.23836417
000140 98 26 47 be 31 80 4c 3e cb e0 53 be 02 26 90 be
       -0.19448316 0.19970776 -0.2069122 -0.28153998
000150 fe 08 d5 bd 4e b7 7e 3e ec 88 23 3e 36 91 83 3e
       -0.10402106 0.24874613 0.159702 0.25696725
000160 df 9e 15 be 6e 5d 1a 3e 1b bc b2 3d 88 9d 49 3e
       -0.14611386 0.15074703 0.087272845 0.19689
000170 b8 c9 43 bd b1 1f 16 3e e8 e8 b4 be 55 b9 1b bd
       -0.047799796 0.14660527 -0.35333943 -0.038018543
000180 70 3b ab 3e c9 86 8d bd 7d b5 05 be fa b0 b0 3d
       0.33443785 -0.06910474 -0.13057514 0.086275056
000190 fe bc 05 3e c2 c0 b3 bd 7f 20 f9 3d af dd a3 be
       0.13060376 -0.08777 0.12164401 -0.3200507
0001a0 c6 c6 33 bd 81 e3 90 3e b0 60 16 3e f2 00 63 be
       -0.043890737 0.28298572 0.14685321 -0.2216833
0001b0 8d a8 45 bd ed 62 4f be 00 16 bd bd 58 75 d5 3d
       -0.048256446 -0.20252581 -0.09232712 0.10422772
0001c0 fc d1 98 3e 5e 59 2c be 9c ce a8 3e dc 30 d0 bd
       0.29847705 -0.16830966 0.3297013 -0.10165569
0001d0 40 c2 c3 3c 51 40 c8 3d 4f 63 dc 3c 09 e5 88 be
       0.023896337 0.097778924 0.026902823 -0.2673724
0001e0 27 12 06 3e d7 5e 4c 3e 23 b8 3d 3e cc 5e ae bc
       0.13092862 0.19958054 0.18527274 -0.021285437
0001f0 a6 d2 55 be 5a ae c5 3d b3 05 29 be 65 cc 6b 3e
       -0.20881137 0.096523955 -0.1650608 0.23027189
000200 5a 47 7c be 7e 43 a9 be 96 6b 20 be 5a 96 3c be
       -0.24636593 -0.33059305 -0.15666041 -0.1841673
000210 4e 2d 3c 3e d3 16 42 3e 27 8b ec bd 18 d8 21 bd
       0.18376657 0.18954019 -0.11549979 -0.039512724
000220 ea 53 f2 bc 62 60 c9 3d 26 85 4a be 60 f7 e0 3d
       -0.029581029 0.09832837 -0.19777355 0.10984683
000230 0e 0e 9a bc 1c f4 df 3d 69 a7 fb 3a f4 c6 45 bd
       -0.01880553 0.10935232 0.0019199672 -0.04828544
000240 08 cf e8 bd 06 35 54 be 00 ae bc 3c 46 fa 29 3d
       -0.11367613 -0.20723352 0.023032188 0.041498445
000250 06 e8 89 3d 09 91 9f bd 03 59 21 3d e5 fe a7 bd
       0.06733708 -0.07791335 0.03939153 -0.08202914
000260 c1 ca 01 3e 1e 31 4d be 94 92 2a be 35 6d 0c 3d
       0.12675 -0.20038268 -0.16657478 0.034283835
000270 5d 29 2b 3e 4c aa fe bb bd 8a 18 3d f4 36 f0 3d
       0.16714998 -0.007771766 0.037241686 0.117292315
000280 92 9b de bd 62 79 a1 3d b0 d3 dd 3d a2 ed 90 3d
       -0.108695164 0.0788448 0.10831392 0.07076575
000290 5d 2c 3a be 6e 33 2c 3e f1 71 5c be 26 ba 07 3e
       -0.18180986 0.16816494 -0.2152784 0.13254604
0002a0 b9 9e 1a 3d 35 7a 18 bd 1c 2a 43 be 9e dd 6a 3e
       0.037749026 -0.03722592 -0.19059032 0.22936103
0002b0 95 a2 53 3c de 00 29 be 98 2f 3a be db 69 86 be
       0.012917181 -0.16504237 -0.18182218 -0.26252636
0002c0 d0 ed 5c bd 60 28 55 3e de 94 cf bd d3 76 40 3e
       -0.053937733 0.20816183 -0.10135816 0.18795328
0002d0 83 57 86 bd cb 27 38 3e 25 2f dc 3d 48 6d 44 3e
       -0.0655966 0.1798393 0.107511796 0.19182312
0002e0 25 ae b3 bd 5c 4d b6 be cf b4 d8 3d 56 3c 2b 3e
       -0.0877345 -0.35605896 0.105813615 0.16722235
0002f0 2f 7f 39 3d 03 ca b2 be 48 01 e0 bc 2b 1f 19 bd
       0.045287307 -0.34919748 -0.027344361 -0.03738324
000300 61 17 ba 3d 87 5b a4 3d 76 8b 03 3e 10 66 97 3e
       0.090864904 0.0802527 0.12846169 0.29570055
000310 fd b4 27 be e6 96 17 3e 07 02 c5 3d 27 36 56 ba
       -0.16377635 0.14803657 0.09619527 -0.00081715215
000320 7f 5a 5e 3e 24 08 2b 3e c6 39 71 3d 4e 06 4f be
       0.21714209 0.16702324 0.058892988 -0.20217249
000330 65 bb 4a bd 9e c6 28 3e 36 ae 46 be 77 01 20 3e
       -0.04949512 0.16482016 -0.19402394 0.15625559
000340 8f 36 f5 3d 51 f4 a1 be a2 2a 66 3c 72 72 2f be
       0.11973297 -0.3163171 0.01404825 -0.17133501
000350 cc eb 9d 3c 49 11 44 3e cc 00 d8 bd 57 f2 2c 3e
       0.019277476 0.19147219 -0.10547027 0.1688932
000360 a6 27 24 be d1 f0 b6 3d be 21 1a bd 50 f2 8e 3e
       -0.1603075 0.08932651 -0.037629835 0.27919245
000370 7e 6a 97 3c f2 3a 1f be de c7 6e bc 14 30 02 bd
       0.018483397 -0.1554983 -0.014574019 -0.031784132
000380 a9 ab 95 bd f7 73 d5 bd 40 9d 79 3e b8 0e 02 be
       -0.07308132 -0.10422509 0.24376392 -0.12700927
000390 d6 99 b1 bd ba 33 4b 3e d4 be 02 be 9e 20 71 3e
       -0.0867192 0.19843951 -0.12768108 0.23547599
0003a0 11 41 fb 3d 22 17 60 3d 0a b4 87 3d 74 fa 79 be
       0.1226827 0.05470956 0.066261366 -0.24411947
0003b0 58 97 ec bd d1 1d 1f 3d 1f 5a 1e be a0 7f bf bd
       -0.11552304 0.038846795 -0.15464066 -0.093505144
0003c0 68 15 26 be 63 c2 f3 3a cc b5 8c 3e 62 6d ef 3b
       -0.16219103 0.001859736 0.2748245 0.0073067406
0003d0 76 86 28 be ad b7 1e 3e dd dd 6c 3e 92 60 4d be
       -0.16457543 0.15499754 0.23131509 -0.2005637
0003e0 99 9d bb 3c 0b 44 1b be 44 4b 72 3e ed 2f 1c bd
       0.022902297 -0.15162675 0.23661524 -0.038131643
0003f0 ae af 6a be 7a c8 e9 bd 5e d0 88 be f2 91 38 be
       -0.22918579 -0.11415191 -0.26721472 -0.18024424

decode.2.weight f4 [100, 100]
000000 a1 2f 59 bd f6 69 61 bd b4 79 f7 bb 36 ce a8 3d
       -0.053023938 -0.055032693 -0.00755235 0.082424566
000010 14 8f d8 bd 29 4f c7 bd b3 aa 7e bc cd 51 92 3c
       -0.10574165 -0.097318955 -0.015543628 0.017861271
000020 d3 b1 d9 39 1d 07 82 3d 80 33 7c bc d8 20 bc 3c
       0.00041521955 0.06349013 -0.015393138 0.02296488
000030 b4 0b 55 bd 19 36 fc 3d 16 3b 08 3e d9 28 02 3d
       -0.052013114 0.12315006 0.1330379 0.031777237
000040 39 e7 c0 3d 41 7e 3b bc bf 3b b6 bb 15 fc b5 3b
       0.09419102 -0.0114436755 -0.0055613215 0.005553732
000050 74 45 30 3d d9 09 1e bd 1b 4d 15 3d 6e dc b2 bd
       0.043034986 -0.03858361 0.036450487 -0.0873345
000060 59 da b0 bd ac c9 4f bd 66 97 c2 3d 99 9a c9 bc
       -0.086353965 -0.05072944 0.09501533 -0.02460985
000070 c5 8f c0 bd 54 4a 51 3d b2 3d 82 bd 58 ec 88 3d
       -0.09402422 0.051096275 -0.06359424 0.06685704
000080 09 d3 ef bc 81 81 1c 3d 68 49 a2 bd 58 43 80 bd
       -0.029275434 0.038209442 -0.079241574 -0.06262845
000090 9a 30 60 3c 7a a1 01 3d 81 50 cb 3c fb c4 67 3c
       0.0136834625 0.031648137 0.02481866 0.014146085
0000a0 3a fa f6 bc 95 b6 09 be 08 c0 a7 3b 4d dc ab 3d
       -0.030148614 -0.13448556 0.0051193275 0.083916284
0000b0 2a b3 03 3d 44 35 02 3e 27 56 8c 3d 5a ba 8e 3d
       0.032153286 0.12715632 0.0685237 0.069691375
0000c0 64 d2 15 bc 47 74 88 bd 65 5e d9 bc 85 08 21 bd
       -0.009144399 -0.06662803 -0.026534269 -0.039314765
0000d0 56 db 3a 3d b6 96 80 3d b5 ac 73 3d 6c 66 b7 bd
       0.04561933 0.06278746 0.059490878 -0.08955082
0000e0 21 d2 5e 3d e2 b6 09 bd 7c 0d 18 3e e9 ec 5d 3d
       0.054399613 -0.033621676 0.14848894 0.054181013
0000f0 92 a6 8e bd a9 4a 04 3d 4a fb 53 bd 55 c9 f8 3d
       -0.069653645 0.032297764 -0.05175332 0.12147776
000100 24 c6 69 bd d2 87 e0 bc 25 29 45 bd 7f 03 4e bd
       -0.057073727 -0.027408514 -0.04813494 -0.050296303
000110 a4 9e f7 3d 19 11 1c bc 7f 4e 2b bd d2 25 63 3c
       0.12090805 -0.009525561 -0.041822907 0.0138639975
000120 1d 69 3e 3d 56 e3 a4 bd 91 3d 87 3c 5d 82 63 bd
       0.046486963 -0.080511734 0.01650885 -0.055544246
000130 25 72 81 3c 4c aa da bc 0e 27 8b 3d 23 83 2b 3d
       0.015801499 -0.026692532 0.067945585 0.04187311
000140 d8 f6 8e bd 31 e7 76 bb 10 4d d9 bc f5 61 31 bd
       -0.069806755 -0.0037674422 -0.026526004 -0.04330631
000150 1a f8 0d 3d 58 c2 ce 3d 0f fe 00 3d cc c4 6e bd
       0.034660436 0.10095662 0.03149229 -0.05829315
000160 5e e2 5f bd 3d 42 e6 bd 66 e0 80 3d f2 68 26 bd
       -0.05465924 -0.11243103 0.062928006 -0.040627427
000170 bf f3 15 3d 68 50 88 3c 13 1b 9b 3d e7 0c 8b bd
       0.036609408 0.016639903 0.07573523 -0.0678957
000180 c6 56 a4 3c ad e8 a0 3d 2f 69 bd 3d 4f 0e 48 bc
       0.020060908 0.078568794 0.09248578 -0.012210443
000190 d1 26 d0 bc 43 6f d6 3d d8 0e 27 bd 4b 2f 6b 3d
       -0.025409134 0.1047044 -0.04078564 0.05741815
0001a0 cd 0a 93 bd 73 4d 93 3d f9 fb b6 bc c3 44 ed ba
       -0.071797945 0.07192507 -0.022336947 -0.0018102158
0001b0 4f 08 a6 bd 79 1e 66 3d 78 e3 c4 bc 2b 7d 20 3d
       -0.081070535 0.056181405 -0.024034247 0.03918187
0001c0 0d 32 08 bd 4f 30 de 3d 82 60 f7 3b 94 30 b3 bc
       -0.033250857 0.10849058 0.0075493464 -0.02187375
0001d0 0b f8 47 bd 17 91 a5 3d d6 e5 aa 3d 3c 74 22 3c
       -0.048820537 0.08084314 0.08344619 0.009915408
0001e0 04 2c a0 bd eb c9 7e 3d 67 14 07 bd 9f 67 4b bd
       -0.07820895 0.062204283 -0.03297844 -0.049659368
0001f0 ac 6d ef bd 3f 24 10 bd 04 72 53 3d 60 55 a7 bd
       -0.1169084 -0.035190817 0.051622406 -0.08170581
000200 05 5e 02 3d 23 42 a2 bd 30 47 82 3d 5a d6 d2 3d
       0.031827945 -0.07922771 0.06361234 0.102947906
000210 ce aa 74 bc e9 96 6f 3d c3 8d 13 3d 24 4e d0 bd
       -0.014933301 0.05849353 0.036023866 -0.10171154
000220 0d 45 40 3d da 36 90 bc f1 07 33 bc 59 aa 34 3c
       0.046940852 -0.01760428 -0.010927186 0.011026942
000230 85 91 0b bd e5 ec ee 3c da 14 3b bd 7d ac 45 bd
       -0.034074325 0.029165694 -0.045674182 -0.0482602
000240 32 0c 0f bd 2e bb 32 bd 61 bb 4c bd 66 d3 40 3d
       -0.03492374 -0.04363554 -0.049983386 0.047076605
000250 1d 34 9a 3d 39 a5 a6 bd 9e fc 04 3e ef fb 94 bd
       0.07529471 -0.081369825 0.12986991 -0.07274615
000260 a4 d4 04 3c 84 82 41 bc 17 9c 81 3c e3 f5 60 3d
       0.008107338 -0.0118109025 0.0158215 0.054921996
000270 42 db eb bb 4f 24 26 bc 4f 8c 0c 3e 54 4e bf 3d
       -0.0071977684 -0.010140493 0.13725398 0.09341112
000280 55 e9 30 bd c1 9b 63 bd 9f 1f 97 bd cb 59 03 3e
       -0.043191273 -0.05556846 -0.07379078 0.12827222
000290 15 cd e2 3c e5 aa dc bb 05 a4 67 3d e2 29 9d 3d
       0.027685681 -0.0067342394 0.056552906 0.07674004
0002a0 47 cb ec 3d c2 b5 22 3d 1f ef bb bd 77 8d 36 bd
       0.115622096 0.03972412 -0.09176468 -0.044568505
0002b0 e8 e8 45 3c fb 35 96 3d 07 0d af bd 5b 58 84 3d
       0.012079455 0.07334515 -0.08547407 0.06462165
0002c0 99 f7 5b bd 23 04 20 3d 35 74 aa 3d 3a 2e 8d 3d
       -0.053702924 0.039066445 0.08322946 0.06893583
0002d0 67 fb e5 bc 83 48 d0 3d 6e 12 2f 3d d7 ec 60 3c
       -0.02807398 0.101700805 0.042742185 0.013728342
0002e0 e0 f4 4f 3c 8a ce 81 bd 2b e7 e1 bc 9b e8 3d bc
       0.01269266 -0.06338222 -0.02757605 -0.011591102
0002f0 3e e7 b9 bd 74 22 bd bd 8b 64 6b bb 88 a0 ba bc
       -0.09077309 -0.09235087 -0.0035918083 -0.022781625
000300 f3 31 8e bd 09 57 aa bc ec b3 9c bd 69 f9 be bd
       -0.06943121 -0.020793455 -0.07651505 -0.09324915
000310 99 c2 6b bd eb c5 e7 3c 08 76 9e 3d 9e 7d 83 3c
       -0.05755863 0.028292617 0.077373564 0.01605111
000320 a4 47 a2 3d 08 af f6 bc 40 49 56 bd c4 05 8b bd
       0.079238206 -0.030112758 -0.05231595 -0.06788209
000330 75 cd 1e bd 56 87 34 bd 61 d8 8a 39 ca 7a e7 bc
       -0.038770158 -0.04407438 0.00026482626 -0.028256793
000340 48 d9 61 bd e4 34 40 bc 99 9d c4 3d 45 cf cd bd
       -0.055138856 -0.01173136 0.09600372 -0.10049299
000350 57 63 a4 bd 1b bb a2 bb 36 48 94 bc 79 bb 47 bd
       -0.0802676 -0.0049661524 -0.01810084 -0.048762772
000360 5d 7b 24 3d ff 60 b9 3c ad f5 90 bd 31 34 0c bd
       0.04015671 0.02262926 -0.07078109 -0.03422946
000370 d3 ec 28 bd dd 8d a0 3d b7 46 3a bd 0e 0e 0b bd
       -0.04124148 0.07839558 -0.045477595 -0.03394895
000380 7e 08 d3 bd f5 e8 a0 3c f9 f2 2e bd 26 91 7b bd
       -0.10304354 0.019642333 -0.042712186 -0.06141772
000390 d2 01 a5 bd 23 c9 b9 3c 12 8f 94 3d d7 84 66 bd
       -0.08056988 0.022678917 0.07253851 -0.05627903
0003a0 41 54 2a bd 80 51 58 3d 5e 4c c5 3c 8a 40 6e bd
       -0.041584257 0.0528121 0.024084266 -0.058167018
0003b0 30 8b ec 3c 9e ff 25 3d 77 c2 9e 3d cb 8d 4b 3b
       0.028874964 0.04052698 0.07751935 0.0031059857
0003c0 e0 9d 49 bd 11 f7 20 bd 63 14 50 bd 8f 27 27 3d
       -0.049222827 -0.03929812 -0.050800692 0.04080921
0003d0 f5 54 97 bd 23 38 19 bd 44 17 af bd ae d1 ac bd
       -0.07389251 -0.03740705 -0.085493594 -0.08438431
0003e0 08 c9 77 bd 87 40 07 3d 78 46 9a bb c2 f4 a6 bd
       -0.060494453 0.033020522 -0.0047081076 -0.081521526
0003f0 4f ff 71 3c 87 65 6a 3d c9 86 9c bd 57 a7 9b bb
       0.014770343 0.05722573 -0.07642896 -0.004750173

decode.4.weight f4 [1, 100]
000000 5e a9 5d 3d ce cc 19 3d 21 75 6c 3d 19 26 ea bd
       0.0541166 0.037548833 0.05772889 -0.11433048
000010 b4 c2 b9 bd d4 19 52 be 58 eb b2 bd 7a aa bb 3d
       -0.0907034 -0.20517665 -0.087362945 0.09163375
000020 73 e2 7f 3b df 6f b9 3d f1 9b bf 3d 08 6b 5b bd
       0.0039044886 0.09054541 0.09355915 -0.05356887
000030 97 59 36 bd 71 18 70 3d f5 f9 49 3d b6 02 8e 3d
       -0.044519033 0.05861706 0.049310643 0.06934111
000040 8c c5 cc bd 2c 90 e6 bd 49 5a a8 3d 32 d8 7c 3d
       -0.099986166 -0.11257967 0.082203455 0.061729617
000050 bc b2 0a 3e d5 f3 a0 bd 39 9f e3 3c 83 70 81 bd
       0.13544744 -0.07859007 0.027785884 -0.06320288
000060 28 39 a2 3d 20 31 c4 bd d9 76 03 bc 84 be 22 bd
       0.07921058 -0.09579682 -0.008023941 -0.03973247
000070 6b 3e 0a bd c2 f6 55 3d db c7 b0 bd e0 5a 55 bd
       -0.033750933 0.05223728 -0.086318694 -0.05208862
000080 d9 70 98 bd b8 d9 e3 bd 57 2d 1f 3d c1 9e e7 bd
       -0.07443399 -0.11125511 0.0388616 -0.11309577
000090 31 76 b8 bd aa d7 87 3d f2 44 d1 bc e5 3d 11 bd
       -0.09006918 0.066329315 -0.025545571 -0.035459418
0000a0 ec 1f eb bd 9d b5 ea bd 77 f6 80 3d a1 64 07 bc
       -0.11480698 -0.11460421 0.062970094 -0.008263738
0000b0 d2 c7 b4 3d 11 42 91 bd e6 09 af 3d bf 18 b5 bd
       0.08827175 -0.07092679 0.0854681 -0.088426106
0000c0 89 59 50 bd f8 17 c8 3c 34 30 7c 3d 50 44 87 bd
       -0.050866637 0.024425492 0.061569408 -0.066048265
0000d0 8d 2e 76 bd df 80 38 3d 9c 72 27 bd 85 0e dc 3d
       -0.060102988 0.045044776 -0.040880784 0.10744957
0000e0 f4 6d 91 3d 3f 2f f5 3d 8f 6c 98 bd 7e e8 85 bd
       0.0710105 0.11971902 -0.07442581 -0.06538485
0000f0 9d 95 e6 bd 7b 16 a8 bd 37 b2 51 3c c0 8d fc bd
       -0.11259005 -0.08207413 0.012798837 -0.12331724
000100 8f b6 50 bd 24 99 e0 3d 11 b6 e5 3c ca 20 6e 3d
       -0.05095535 0.10966709 0.028040918 0.05813674
000110 7e 38 17 bd 8b e7 06 3d 48 f2 64 bd 44 a7 b8 3d
       -0.03691911 0.03293566 -0.05589512 0.090162784
000120 53 51 a9 3d b0 91 62 bd fd 27 b8 3d e9 6e 88 bd
       0.082674645 -0.05531472 0.08992002 -0.066617794
000130 e7 e3 da bd 39 f3 4c 3d a1 90 43 bd 35 5e ca 3c
       -0.10688 0.050036643 -0.04774535 0.024703125
000140 ef 17 a3 bd d0 0c f3 3d a1 cf 0b 3e a7 c5 a6 3d
       -0.07963549 0.11867678 0.13653423 0.08143168
000150 67 34 9c bd e1 94 75 bd 49 c7 98 bd f6 09 cd bc
       -0.076271825 -0.059956435 -0.074598856 -0.025029164
000160 71 bc be bc 77 ee ae 3d 5a db d5 3d 83 eb 01 bd
       -0.023283215 0.08541577 0.104422286 -0.031718742
000170 30 c1 07 3e 9e 09 70 3d 2b f6 a2 bd 40 2f a6 3d
       0.13257289 0.05860292 -0.07957109 0.08114481
000180 15 07 66 bd 71 be f9 bd 88 7e 73 3d 2e 09 1c 3d
       -0.056159098 -0.12194527 0.05944684 0.038094692
