Quantum/models/5_latent.pt (torch, 97127 bytes, 6 tensors)

encode.0.weight f4 [100, 10]
00000000: 60e1 a53e 6757 4dbe b87b e13d 3e95 f0bc
00000010: 6db6 803e 626d 07bf 6dbd 94b8 ab00 25bf
00000020: 0e71 9ebe 623f 7cbd 1577 643c a413 8cbe
00000030: 6198 68bd 26a2 24be a18e ea3d cd9a 903e
00000040: 6012 4a3e 4fae a73d fadb 383b e9d8 4ebe
00000050: 6bb1 3a3d bd87 0e3d 0292 2c3e ef0f d2bd
00000060: 065c 293e bf5d b63d 372c 88be 2e01 0abe
00000070: b14d 69bc 60fa 063c 997c 1ebf bb3c df3e
00000080: 2bb4 353b 739c d4be f218 42be cbf6 5e3d
00000090: 7d68 1bbf 0a99 863e e912 c6be 2315 b3be
000000a0: ba9a 23be f64c 0e3e 1dde 843b 2905 203d
000000b0: ad85 b4be e1f3 be3e b848 8abe 3732 0ebe
000000c0: 1eee acbe 0958 8f3a 8c4e cbbd 4665 b13c
000000d0: c89e 36be 4288 78be 1234 483e 7693 3f3e
000000e0: 8b44 983e 9fcb b5be f27e ab3d 521b 6e3d
000000f0: 45fd 62be 3bba b13b c26c 26be 093b 663e
00000100: e362 3e3d 0ec5 0fbd b763 8fbe 49a7 2e3e
00000110: 9e1a 343e 73df 033e 3e65 babe abe9 bebe
00000120: 6e87 ab3e c507 91bd b598 e4be b7b5 9c3e
00000130: 087f c7bc b746 0cbe bccf e0be 26fe c33d
00000140: 93f4 45be 6c88 b23e 42aa b7bd 0211 52be
00000150: 782e 58bd e7a5 a43c 9798 55b9 91f9 51be
00000160: 72d0 cf3d 3b69 77be 48f8 0abe 0964 313e
00000170: 8ce7 873d 097e 8bbe 20b7 fd3d 9dce bdbe
00000180: af50 353d f0b9 173d 72c1 b83e 3dc4 923e
00000190: 15e8 393c 5528 1c3c 8869 883d 8835 56bb
000001a0: 47a6 fc3d f063 b2bd 98c7 6bbd 7db3 333d
000001b0: 2064 c3bd 9796 16bc 7c80 89bd 0ace 8f39
000001c0: 9e27 423e d3e2 cb3c c592 83be a7c5 4bbe
000001d0: e58e 9b3e 63c5 cbbe e545 b53e d997 9c3e
000001e0: a3d6 13be f572 7abd ba94 d53d f2d1 0cbd
000001f0: 6d5f 36bd 1a58 43bd 5903 4b3e cb58 b93d
00000200: 8473 e43b 7bce 97bd 7d20 38bf 77f2 983e
00000210: 65c9 c4be 0566 fabe 288a 3fbe d973 173e
00000220: 4c00 02bf 023a 823e 616b f7bd 21a0 1bbf
00000230: a076 31be 2bea df3e 3045 703e ad36 94bd
00000240: fa45 c8bd 7cd7 7ebe cedd ebbc c527 31be
00000250: 1f9e 56be e84d ac3e 61fb 953e 6c50 393e
00000260: 730d 613d 05ff ffbd 4b0e 24be bcab 17be
00000270: d09a 53be 507f f63c 0ecf ebbc f8e0 d03d
00000280: 2fb6 24be 9163 f8bc 318f e23c b781 ba3d
00000290: c9d5 28be 7556 5ebe 9e4b 443e f550 2c3e
000002a0: 003e ac3d 072e 1f3c ae42 173d 828e e6bd
000002b0: 6e57 c13d 2321 47be a15d 71be 533f 623e
000002c0: f7cf 563e e09d 2c3d 89e1 333e be10 58be
000002d0: a319 84bd df2e bebc 19a1 883e e4eb 863e
000002e0: 9007 3a3e 2868 22bd 69de 91be 708a 04be
000002f0: 53d4 ef3d 3e31 95be 50b0 b5be fb30 a4bc
00000300: 82cc 413d 5452 843e 7290 c7bc 9bb0 18bd
00000310: 591c 2cbe aa61 b03e 9567 1b3e 241e 03be
00000320: 65ae 95be 3b5b b0be b951 703e 2334 953e
00000330: b74b 58bd d668 823e 857e d9be 29d7 77be
00000340: 0782 b1be f550 4fbd 4b04 a03c 853a b5be
00000350: 9d80 673e ae84 293e d0ea a23e e149 09be
00000360: 03df 15be 10ef 95be 392a 933d dbe0 813e
00000370: c2d7 a93e 6c05 a8be d597 9f3e 5d4f f6bb
00000380: fdf4 80be 2f76 2ebe 07cf 7f3e 79b9 69bd
00000390: dc04 233d 242d cb3d 14ae 8b3a c2fc b73e
000003a0: f4a7 d0bd 2098 53be 8a50 c0bc c8f2 a1bd
000003b0: 872b 16be c2b0 9c3d 302f 3cbd e204 38bb
000003c0: 888c 643e 975f af3c f223 5f3e 0efe 98bd
000003d0: 5de7 e2bd bb7f f3bc 6d83 d53d 22f6 b63d
000003e0: d8bc b2bd a7dd b8be af22 9e3c 7e02 143e
000003f0: 7e21 353e a782 1fbe eb17 4a3e 6f58 053e
0.3239851 -0.20052873 0.110099256 -0.02936804 0.2513918 -0.5290128 -7.092473e-05 -0.64454144
-0.3094563 -0.061583884 0.013944407 -0.27358735 -0.056785945 -0.1607748 0.114529856 0.28243104
0.19733572 0.081875436 0.0028207288 -0.20199932 0.045579355 0.03479742 0.16852573 -0.10256945
0.1653901 0.089045994 -0.26596233 -0.13477013 -0.0142397145 0.008238405 -0.6190887 0.4360102
0.0027725797 -0.4152561 -0.18954828 0.05443458 -0.6070631 0.26288635 -0.38686302 -0.34977064
-0.15976992 0.13896546 0.0040547983 0.03906742 -0.35258237 0.3729544 -0.27008605 -0.13886343
-0.3377542 0.0010936271 -0.09927091 0.021654736 -0.17834008 -0.24270728 0.19551113 0.18708596
0.29739794 -0.35506913 0.08373822 0.058131523 -0.22166927 0.0054238117 -0.16252425 0.22483458
0.046481024 -0.035100035 -0.28005764 0.17056002 0.17588279 0.12878208 -0.36405367 -0.3728765
0.33501762 -0.0708156 -0.44647756 0.30607387 -0.024352565 -0.1369885 -0.4390849 0.09569959
-0.19331579 0.34869707 -0.08968021 -0.205143 -0.05277869 0.02009864 -0.00020370107 -0.20505358
0.1014718 -0.24161236 -0.13571274 0.17323317 0.06635961 -0.27244595 0.12388444 -0.37071696
0.0442664 0.03704256 0.36085087 0.28665343 0.011346837 0.0095311 0.066607535 -0.0032685716
0.123364024 -0.08710468 -0.057563394 0.043872345 -0.09540582 -0.009191177 -0.067139596 0.00027428597
0.18960425 0.024888432 -0.25697914 -0.19899617 0.30382457 -0.39799032 0.35404888 0.305846
-0.14437346 -0.061144788 0.10428758 -0.034379907 -0.0445246 -0.047691442 0.19825496 0.09050139
0.0069717783 -0.0741243 -0.71924573 0.29872486 -0.38434902 -0.4890596 -0.18705046 0.14790286
-0.50781703 0.2543488 -0.12081028 -0.6079121 -0.17330408 0.43733343 0.23463893 -0.07236991
-0.09778972 -0.24886888 -0.028792288 -0.17300327 -0.20958756 0.33653188 0.2929335 0.18097085
0.054944467 -0.12499813 -0.16021077 -0.14811605 -0.20664525 0.030090004 -0.028785255 0.101991594
-0.16085123 -0.030320914 0.02765617 0.091067724 -0.16487803 -0.21712668 0.1916947 0.16827758
0.08410263 0.009715564 0.036928825 -0.1125765 0.09440504 -0.19446234 -0.23570873 0.22094469
0.2097777 0.04214275 0.17566504 -0.21100137 -0.06450202 -0.02321571 0.26685408 0.26351845
0.18166947 -0.039650112 -0.28489998 -0.12943435 0.117104195 -0.2913913 -0.35486078 -0.020042887
0.047314174 0.2584406 -0.02436087 -0.0372778 -0.16807689 0.34449512 0.15176232 -0.12804466
-0.29234615 -0.34444603 0.23468675 0.2914134 -0.052806582 0.25470608 -0.4247934 -0.24203171
-0.34669515 -0.050614316 0.019533297 -0.3539621 0.22607656 0.1655452 0.31819773 -0.13407089
-0.14635853 -0.29283953 0.07185788 0.25366864 0.33172423 -0.32816637 0.31170526 -0.007516785
-0.2518691 -0.17037271 0.24981318 -0.057061646 0.039799556 0.09920719 0.0010656738 0.35935026
-0.101882845 -0.206635 -0.023475904 -0.07907635 -0.14665042 0.076509014 -0.04594344 -0.0028079082
0.22319233 0.021407885 0.21791056 -0.07470332 -0.11079285 -0.029723993 0.10425458 0.08933665
-0.08727425 -0.36106607 0.019303648 0.14454076 0.17688558 -0.15577184 0.19735686 0.13022016

encode.2.weight f4 [100, 100]
00000000: 0247 403d 38c0 bcbb 13d7 cf3c c8b2 893d
00000010: e60d 26bd df01 0cbd 8143 62bd ab2c 19bb
00000020: 4832 3c3d 8b72 31bc c6c8 a33d 7890 6abd
00000030: 5201 1c3d 73e7 82bd 5218 26bc 3514 603d
00000040: ddb2 683d faa9 3d3b 7960 4c3d af81 5dbd
00000050: 2019 dd3d 6e32 91bd f684 bc3d 46ce eebd
00000060: 0440 40bb 1a5d 273c 3a84 e8bb d833 03be
00000070: 85a5 073d 65ad fa3c 3d56 07be 355b bfbd
00000080: af74 70bc 093e 9f3b 6eea b33a d182 63bc
00000090: 5cb2 b23d 9e0a 7a3d d846 04be 66a1 a7bc
000000a0: 18f3 f4bb bf17 b43d 99d3 933c ed5c a83c
000000b0: 136e e3bb 78bb 853d 8584 c13c 54a2 82bd
000000c0: bf7d 9e3c 8c93 143d 2a22 653d 221e 87bd
000000d0: 1dd3 823b e059 473d 3937 e33d a152 72bc
000000e0: 901a a5bd 66bd a7bd 2024 cf3c e0dc 91bd
000000f0: 1525 57bd dd13 a8bd a38b 803d c171 b03c
00000100: acf0 03bd ca99 c83c 45c2 773c cd8b 123d
00000110: 7bc4 463d c30a 2c3c 93ba bfbd 2350 b1bc
00000120: 1f00 973d 64cf 40bc 6582 1dbd 230b 983d
00000130: 989f 763c 87b8 87bc 6696 96bd 8bdf 31bd
00000140: 8be0 ba3c 8d38 e33c 3ce7 963d f6a7 b63d
00000150: db00 553c 959e c23c 3703 d2bc 4194 62bd
00000160: f8b4 b5bd 2128 bebd ccbf c5bb 55b2 023d
00000170: f84d f2bb bc7c 7d3d 7955 533d 2aef 263c
00000180: 8e68 dfbc dce5 81bc 4a88 25bc 02da 77bd
00000190: 0b6c 98bd 2a02 9c3d 1e5b 043d e72e 42bc
000001a0: 1303 753d 0399 393d 7cbf f1bc 3078 803d
000001b0: 8b08 e6bd b2b9 87bd bb6d 5c3d 1f99 a73d
000001c0: f536 2bbc d458 963d e0aa 5d3b c87d 173d
000001d0: 9408 413b 28db d13c b99a 0b3c 46d1 74bb
000001e0: 1a91 62bd f36c cc3d 980b 12bc b240 10be
000001f0: 59e6 82bc a688 7b3a 9437 c3bc 94df 82bd
00000200: a87a 92bd d6fd 053d b88d f9bd e494 263d
00000210: cb3e 8abc 7499 1bbd 3866 793c c88b 54bd
00000220: 864c 44bb 670a ac3d 0ada 553c a530 acbc
00000230: de08 ef3d 72e9 0bbd b0c5 c03b 610e 9dbd
00000240: a299 06bd ff32 023d 6e0d 173d 2d81 65bd
00000250: 25bb d4bc f398 a2bd d2de f0bc c389 13bc
00000260: bc30 75bb a37c 243d 33d1 e23d f972 85bb
00000270: b42a 23bd 224d e0bd bcf5 7cbc ce6d ff3b
00000280: 5062 2b3d 8d76 32bc e937 8a3c db4c b4b9
00000290: 0b7b 5bbd 9afc cfbd 00c1 5b3c 5460 173b
000002a0: 20f8 063d 2499 0bba 49a9 5fbd a2a6 c03c
000002b0: 3558 033d cbdc 6abc 46b0 2bbc 2381 bc3c
000002c0: 0039 963b 2921 1b3d 8a4f 09bd 3b33 3ebd
000002d0: c59c c13c c703 b93d 42cb 1f38 af9c dbb9
000002e0: b295 c73c 05b6 693d 1a2e 013b 5d63 26bd
000002f0: 161c a63d 2466 6bbd e16b d73d 8dac 37bd
00000300: f3ae b13b 98ec a0bc 124c d93c fd69 00be
00000310: 867d d73b 76c4 c23c 8e4a ab3b d60b bdbd
00000320: 186e c9bb 6f07 e63c 0dd1 023d 6015 a03d
00000330: daa4 e9bc 245e 9d3d 89e6 fb3c 9a44 3ebd
00000340: 9d5b f23b 2bfc 943d e6c9 e93c 51f2 933c
00000350: fc60 483d 2f5e ee3b b850 9cbb 007a bebc
00000360: 1996 1dbb f6ee a2bd 87c6 f6bc 4994 fabc
00000370: b143 3e3d 76cb 893d de48 6e3d a0c1 4cbd
00000380: 1ff0 14bd 60f5 583c 7b7c adbd d916 8fbd
00000390: 985f 973c 1189 81bc 3b36 a8bd 130e 9abd
000003a0: 8920 9f3a 4be6 cc3b 75a3 483d 705c 3f3d
000003b0: 6dd8 8a3d 1851 e6bb f5d0 ffbb 7921 843d
000003c0: 6374 ce3c 3449 36be 309a 1c3d d766 ccbc
000003d0: a66f 1fba 83ac 973d 2eae e6bc f95c 523d
000003e0: b5ac 9dbc 9f00 2dbd 99eb 86bd 374f 8a39
000003f0: c159 93bc e315 dbbd 6f82 7c3d cb0d c03b
0.04694272 -0.005760219 0.02537111 0.06723553 -0.0405406 -0.034181472 -0.055240158 -0.0023372571
0.04594639 -0.010830532 0.07997279 -0.057266682 0.038087197 -0.06391802 -0.010137634 0.05470677
0.056811202 0.0028940425 0.04989669 -0.054078754 0.10795808 -0.07089697 0.09205048 -0.11660437
-0.0029335031 0.010215068 -0.0070958408 -0.12812746 0.033116836 0.03060026 -0.13216491 -0.09343568
-0.014676257 0.00485969 0.0013726482 -0.0138861695 0.087254256 0.06104528 -0.1291765 -0.020462703
-0.007475268 0.08793592 0.018045234 0.020552123 -0.006940612 0.065298975 0.02362276 -0.06378618
0.01934707 0.036273524 0.055940785 -0.06597544 0.003992452 0.048669696 0.11094517 -0.014790208
-0.08061707 -0.08190422 0.02528578 -0.07122207 -0.0525256 -0.082069136 0.062766336 0.021538617
-0.032211944 0.024487395 0.015122001 0.035777856 0.048527222 0.010500613 -0.09361758 -0.021644657
0.0737307 -0.011768196 -0.038454432 0.07423999 0.015052699 -0.016567482 -0.07352905 -0.043426078
0.022812149 0.027736926 0.07368323 0.08918755 0.013000692 0.023757258 -0.025636299 -0.055317167
-0.08872408 -0.09284998 -0.006034827 0.031908352 -0.0073945485 0.061886534 0.051595185 0.010188857
-0.027271535 -0.015856676 -0.010103295 -0.060510643 -0.074424826 0.076176 0.03231346 -0.011852003
0.059817385 0.04531194 -0.029510252 0.06272924 -0.11232098 -0.066272154 0.053815585 0.081835024
-0.0104501145 0.07341161 0.0033823773 0.03698519 0.0029454576 0.025617197 0.0085207755 -0.0037356182
-0.05531416 0.09981718 -0.008913897 -0.1408718 -0.015978979 0.00095952523 -0.023830213 -0.063903004
-0.07152301 0.03271278 -0.12185234 0.040669337 -0.016875645 -0.03798814 0.015222125 -0.05189112
-0.0029952838 0.084004216 0.013052473 -0.02101929 0.11671613 -0.034158178 0.005882941 -0.07668758
-0.03286136 0.031786915 0.036878042 -0.056031395 -0.025968144 -0.07939329 -0.029403124 -0.009005013
-0.003741308 0.040157925 0.11075058 -0.0040725437 -0.039835647 -0.10952212 -0.015439447 0.007795072
0.041841805 -0.0108925225 0.016872363 -0.00034389537 -0.05358414 -0.10155602 0.013412714 0.0023098188
0.032951474 -0.0005325249 -0.054604802 0.023516957 0.032066543 -0.014334868 -0.010479039 0.023010796
0.0045844316 0.03787342 -0.03352312 -0.046435576 0.023634324 0.090339236 3.8097853e-05 -0.00041887673
0.024363372 0.057058353 0.0019711317 -0.040622104 0.08110826 -0.057470456 0.10518623 -0.04484229
0.005422467 -0.019644067 0.026525531 -0.12540431 0.006576243 0.02377532 0.0052273935 -0.09230773
-0.0061471574 0.028079716 0.031937648 0.07816577 -0.02852099 0.076839715 0.030749576 -0.046452142
0.007396175 0.0727466 0.028538655 0.018059881 0.048920617 0.007274411 -0.0047703646 -0.023251534
-0.0024045764 -0.079557344 -0.030123962 -0.030588286 0.046451274 0.0672826 0.05817496 -0.049989343
-0.03636181 0.013242096 -0.084710084 -0.0698678 0.0184782 -0.015812429 -0.08213469 -0.07522216
0.0012140434 0.006253039 0.04898401 0.046719015 0.06779561 -0.00702871 -0.007806892 0.06451697
0.025201982 -0.17801362 0.038232982 -0.024951382 -0.00060820056 0.07405951 -0.028159227 0.051358197
-0.019247392 -0.04223692 -0.065879054 0.0002638043 -0.017987134 -0.10697534 0.06164783 0.0058610193

encode.4.weight f4 [10, 100]
00000000: 4325 bc38 76e4 e539 d0b9 df39 3503 48ba
00000010: 3c5e 9db9 c529 6db9 0461 0b39 0485 3d39
00000020: b8b0 a5b8 c457 5738 55fc 1c38 328f 2a39
00000030: 2a49 54be 80ba 7139 72ee 8a39 b70f 8fba
00000040: e33f 173a 0293 e039 c716 063a dfad 18b9
00000050: edae 1cbe cb9b 55b9 3cb6 51ba c556 e2bd
00000060: 40b7 3fb9 6557 93bd 8d04 5c38 c9a1 9539
00000070: a157 5939 a531 353d 259b ea39 d693 21b9
00000080: b380 dab8 e889 8738 781c 8cbe 662e d8b8
00000090: 027c 483d d851 103c 9c8d 1bb9 4394 2a39
000000a0: c605 043a 8867 713e 541c 1039 cc2c a939
000000b0: 60a8 f0b9 1cab bbbd 0b59 a4b8 df93 ac39
000000c0: cff6 293b 7385 143d e48e d637 2d03 c2b9
000000d0: 1f34 4eba 7b6a 3bbe b6fe b3bd a5d5 6e3e
000000e0: 226a 5ebe 5161 4739 16b5 393e e514 18b9
000000f0: 7802 e73d fe29 6b37 46d7 b437 a819 0bb9
00000100: 3a71 6a3c d45d 27b8 1d4a 5839 65a5 5a39
00000110: 32ea 1b3a ea71 b23d bc0f 1c3a b432 303a
00000120: 9935 f4b9 8a20 87b8 4662 2f3a be89 4eba
00000130: ca9c e3b9 e548 7b3e b9c8 97b9 3f0e 5539
00000140: b6d7 543d f6d8 e7b9 e663 6039 d8d7 b438
00000150: 2b7f f8b9 c4ff d7b7 1b9a 1cbd b78c e6bd
00000160: bec3 bb38 aba9 3fbe b9ba 273e dd1a acb9
00000170: aebe 933d 21ae 9db9 1fa8 8139 ddea 3a39
00000180: 943e 98b9 1591 3fb9 a858 81b8 fcf3 b439
00000190: 5b67 023b e59d c1b9 1963 b1bb 6674 24bc
000001a0: 8b1a 5bba f380 22bb 7305 67bb bbaf 2dbb
000001b0: 1dd7 98bb 48f7 f3ba 1e38 42ba f1fd b43b
000001c0: 0a43 b0bc 083e 323b 5767 30bb b380 aabb
000001d0: 93c5 e83b 8a16 30bb 336b 4dba bef5 573a
000001e0: 7e62 24bd 0cb4 913a 2ca8 6ebb 565e 87bc
000001f0: b233 893b 51c3 0a3c 0528 293a 7831 033b
00000200: e6bb 71ba b5a0 12bd 2464 48bc 4946 e4b9
00000210: eba6 203b 500d bebb e6c9 eebc 3f65 debb
00000220: 4015 11bc 1e22 7ebb ce29 893b d5f8 6cbc
00000230: 4790 9bbb 779c 84bc 982e ef3b dd62 8139
00000240: 76a1 d53b 943b 073d 0bb0 6b3b 892e 87bb
00000250: 91dd 5e3d 474e 683c 8b8f 683a d699 213c
00000260: 3810 693b a921 733c f284 823d d108 43bd
00000270: d0a7 3bbc f0e8 093c ea07 003d aa34 9dbb
00000280: a93c 9fbc b87c a8bb 9d0a 20bb 8bd5 5eb9
00000290: e9dd 3f3c ac1f 23bc 09db 003b 2818 27ba
000002a0: 6f01 aebb 03b5 e8b8 3dc8 61bb ed42 c93b
000002b0: c206 4dbb 9036 28bc e3db 6c3b 6d28 0f3a
000002c0: 7217 c9bb c7fc 083b 5b8b bd3b a774 b8ba
000002d0: f5f5 18bd 7eb0 c03b 7a36 08bb e0d5 103c
000002e0: 7e0e d13b bbda ccbb 6280 56bd ca61 423d
000002f0: 7864 48bb 7b09 a73d 7598 8b3d d4db d73b
00000300: 04b1 38bd a603 abbb 9e42 893b fbec 63bb
00000310: 6a73 533b 94d0 bcba 7528 e13b b3c0 d33a
00000320: 6f80 a7b9 1ea5 733b 9c29 9b3b b46a f33b
00000330: 091c 25ba 1f6e 043c 418e 5b3a 82e3 123b
00000340: f5e9 ee3b cfa0 04ba 6b02 23bc 2b60 5bba
00000350: dd98 fe3b 20ce c6bb 9bcd 9f39 e37c c13a
00000360: d880 adbc d827 3f3b f313 0fbc dc2f 56ba
00000370: 3620 053d 3177 0e3c ad63 0f3b 5bb2 ae3c
00000380: 5152 5f3c edf1 59bc db2c bdb9 fd71 42bc
00000390: 31e0 abbb 4b5b d43b b7de 423b cf7b 133b
000003a0: 83dc c23b a668 8d3b 8473 c33b a6e1 033c
000003b0: 4ef2 cbbd 99b3 18bd 4269 e53b 4522 85ba
000003c0: ca60 1a3a b620 ca3c 3c99 a0bb 926e ddbb
000003d0: df3b 85ba 2d9b eabc 1744 af3b d3fa 3ebc
000003e0: d4ed 09bd a347 603d 87e4 353c 12b3 13bc
000003f0: b44a bdbb e077 d5ba 4457 d2bc 0f98 b23d
8.971479e-05 0.000438485 0.00042672316 -0.00076298724 -0.00030015584 -0.00022617642 0.00013292214 0.00018073997
-7.9007295e-05 5.1341733e-05 3.74283e-05 0.00016265808 -0.20731035 0.00023053028 0.00026499067 -0.0010914718
0.0005769713 0.0004283414 0.00051150884 -0.00014560622 -0.15301104 -0.000203713 -0.00079998723 -0.11051706
-0.00018283445 -0.071944036 5.2456326e-05 0.00028540034 0.00020727377 0.044236798 0.0004474755 -0.0001540923
-0.00010419022 6.462989e-05 -0.2736547 -0.00010308325 0.048946388 0.008808576 -0.00014834706 0.00016267695
0.00050362607 0.2357465 0.00013743463 0.00032267568 -0.00045901816 -0.09163496 -7.836715e-05 0.0003291657
0.0025934463 0.03626008 2.5577327e-05 -0.0003700493 -0.0007866043 -0.18302338 -0.08788817 0.23323686
-0.21720174 0.00019014372 0.18135485 -0.00014503633 0.11279768 1.4016869e-05 2.1557917e-05 -0.0001326563
0.014309222 -3.9903287e-05 0.00020626975 0.00020851714 0.00059476786 0.08713134 0.00059532723 0.00067214225
-0.0004657924 -6.4433625e-05 0.0006690364 -0.00078788016 -0.0004341363 0.24539526 -0.00028950514 0.0002031857
0.05196353 -0.00044221402 0.0002139952 8.623273e-05 -0.00047396994 -2.5749097e-05 -0.038232904 -0.11257308
8.953315e-05 -0.18717067 0.16379823 -0.0003282641 0.07214104 -0.0003007511 0.00024730057 0.00017825836
-0.00029038324 -0.00018269227 -6.167713e-05 0.00034514058 0.001989803 -0.0003692947 -0.0054134247 -0.010037517
-0.0008358142 -0.0024796098 -0.003525105 -0.0026502449 -0.0046643154 -0.0018613124 -0.0007408875 0.0055234362
-0.021516342 0.0027197618 -0.0026917064 -0.0052033304 0.007103631 -0.0026868903 -0.00078361033 0.00082382176
-0.040132992 0.001111628 -0.0036416156 -0.016524475 0.0041870708 0.008469419 0.0006452802 0.00200185
-0.00092214195 -0.035797793 -0.012230907 -0.00043539915 0.0024513553 -0.005799927 -0.029149007 -0.006786972
-0.008855164 -0.003877766 0.0041858917 -0.014463623 -0.004747424 -0.01618789 0.0072992556 0.00024678456
0.006519492 0.033015803 0.0035963084 -0.0041254205 0.05441052 0.014178819 0.0008871487 0.0098633375
0.0035562646 0.014839568 0.063730136 -0.04761583 -0.011453584 0.008417353 0.031257547 -0.004797538
-0.019438105 -0.0051418208 -0.0024420389 -0.00021251121 0.011710622 -0.009956282 0.0019661805 -0.0006374144
-0.0053102295 -0.00011096338 -0.0034451627 0.0061420114 -0.0031284546 -0.010266915 0.0036141805 0.0005461041
-0.006136828 0.002090262 0.0057844347 -0.0014072851 -0.037343938 0.0058804145 -0.0020784424 0.008840054
0.0063799014 -0.0062516606 -0.05236853 0.04745654 -0.0030577462 0.08156105 0.06816188 0.006587485
-0.04509069 -0.005218941 0.0041888496 -0.0034778703 0.0032264837 -0.0014405423 0.006871278 0.0016155451
-0.00031948413 0.0037177275 0.004735185 0.0074284915 -0.0006298428 0.008082896 0.00083753845 0.0022413437
0.0072910734 -0.0005059363 -0.009949307 -0.0008368517 0.0077696876 -0.0060670525 0.0003048003 0.0014761951
-0.021179602 0.0029168036 -0.008732784 -0.0008170584 0.032501422 0.00869541 0.002187948 0.02132528
0.013630466 -0.0133023085 -0.0003608231 -0.011867997 -0.0052452316 0.0064806095 0.00297348 0.0022504216
0.005946697 0.0043154536 0.0059646983 0.008049404 -0.09958325 -0.037280653 0.007001073 -0.0010157308
0.00058890565 0.0246738 -0.0049010795 -0.006757566 -0.0010164938 -0.028638447 0.005348693 -0.011656481
-0.033674076 0.054755818 0.011101848 -0.009014862 -0.0057767276 -0.0016286336 -0.025676377 0.08720409

decode.0.weight f4 [100, 15]
00000000: 483d bcbe be3c 32bc 9148 95ba 4429 de3c
00000010: dbc6 8b3d f923 463e 3921 9d3e 67b3 33bd
00000020: 7a39 a3be 98e6 1fbe 57ad 0a3e 9008 3b3e
00000030: 15a1 713e 0dac 98be e724 37bd a56c 213e
00000040: ae79 bb3b 6b8c e1ba f36e 92bc 9975 813e
00000050: 4540 a6bc d330 e23d bcd6 aa3e 93c4 2ebe
00000060: a2bf 33bc c37e a7be 4eba 42be 7509 5ebe
00000070: 92b1 10be f9db 153e c195 6aba e8cc ffbb
00000080: 4d6e ab3b ecd9 dbbb dd79 26ba 1f20 88bd
00000090: ef47 053d 4add 803d cefe 903d 681f 74bd
000000a0: 0455 a3bd 2b27 9f3d 6c21 c23d fdb2 aebc
000000b0: dc20 dcbd c66b 82bd fa49 b5bb a317 9a3b
000000c0: 9bf8 593a d29b 163d 5884 d93e 9091 4d3e
000000d0: ac37 883e ffc8 9bbe 22e0 a0be d48e bbbd
000000e0: 99aa 503e fe05 f6bd b9a4 ccbd 4514 e2bc
000000f0: 03a2 21bc 534c 69bc 1ae4 00bc ff93 0aba
00000100: a9cc fabb cac8 c1bd 0710 143e c4c5 9a3d
00000110: a09e 0e3d b3fd 103e 5012 f9bd db89 8b3d
00000120: b538 07be 4137 053d 1771 4ebe 11cc c1ba
00000130: 91d2 983b 9594 38bb cfe9 b83b de93 393b
00000140: 818b ef3d 1185 39be 40c8 013e 966b 07bd
00000150: 7665 3c3c 5ef3 c43d c58b 19be 4812 413c
00000160: 8fd3 9cbc 7afe 293c 77df 253d adc9 29ba
00000170: 68fe 3c3b 5076 abba ec4b bc3d dc63 343e
00000180: 3929 5fbd ed3e b33d 5f78 a43c d32a a8be
00000190: e465 0b3e f9b1 7f3e 9146 92bd 33db a73d
000001a0: f2c1 95be 248b 65bd c0a2 3e3c 6c46 213a
000001b0: f333 423c e9ff c3bc 7395 893e 83a0 733e
000001c0: a222 193e 5f04 56be f9d3 babe bbd2 e0bd
000001d0: 64f2 47be cf31 1fbb 2545 cebd b2f2 1cbe
000001e0: 534f d3ba 5471 8c3b 68b9 24bc 9074 3fba
000001f0: b87b fdba 7e68 67bd c939 b13d c335 81bd
00000200: 2c97 183c eb4e e63c 027d dabc c8f9 e1bc
00000210: 9f9c 083e 13f7 04be 8272 7c3d 939c b2bd
00000220: 3837 67bd be54 c3bc ee4f 7f3b e791 b03e
00000230: 315f 14bd 1de2 873e f522 3d3e 81aa 543e
00000240: a704 9cbe 68cb 8b3e 917c e43d d9dc 9dbe
00000250: 7d21 58be a4aa dcbc cf5f 9c3a f5f7 25bb
00000260: 888f a3bb 263f 36ba 5fc8 dbba e2a2 0abd
00000270: 8ed0 c43d 9555 5cbe 6421 c0bd 6c4d 3c3d
00000280: 01c0 be3d 3503 8abc d5c6 18be 934b 0e3d
00000290: 8e9d 7c3e 9459 923e f8c0 65bc 7341 4a3c
000002a0: e220 35bb ad03 72be 9ad6 c8bd 104c 5fbe
000002b0: 51d9 a7be 12bd 94be 0c8d 52bd 417e cb3e
000002c0: b424 c53e d210 3b3e e9a4 2dbd 4384 22be
000002d0: 2806 7a3b 9d63 22bb d83b 21bb b482 bb3b
000002e0: 0edc 77bb 948f 12be 8909 c9bd 66f7 023e
000002f0: 5e93 ecbc 6402 2fbe ffa3 053e cafb 2a3d
00000300: 1999 953c 1433 243d 2fab 643d b4da 113e
00000310: 4f54 533d a073 bc3c 0f34 13bc e85b abbe
00000320: 56d3 edbe a578 f7be a18d 713e 7357 533e
00000330: 3a8d 993e 629c f2be 7c53 1e3e 6d23 973d
00000340: 3078 c03e 8ec1 17bd 619b 493e 30e5 873b
00000350: d164 0abd 0887 113c fc64 e9bd a79c cfbe
00000360: e2bf 823c 5d7c 833e 00d1 c73e 8bea 1a3e
00000370: d3bd c6be 2d54 f9be 1c38 a0be fd5a 8f3e
00000380: be60 8dbd c780 bebb 621a 3a3b db5d d33b
00000390: e299 763b 14c9 67bb 9dd1 edbd c848 6bbe
000003a0: b6ed 3a3e d6e2 3bbd 4232 973c 4a5a 483c
000003b0: 4c09 783c 3238 a1bd 20fa 1abd c6d2 673e
000003c0: df1a 0ebe 4fd4 01bd 3bd9 793c 736f e83b
000003d0: ef3d 053e 434c a4be 03e2 f5bd e221 3c3e
000003e0: 1d97 80be bf91 88bc 0c12 efbe 112d b7be
000003f0: 83c0 5fbe 730b 323e e3c9 283d 867a 3c3c
-0.36765504 -0.01087874 -0.0011389424 0.027119286 0.06825038 0.1934966 0.3068941 -0.043872263
-0.3187979 -0.15615308 0.13542686 0.18264985 0.23596604 -0.29818764 -0.044712927 0.15764101
0.0057212925 -0.0017207986 -0.01787517 0.25285032 -0.020294318 0.11044469 0.33366954 -0.17067175
-0.010970982 -0.327139 -0.19016382 -0.21683295 -0.14130238 0.14634694 -0.00089487067 -0.007806409
0.0052316547 -0.006709328 -0.00063505565 -0.066467516 0.032539304 0.062922075 0.0707985 -0.059600264
-0.079752 0.077711426 0.09479031 -0.021325583 -0.10748455 -0.063682124 -0.0055325003 0.0047025247
0.0008314938 0.036769696 0.42483783 0.20075059 0.26604974 -0.30426785 -0.31421 -0.09158102
0.20377578 -0.12012862 -0.09992356 -0.027597556 -0.009865287 -0.0142393885 -0.007866884 -0.00052863354
-0.007653792 -0.094621256 0.14459239 0.07557252 0.034819245 0.14159279 -0.12161696 0.06813403
-0.13205226 0.032523397 -0.20160328 -0.0014785548 0.0046637733 -0.0028164734 0.0056431065 0.0028316895
0.1169653 -0.18117167 0.12674046 -0.033061586 0.0114988 0.09616731 -0.14994724 0.011784144
-0.019143848 0.010375613 0.040496316 -0.00064768904 0.0028838161 -0.0013081525 0.091941684 0.17616218
-0.054482672 0.087522365 0.020076929 -0.32845172 0.13613087 0.24970235 -0.07142366 0.08196106
-0.2924953 -0.056040898 0.011635482 0.0006152156 0.011853206 -0.023925738 0.26871833 0.23791699
0.14954618 -0.20900105 -0.36489847 -0.10977694 -0.19526058 -0.0024291163 -0.10071782 -0.15326956
-0.0016121663 0.0042859707 -0.01005397 -0.0007303441 -0.0019339239 -0.056496136 0.086536 -0.06309082
0.009313386 0.028113803 -0.026670936 -0.027584925 0.13340996 -0.12984876 0.06163264 -0.087212704
-0.056449145 -0.02384412 0.0038957554 0.34486315 -0.036223594 0.26539698 0.18470366 0.20768167
-0.304723 0.27303624 0.11156572 -0.30832556 -0.21106525 -0.026936837 0.0011930409 -0.0025324796
-0.0049914755 -0.0006952159 -0.0016768089 -0.033846743 0.09610091 -0.21517022 -0.09381369 0.045972273
0.093139656 -0.016847232 -0.14919598 0.034740042 0.24669477 0.28583968 -0.014023058 0.012344706
-0.0027638008 -0.23634215 -0.09806557 -0.2180636 -0.32782987 -0.290505 -0.051404044 0.39744762
0.38504565 0.18268135 -0.0423936 -0.15870766 0.0038150642 -0.0024778612 -0.002460232 0.005722368
-0.0037820372 -0.14312583 -0.09816272 0.12789688 -0.028878864 -0.17090756 0.13050841 0.04174403
0.01826148 0.040087774 0.055827316 0.14243585 0.051594075 0.023004353 -0.00898458 -0.33468556
-0.464503 -0.48334232 0.23589183 0.20638828 0.2999056 -0.47384936 0.15461534 0.07379804
0.37591696 -0.037049823 0.19688179 0.0041471943 -0.033787552 0.008882292 -0.11396214 -0.40549204
0.015960637 0.2568082 0.39026642 0.15128534 -0.388167 -0.48697034 -0.31292808 0.27999106
-0.06903218 -0.0058136913 0.0028397073 0.0064503974 0.0037628342 -0.0035367655 -0.11612246 -0.22976983
0.18254742 -0.045870624 0.018456582 0.012228558 0.015138935 -0.078720465 -0.037836194 0.22638997
-0.13877438 -0.031696614 0.015249546 0.007093364 0.13011907 -0.32089433 -0.12005999 0.183723
-0.2511529 -0.01667106 -0.46693456 -0.3577657 -0.21850781 0.1738718 0.04120816 0.011503821

decode.2.weight f4 [100, 100]
00000000: 909b 62bd b2f6 973d c570 513d 0f90 5c3c
00000010: 1749 5f3d c476 03bd bf69 b8bd 66f0 14bd
00000020: cded 223b b3d2 ccbc ed14 84bd aa27 773c
00000030: aa48 47bd 62d6 2ebc fdbb 3d3d 05ca adbd
00000040: 737b f13c 891d b1bd 3e3c 9cbd 11e0 74bd
00000050: 69f3 193c 0b2c 2d3c a372 4c3d 3662 51bd
00000060: 1c93 133d 49e2 e438 b519 edbc a35e eabc
00000070: b0ca 8cbd 9d64 0e3d 8d83 173d 0afa 9dbd
00000080: f98a 803d 1401 37bd 3ba5 c2bc ecee 1bbd
00000090: 1a8c 37bd 8dc8 ce3c 5198 093d 7a70 8f3d
000000a0: 2121 fb3c f05f c0bd 5831 583d ae54 6f3c
000000b0: dfe2 4bbc 1cb2 803c a0dc a63d 8024 97ba
000000c0: bba1 febb d0d2 1bbd 769c 2dbd f196 71bd
000000d0: 37c7 51bd f28f 22bc 9472 843c e71f 9fbc
000000e0: 7f2f 733d 6463 473c 4ea3 d63b 6287 8d3d
000000f0: 119c 693c cd1f 123d 1b26 6f3d ee6b 113d
00000100: 61bc 10bd d855 3abd 2dcc f3bb b9b3 5f3c
00000110: f394 cdbb 6172 023d 55e4 67bd 6725 a53d
00000120: 19e8 af3d 4d3b 75bc 9273 cebb 8ae1 d23b
00000130: 2913 f8bb aa65 8abd d6d4 5c3d 40f9 333d
00000140: ee1b 833d 7308 f0bc 61ec a1bd 314b 2c3d
00000150: 92c6 b8bd 206e 953d f248 823c 2e24 16bd
00000160: aad2 10bd 0a8d dabd d0c4 383d b91c 09bd
00000170: 538a 273b 775f 983c 0c94 8fbd a307 4cbd
00000180: c9af 61bc 5c9a 56bd ae04 073d 4792 393d
00000190: d1f5 7e3d 78b8 2bbd 27be 7dbc b2b6 eb3c
000001a0: e80b 99bc a029 f5bc dd56 9cbc 4699 a23e
000001b0: d64b 4b3d 78ee b3bd fa3a 04bd 7c1d 89be
000001c0: 5f79 10bd c3f8 90be df86 f0bb e81f 0ebe
000001d0: d22e 0d3d 2f52 4ebb 6481 d8bd f7d3 ecbd
000001e0: 46d5 f8bd 233f 14bd 1c88 d8bc c308 46bd
000001f0: 8207 f43d b112 62bd 7332 473d b526 f33d
00000200: fc88 163c 0a79 6bbd 90dd 113d de4c 36be
00000210: dcb4 493c 00d8 9eba e6ac c43d 8ef9 9bbd
00000220: 50dd 113e 25dc 05be 9264 d6bb de60 3cbc
00000230: 2b9e ae3d 88a0 dc3c 7071 0aba 51ff ecbc
00000240: e5d2 53bd dff2 71be fc96 883e 1875 9e3d
00000250: ae38 8d3d c2b5 aa3d e997 4a3d 9483 663b
00000260: 786a fdbc 7f3e 923d 9316 a8bd a849 a73d
00000270: 73c5 8e3d 78be 64bd 986e ecbc a78f 193e
00000280: 5140 cfbe 5f02 5abe 7727 71bd db12 2cbd
00000290: dea2 703e 7495 2cbe 96d1 fe3b 6ccc 3b3d
000002a0: f22d 0b3d 2f7d babd 7904 4c3d ad57 43bd
000002b0: fbd0 62be 412c d23e dcdd d93e 3f74 803e
000002c0: 5304 e23c 6d91 173e 575f 913d d52c 74bd
000002d0: a1f3 6cbc 6482 103d 6545 0cbe ea98 2dbd
000002e0: 8310 a8bd 0369 31be e84e d4bd 5a9e 1e3e
000002f0: e3af dcbb ce47 3dbe dc25 93be fe8e 93bd
00000300: 081a 933d 2662 7e3e a4ab 213e ca61 b13b
00000310: 1f8a 063d b27b 06bd cf7a f8bd 99c9 db3c
00000320: fa0e 4abd 7873 1d3e 8579 f6bc 5e33 67be
00000330: 3415 11be 78fd 3c3d b83c 5fbd 9bef 51be
00000340: ed77 c0bc cbe6 203d 4da2 b4bb c215 a6bd
00000350: 2574 cebb d7f3 09be 0a99 a5bc f42d b53d
00000360: 9bfa 1d3d b22c 72bd c7eb 8f3d d06e 51be
00000370: d310 3ebd 425a 89bd e711 cb3d a1dd 913e
00000380: 205a 46be c88b 463d 2164 853d a570 89bd
00000390: 0d2a cbbd 663c 86be b428 8dbe e1e6 153d
000003a0: 06c4 92bd 0b39 1b3c 07be 9bbd 6d1a 4f3e
000003b0: dd9e a03d 4f12 d83c df8a 353e a23f bb3d
000003c0: 569c 93be 4590 b13d b462 98bd b4bc b8bd
000003d0: 433b eabd d3ea 043e ee0f 1dbe 7683 96be
000003e0: 2f74 323d 3299 f9bc 7ce2 44be afa9 2dbb
000003f0: 2b99 993d e922 33be 2c56 893d 6de6 29bb
-0.055324137 0.074201 0.051132936 0.013462081 0.054513063 -0.032095686 -0.090045445 -0.036362074
0.0024860979 -0.025002813 -0.06449304 0.01508514 -0.048653282 -0.01067123 0.046321858 -0.08485798
0.02947781 -0.086482115 -0.07628678 -0.059784 0.009396412 0.010569583 0.049914014 -0.051119052
0.036028966 0.00010914036 -0.028942922 -0.02860958 -0.06874597 0.03476392 0.03699069 -0.07713707
0.06276507 -0.044678763 -0.023760429 -0.03806965 -0.044811346 0.025242114 0.033592526 0.07003875
0.030655446 -0.093932986 0.052781433 0.014607592 -0.012444227 0.01570993 0.0814755 -0.0011531264
-0.0077707446 -0.038042843 -0.04238554 -0.05898184 -0.051215377 -0.009922015 0.016167916 -0.019424392
0.059371468 0.012169693 0.006550229 0.06910588 0.014258401 0.03567486 0.05838595 0.03550332
-0.035335902 -0.045492023 -0.007440111 0.013653689 -0.0062738596 0.03184736 -0.05661424 0.080637746
0.08589191 -0.014967752 -0.006300398 0.0064355778 -0.0075706434 -0.06757672 0.053913914 0.043938875
0.064018115 -0.029300904 -0.07906414 0.042063896 -0.09022249 0.07296395 0.015903924 -0.036655597
-0.035357155 -0.10671432 0.04510957 -0.033474658 0.0025564625 0.018600209 -0.070106596 -0.04981197
-0.013774821 -0.052393302 0.032963447 0.045305517 0.062246148 -0.04192397 -0.01548723 0.02877364
-0.018682435 -0.029927075 -0.019084388 0.31757563 0.04963287 -0.08785719 -0.032282807 -0.26780307
-0.035272 -0.2831479 -0.0073402966 -0.13879359 0.03446848 -0.003148209 -0.10571554 -0.115638666
-0.12150054 -0.036193024 -0.02643209 -0.0483482 0.119154945 -0.055193607 0.048632096 0.11872617
0.009187933 -0.05748848 0.03561169 -0.1780276 0.012311187 -0.0012118816 0.0960329 -0.07615958
0.1424458 -0.1307226 -0.0065427506 -0.011497704 0.08526262 0.026932016 -0.0005281186 -0.028930338
-0.051714797 -0.23627804 0.26677692 0.077371776 0.068955764 0.08335449 0.04946128 0.0035173642
-0.030934557 0.071408264 -0.08207431 0.08168346 0.06971254 -0.055845708 -0.028861329 0.14996205
-0.40478757 -0.21289967 -0.058875527 -0.04201017 0.23499629 -0.16853887 0.0077764494 0.04584925
0.033979364 -0.09105908 0.049808953 -0.047691036 -0.22150032 0.41049388 0.42552078 0.2508869
0.027589953 0.1480157 0.07098263 -0.059613068 -0.0144623825 0.0352806 -0.13698347 -0.04238216
-0.08206274 -0.17325215 -0.10366613 0.15490094 -0.0067348345 -0.18484423 -0.28739822 -0.07205008
0.071826994 0.24842128 0.15788132 0.0054132687 0.032846566 -0.03283281 -0.12132799 0.026829528
-0.04933069 0.15376079 -0.030087242 -0.22578189 -0.14168245 0.046140164 -0.054501265 -0.20501558
-0.023494685 0.0392826 -0.005512512 -0.08109619 -0.0063004666 -0.13471924 -0.020214576 0.088466555
0.038569074 -0.059124656 0.07027393 -0.20452428 -0.046402764 -0.067066684 0.09915524 0.28489402
-0.19370317 0.04847315 0.06513239 -0.06710938 -0.0992013 -0.26217955 -0.27570117 0.036597136
-0.07166295 0.009474049 -0.07604604 0.20224924 0.07842801 0.026375918 0.17728756 0.09142996
-0.28830212 0.08670095 -0.07440701 -0.09020367 -0.114370845 0.12980203 -0.15338108 -0.29397172
0.043567833 -0.030468557 -0.19227022 -0.0026498844 0.074999176 -0.17493786 0.06705889 -0.0025924698

decode.4.weight f4 [1, 100]
00000000: a2ad aeb9 aa96 0bbd 97c5 ffbc 1611 b2b9
00000010: 2f86 c8b9 41e9 af3d 18b0 e4b8 9ba2 80bd
00000020: 6b74 bdb8 4cf7 983d 97a3 9438 3d92 31bc
00000030: 76f6 11bd 84d1 1eb9 a83b 0e3a ace7 ec3c
00000040: 634b 8eb9 fe59 db3c 8e96 2e3d 0d81 0aba
00000050: 8400 243d 22f0 153a ccde 15ba 093b 0cb9
00000060: b282 1c39 86b5 0f39 1850 0abd 25b9 e539
00000070: 7325 233a ca6b c738 60a4 0439 9583 783d
00000080: bcae 1436 9aae 003a 545c 61bb 96e5 75bd
00000090: a402 a639 8c1e 89b9 5d5f c9b9 9b63 b5b9
000000a0: b57d 8538 46bd e6b9 19bb 0a37 2fbc 3bb9
000000b0: ff16 e8b9 dc80 e9b9 618c a739 dc05 98b9
000000c0: 5f30 3cb8 01f6 b639 c8d9 b637 bb8c 15b9
000000d0: 30c7 193a 36a6 803d d1c5 43bd 54b4 78bd
000000e0: e74b 02b8 e374 533d da33 ca37 59ea ed37
000000f0: be89 8cb9 a348 ea38 fd4d cc39 85ad 9b39
00000100: 27b2 323d a47a 1bba 51d5 4dbd 7a2e 263a
00000110: cc67 0fba 86fa 02ba f9a4 4039 4e26 7539
00000120: dd00 89b9 cfab 80bd d4e0 e838 8370 0e3a
00000130: 7c80 063a e448 80bd 4bb5 8a39 fdf3 f93c
00000140: 5317 e537 cd06 3139 5d28 7339 04b2 1d3a
00000150: f1c8 0bba 2c7e 82b9 2e53 323d c071 6db6
00000160: bc80 1f39 91a3 8f39 f605 4d39 8c07 edb8
00000170: d8db 5137 158e 113d e6e0 30b9 a605 01b8
00000180: 4026 3239 5bae 07b9 05dd d4bc 6d83 31bd
-0.00033317233 -0.03407923 -0.031222148 -0.00033963536 -0.00038246947 0.085894115 -0.00010904687 -0.062810145
-9.033907e-05 0.07469043 7.087661e-05 -0.010838089 -0.035635434 -0.00015146105 0.00054257596 0.028919064
-0.00027140518 0.02677631 0.04262405 -0.00052835123 0.040039554 0.00057196815 -0.0005717098 -0.00013373433
0.00014926007 0.00013705165 -0.03376779 0.00043816227 0.0006223537 9.509137e-05 0.00012649735 0.06067236
2.2155427e-06 0.000490883 -0.0034387307 -0.060033403 0.00031663955 -0.00026153435 -0.0003840876 -0.00034597222
6.365349e-05 -0.00044010038 8.269003e-06 -0.00017903814 -0.00044267622 -0.0004453723 0.00031957313 -0.00028996065
-4.4867742e-05 0.00034897032 2.1797503e-05 -0.00014262173 0.0005866168 0.06281702 -0.047796074 -0.06071885
-3.1065105e-05 0.051625144 2.4104422e-05 2.8361728e-05 -0.00026805507 0.00011171519 0.00038968018 0.00029693186
0.04362693 -0.00059310556 -0.050252263 0.0006339323 -0.0005470484 -0.00049964373 0.00018372004 0.0002337929
-0.0002613132 -0.0628277 0.000111044996 0.00054336357 0.000513084 -0.06263903 0.00026456485 0.03051185
2.7309788e-05 0.00016882569 0.00023189322 0.0006015601 -0.0005332372 -0.00024889538 0.043536358 -3.5381963e-06
0.00015211379 0.00027396952 0.00019552544 -0.000113024464 1.2508557e-05 0.03553589 -0.00016868449 -3.0761257e-05
0.00016989652 -0.00012939556 -0.025984297 -0.043338228
