Quantum/1 qubit/incomplete/models/1_latent.pt (torch, 92327 bytes, 6 tensors)

encode.0.weight f4 [100, 10]
0.23144948 0.23409633 -1.1612065 0.4148419 -0.5045724 -0.13964799 0.19854236 0.8627193
-0.3391983 0.3373975 0.1062592 0.18734576 0.4957462 -0.18351999 0.20964345 0.27183732
0.4302945 0.14769676 -0.19852516 -0.22326316 0.7154139 0.32309946 -0.4085583 0.046188388
-0.76177084 -0.65586007 -0.64569414 0.005471565 0.24576698 0.5994832 0.37219805 0.116781615
-1.2111598 -0.022542281 0.23938122 0.14196137 0.9000388 0.6513669 -0.59828484 -0.24601783
-0.18417454 -0.0057999166 0.3658224 0.028763754 -0.12726247 -0.36926436 -0.16672684 -0.12088953
0.18649368 0.07503955 -0.07622485 0.22622795 0.49444067 0.15750696 -0.21016176 -0.37193197
0.033215966 -0.51385677 0.29380342 0.25677642 0.03542661 0.105895735 -0.7167962 -0.18065156
0.1590905 0.14761728 -0.01931118 0.5063763 -0.053306904 -0.075073175 -0.026693167 0.18331046
-0.8077969 -0.058991954 -0.43910062 -0.39238593 -0.062070005 0.043734003 -0.27727696 0.21765837
-0.30017164 0.22262432 0.71326333 -0.23327243 0.075876154 0.35799766 0.25033495 0.0043860404
0.41850334 -0.2630636 0.43876967 0.25436983 -0.7709284 -0.34857562 0.121341 0.13299417
0.48355934 0.80416423 -0.8640461 0.026012266 -0.121878095 -0.13185385 0.75026643 0.074370116
-0.2891316 -0.17950214 -0.8291027 -0.93901175 0.8780163 0.13951965 0.088508986 0.08398329
0.04602346 0.43729568 -1.2947105 -1.2726122 -0.7688868 -0.04761352 -0.044982936 -0.14668635
0.6510652 0.2086834 -0.8468852 0.3520865 -0.38966137 -0.46497184 -0.17289521 0.5900167
-0.26027218 0.39589322 -0.07755131 -0.04065131 1.0231037 -0.08818971 0.08270376 -0.12900278
-0.8077424 -0.7428456 0.31863517 0.39818168 -0.23902404 0.03005002 0.4641217 0.091256805
0.28978598 -0.1256699 0.21158859 -0.16850905 -0.02901846 0.09497141 0.15727846 -0.35272247
0.68891096 0.064683266 0.26618284 0.08622395 0.13426466 -0.07887528 0.32654542 -0.25171018
0.40575892 0.1536754 -0.5371192 -0.35774603 0.35089076 0.50482064 0.2848547 0.6637997
-0.6479574 0.04730268 -0.119972035 -0.020612387 -0.673669 -0.058676917 -0.74102235 -1.1222996
-0.8232253 -0.012549834 0.27423397 0.2493068 0.5245591 -0.088349156 -0.998357 -0.3014049
0.08216692 0.620739 0.3957614 1.0364443 -0.5073299 -0.06550866 -0.32750362 -0.090477444
0.35808745 0.12008687 0.19973445 -0.20551407 -0.114130825 -0.21986577 0.28960443 0.11205023
0.27176225 -0.10112491 -0.55593187 0.19761217 -1.2586676 -0.97620904 -0.76691955 -0.2622706
0.15239637 0.032734808 -0.12708846 0.17383991 0.4348199 0.047776125 -0.36393228 -0.21153116
-0.6147827 -0.72243947 0.5770156 0.35614276 0.23602739 -0.06425354 -0.34129733 -0.20826095
0.19009636 0.25313056 0.6952215 0.5624284 -0.30564243 -0.19286591 0.43992913 -0.012237363
-0.59356546 -0.18983479 0.06366147 0.37806723 0.33276764 0.3636111 -0.28665724 -0.1981075
0.37489453 0.052127466 -0.33205676 0.012948151 -0.8045181 -0.8014695 -0.43590632 -0.29095507
-0.098894104 -0.061488874 0.30247754 0.021915551 0.59955543 -0.19613712 0.39148825 0.34060082
00000000: 1801 6d3e f3b6 6f3e 6aa2 94bf 2866 d43e
00000010: a82b 01bf e2ff 0ebe b04e 4b3e 2cdb 5c3f
00000020: 66ab adbe 5dbf ac3e 6c9e d93d 91d7 3f3e
00000030: 72d2 fd3e aaec 3bbe c6ac 563e 432e 8b3e
00000040: 904f dc3e d23d 173e 2e4a 4bbe 199f 64be
00000050: 5e25 373f 4b6d a53e 8e2e d1be 0930 3d3d
00000060: 6a03 43bf 72e6 27bf 364c 25bf d04a b33b
00000070: 57aa 7b3e bb77 193f be90 be3e 332b ef3d
00000080: 4907 9bbf 97aa b8bc 5a20 753e 525e 113e
00000090: f168 663f fbbf 263f 3229 19bf 19ec 7bbe
000000a0: 4098 3cbe 3a0d bebb 134d bb3e f7a1 eb3c
000000b0: 1851 02be 3810 bdbe 71ba 2abe ee94 f7bd
000000c0: 33f8 3e3e 56ae 993d c61b 9cbd 4da8 673e
000000d0: 5427 fd3e 8149 213e a534 57be de6d bebe
000000e0: 770d 083d 1e8c 03bf 676d 963e 3378 833e
000000f0: 7e1b 113d dddf d83d f57f 37bf b9fc 38be
00000100: 9fe8 223e fc28 173e 7b32 9ebc e1a1 013f
00000110: 5758 5abd f7bf 99bd a1ab dabc bdb5 3b3e
00000120: c7cb 4ebf 8ca1 71bd ccd1 e0be cfe6 c8be
00000130: 1e3d 7ebd 6d22 333d 3ff7 8dbe d6e1 5e3e
00000140: 19b0 99be a1f7 633e 6d98 363f f8de 6ebe
00000150: f564 9b3d 784b b73e e72b 803e c6b8 8f3b
00000160: 1246 d63e 46b0 86be 6ba6 e03e c33c 823e
00000170: 905b 45bf 8178 b2be a181 f83d a02f 083e
00000180: 1795 f73e b5dd 4d3f 2032 5dbf ad17 d53c
00000190: 399b f9bd b204 07be 7611 403f 5c4f 983d
000001a0: 0f09 94be 69cf 37be 1340 54bf 1363 70bf
000001b0: adc5 603f 3dde 0e3e 3344 b53d 6eff ab3d
000001c0: 1883 3c3d 38e5 df3e 13b9 a5bf f5e4 a2bf
000001d0: c4d5 44bf 6506 43bd 0740 38bd f234 16be
000001e0: 35ac 263f 1ab1 553e 78cd 58bf af44 b43e
000001f0: b281 c7be ca10 eebe 710b 31be 560b 173f
00000200: 6542 85be 84b2 ca3e 39d3 9ebd fd81 26bd
00000210: 10f5 823f cf9c b4bd 9760 a93d 4e19 04be
00000220: 35c8 4ebf 212b 3ebf 2624 a33e 78de cb3e
00000230: b8c2 74be 762b f63c 5ca1 ed3e d9e4 ba3d
00000240: d45e 943e 9caf 00be aeaa 583e a38d 2cbe
00000250: 1fb8 edbc 5f80 c23d 9b0d 213e 0a98 b4be
00000260: 785c 303f a978 843d 1e49 883e 2f96 b03d
00000270: ad7c 093e 5d89 a1bd f630 a73e 28e0 80be
00000280: a2bf cf3e 165d 1d3e a580 09bf 7d2a b7be
00000290: f4a7 b33e ed3b 013f 7ad8 913e c7ee 293f
000002a0: 89e0 25bf 74c0 413d e6b3 f5bd 4fdb a8bc
000002b0: 9275 2cbf 3557 70bd a4b3 3dbf 83a7 8fbf
000002c0: e5be 52bf d29d 4dbc 6568 8c3e 484a 7f3e
000002d0: 8149 063f 67f0 b4bd 5394 7fbf be51 9abe
000002e0: 2147 a83d c0e8 1e3f 3da1 ca3e 35aa 843f
000002f0: 5fe0 01bf 6829 86bd 8eae a7be 3d4c b9bd
00000300: 3d57 b73e 1bf0 f53d 3087 4c3e 4872 52be
00000310: 6cbd e9bd 7e24 61be 0847 943e 977a e53d
00000320: 6c24 8b3e 941a cfbd 8d51 0ebf d85a 4a3e
00000330: 051c a1bf d6e8 79bf d754 44bf 5548 86be
00000340: cb0d 1c3e ef14 063d 7a23 02be 1703 323e
00000350: b7a0 de3e e6b0 433d 5555 babe a09b 58be
00000360: 6662 1dbf cbf1 38bf 4bb7 133f 5858 b63e
00000370: 2ab1 713e 5c97 83bd 86be aebe 5c42 55be
00000380: 9fa8 423e 549a 813e 09fa 313f 4ffb 0f3f
00000390: 2a7d 9cbe a47e 45be 643e e13e 387f 48bc
000003a0: e8f3 17bf 0d64 42be f260 823d 0792 c13e
000003b0: 8560 aa3e 3c2b ba3e bdc4 92be b1dc 4abe
000003c0: 2df2 bf3e 9c83 553d 5803 aabe 7b24 543c
000003d0: e6f4 4dbf 1b2d 4dbf 1d2f dfbe 10f8 94be
000003e0: fe88 cabd c2db 7bbd 56de 9a3e 3e88 b33c
000003f0: 777c 193f 2bd8 48be 2671 c83e 3b63 ae3e

encode.2.weight f4 [100, 100]
0.1534262 -0.12465231 0.335747 -0.27699724 -0.131192 0.18572593 -0.08064146 0.037898477
-0.021225257 -0.1326904 -0.030285217 0.032440744 0.23565246 0.02404868 0.12631337 0.057202805
-0.04796611 -0.045163553 -0.27827057 -0.18695585 0.027571324 0.3886224 -0.104754284 -0.23472603
-0.120437235 -0.13354233 0.09411612 -0.26647657 -0.27403373 0.057936653 0.054852873 -0.0928859
0.20094323 -0.12886983 -0.14058563 -0.027391177 -0.09355792 0.09058585 0.33936545 -0.23830952
-0.23242715 0.03527788 0.045664877 -0.043738533 -0.24823555 -0.017470537 -0.24930707 0.037479132
-0.19685282 0.010927719 -0.08154471 0.05240228 -0.2990619 0.07952241 -0.045222033 0.013145098
0.039513245 -0.11180782 -0.030716956 -0.10691103 -0.29742542 -0.07488309 -0.1309273 -0.08125421
0.061655525 0.052400757 0.13508782 -0.10997109 -0.19814023 0.112715244 0.032104988 -0.15226446
-0.19641161 0.073913306 -0.24142382 0.33644968 -0.18234572 -0.022980778 -0.14003214 -0.3158635
0.053639367 -0.17644106 -0.028269907 0.08364858 -0.18507454 -0.019300338 -0.23059891 -0.13948289
0.3610379 -0.08294304 0.025810199 -0.18419138 -0.0047746003 -0.08244477 -0.22398199 -0.2759307
-0.32226962 -0.17992777 -0.23696047 -0.2639642 0.08099753 -0.08020401 -0.026517592 -0.08187954
0.09893345 0.07172395 0.08052795 0.08967566 -0.081514575 -0.022357274 -0.22877675 0.045476317
0.015460683 -0.08004068 0.0129035255 -0.084551945 -0.12440359 0.015852064 -0.19524162 -0.20802228
-0.00183472 0.04881572 0.034508906 -0.06660087 0.14596197 -0.24319439 0.11549157 -0.16722815
-0.019528393 -0.008426527 0.012202668 0.15180652 -0.08039328 -0.022242004 0.10168213 -0.18451943
0.051095333 -0.07780728 0.07649579 -0.041260254 -0.121379316 0.083340585 -0.09939285 -0.14935471
0.007576623 -0.2724038 0.10080064 -0.13488369 -0.054140482 -0.20066383 -0.2575361 0.057594065
-0.22187553 -0.14827551 -0.23855568 -0.052986644 -0.19412646 -0.0815623 -0.12641786 -0.104255594
-0.06683586 -0.06513133 -0.11683747 -0.07041847 0.11971958 0.07099993 -0.04055223 -0.08079535
-0.029979689 -0.08729246 -0.17653885 0.06379235 -0.16082093 -0.19552024 0.00065335975 0.12305362
-0.14259969 -0.14460954 -0.05130308 -0.15700552 -0.12730274 -0.08489831 -0.13969743 -0.07854608
-0.15208945 -0.11576158 -0.14781678 -0.08147738 0.02649521 -0.12520145 -0.10013985 -0.054424282
-0.24661738 0.029470058 -0.07545269 -0.06627106 -0.16298373 -0.028683353 -0.09837977 -0.26045722
-0.13347773 -0.5261939 0.07756021 -0.071163654 -0.043839257 -0.3394283 0.19341516 0.36314052
-0.48282018 -0.37962964 -0.7079675 0.007401112 0.039753336 -0.6077111 -0.40029824 -0.5040976
-0.06252752 0.18204072 -0.025457844 -0.2906002 0.25917992 -0.10831179 -0.22090793 0.21937735
0.36011443 -0.5766665 0.37601066 0.03220837 -0.9255669 0.19890729 -0.08481539 0.35702017
-0.33436975 -0.3107772 0.531256 -0.3233906 0.22763377 -0.064617954 -0.10461857 0.21781982
-0.67040753 0.05119297 -0.6494655 -0.34787744 0.1556225 -0.3812559 0.2942817 -0.40148446
-0.024235267 -0.40058237 -0.73618346 0.15556826 -0.47581398 -0.6664711 -0.30194277 -0.18211046
00000000: c21b 1d3e b649 ffbd 08e7 ab3e 95d2 8dbe
00000010: 3257 06be f02e 3e3e 5a27 a5bd 6f3b 1b3d
00000020: 97e0 adbc fedf 07be b418 f8bc 96e0 043d
00000030: e14e 713e bd01 c53c 4b58 013e 7d4d 6a3d
00000040: 1d78 44bd 6bfd 38bd 7b79 8ebe 5b71 3fbe
00000050: 42dd e13c 84f9 c63e 6a89 d6bd 055c 70be
00000060: cca7 f6bd 52bf 08be f4bf c03d 9e6f 88be
00000070: 264e 8cbe fc4e 6d3d 68ad 603d f63a bebd
00000080: 10c4 4d3e 74f6 03be aef5 0fbe 7663 e0bc
00000090: 4b9b bfbd 1385 b93d 4fc1 ad3e 6907 74be
000000a0: 6201 6ebe 8a7f 103d 180b 3b3d 2d27 33bd
000000b0: 7631 7ebe 5f1e 8fbc 5a4a 7fbe b883 193d
000000c0: c993 49be 2d0a 333c ea00 a7bd c6a3 563d
000000d0: a41e 99be a5dc a23d bd3a 39bd 8a5e 573c
000000e0: a4d8 213d 80fb e4bd 20a2 fbbc 2cf4 dabd
000000f0: 2548 98be 4e5c 99bd ce11 06be 9b68 a6bd
00000100: 818a 7c3d 2da2 563d 7654 0a3e 8638 e1bd
00000110: 46e5 4abe 40d7 e63d 8580 033d 37eb 1bbe
00000120: 2020 49be dc5f 973d ce37 77be 2243 ac3e
00000130: d6b8 3abe 2f42 bcbc 9664 0fbe dcb8 a1be
00000140: f4b4 5b3d f7ac 34be 4b96 e7bc f24f ab3d
00000150: 2e84 3dbe be1b 9ebc 1f22 6cbe 9ad4 0ebe
00000160: f6d9 b83e 0ade a9bd e96f d33c aa9c 3cbe
00000170: 4074 9cbb ced8 a8bd 895b 65be ca46 8dbe
00000180: 8600 a5be fc3e 38be c4a5 72be 5126 87be
00000190: 08e2 a53d 0042 a4bd 6c3b d9bc 76b0 a7bd
000001a0: 9f9d ca3d 02e4 923d d6eb a43d dfa7 b73d
000001b0: 1df1 a6bd 9a26 b7bc 7444 6abe 6045 3a3d
000001c0: ce4e 7d3c 5eec a3bd 4f69 533c 9229 adbd
000001d0: 4fc7 febd 30dc 813c 6bed 47be cb03 55be
000001e0: fd7a f0ba fef2 473d 3659 0d3d 0966 88bd
000001f0: 0e77 153e f307 79be d886 ec3d db3d 2bbe
00000200: 02fa 9fbc 6a0f 0abc b3ed 473c 2b73 1b3e
00000210: 3ba5 a4bd dd34 b6bc b83e d03d a9f2 3cbe
00000220: 5749 513d 6c59 9fbd d3a9 9c3d 8300 29bd
00000230: b895 f8bd 78ae aa3d 7b8e cbbd 71f0 18be
00000240: 5245 f83b 8378 8bbe 9170 ce3d f31e 0abe
00000250: 69c2 5dbd d27a 4dbe c6db 83be c1e7 6b3d
00000260: 5733 63be 89d5 17be f147 74be 8608 59bd
00000270: 16c9 46be 230a a7bd af73 01be f583 d5bd
00000280: 3de1 88bd 9363 85bd 7c48 efbd 8f37 90bd
00000290: 8a2f f53d 6968 913d 181a 26bd 0878 a5bd
000002a0: f797 f5bc 64c6 b2bd 9ac6 34be 90a5 823d
000002b0: 3eae 24be 7536 48be 3b46 2b3a 8903 fc3d
000002c0: a705 12be 8614 14be 2e23 52bd 0ec6 20be
000002d0: a65b 02be 2adf adbd d80c 0fbe c4dc a0bd
000002e0: 56bd 1bbe 6814 edbd 485d 17be 9ddd a6bd
000002f0: 7c0c d93c cf34 00be 1f16 cdbd ffeb 5ebd
00000300: 4489 7cbe 316b f13c f186 9abd 1fb9 87bd
00000310: 35e5 26be 5af9 eabc 557b c9bd a65a 85be
00000320: 63ae 08be a5b4 06bf e3d7 9e3d 40be 91bd
00000330: cb90 33bd 8cc9 adbe a00e 463e 8eed b93e
00000340: 3534 f7be d15e c2be 5c3d 35bf 0785 f23b
00000350: 65d4 223d f492 1bbf e4f3 ccbe 8a0c 01bf
00000360: 6e0e 80bd e268 3a3e f88c d0bc 8dc9 94be
00000370: 3bb3 843e 92d2 ddbd b035 62be 75a4 603e
00000380: eb60 b83e 6aa0 13bf 7884 c03e ecec 033d
00000390: f4f1 6cbf 5aae 4b3e b1b3 adbd 59cb b63e
000003a0: 8332 abbe 301e 9fbe 6500 083f 7493 a5be
000003b0: d418 693e 6b56 84bd 4342 d6bd 290c 5f3e
000003c0: d49f 2bbf b8af 513d 5f43 26bf fe1c b2be
000003d0: 815b 1f3e f933 c3be 17ac 963e 5f8f cdbe
000003e0: 0a89 c6bc 2219 cdbe 8576 3cbf 494d 1f3e
000003f0: e49d f3be da9d 2abf 3e98 9abe 2a7b 3abe

encode.4.weight f4 [2, 100]
-0.10055154 -0.051321015 0.20032737 0.2224197 0.33831117 -0.00020236406 -0.16531874 -0.21867536
0.039567865 0.14735255 -0.13597447 0.10783405 -0.099420875 -0.21948983 0.3577799 -0.24476987
0.28738046 -0.1238893 0.24130361 -0.24921721 0.05488115 3.9659208e-05 0.32706124 -0.00033486282
0.24330255 -0.22776538 0.03639519 0.42184964 -0.12361225 -0.24089235 -0.00042895903 2.4568822e-05
-0.13443196 -0.030799465 0.14664997 -0.013446816 0.37702188 -0.00063895446 -0.0002886983 0.15117759
-0.18687937 0.26209846 -0.18151456 0.30819315 -0.00028846678 -0.04738939 0.26778364 0.06401791
0.00047514314 0.00041296025 0.0006261111 0.00012341843 -0.12128552 0.2508285 -0.00018904608 0.15850088
0.0017568007 -0.00024386303 0.1332515 0.000555057 -1.6988663e-05 -0.00030525794 0.23987854 8.505491e-05
-0.25236776 -0.18251775 -0.12126078 -0.11693555 1.8734485e-05 -0.0015106488 0.12653871 -0.16975103
0.26867154 -0.17108725 -0.10175715 -0.63332254 -0.12814659 -0.00028814853 -0.16578737 0.00050711224
0.18439794 -0.025666026 0.28737572 0.036432173 -0.17751886 -0.00010530161 0.26498997 -0.5857544
-0.16177993 -0.051570866 0.18603899 -0.3078715 5.3228003e-05 -0.059698634 -0.23641862 -0.000506313
0.29331928 -0.22000697 0.0009225218 -0.17647654 0.041017942 0.142985 0.16928579 0.14070007
-0.046014685 -0.010934061 0.16020127 0.17050213 -0.024043508 0.22293268 0.2968214 0.08607218
0.2225625 0.09987054 0.08646582 -0.03080554 0.103996925 -0.05183735 0.12705338 0.18957382
-0.08835834 0.07005954 -0.06670396 -0.020357642 0.07842928 0.0725062 -0.10166727 -0.12292679
0.33142254 0.21823531 -0.019616181 -0.0023469718 0.2522165 0.56377095 0.10335194 -0.6827942
-0.04172198 -0.008942965 -0.033214975 -0.009585166 0.11757097 0.16927123 0.2893257 0.09045022
0.0012235988 0.5466981 0.19312581 0.017243285 0.025641298 0.012864043 0.023219286 0.023223983
0.03570767 0.15570726 0.0059082424 0.13405856 0.21963204 0.004860152 0.03886834 -0.0027485406
-0.0043388624 0.0049353624 0.21118817 0.01561076 0.046577055 0.14290035 0.16464841 -0.014205938
0.001827333 -0.709134 -0.037717257 0.36586016 0.13703327 -0.13765936 0.18224424 0.026997866
0.13638024 0.0016293279 0.074061826 0.012521224 0.0075776093 0.5118143 -0.03331011 -0.5620098
0.13597791 -0.0010583887 -0.11131215 0.051103726 0.34035134 -0.029930038 -0.026117807 -0.03167929
-0.013599312 0.066617996 0.08225194 -0.0066892155 -0.070248865 0.080555774 0.006388304 0.02026777
00000000: f7ed cdbd fc35 52bd 9e22 4d3e fdc1 633e
00000010: 1f37 ad3e b031 54b9 5149 29be 6fec 5fbe
00000020: ea11 223d 96e3 163e e43c 0bbe 19d8 dc3d
00000030: 2c9d cbbd f1c1 60be ed2e b73e f4a4 7abe
00000040: 8823 933e acb9 fdbd 4b18 773e cc32 7fbe
00000050: 0fcb 603d c057 2638 9274 a73e 8790 afb9
00000060: 4e24 793e 543b 69be 1f13 153d adfc d73e
00000070: 6b28 fdbd 7cac 76be e8e5 e0b9 2519 ce37
00000080: 88a8 09be 294f fcbc 692b 163e 0950 5cbc
00000090: 0309 c13e 827f 27ba 6e5c 97b9 4cce 1a3e
000000a0: 4e5d 3fbe c531 863e f4de 39be 7ecb 9d3e
000000b0: 5b3d 97b9 611b 42bd f01a 893e d21b 833d
000000c0: a21c f939 9682 d839 9b21 243a e269 0139
000000d0: 8b64 f8bd 986c 803e ac3a 46b9 0e4e 223e
000000e0: 7344 e63a 7cb5 7fb9 1573 083e 3f81 113a
000000f0: e082 8eb7 070b a0b9 b8a2 753e 825f b238
00000100: 5936 81be efe5 3abe 9257 f8bd e87b efbd
00000110: 0028 9d37 f600 c6ba 5d93 013e 37d3 2dbe
00000120: 518f 893e 7f31 2fbe 0d66 d0bd 6d21 22bf
00000130: dc38 03be a412 97b9 2ac4 29be baef 043a
00000140: d0d2 3c3e 8f41 d2bc e922 933e e739 153d
00000150: 81c7 35be 5fd5 dcb8 c4ac 873e 00f4 15bf
00000160: a3a9 25be f93b 53bd 0181 3e3e 55a1 9dbe
00000170: 2241 5f38 8e86 74bd b917 72be 17ba 04ba
00000180: f22d 963e 8249 61be 64d5 713a 44b6 34be
00000190: 6e02 283d a96a 123e 4159 2d3e ae13 103e
000001a0: e579 3cbd c724 33bc cd0b 243e 1c98 2e3e
000001b0: e4f6 c4bc 7748 643e f9f8 973e 9c46 b03d
000001c0: 6de7 633e ed88 cc3d fe14 b13d e65b fcbc
000001d0: 57fc d43d 6753 54bd 481a 023e a41f 423e
000001e0: 38f5 b4bd 607b 8f3d 169c 88bd 12c5 a6bc
000001f0: 889f a03d 217e 943d ee36 d0bd 0ac1 fbbd
00000200: 37b0 a93e 1479 5f3e 1db2 a0bc a7cf 19bb
00000210: 8522 813e 4b53 103f 2faa d33d 9acb 2ebf
00000220: abe4 2abd 8485 12bc 6d0c 08bd 1a0b 1dbc
00000230: 0cc9 f03d 7055 2d3e 8022 943e f73d b93d
00000240: 2a61 a03a 68f4 0b3f c6c2 453e ca41 8d3c
00000250: b30d d23c b5c3 523c 5f36 be3c 3940 be3c
00000260: 3542 123d b971 1f3e ee99 c13b a646 093e
00000270: 39e7 603e e941 9f3b 6934 1f3d dc20 34bb
00000280: 042d 8ebb d2b8 a13b b641 583e 46c4 7f3c
00000290: 95c7 3e3d 7854 123e 9899 283e 06c0 68bc
000002a0: 1f83 ef3a ce89 35bf 697d 1abd 0652 bb3e
000002b0: 7352 0c3e 93f6 0cbe 3c9e 3a3e a12a dd3c
000002c0: 43a7 0b3e 2c8f d53a baad 973d d225 4d3c
000002d0: 984d f83b 4306 033f 2f70 08bd e0df 0fbf
000002e0: cb3d 0b3e a2b9 8aba a0f7 e3bd 2452 513d
000002f0: 8842 ae3e d72f f5bc 03f5 d5bc 25c2 01bd
00000300: a6cf 5ebc 046f 883d b573 a83d 3531 dbbb
00000310: a3de 8fbd 6dfa a43d fa54 d13b 9808 a63c

decode.0.weight f4 [100, 11]
-0.013701494 0.14575881 0.20041682 0.12949991 0.09299656 0.15946053 -0.24983737 0.087385
-0.1404791 -0.17955837 -0.17418353 0.14630516 0.2777538 0.2505883 0.097582415 -0.4500906
0.04737333 -0.14668454 0.26699716 -0.06409135 -0.2821525 -0.25420028 0.1928475 -0.031111116
-0.07878697 -0.07517756 -0.4917824 0.16811237 -0.22014569 -0.20680904 0.3235644 0.10121888
0.21342932 5.0797877e-05 -0.09320057 -0.14132313 -0.051591557 0.120522045 0.049562152 0.1505901
0.0086849965 0.10739414 -0.20672245 0.055247325 0.061027102 -0.12226795 -0.42092854 0.16294163
-0.15064164 -0.52848047 -0.08566878 0.15766945 0.13230418 0.0682566 0.16588475 -0.2654462
0.0693318 -0.42881963 -0.19910191 0.20611854 -0.4135941 0.16384023 0.050717 -0.25972772
-0.04151765 -0.04988906 -0.64722574 -0.35819814 -0.044122756 -0.042132054 -0.20527886 -0.24422458
-0.25113082 0.05017925 0.23681904 0.17103004 -0.06890236 -0.007948605 0.26364204 0.037011035
0.13412581 -0.07245251 0.21067476 0.025281448 0.019933874 -0.15278971 -0.22457367 -0.12977709
-0.009380343 -0.26867566 0.14859253 -0.01119411 0.005298804 0.06296045 0.13401307 -0.027039975
-0.12259905 -0.032076817 0.13682485 0.008807792 -0.25322816 -0.15941028 0.117561795 0.062007714
0.11229382 -0.032439306 -0.27673364 -0.016278148 0.19156244 0.11656883 -0.020625131 0.2557352
-0.27346808 -0.15936244 -0.001013773 0.17959069 0.060861055 -0.09370717 -0.019752033 0.06492586
-0.069713846 0.06393955 -0.16043325 0.03183918 0.20807254 0.09951426 -0.080769844 -0.09016269
-0.11808083 0.122579046 -0.17189327 0.10432411 0.19291016 0.04781885 0.007502123 -0.20499538
0.19815123 -0.24081086 -0.30639327 -0.24578694 -0.13578103 0.19154869 0.27373764 -0.7453258
-0.0540596 -0.11794949 0.18896702 0.5417282 -0.25147524 -0.05949182 -0.08173591 -0.21497966
0.164234 0.30858198 -0.39416343 -0.06272145 -0.2793689 0.11972847 -0.23305723 0.00814192
-0.041730322 0.16665128 -0.14868483 0.11490702 0.07608614 -0.2842408 -0.34386897 -0.11033633
0.20310813 -0.10987792 -0.1896608 0.21280022 -0.24768212 -0.22144397 0.051890016 0.17426407
-0.19430678 0.25902727 0.38219056 0.14183928 0.09415252 0.4840498 -0.38635245 -0.23356126
-0.0871642 0.09635108 0.025425825 -0.8158706 0.24464087 0.4580264 -0.6176003 -0.13581981
0.20202665 -0.3906119 -0.5169307 -0.28782934 -0.17392358 -0.25654522 -0.52880657 -0.04063708
-0.06723081 0.15590982 -0.19419295 -0.07681025 0.028905157 0.04868828 0.05565123 -0.3902037
0.05514796 -0.1346908 0.3877197 -0.071108975 -0.2604709 0.08209947 0.11664068 -0.00080603256
-0.28257036 0.05429563 -0.22706608 -0.09943981 0.036797903 0.14396004 0.16313249 -0.065376885
-0.18200952 0.504236 0.019511037 -0.05656178 0.09098565 -0.06277949 -0.22619392 -0.03548858
-0.111254305 0.05953964 -0.25190967 0.04974792 0.08226023 0.04853208 -0.07198942 0.03832657
0.26565728 -0.05884645 0.044672772 -0.21375787 0.098487556 -0.24845922 0.060967963 -0.039289057
0.29107237 0.18405572 -0.12324384 -0.12055407 -0.0012884126 -0.6770192 -0.21685573 0.24202788
00000000: 3b7c 60bc cc41 153e 113a 4d3e a09b 043e
00000010: fb74 be3d 9f49 233e 5ed5 7fbe e8f6 b23d
00000020: c1d9 0fbe 26de 37be 2b5d 32be 05d1 153e
00000030: bf35 8e3e 1c4d 803e 4ad9 c73d 4672 e6be
00000040: 890a 423d 7934 16be dab3 883e 5342 83bd
00000050: 4b76 90be 8a26 82be d179 453e bddc febc
00000060: 105b a1bd b1f6 99bd e7ca fbbe a625 2c3e
00000070: df6d 61be c0c5 53be 3caa a53e d84b cf3d
00000080: 378d 5a3e ce0f 5538 f1df bebd 03b7 10be
00000090: ab51 53bd 43d4 f63d af01 4b3d 4b34 1a3e
000000a0: 844b 0e3c 75f1 db3d 0daf 53be 054b 623d
000000b0: 8ef7 793d 9e67 fabd f283 d7be 2cda 263e
000000c0: cd41 1abe 7f4a 07bf 1d73 afbd 1a74 213e
000000d0: bf7a 073e 1eca 8b3d b1dd 293e 90e8 87be
000000e0: d5fd 8d3d 3f8e dbbe 5fe1 4bbe bd10 533e
000000f0: 9bc2 d3be bcc5 273e a1bc 4f3d 08fb 84be
00000100: 690e 2abd 7958 4cbd 96b0 25bf bf65 b7be
00000110: 10ba 34bd a992 2cbd 9f34 52be 0216 7abe
00000120: 3894 80be c288 4d3d b180 723e 8022 2f3e
00000130: ae1c 8dbd de3a 02bc 17fc 863e e298 173d
00000140: 4758 093e fb61 94bd 20bb 573e 0a1b cf3c
00000150: 5d4c a33c e874 1cbe a4f6 65be 49e4 04be
00000160: 03b0 19bc db8f 89be a428 183e 8067 37bc
00000170: 97a1 ad3b 69f1 803d b93a 093e f082 ddbc
00000180: 3615 fbbd fb62 03bd d01b 0c3e 8f4e 103c
00000190: 1fa7 81be 733c 23be 3dc4 f03d cdfb 7d3d
000001a0: 4dfa e53d 14df 04bd 08b0 8dbe c059 85bc
000001b0: f228 443e a4bb ee3d 09f6 a8bc b9ef 823e
000001c0: 0204 8cbe e82f 23be 94e0 84ba 9fe6 373e
000001d0: 7149 793d 8be9 bfbd 04cf a1bc d9f7 843d
000001e0: 22c6 8ebd bdf2 823d 9d48 24be cd69 023d
000001f0: f810 553e 22ce cb3d a96a a5bd 37a7 b8bd
00000200: 5dd4 f1bd b90a fb3d ca04 30be e1a7 d53d
00000210: 3e8a 453e b3dd 433d 5ed4 f53b 4fea 51be
00000220: 28e8 4a3e 1f97 76be 94df 9cbe 92af 7bbe
00000230: 2f0a 0bbe 5725 443e 5727 8c3e accd 3ebf
00000240: 996d 5dbd 818f f1bd 9280 413e b3ae 0a3f
00000250: 5dc1 80be b2ad 73bd 2865 a7bd a123 5cbe
00000260: f52c 283e 75fe 9d3e cacf c9be 1b74 80bd
00000270: 7109 8fbe 3334 f53d 8ea6 6ebe b065 053c
00000280: 6aed 2abd a2a6 2a3e d640 18be 5f54 eb3d
00000290: 0dd3 9b3d 0388 91be 980f b0be 04f8 e1bd
000002a0: 94fb 4f3e ad07 e1bd 7136 42be 4de8 593e
000002b0: 62a0 7dbe 35c2 62be a08a 543d 4872 323e
000002c0: 5bf8 46be 399f 843e 7bae c33e 513e 113e
000002d0: 09d3 c03d 60d5 f73e fdcf c5be af2a 6fbe
000002e0: 2583 b2bd b753 c53d d249 d03c e5dc 50bf
000002f0: 2383 7a3e 7082 ea3e 0e1b 1ebf 5914 0bbe
00000300: 13e0 4e3e 48fe c7be 9255 04bf 5e5e 93be
00000310: 0619 32be e559 83be de5f 07bf 1173 26bd
00000320: 4fb0 89bd d3a6 1f3e 84da 46be b14e 9dbd
00000330: 82ca ec3c 5d6d 473d 8bf2 633d c8c8 c7be
00000340: d4e2 613d 63ec 09be 3283 c63e 95a1 91bd
00000350: 715c 85be c423 a83d 4fe1 ee3d ee4b 53ba
00000360: 10ad 90be 1865 5e3d 0384 68be 19a7 cbbd
00000370: 66b9 163d 436a 133e 340c 273e 51e4 85bd
00000380: b460 3abe 9c15 013f 9cd5 9f3c 53ad 67bd
00000390: af56 ba3d 8992 80bd 619f 67be 795c 11bd
000003a0: 4cd9 e3bd d6df 733d 4efa 80be 7ac4 4b3d
000003b0: 0d78 a83d 93c9 463d 306f 93bd 52fc 1c3d
000003c0: 3b04 883e fa08 71bd ccfa 363d 58e3 5abe
000003d0: d8b3 c93d 186c 7ebe 8bb9 793d 90ed 20bd
000003e0: 7007 953e 1a79 3c3e 4467 fcbd 0de5 f6bd
000003f0: f4df a8ba 2151 2dbf 6e0f 5ebe 28d6 773e

decode.2.weight f4 [100, 100]
0.031213319 0.0075181113 -0.005760782 0.016068595 0.124466136 0.01159934 0.007788333 0.07575317
-0.019976059 0.048355386 -0.015400157 -0.20628834 0.018561205 0.06945027 0.12914625 -0.07219356
0.016449189 -0.023556894 -0.049725994 0.181279 0.08027715 -0.07073515 -0.16274288 -0.026715824
-0.03355661 0.051908858 0.022963433 0.030362152 -0.028318997 0.012785113 -0.050393466 0.06283935
-0.019398443 -0.041897617 -0.081199385 0.010778376 -0.05986945 0.07125014 -0.0065396535 0.033269837
0.06657838 -0.08664164 0.046318058 0.07188976 -0.13145584 0.016703255 -0.0023386574 0.032974888
-0.091591865 -0.067102954 -0.0362217 0.032450676 0.06852045 -0.06387142 -0.053517327 -0.032461587
0.19854297 0.08365258 0.03048292 -0.021259908 -0.034131885 0.13126455 0.028169578 0.073514976
0.051791828 0.15644877 -0.18930803 0.0038381505 -0.084822424 -0.036472388 -0.06290472 0.09729222
-0.147228 -0.0052437503 0.04879443 0.054318283 -0.1087022 -0.022028916 0.109401904 0.07737939
0.15816309 -0.0520538 -0.056156617 -0.06282197 0.051252794 0.0060153925 0.17019877 -0.035041247
-0.054032657 -0.059814427 -0.1467703 -0.058588862 -0.030275954 -0.045061707 0.06260396 -0.020551119
0.02455689 -0.11327694 -0.0277234 -0.014811216 0.03201406 0.06641107 -0.033773966 0.049620204
-0.017098397 -0.08712665 0.027041588 -0.028438155 0.025206659 -0.026736243 -0.008094951 0.020196738
-0.0015993172 0.0050059403 -0.040262204 -0.08985709 -0.018671207 0.0286942 -0.06218058 -0.02813128
-0.007043217 0.045835152 -0.007898964 -0.0004410667 -0.0408241 0.010497036 0.057249267 0.0392305
0.064096555 -0.041420806 -0.059960462 0.063894786 0.03194956 -0.025812984 -0.059239265 0.056232322
-0.03418151 0.10200628 0.0222695 0.034121603 0.07381469 0.07215326 0.008218095 0.046568066
0.07007921 -0.03361619 0.047186736 0.08434559 0.13499703 0.025682537 -0.042902943 -0.017048044
-0.05531429 0.055159543 0.0023698995 0.009798169 -0.054905098 0.016607799 -0.11713113 0.017938012
0.05392373 -0.06131194 -0.05018828 0.05984744 0.037836455 0.080175385 0.06617211 -0.08320762
0.061298765 -0.06382154 -0.050343946 0.06764479 -0.075352564 -0.068628855 -0.08657629 -0.0623396
0.052771132 -0.0585328 0.034197688 0.011600288 0.018720288 0.10682122 0.12547281 0.05365273
0.006444951 -0.009715267 0.014365284 -0.06869336 0.10877185 -0.07818383 -0.0022508583 0.07727394
0.024721907 -0.032766335 0.054751966 0.053511538 -0.117150895 -0.053093538 -0.022543723 -0.008345434
0.07329255 -0.018954277 -0.13194034 -0.09566642 -0.08067481 0.15195836 0.00661067 0.015438723
0.024393577 0.13455789 0.05616025 -0.10756829 -0.23486695 0.068694524 -0.092378624 0.07255673
0.05250806 -0.017838705 0.034305144 -0.12763907 0.1458556 0.021662213 -0.10600089 -0.03204928
-0.33353782 0.060213797 -0.082818955 0.012544181 0.028218795 -0.18296139 0.072218046 0.027671928
-2.7128219e-05 0.08795384 -0.005957265 0.019947974 0.062956385 0.06279824 -0.108524404 -0.015545869
-0.030088749 -0.09578889 -0.06494067 -0.25101462 -0.096777186 0.11200701 -0.022493342 -0.03287251
-0.06489521 -0.080105856 0.0295701 -0.025374036 -0.025201702 0.017211964 0.06968078 -0.12593499
00000000: 13b3 ff3c 7d5a f63b f1c4 bcbb 49a2 833c
00000010: 1ae8 fe3d 280b 3e3c 4635 ff3b 7a24 9b3d
00000020: d5a4 a3bc 4c10 463d f150 7cbc 403d 53be
00000030: ab0d 983c f13b 8e3d ea3e 043e 38da 93bd
00000040: 73c0 863c 63fa c0bc 7cad 4bbd 34a1 393e
00000050: 5968 a43d 97dd 90bd 12a6 26be 25db dabc
00000060: a872 09bd 629e 543d cf1d bc3c 0cba f83c
00000070: 3efd e7bc a778 513c 6169 4ebd ebb1 803d
00000080: 7ce9 9ebc d69c 2bbd dd4b a6bd c997 303c
00000090: ab39 75bd 98eb 913d 974a d6bb f445 083d
000000a0: 3f5a 883d 2c71 b1bd 01b8 3d3d f03a 933d
000000b0: 5c9c 06be 44d5 883c 2944 19bb ad10 073d
000000c0: 8494 bbbd 466d 89bd 355d 14bd 00eb 043d
000000d0: 7354 8c3d 05cf 82bd fc34 5bbd 71f6 04bd
000000e0: d94e 4b3e 0b52 ab3d 51b7 f93c 4229 aebc
000000f0: e0cd 0bbd 376a 063e e3c3 e63c 058f 963d
00000100: ab23 543d 1b34 203e f7d9 41be 7b89 7b3b
00000110: 61b7 adbd 1264 15bd 31d4 80bd 2541 c73d
00000120: f0c2 16be c4d3 abbb abdc 473d d97c 5e3d
00000130: 429f debd fc75 b4bc 1b0e e03d 1679 9e3d
00000140: 81f5 213e 5e36 55bd 7b04 66bd cea8 80bd
00000150: 73ee 513d c51c c53b 9648 2e3e 6987 0fbd
00000160: 5951 5dbd f9ff 74bd f44a 16be e0fa 6fbd
00000170: 4705 f8bc a092 38bd 8136 803d d25a a8bc
00000180: 882b c93c befd e7bd 2f1c e3bc beaa 72bc
00000190: 2d21 033d 8702 883d 9256 0abd 8e3e 4b3d
000001a0: f011 8cbc 756f b2bd 5286 dd3c 22f7 e8bc
000001b0: 327e ce3c f705 dbbc afa0 04bc a173 a53c
000001c0: 2ea0 d1ba df08 a43b fbe9 24bd fe06 b8bd
000001d0: 5cf4 98bc 1910 eb3c 10b1 7ebd 9273 e6bc
000001e0: c9ca e6bb a4bd 3b3d a86a 01bc f83e e7b9
000001f0: 2c37 27bd c3fb 2b3c 357e 6a3d 29b0 203d
00000200: 0e45 833d dda8 29bd 1a99 75bd 45db 823d
00000210: 8bdd 023d c075 d3bc dfa4 72bd dd53 663d
00000220: e901 0cbd abe8 d03d 876e b63c 18c3 0b3d
00000230: 282c 973d 17c5 933d 30a5 063c 28be 3e3d
00000240: b085 8f3d 21b1 09bd e146 413d 61bd ac3d
00000250: a93c 0a3e 2f64 d23c ffba 2fbd 57a8 8bbc
00000260: 3d91 62bd f9ee 613d 5150 1b3b 8088 203c
00000270: 2be4 60bd 140d 883c 72e2 efbd bdf2 923c
00000280: 21df 5c3d 3b22 7bbd 3a92 4dbd 9722 753d
00000290: 66fa 1a3d fe32 a43d 3e85 873d c268 aabd
000002a0: 6a14 7b3d deb4 82bd 7435 4ebd 5a89 8a3d
000002b0: 7252 9abd 498d 8cbd e94e b1bd cf57 7fbd
000002c0: 8b26 583d 17c0 6fbd e012 0c3d 220f 3e3c
000002d0: 4a5b 993c 15c5 da3d f27b 003e f7c2 5b3d
000002e0: 2b30 d33b c92c 1fbc 5e5c 6b3c 1baf 8cbd
000002f0: c7c3 de3d d81e a0bd 2383 13bb cd41 9e3d
00000300: 9985 ca3c fe35 06bd 9943 603d ea2e 5b3d
00000310: cfec efbd 9c78 59bd 9dad b8bc 4abb 08bc
00000320: 681a 963d 0046 9bbc 5e1b 07be c2ec c3bd
00000330: d638 a5bd f99a 1b3e 529e d83b b3f2 7c3c
00000340: 0ad5 c73c 8bc9 093e 4a08 663d c34c dcbd
00000350: f680 70be b7af 8c3d 0131 bdbd 9f98 943d
00000360: b112 573d 7a22 92bc 8d83 0c3d d1b3 02be
00000370: 2c5b 153e f474 b13c ff16 d9bd 1b46 03bd
00000380: 78c5 aabe bea2 763d fc9c a9bd 1c86 4d3c
00000390: 1a2b e73c 3b5a 3bbe 0ee7 933d 3db0 e23c
000003a0: 6891 e3b7 2521 b43d 2935 c3bb ef69 a33c
000003b0: 47ef 803d 5d9c 803d 0b42 debd 1ab4 7ebc
000003c0: ae7c f6bc f72c c4bd 9dff 84bd fd84 80be
000003d0: 1e33 c6bd ee63 e53d f543 b8bc 53a5 06bd
000003e0: c8e7 84bd 8a0e a4bd ff3c f23c 36dd cfbc
000003f0: cd73 cebc 1b00 8d3c ccb4 8e3d 1af5 00be

decode.4.weight f4 [1, 100]
7.430636e-05 0.00018265043 -0.009299783 0.00061810453 -0.004530312 -0.00020540431 0.00023774672 -0.00031515298
0.027772365 -0.00023091208 -3.2016753e-05 0.00015282283 -0.07202935 0.0006000644 0.0023566594 -0.0005497935
-0.00011816279 -0.09261073 0.121238515 0.009180703 -0.040666007 0.09359933 -0.09496888 0.10381179
0.12995182 0.00021412659 2.4718684e-05 -0.00016247407 -0.055035774 0.06702797 0.00034573322 -5.9814483e-06
0.00029439986 -0.000108233005 -0.00022887 -0.00040704926 -0.13274236 0.00013815363 -6.235513e-05 -0.04338191
-0.0004775183 -0.00028230387 -0.006007084 0.00043622762 0.12994266 0.00026228925 -0.017682385 -0.034570623
-0.00057147664 1.0002463e-05 -0.00079894386 0.00031885994 0.0008267606 -7.213676e-05 -0.0007925949 -0.00063339283
-0.022341458 0.00015049805 0.0007810923 0.0005124613 9.029246e-05 0.00028167202 0.00026417768 0.0003063401
-4.902152e-05 0.00044767366 -5.3884753e-05 -0.00030001035 2.6901575e-05 0.055880368 0.0002854019 -4.343727e-05
0.00055972894 3.2759268e-05 2.0347326e-05 0.0007952555 0.11622123 9.800547e-05 -0.12410669 0.146414
-0.00021091667 -0.00048424065 -0.11992748 0.0008815535 0.030081328 -0.0004558153 0.00032228115 0.00024414004
-0.0007217525 6.191446e-05 -9.649009e-05 -0.00028872484 0.00033352518 -0.01607869 0.00041730326 -0.000514634
-0.0002708221 0.0005220551 -0.17466383 -0.07013018
00000000: ecd4 9b38 da85 3f39 1e5e 18bc 4b08 223a
00000010: 0373 94bb cd61 57b9 a64b 7939 1e3b a5b9
00000020: df82 e33c fd20 72b9 ba49 06b8 113f 2039
00000030: 2084 93bd a44d 1d3a 2f72 1a3b 0420 10ba
00000040: 2ace f7b8 b2aa bdbd e64b f83d a96a 163c
00000050: 6691 26bd 01b1 bf3d 0b7f c2bd 479b d43d
00000060: 1712 053e 2b87 6039 f85a cf37 cd5d 2ab9
00000070: 316d 61bd f645 893d 8743 b539 40b4 c8b6
00000080: ae59 9a39 27fb e2b8 d3fc 6fb9 3a69 d5b9
00000090: 9ded 07be 55dd 1039 a8c4 82b8 3bb1 31bd
000000a0: 6c5b fab9 2f02 94b9 13d7 c4bb 7bb5 e439
000000b0: b00f 053e de83 8939 a6da 90bc ed99 0dbd
000000c0: 26cf 15ba 40d0 2737 3770 51ba a82c a739
000000d0: f7ba 583a 2148 97b8 25c6 4fba 460a 26ba
000000e0: 6f05 b7bc 03cf 1d39 38c2 4c3a b256 063a
000000f0: 655b bd38 61ad 9339 5481 8a39 469c a039
00000100: 759c 4db8 beb5 ea39 5002 62b8 b54a 9db9
00000110: b1aa e137 d0e2 643d ffa1 9539 6a30 36b8
00000120: c6ba 123a ff66 0938 8daf aa37 b178 503a
00000130: 6505 ee3d 4988 cd38 a62b febd 8ded 153e
00000140: 8329 5db9 aee1 fdb9 8a9c f5bd 0e18 673a
00000150: 1e6d f63c 7efa eeb9 d8f7 a839 d8ff 7f39
00000160: fe33 3dba 13d8 8138 b95a cab8 fe5f 97b9
00000170: fedc ae39 75b7 83bc 7fc9 da39 81e8 06ba
00000180: 21fd 8db9 86da 083a 13db 32be 69a0 8fbd
