Quantum/1 qubit/incomplete/models/2_latent.pt (torch, 93607 bytes, 6 tensors)

encode.0.weight f4 [100, 10]
-0.13469161 -0.29542944 0.328538 -0.2760197 0.3271029 0.38451418 0.007533181 -0.17446908
-0.22895537 0.02688522 0.19743295 -0.0063786358 0.030472405 -0.35845923 0.04287377 -0.14957006
0.008606276 0.07444592 0.10579864 0.060744315 0.2506192 -0.24511696 0.13516352 0.27427316
-0.023856282 -0.12809871 -0.012685065 0.075050384 -0.08288941 -0.24216661 0.18593194 -0.23723042
0.0564661 0.18175703 -0.10349048 0.005914918 0.034181055 -0.0066757035 -0.16606486 0.028562335
-0.12478314 -0.07057109 -0.23129565 0.213615 0.24008319 0.13403888 -0.23440358 0.06094795
0.12713255 -0.121563844 0.1903194 -0.31477392 -0.1009033 0.21209 0.16941422 -0.16378812
0.15019064 -0.1179664 0.063922994 -0.0861071 -0.12569582 0.20550819 0.2000543 -0.122175336
-0.07922792 -0.13201152 0.033239424 0.0640399 -0.19560517 0.15197617 0.15060516 0.37794024
-0.5543283 -0.12516841 0.20797554 -0.07149878 -0.044571094 0.2781102 -0.28267506 -0.17279924
-0.38365844 -0.11247996 0.26547402 -0.1710451 0.23793012 -0.2764732 0.18425666 0.021846667
-0.4572081 -0.4218494 -0.31867665 0.15815766 0.016326914 -0.15138084 0.30982515 -0.04822904
0.19790775 -0.3583315 0.28116482 0.014609756 0.18505636 -0.03990451 -0.5923423 -0.07819851
-0.0132578295 0.1509598 0.32529354 -0.16584891 -0.51222014 -0.006233875 -0.37716424 0.007729323
-0.3284389 -0.042295218 0.1058889 0.14768472 0.11378515 -0.060531605 0.23199493 0.20456943
-0.31263065 0.11610715 0.048435356 0.09259578 -0.45194167 -0.1921248 -0.2649305 -0.3994771
0.27051854 0.259837 -0.27224642 0.24006519 0.26252568 -0.38182828 0.026362332 0.13023978
0.33503175 -0.05134638 -0.38616127 -0.07968274 -0.16013138 0.22072501 0.22465494 -0.14914902
-0.12717414 -0.036537025 -0.18147945 0.28394607 -0.14956163 0.08003266 0.19731326 -0.11435963
-0.08755019 -0.27548817 0.17271876 0.104697175 -0.24181902 -0.029477404 0.010078441 0.2605568
-0.27542025 -0.21397547 -0.31772643 -0.030497598 0.1340232 0.111363046 0.19903903 -0.13584474
0.2473892 0.29819578 -0.069666654 -0.09122244 -0.1936327 -0.03702863 0.062659286 0.29643214
0.333986 0.41645798 -0.15662637 -0.19285247 -0.2978539 -0.10586989 0.16148789 0.23563476
-0.14267212 0.009334171 -0.2224613 -0.33088055 0.19633883 -0.023738312 0.11453761 0.22914262
0.069257095 -0.11518062 -0.09366886 -0.08998621 0.26224047 -0.25876722 -0.030568363 -0.0944815
0.07837076 -0.25169298 0.20061494 0.20699713 0.19485022 -0.22159825 -0.10957009 -0.2693809
0.1778227 0.114824936 -0.07303158 -0.0071086604 0.12671664 0.307813 -0.022300437 -0.0153866615
-0.11966254 0.11230117 -0.19830552 -0.11060142 -0.0824498 -0.095048144 0.23254836 -0.23942535
-0.23647363 -0.43848628 -0.40614364 -0.24175876 0.33103994 0.08747351 0.25667882 0.14428714
-0.08293947 -0.23938692 -0.3234926 -0.3281426 0.06264423 0.33038646 -0.22987306 0.17090838
-0.1856785 -0.13700119 0.11197054 0.20318593 0.044504322 -0.3697132 -0.5566943 -0.53733355
0.38876107 -0.24411137 0.08338401 -0.14543186 -0.07491409 -0.03635264 0.17814149 -0.2719227
00000000: 99ec 09be 8742 97be 2236 a83e 7452 8dbe
00000010: 087a a73e 0bdf c43e e7d8 f63b 06a8 32be
00000020: 4773 6abe 653e dc3c dd2b 4a3e e003 d1bb
00000030: 44a1 f93c f887 b7be 689c 2f3d e528 19be
00000040: 5601 0d3c 1a77 983d f5ac d83d 08cf 783d
00000050: 2951 803e f1ff 7abe 4e68 0a3e 886d 8c3e
00000060: 406e c3bc 4f2c 03be 05d5 4fbc 04b4 993d
00000070: ecc1 a9bd 86fa 77be f164 3e3e 88ec 72be
00000080: ff48 673d 841e 3a3e d1f2 d3bd eed1 c13b
00000090: 6f01 0c3d dcbf dabb e80c 2abe 8ffb e93c
000000a0: 4e8e ffbd 9387 90bd c4d8 6cbe e4bd 5a3e
000000b0: 5ed8 753e 7d41 093e 7e07 70be 8fa4 793d
000000c0: 092f 023e 77f6 f8bd 17e3 423e 0c2a a1be
000000d0: 64a6 cebd 1f2e 593e ec7a 2d3e 13b8 27be
000000e0: 93cb 193e 5e98 f1bd 0fea 823d eb58 b0bd
000000f0: 68b6 00be bd70 523e 09db 4c3e 1037 fabd
00000100: 3f42 a2bd 072e 07be 1026 083d 5a27 833d
00000110: b94c 48be a49f 1b3e 3d38 1a3e 6281 c13e
00000120: 76e8 0dbf 262c 00be 8af7 543e f46d 92bd
00000130: 2e90 36bd 7664 8e3e c9ba 90be 49f2 30be
00000140: e16e c4be e55b e6bd 36ec 873e 7226 2fbe
00000150: f4a3 733e e58d 8dbe c7ad 3c3e c8f7 b23c
00000160: 2e17 eabe a5fc d7be 9629 a3be 15f4 213e
00000170: 05c0 853c 9403 1bbe 67a1 9e3e d08b 45bd
00000180: 54a8 4a3e 3a77 b7be d6f4 8f3e c25d 6f3c
00000190: 6a7f 3d3e e972 23bd bfa3 17bf 8a26 a0bd
000001a0: 5e37 59bc 3595 1a3e e08c a63e 4cd4 29be
000001b0: dc20 03bf 8945 ccbb ac1b c1be 4346 fd3b
000001c0: 2529 a8be c03d 2dbd 48dc d83d aa3a 173e
000001d0: 3008 e93d fdef 77bd 1490 6d3e a67a 513e
000001e0: 2011 a0be 96c9 ed3d 2764 463d dba2 bd3d
000001f0: e664 e7be 5dbc 44be f8a4 87be 4388 ccbe
00000200: 6881 8a3e 5b09 853e e263 8bbe a6d3 753e
00000210: c469 863e ff7e c3be d1f5 d73c 945d 053e
00000220: 4889 ab3e 9550 52bd eeb6 c5be b430 a3bd
00000230: 7bf9 23be bd05 623e f20b 663e 85ba 18be
00000240: f039 02be d9a7 15bd c0d5 39be 6161 913e
00000250: af26 19be 2ae8 a33d 7d0c 4a3e 6235 eabd
00000260: 844d b3bd c90c 8dbe 30dd 303e 796b d63d
00000270: 689f 77be 997a f1bc 0c20 253c b367 853e
00000280: e203 8dbe 631c 5bbe 0aad a2be 19d6 f9bc
00000290: 613d 093e 4f12 e43d e3d0 4b3e e21a 0bbe
000002a0: 9853 7d3e 1ead 983e 64ad 8ebd d5d2 babd
000002b0: a747 46be 55ab 17bd 8353 803d f4c5 973e
000002c0: 3700 ab3e fb39 d53e aa62 20be 1e7b 45be
000002d0: 4e80 98be 50d2 d8bd 155d 253e 3d4a 713e
000002e0: a418 12be 5aee 183c e5cc 63be 2d69 a9be
000002f0: 0c0d 493e d976 c2bc b292 ea3d 5da4 6a3e
00000300: aad6 8d3d d1e3 ebbd 76d5 bfbd b14a b8bd
00000310: 6244 863e 237d 84be 816a fabc 847f c1bd
00000320: d980 a03d e7dd 80be 016e 4d3e 0ef7 533e
00000330: d186 473e a7ea 62be 4966 e0bd 4bec 89be
00000340: 2717 363e 5629 eb3d 9591 95bd c4ef e8bb
00000350: 02c2 013e aa99 9d3e 68af b6bc 5618 7cbc
00000360: a211 f5bd 28fe e53d 9a10 4bbe ff82 e2bd
00000370: 71db a8bd 9aa8 c2bd 2821 6e3e eb2b 75be
00000380: 2526 72be 4681 e0be 0ff2 cfbe 9c8f 77be
00000390: 117e a93e 5025 b33d 686b 833e 02c0 133e
000003a0: 2bdc a9bd d821 75be d2a0 a5be 4f02 a8be
000003b0: 9e4b 803d 6a28 a93e d863 6bbe 9b02 2f3e
000003c0: 8122 3ebe 0a4a 0cbe cf50 e53d f90f 503e
000003d0: 2a4a 363d 0c4b bdbe 8583 0ebf b18e 09bf
000003e0: b10b c73e 55f8 79be 3cc5 aa3d 17ec 14be
000003f0: 8f6c 99bd 81e6 14bd b96a 363e 7439 8bbe

encode.2.weight f4 [100, 100]
0.0032861033 0.019465476 -0.02298518 -0.053778987 -0.026747135 0.0050005484 -0.0041295653 0.63177943
0.3423189 -0.18682829 1.4580553 0.059833176 0.10540277 0.12266842 -0.030601988 0.0074792583
0.044627078 0.01663908 0.067993775 0.022547064 -0.32960454 0.010075665 0.06088765 0.36186063
0.04080775 0.03302032 0.07701762 0.09130209 -0.2654832 0.0043224487 -0.022843082 -0.34523317
0.05973813 -0.06046889 0.10881139 -0.0069983522 -0.047257572 0.26944172 0.32717088 -0.01269819
0.0047656065 0.047798872 -0.012667759 0.030717809 0.9262629 -0.47689107 0.6111594 -0.53230697
0.46440494 -0.027924106 -0.26806295 0.025499104 -0.4590409 0.016138159 0.6013868 0.05907972
0.021455597 0.52008516 0.014918195 0.0009944862 0.111073546 -0.34671316 -1.220664 -0.5572637
0.38398337 0.0025104757 0.4139248 0.06082946 -0.09171533 -0.11731376 -0.0120474715 0.10828481
0.05099569 0.013613204 0.074556895 0.0013678203 0.16379066 0.015061856 0.15557991 0.0973166
-0.5242214 1.0482168 -0.40650952 -0.23781426 0.015274498 0.027752213 0.5230739 0.5913417
-0.031946413 0.18260373 0.7068177 0.103781804 0.13205709 -0.4860857 -0.34206575 -0.18133235
0.04982227 0.012822445 -0.11616941 0.56606615 -0.033696048 0.02369475 -0.011760008 0.037621103
-0.016214872 0.0013636415 -0.021316832 0.003199825 0.05683369 0.11817707 -0.019217161 0.03386193
0.0036548064 -0.018000904 0.032973506 0.033238426 -0.0037066555 -0.08228192 -0.10570959 0.036839314
-0.0059071393 0.070589684 0.003794799 0.038030494 0.053578127 0.040962316 0.03174146 -0.019141147
-0.14064735 -0.06940821 0.08580888 -0.08068714 0.069990195 -0.006813016 -0.036013093 0.00872136
-0.05244845 -0.014114339 0.060735244 0.007509323 0.013110291 0.0024824934 -0.08193247 0.017322192
0.02038632 0.054568466 -0.02885057 -0.012039587 -0.071978375 -0.021660943 0.102864236 -0.0017703077
0.1260305 -0.027263705 -0.12130478 -0.018013597 0.029830625 -0.013983989 -0.06830277 0.019112978
0.033642605 -0.09591328 -0.029415905 0.017235188 0.026313769 0.061536185 -0.07844009 -0.03422913
0.019480316 0.017816817 -0.16308214 0.014942564 0.035473358 -0.0016379264 -0.042377703 -0.017485889
-0.095799975 0.098601714 -0.017254665 -0.004929206 -0.066024765 -0.06310159 0.019543681 -0.0256242
-0.004201508 0.002153971 0.063794136 0.08259607 0.0027041007 -0.023476748 -0.040422425 -0.017709062
0.09560096 -0.03681629 0.043796394 0.06517381 -0.0064192107 -0.037673213 -0.036576934 0.055103566
-0.021362843 0.009468334 -0.06894484 0.0057604527 -0.07025793 0.016061202 0.05274059 -0.002395908
0.06787371 0.037645057 0.036232408 -0.040776882 0.046164047 -8.951928e-06 -0.04226804 -0.025947161
0.081074476 -0.01727843 -0.052484836 0.024312217 -0.04281161 0.07607091 0.004895098 -0.055827588
-0.0035815814 -0.044894204 0.052960757 0.061581317 0.040139116 0.099079706 0.04538657 -0.044794817
0.019508865 0.13479312 -0.05139906 0.0073174816 0.026918467 0.060084883 -0.103544906 -0.07531345
0.008052595 -0.044722665 0.03502284 0.028028635 -0.1082537 -0.06163264 0.020078355 -0.061391722
0.008744658 0.06838038 0.09664928 -0.007746078 0.024548545 0.12548885 -0.037173804 0.0107038915
00000000: aa5b 573b 1076 9f3c 6b4b bcbc 5b47 5cbd
00000010: cf1c dbbc a4db a33b 4e51 87bb 4cbc 213f
00000020: 6c44 af3e ea4f 3fbe 8ea1 ba3f a213 753d
00000030: 68dd d73d 9539 fb3d 05b1 fabc 9114 f53b
00000040: e2ca 363d ae4e 883c 5240 8b3d 9fb4 b83c
00000050: edc1 a8be 6714 253c 5465 793d cc45 b93e
00000060: 0726 273d 5140 073d 6abb 9d3d 97fc ba3d
00000070: 6aed 87be 54a3 8d3b 6a21 bbbc 67c2 b0be
00000080: f8af 743d 3aae 77bd 82d8 de3d 6f52 e5bb
00000090: 2891 41bd 44f4 893e f182 a73e 120c 50bc
000000a0: ce28 9c3b c0c8 433d 6f8c 4fbc eaa3 fb3c
000000b0: 911f 6d3f 112b f4be f174 1c3f 4545 08bf
000000c0: 7cc6 ed3e 18c1 e4bc 8c3f 89be 7fe3 d03c
000000d0: 6907 ebbe 2c34 843c 7cf4 193f 94fd 713d
000000e0: a6c3 af3c 4d24 053f 726b 743c 6b59 823a
000000f0: 877a e33d 6384 b1be b83e 9cbf d5a8 0ebf
00000100: 7899 c43e cb86 243b f4ed d33e 5028 793d
00000110: 3fd5 bbbd 3242 f0bd c262 45bc 6dc4 dd3d
00000120: dbe0 503d ea09 5f3c 49b1 983d 6f48 b33a
00000130: bdb8 273e 01c6 763c 5750 1f3e ed4d c73d
00000140: 6033 06bf f82b 863f 0422 d0be 9585 73be
00000150: e341 7a3c 9c58 e33c 2ce8 053f 2b62 173f
00000160: 3eda 02bd 79fc 3a3e 01f2 343f 8e8b d43d
00000170: f939 073e 3ae0 f8be 3e23 afbe 30af 39be
00000180: 7012 4c3d 3b15 523c 3aea edbd b6e9 103f
00000190: de04 0abd 7e1b c23c 0cad 40bc 9618 1a3d
000001a0: 0dd5 84bc 37bc b23a a3a0 aebc 28b4 513b
000001b0: 71ca 683d d206 f23d 4f6d 9dbc cfb2 0a3d
000001c0: 7a85 6f3b a276 93bc 3a0f 073d 0425 083d
000001d0: 5ceb 72bb 6c83 a8bd 457e d8bd d2e4 163d
000001e0: ad90 c1bb 5391 903d 2ab2 783b ddc5 1b3d
000001f0: bd74 5b3d 1ac8 273d 5503 023d e5cd 9cbc
00000200: dc05 10be e425 8ebd 91bc af3d 4d3f a5bd
00000210: 0557 8f3d b83f dfbb 7782 13bd 09e4 0e3c
00000220: 30d4 56bd d43f 67bc 85c5 783d c410 f63b
00000230: 8ccc 563c 54b1 223b 36cc a7bd 45e7 8d3c
00000240: 3601 a73c 2f83 5f3d 0858 ecbc b041 45bc
00000250: 6669 93bd 4a72 b1bc 7caa d23d ab09 e8ba
00000260: 240e 013e 2258 dfbc a46e f8bd 4091 93bc
00000270: 5b5f f43c 1a1d 65bc 53e2 8bbd d292 9c3c
00000280: d4cc 093d 2f6e c4bd a0f9 f0bc cf30 8d3c
00000290: f98f d73c 5e0d 7c3d 33a5 a0bd d833 0cbd
000002a0: 2f95 9f3c 93f4 913c 01ff 26be a8d1 743c
000002b0: 834c 113d b1af d6ba 3e94 2dbd 913e 8fbc
000002c0: c732 c4bd b2ef c93d a859 8dbc 2d85 a1bb
000002d0: fe37 87bd 683b 81bd 121a a03c d8e9 d1bc
000002e0: ceac 89bb a329 0d3b 80a6 823d 2128 a93d
000002f0: 4837 313b 4f52 c0bc fc91 25bd 9812 91bc
00000300: 70ca c33d aecc 16bd d963 333d d979 853d
00000310: 3e58 d2bb 3a4f 1abd b2d1 15bd 47b4 613d
00000320: 2101 afbc 1221 1b3c f432 8dbd 2ec2 bc3b
00000330: 64e3 8fbd c892 833c 8406 583d ab04 1dbb
00000340: 5f01 8b3d b431 1a3d 6f68 143d a905 27bd
00000350: 8316 3d3d 3d30 16b7 4121 2dbd 248f d4bc
00000360: 600a a63d 7e8b 8dbc 57fa 56bd 6a2a c73c
00000370: 3a5b 2fbd 11cb 9b3d 0f67 a03b 78ab 64bd
00000380: f7b8 6abb fce2 37bd 61ed 583d b13c 7c3d
00000390: ea68 243d 4dea ca3d 45e7 393d c57a 37bd
000003a0: 0ed1 9f3c 3507 0a3e d287 52bd 7cc7 ef3b
000003b0: 1e84 dc3c 911b 763d 5a0f d4bd f03d 9abd
000003c0: 08ef 033c 1d2f 37bd 1c74 0f3d 4f9c e53c
000003d0: 1eb4 ddbd 8272 7cbd 5d7b a43c e375 7bbd
000003e0: c145 0f3c 030b 8c3d 0ff0 c53d d0d2 fdbb
000003f0: 081a c93c 2680 003e 8f43 18bd 605f 2f3c

encode.4.weight f4 [4, 100]
0.16611528 0.0004147251 -0.00036299735 -0.00043496484 0.008717862 -0.00023492383 -0.00029020518 0.00024683375
-0.00019936355 0.00023350767 0.005883967 -0.0003248437 0.18093102 0.00041084577 -0.00024237037 -0.00049365964
0.00048016227 0.00047726207 -0.00044767483 -0.007877642 0.00043390208 -0.0006744948 0.21956235 -0.0003059178
0.00017827244 2.2778175e-05 0.00028605212 -3.911578e-05 -0.00015831762 0.00011238463 0.008310092 0.0005351771
0.035478383 -0.2758667 -0.00024324619 -2.1548767e-06 0.060590073 -0.000366933 -0.19767006 -0.122678354
-0.12005763 -0.05980072 0.00013437668 -6.9673915e-05 0.1105525 -0.13576618 9.483527e-05 -0.000456828
0.00018508984 -0.086752854 0.00023526936 -0.016075496 0.00037506944 -0.0054760436 -0.00040181688 0.021017676
0.00011782905 0.08892302 0.00065717386 -0.16647406 -0.000509393 0.0005684344 -0.0037844128 0.00020585285
-0.00013875154 -0.00036293178 0.0006214629 0.14050806 0.006080096 -0.000724145 0.00028522202 9.2191825e-05
-0.031065136 1.8297447e-05 0.058286153 -0.00023573561 -0.00040141013 0.00052002986 0.00030421145 0.04539112
0.0060047805 -0.00025782356 -4.6664507e-05 0.0005679562 0.00027208283 -0.12585844 -5.320606e-05 0.00037549296
0.0005134158 -0.06737492 0.13006772 0.026178768 -0.00035720685 0.064984545 0.0023044446 0.00030652125
0.09571164 0.092721745 -0.012940072 -0.011321282 0.049813394 -0.000107911605 -6.743146e-05 0.0002366615
-0.030196255 0.00030131926 -0.00018132807 -0.00065875467 -0.00015235979 0.0003564318 0.0047331313 -0.00014146233
0.03986307 -5.126596e-05 -0.0005037749 -0.0001526234 0.00045055852 0.00026053278 -7.196741e-05 -0.19387737
0.00029677566 -0.0001461912 -0.056035135 0.000109225424 -0.0003435846 0.00011671184 4.8965405e-05 0.00033021023
-5.1888383e-05 -0.00015429835 -0.001642233 -1.4701765e-05 0.14778511 0.015201369 0.00033485144 -0.00027438108
0.15759698 -5.431701e-05 0.022768084 0.067486785 0.054356337 0.078186855 -6.0142742e-05 -4.181682e-06
0.12912071 -0.16444567 0.0003444989 1.1174945e-05 0.00022840321 -0.2533487 0.00026078985 0.062294528
0.00017992107 -0.08646391 0.00029874724 0.16717479 -0.00017039744 0.102128655 -6.265813e-05 -0.071209595
-0.00017286779 0.00035090477 -0.24174872 0.0001237035 -0.00021625425 -2.776001e-05 3.764119e-05 -0.079564594
-0.025089823 -0.00032705476 -0.00029579533 -0.00023847441 0.09275132 4.876342e-05 0.011365317 4.6786445e-05
-6.977969e-05 5.8684498e-05 -6.687016e-05 -0.069651134 0.035684057 1.7059742e-06 -9.900078e-05 0.00017421565
-0.00048050607 0.19606487 0.00011203027 -0.0015835031 -8.019727e-05 0.20376489 0.0411162 -0.009911129
-2.301419e-06 -0.08201104 -0.07834097 0.00031374802 -0.056999214 -0.13476998 -0.16543557 -0.07472441
0.47523978 0.0076170648 -0.008391227 -0.0013747305 0.17428587 -0.0024842746 0.0036059883 0.0018819631
-0.003511377 0.0008522274 -0.27258903 -0.003466334 -0.30807343 0.00549782 0.0051433095 -0.00614467
-0.0018451449 -0.00094354735 -0.009157895 0.06991193 0.00011980662 0.004482814 0.23598629 -0.0025785828
0.0056222915 -0.0077523827 0.0033517703 -0.0063669253 -0.008265626 -0.000623802 0.46548826 0.0006869263
0.060184382 0.5583128 -0.0053909593 0.004148198 0.1830785 0.00051008695 0.5379571 -0.56233084
0.13776024 0.3899872 0.007734589 -0.0021140273 0.02833813 0.1106751 0.004594624 -0.009286625
-0.006121795 0.10132427 0.003552749 0.009841715 0.0036076738 0.08711487 -0.0056952992 0.12759522
00000000: 201a 2a3e 766f d939 ae50 beb9 fe0b e4b9
00000010: 5dd5 0e3c e355 76b9 ae26 98b9 7769 8139
00000020: 3f0c 51b9 bdd9 7439 4bce c03b c94f aab9
00000030: fb45 393e c966 d739 cd24 7eb9 f068 01ba
00000040: 4abe fb39 0839 fa39 e6b5 eab9 3a11 01bc
00000050: 5a7d e339 94d0 30ba f4d4 603e 9863 a0b9
00000060: a5ee 3a39 c213 bf37 44f9 9539 4010 24b8
00000070: 1002 26b9 0ab0 eb38 0d27 083c 214b 0c3a
00000080: c851 113d 663e 8dbe e70f 7fb9 809c 10b6
00000090: 4c2d 783d ea60 c0b9 056a 4abe ca3e fbbd
000000a0: c6e0 f5bd 9af1 74bd 77e7 0c39 e61d 92b8
000000b0: 5969 e23d 4a06 0bbe 4ce2 c638 6b82 efb9
000000c0: ad14 4239 7bab b1bd a3b2 7639 c2b0 83bc
000000d0: f8a4 c439 6270 b3bb f3aa d2b9 432d ac3c
000000e0: fd1a f738 461d b63d 3146 2c3a 2d78 2abe
000000f0: c988 05ba fd02 153a e903 78bb 34da 5739
00000100: d57d 11b9 e147 beb9 abe9 223a 58e1 0f3e
00000110: 8b3b c73b 8cd4 3dba da89 9539 1c57 c138
00000120: 507c febc 787d 9937 76bd 6e3d cc2f 77b9
00000130: 5b74 d2b9 9d52 083a 927e 9f39 0aec 393d
00000140: c0c3 c43b 7e2c 87b9 a2b9 43b8 e5e2 143a
00000150: 57a6 8e39 09e1 00be 9229 5fb8 d0dd c439
00000160: c096 063a ddfb 89bd 7930 053e db74 d63c
00000170: 7e47 bbb9 9e16 853d 2a06 173b 96b4 a039
00000180: 7704 c43d e6e4 bd3d 9902 54bc e67c 39bc
00000190: 2109 4c3d 9a4e e2b8 fd69 8db8 5628 7839
000001a0: 235e f7bc 63fa 9d39 e222 3eb9 47b0 2cba
000001b0: c5c2 1fb9 77df ba39 6218 9b3b 8155 14b9
000001c0: 7547 233d 6806 57b8 c30f 04ba 8809 20b9
000001d0: f138 ec39 1e98 8839 36ed 96b8 ca87 46be
000001e0: 8e98 9b39 e74a 19b9 1985 65bd f40f e538
000001f0: 2523 b4b9 31c3 f438 3460 4d38 1120 ad39
00000200: baa2 59b8 26cb 21b9 3240 d7ba 9aa7 76b7
00000210: fb54 173e 2a0f 793c 008f af39 ceda 8fb9
00000220: 1a61 213e 72d2 63b8 2284 ba3c 8336 8a3d
00000230: c0a4 5e3d 6e20 a03d c741 7cb8 6050 8cb6
00000240: 3838 043e 7264 28be dc9d b439 067c 3b37
00000250: 857f 6f39 ecb6 81be 9fba 8839 8c28 7f3d
00000260: 32a9 3c39 fe13 b1bd 2da1 9c39 de2f 2b3e
00000270: b7ac 32b9 d428 d13d 5467 83b8 56d6 91bd
00000280: d843 35b9 a4f9 b739 fa8c 77be 68b6 0139
00000290: 4fc2 62b9 2bde e8b7 ece0 1d38 c3f2 a2bd
000002a0: 2c89 cdbc 8c78 abb9 fa14 9bb9 fd0e 7ab9
000002b0: 67f4 bd3d 5387 4c38 9835 3a3c 903c 4438
000002c0: b056 92b8 0024 7638 a53c 8cb8 41a5 8ebd
000002d0: 7229 123d d4f8 e435 a49e cfb8 a8ad 3639
000002e0: 6fec fbb9 3bc5 483e cbf1 ea38 8c8d cfba
000002f0: 952f a8b8 bea7 503e 7669 283d 4a62 22bc
00000300: 1472 1ab6 67f5 a7bd 3b71 a0bd 8c7e a439
00000310: 0278 69bd 2401 0abe f167 29be 1d09 99bd
00000320: a152 f33e 9298 f93b 5b7b 09bc 4d30 b4ba
00000330: ff77 323e 36cf 22bb 7252 6c3b 34ac f63a
00000340: 211f 66bb 0368 5f3a ca90 8bbe 6f2b 63bb
00000350: cdbb 9dbe 0f27 b43b 3589 a83b 3a59 c9bb
00000360: cad8 f1ba 6458 77ba ff0a 16bc fc2d 8f3d
00000370: b040 fb38 92e4 923b 64a6 713e 71fd 28bb
00000380: 333b b83b b307 febb 60a9 5b3b a4a1 d0bb
00000390: 8c6c 07bc a586 23ba 7a54 ee3e d812 343a
000003a0: e683 763d 96ed 0e3f a5a6 b0bb 9bed 873b
000003b0: ee78 3b3e 5bb7 053a 8eb7 093f eaf4 0fbf
000003c0: 0511 0d3e 67ac c73e 6f72 fd3b 7e8b 0abb
000003d0: 5e25 e83c a0a9 e23d 808e 963b ee26 18bc
000003e0: 5799 c8bb 1983 cf3d 3dd5 683b 253f 213c
000003f0: b96e 6c3b 4869 b23d a29f babb 52a8 023e

decode.0.weight f4 [100, 12]
-0.26145858 -0.3652961 -0.2022954 -0.553046 -0.12716562 -0.005335156 -0.5439656 0.23849665
-0.18077327 -0.12431602 0.4190794 0.05719072 -0.13275692 0.09897024 0.14860636 0.0028341452
-0.17230657 -0.285707 0.35085225 -0.100751996 -0.22848271 0.2402047 0.19330823 -0.23964529
-0.2996543 -0.28860933 -0.36908397 -0.6255916 0.2646553 0.19170114 0.027651068 -0.013159341
0.016672602 -0.060736246 0.20574826 -0.20085457 0.018024314 0.00754721 0.00021477093 0.053879913
0.033364117 -0.013694461 -0.15226756 -0.19801497 0.02115696 0.06816345 0.12667145 0.027920082
0.00025907732 -0.00017656593 -0.12279288 0.24449638 0.04364341 -0.044021662 -0.17230149 -0.062791705
0.12746514 -0.004255473 -0.03366435 0.0281125 -0.032062013 -0.34082812 0.18024586 -0.30773374
0.004703064 0.2517557 -0.56446266 0.034324054 0.04122322 -0.42079163 0.22263467 -0.20304273
0.0003728914 0.0010055709 0.20466125 -0.23100059 -0.13564587 0.100998156 0.13185355 -0.1230734
-0.24942632 0.25233844 0.2171128 -0.1748692 9.804745e-05 0.00075568113 0.038040765 -0.17607552
0.31763923 -0.017762568 0.09306756 -0.1718727 -0.14783859 -0.024878515 -0.11033274 0.20420517
-0.00041806212 -0.00030263927 0.14708255 0.13946284 0.027806077 -0.059238095 -0.18209128 -0.121820144
0.09507959 0.07324793 0.030757828 -0.14691304 0.001553618 -0.19837284 0.22676161 0.08526704
-0.330257 -0.11869342 0.21415159 0.0007573422 0.13223559 -0.02007999 -0.17149791 -0.1819745
-0.38723356 -0.18997441 0.30167466 0.32140777 -0.029912146 0.02170548 -0.2682502 -0.25094426
-0.45817858 0.056511693 -0.30350572 0.025747016 -0.1349797 -0.23042832 0.15721163 -0.41374075
0.36926872 -0.26622957 -0.58129 0.27126464 -0.154372 -0.20591049 -0.032861378 -0.02922717
0.00070943707 0.00059377344 -0.10105262 -0.1462527 -0.25696602 -0.14263873 0.23409595 0.1219993
0.16062288 -0.25531936 0.08696095 0.30225736 3.8853854e-05 0.00047071386 0.055318538 0.1832457
-0.11186439 0.041645065 -0.13219962 0.076720364 0.014454582 0.043344732 0.11598216 -0.29335585
0.09589044 0.30997115 -0.076616935 0.30451876 -0.105060056 -0.09522132 0.087149546 -0.30323622
-0.18628927 0.20215741 -0.449222 -0.38702166 -0.00015465953 0.01600255 0.12686269 -0.21929593
-0.057859503 -0.13569972 0.14453073 -0.08633437 0.11029776 0.033264883 -0.06025525 0.17739017
0.00025790773 -0.00022075964 0.009540322 -0.056633625 0.13268077 0.0461439 -0.054467082 -0.21593516
-0.07492474 0.2213141 -0.083386056 0.06849923 -0.079083085 0.09020583 -0.08905664 -0.085679695
0.21569993 -0.45569617 0.12763675 0.20532742 0.14704064 -0.07470935 -0.028325476 -0.01042628
0.05811904 -0.16850749 0.15816833 -0.30539033 -0.0014675251 0.11760371 0.26486698 0.12700908
-0.019583937 -0.024806779 -0.16119297 -0.17272891 0.0006482217 -0.0010502356 0.122488454 0.20060506
0.088321276 -0.147847 -0.20386465 -0.07142657 0.19653225 -0.13941437 0.03742013 -0.08010268
0.25952947 -0.05964707 0.21634834 0.20642135 -0.15382837 -0.061622556 0.16417679 -0.43189022
-0.2779701 -0.15601878 -0.28335735 -0.11902977 0.4037661 0.16303025 0.33522975 0.14444228
00000000: e6dd 85be 1708 bbbe 8626 4fbe 6c94 0dbf
00000010: b437 02be 88d2 aebb 5441 0bbf 7738 743e
00000020: a11c 39be 6699 febd 9391 d63e d140 6a3d
00000030: 6ef1 07be e9b0 ca3d 442c 183e 11bd 393b
00000040: 2271 30be 3048 92be e8a2 b33e 1057 cebd
00000050: 5ff7 69be 39f8 753e 98f2 453e 9365 75be
00000060: 4a6c 99be 9ac4 93be 93f8 bcbe c526 20bf
00000070: e680 873e 4e4d 443e 7e84 e23c 479a 57bc
00000080: fb94 883c 92c6 78bd acaf 523e d2ac 4dbe
00000090: baa7 933c 964e f73b 2234 6139 2fb1 5c3d
000000a0: d0a8 083d bc5e 60bc 07ec 1bbe 70c4 4abe
000000b0: 5c51 ad3c 4799 8b3d 29b6 013e a8b8 e43c
000000c0: c5d4 8739 8e24 39b9 d57a fbbd 425d 7a3e
000000d0: 6fc3 323d 0f50 34bd cd6f 30be f098 80bd
000000e0: 3986 023e 7f71 8bbb a1e3 09bd 304c e63c
000000f0: 7553 03bd 0681 aebe 5f92 383e 478f 9dbe
00000100: 291c 9a3b 20e6 803e a080 10bf 6197 0c3d
00000110: aed9 283d 0072 d7be 58fa 633e 6fea 4fbe
00000120: a380 c339 5ccd 833a b892 513e 6b8b 6cbe
00000130: c0e6 0abe 1fd8 ce3d 9e04 073e e80d fcbd
00000140: 9d69 7fbe 8132 813e d152 5e3e e910 33be
00000150: d39e cd38 e718 463a a2d0 1b3d 244d 34be
00000160: 9ca1 a23e ce82 91bc 349a be3d 66ff 2fbe
00000170: 0063 17be 07ce cbbc 22f6 e1bd 291b 513e
00000180: 592f dbb9 8eab 9eb9 cf9c 163e 59cf 0e3e
00000190: 92c9 e33c a5a3 72bd 2376 3abe d77c f9bd
000001a0: 17b9 c23d 0303 963d d7f7 fb3c 5f70 16be
000001b0: c5a2 cb3a 4022 4bbe 3234 683e 7ca0 ae3d
000001c0: 7217 a9be 8915 f3bd 8e4a 5b3e 6088 463a
000001d0: c468 073e cb7e a4bc 269d 2fbe 8657 3abe
000001e0: 7a43 c6be a788 42be 1a75 9a3e 8f8f a43e
000001f0: 510a f5bc b1cf b13c 1758 89be c47b 80be
00000200: 6296 eabe ce78 673d 1a65 9bbe 68eb d23c
00000210: 1e38 0abe 67f5 6bbe 16fc 203e d4d5 d3be
00000220: ca10 bd3e 3e4f 88be 6ccf 14bf 33e3 8a3e
00000230: b213 1ebe 33da 52be a799 06bd d16d efbc
00000240: 84f9 393a 76a7 1b3a adf4 cebd 45c3 15be
00000250: 0d91 83be e30f 12be d9b6 6f3e c5da f93d
00000260: 537a 243e 38b9 82be 9518 b23d 7ac1 9a3e
00000270: 02f7 2238 25ca f639 b195 623d c3a4 3b3e
00000280: 2819 e5bd 0494 2a3d 565f 07be 911f 9d3d
00000290: e9d2 6c3c 3f8a 313d 0e88 ed3d bd32 96be
000002a0: 3562 c43d 8ab4 9e3e 57e9 9cbd e2e9 9b3e
000002b0: ba29 d7bd 6503 c3bd 767b b23d c741 9bbe
000002c0: 9dc2 3ebe 5a02 4f3e 6d00 e6be b427 c6be
000002d0: 1a2c 22b9 c817 833c 4be8 013e 1d8f 60be
000002e0: 16fe 6cbd def4 0abe ddff 133e 13d0 b0bd
000002f0: cbe3 e13d c240 083d 36ce 76bd c5a5 353e
00000300: ca37 8739 b77b 67b9 034f 1c3c a9f8 67bd
00000310: 78dd 073e 6301 3d3d e018 5fbd 1b1e 5dbe
00000320: 2472 99bd 2aa0 623e 4fc6 aabd 5349 8c3d
00000330: 50f6 a1bd d6bd b83d 5463 b6bd d678 afbd
00000340: 71e0 5c3e 0251 e9be 35b3 023e 5a41 523e
00000350: d291 163e 3701 99bd d40a e8bc fdd2 2abc
00000360: 3b0e 6e3d 3a8d 2cbe e1f6 213e 1f5c 9cbe
00000370: f959 c0ba 37da f03d a59c 873e ab0e 023e
00000380: 7e6e a0bc 9637 cbbc c50f 25be d9df 30be
00000390: 6ced 293a 0fa8 89ba 3adb fa3d 6a6b 4d3e
000003a0: c9e1 b43d 3465 17be e5c1 50be 1848 92bd
000003b0: c03f 493e a4c2 0ebe da45 193d e00c a4bd
000003c0: 0ce1 843e 7c50 74bd 6b8a 5d3e 1e60 533e
000003d0: 2f85 1dbe ef67 7cbd f61d 283e b720 ddbe
000003e0: 1952 8ebe 63c3 1fbe 3714 91be e1c5 f3bd
000003f0: 6eba ce3e 67f1 263e 3ca3 ab3e ade8 133e

decode.2.weight f4 [100, 100]
-0.030821973 0.0062146224 0.02924618 -0.0027770482 -0.006161721 0.036725566 0.020501351 0.0011116064
0.038717303 0.06590113 0.029996255 -0.011339358 0.05186152 -0.011163735 0.04704851 -0.043364618
-0.038440533 0.01856517 -0.008907594 0.03967891 0.023029966 -0.034906574 -0.023591382 -0.0079574
-0.0017834265 0.0147910025 -0.04068192 -0.015459173 -0.0060033635 -0.007496277 0.009380211 -0.035541933
-0.0055144415 0.0060978862 0.047706425 -0.063594796 0.00071935524 -0.033475734 0.047839843 -0.03102645
0.053421617 0.057186697 -0.07003937 0.014470584 -0.012079275 -0.07643567 0.035122875 -0.07517657
-0.013065235 -0.14524876 -0.01525005 0.0032858404 -0.014538001 0.0010914458 -0.0025900719 -0.023180716
-0.022546014 -0.022970907 0.025114143 -0.030952787 -0.0053839153 -0.053085502 -0.007967161 -0.004070674
-0.11481347 0.06087632 -0.049875427 -0.02202828 -0.08560962 0.047629207 -0.08697631 -0.01436883
0.02743609 -0.057906922 -0.018342407 -0.061615147 -0.014665294 -0.034795526 0.09571893 -0.016468761
0.042522047 0.023205627 -0.08729791 -4.7412563e-05 0.017410392 0.115048625 -0.015880374 0.01624906
0.034188703 0.04421944 -0.07666137 0.02029314 0.0344071 -0.02402592 -0.0309584 0.047327954
0.03306549 -0.0107708685 -0.00491038 -0.029996814 -0.03193193 -0.04137553 -0.029010896 -0.017376043
0.019701835 0.09433326 0.0371339 -0.023209494 0.014180246 -0.026614334 -0.0036089278 -0.027265642
-0.008686529 0.014265006 -0.059090886 -0.017329985 0.03282321 0.08941695 0.04840879 -0.005379828
-0.03428296 0.06321366 -0.028663293 -0.026150955 0.01642778 0.00039118566 0.074040934 0.017352255
-0.034729183 0.0796109 -0.0020282338 -0.025143156 0.03611615 0.021314103 0.019785618 0.02599156
0.017155116 0.019610783 0.028807092 -0.01870697 -0.10226604 -0.032676067 -0.036832683 0.03374239
0.018346678 -0.024339397 0.0045313886 -0.07189289 -0.015500797 -0.004464291 0.058292918 0.011847879
-0.004949032 -0.04540653 -0.026952919 0.045301076 0.012484165 0.06598196 -0.06596642 -0.07478218
-0.0017764482 -0.0009113793 0.09643103 0.050419595 -0.025028683 0.0018287693 0.048274033 -0.09479333
0.069108285 0.06921127 0.03259987 0.013266354 0.05440214 0.037956763 -0.041076783 0.02070922
0.015466808 0.03625217 -0.076304756 0.018743183 -0.020585934 -0.00543193 0.04397754 0.10490497
-0.103867 0.044470746 0.06913391 -0.05106929 0.07814261 0.08250213 0.014936951 -0.06453308
0.0051927636 0.063141234 -0.017222062 0.018036874 0.04392941 -0.08134236 -0.07590865 0.022153934
-0.051843565 0.08635884 0.03974902 0.029212791 -0.03479929 0.08325856 -0.072138034 -0.009305734
0.036783013 0.08335601 0.046373356 0.10503752 -0.03135612 -0.014181515 -0.07629445 0.0023670234
-0.015858443 -0.050333694 -0.052166782 -0.01545106 0.048762135 0.0038179187 0.039497506 0.014965851
-0.14019917 -0.12441667 -0.11383813 -0.0028730524 -0.035540458 0.018351061 0.024943568 0.043875016
-0.026343748 -0.03993841 0.03332167 -0.03414102 0.037045345 0.04916743 0.00040360217 0.032757923
-0.03143639 0.036776602 -0.1357252 0.00874628 0.003374011 -0.047054168 -0.02544723 0.02473809
0.05502865 0.05781628 -0.065482005 -0.05878914 -0.03831013 0.039564718 -0.015562567 0.001717783
00000000: 5d7e fcbc 08a4 cb3b af95 ef3c 23ff 35bb
00000010: 43e8 c9bb 8c6d 163d 73f2 a73c 52b3 913a
00000020: 0996 1e3d 2cf7 863d b5ba f53c b7c8 39bc
00000030: bf6c 543d 19e8 36bc f0b5 403d 199f 31bd
00000040: d273 1dbd fc15 983c 28f1 11bc 5a86 223d
00000050: 57a9 bc3c 32fa 0ebd b742 c1bc c15f 02bc
00000060: ddc1 e9ba f655 723c 16a2 26bd 7948 7dbc
00000070: ddb7 c4bb 54a3 f5bb 75af 193c 6b94 11bd
00000080: 7db2 b4bb c7d0 c73b d067 433d fd3d 82bd
00000090: 1d93 3c3a da1d 09bd b6f3 433d 2f2b febc
000000a0: a0d0 5a3d 993c 6a3d cd70 8fbd 0716 6d3c
000000b0: 27e8 45bc 4e8a 9cbd 01dd 0f3d 2cf6 99bd
000000c0: 910f 56bc 17bc 14be 59db 79bc 4157 573b
000000d0: cc30 6ebc d80e 8f3a 32be 29bb 7ce5 bdbc
000000e0: 6bb2 b8bc 7c2d bcbc 2dbc cd3c b390 fdbc
000000f0: 8e6b b0bb 2f70 59bd b288 02bc 4a63 85bb
00000100: 5323 ebbd 7359 793d 2d4a 4cbd a774 b4bc
00000110: 1954 afbd d816 433d a320 b2bd 3e6b 6bbc
00000120: a7c1 e03c cf2f 6dbd d142 96bc 2a60 7cbd
00000130: b446 70bc c185 0ebd 4908 c43d 7fe9 86bc
00000140: 992b 2e3d ba19 be3c 3fc9 b2bd dadc 46b8
00000150: 3da0 8e3c 9d9e eb3d 8f17 82bc c01c 853c
00000160: 7409 0c3d 721f 353d a300 9dbd cd3d a63c
00000170: 76ee 0c3d 02d2 c4bc 789c fdbc f5da 413d
00000180: ae6f 073d 4c78 30bc 41e7 a0bb e1bb f5bc
00000190: 0ecb 02bd 6379 29bd 42a8 edbc 3458 8ebc
000001a0: be65 a13c cc31 c13d b719 183d d621 bebc
000001b0: 4354 683c 4e06 dabc c383 6cbb 325c dfbc
000001c0: f151 0ebc c6b7 693c 4909 72bd 9df7 8dbc
000001d0: a171 063d 3c20 b73d 4c48 463d 4549 b0bb
000001e0: 4a6c 0cbd 2a76 813d 48cf eabc 873a d6bc
000001f0: 8d93 863c 0d18 cd39 c6a2 973d 5126 8e3c
00000200: 3040 0ebd 0a0b a33d 1eec 04bb 05f9 cdbc
00000210: 87ee 133d ea9a ae3c 7315 a23c 41ec d43c
00000220: e388 8c3c cba6 a03c dafc eb3c 5c3f 99bc
00000230: dc70 d1bd 57d7 05bd dedd 16bd 7635 0a3d
00000240: c64b 963c 6a63 c7bc 0b7c 943b 943c 93bd
00000250: 0ef7 7dbc 3049 92bb 8ec4 6e3d 9b1d 423c
00000260: 7d2b a2bb 33fc 39bd 5ecc dcbc 9f8d 393d
00000270: 628a 4c3c 8d21 873d 6719 87bd 6627 99bd
00000280: b6d7 e8ba a1e9 6eba a27d c53d c784 4e3d
00000290: f408 cdbc 51b3 ef3a feba 453d 0123 c2bd
000002a0: a588 8d3d a3be 8d3d 7187 053d 1f5b 593c
000002b0: c7d4 5e3d 8d78 1b3d 2140 28bd 62a6 a93c
000002c0: 7f68 7d3c 287d 143d ab45 9cbd 4e8b 993c
000002d0: d5a3 a8bc 55fe b1bb cb21 343d 6bd8 d63d
000002e0: 39b8 d4bd f526 363d 1496 8d3d 082e 51bd
000002f0: 3c09 a03d e0f6 a83d 1dba 743c eb29 84bd
00000300: 0f28 aa3b 3150 813d 4815 8dbc 11c2 933c
00000310: 53ef 333d d396 a6bd ff75 9bbd 2b7c b53c
00000320: eb59 54bd e7dc b03d decf 223d aa4f ef3c
00000330: b389 0ebd 7783 aa3d 1bbd 93bd 1477 18bc
00000340: c9a9 163d 8eb6 aa3d fdf1 3d3d e91d d73d
00000350: 466f 00bd 9659 68bc 4440 9cbd 1020 1b3b
00000360: 91e9 81bc b42a 4ebd d6ac 55bd 7126 7dbc
00000370: ceba 473d 0c36 7a3b 23c8 213d 5433 753c
00000380: 5f90 0fbe 2bce febd f723 e9bd d249 3cbb
00000390: df92 11bd f754 963c 7456 cc3c 4ab6 333d
000003a0: d8ce d7bc 7596 23bd 4e7c 083d 74d7 0bbd
000003b0: dcbc 173d c963 493d 919a d339 2c2d 063d
000003c0: 72c3 00bd 10a3 163d 8cfb 0abe 8f4c 0f3c
000003d0: 831e 5d3b dfbb 40bd b676 d0bc 89a7 ca3c
000003e0: b965 613d c3d0 6c3d 6e1b 86bd e2cc 70bd
000003f0: 15eb 1cbd 9d0e 223d 23fa 7ebc 3c27 e13a

decode.4.weight f4 [1, 100]
0.00016174995 0.00038595244 -0.00020643795 -4.958854e-05 4.5519417e-05 0.00053244317 -0.00068245776 0.0006023493
-0.00014452741 0.0006558606 -0.0003577121 0.0003788047 -0.00042409237 -0.00023821172 0.0002615327 0.053893864
-0.0003918674 0.00039905758 0.00038553932 0.00024682193 -0.00022004075 -7.174872e-05 0.0006564355 0.00027258252
0.00016440565 0.00014638361 -0.07214737 6.941879e-05 -0.00042763638 0.00034754048 0.035118982 0.00041974135
-0.00063568953 0.0694869 -0.06340147 0.09232979 -0.00032037654 -0.0009190215 -0.0002663014 -6.247559e-05
0.00011215304 0.0006158846 0.00072939973 0.00014095393 -0.000111384674 0.00041031983 3.8520546e-05 -0.05061902
0.00041075403 0.0008900956 -0.057102088 0.00014491308 0.0006459352 0.04355177 0.00014936014 0.067121506
-0.00032179465 0.08876818 -0.00057582115 0.0005577757 -0.039652284 0.00016661614 0.0002434028 -0.00056471396
-0.0006527266 -0.014304307 -0.0005182064 -1.0031334e-05 0.018765125 -4.3489497e-05 0.06685312 -0.00021893061
0.06687588 0.00020995474 6.7488945e-05 0.00072755746 0.00019695007 -0.0002945752 -0.0001461527 -9.534317e-05
-0.06201775 -0.00043004702 -0.00043889644 -0.045403805 -1.8093764e-05 1.6306276e-06 0.07343936 0.021218602
-0.00052738056 0.00018128767 -0.07899229 -0.0002573442 0.0008612548 -0.00011769579 -0.00032454453 8.331387e-05
0.00023148759 -9.611994e-05 -0.00058858853 0.0002470118
00000000: 6c9b 2939 a959 ca39 4477 58b9 4afd 4fb8
00000010: 1aec 3e38 a893 0b3a f7e6 32ba fae6 1d3a
00000020: 488c 17b9 0fee 2b3a 4e8b bbb9 4e9a c639
00000030: b758 deb9 79c8 79b9 531e 8939 d0bf 5c3d
00000040: 8d73 cdb9 9a38 d139 3622 ca39 e167 8139
00000050: bdba 66b9 cd77 96b8 a414 2c3a 68e9 8e39
00000060: 4e64 2c39 8d7e 1939 00c2 93bd ee94 9138
00000070: 6234 e0b9 1836 b639 ecd8 0f3d bb10 dc39
00000080: 67a4 26ba 264f 8e3d a1d8 81bd 6717 bd3d
00000090: 36f8 a7b9 7dea 70ba 5e9e 8bb9 5405 83b8
000000a0: b433 eb38 5173 213a 3035 3f3a 08cd 1339
000000b0: 3197 e9b8 3220 d739 1f91 2138 e455 4fbd
000000c0: 795a d739 4e55 693a e1e3 69bd cff3 1739
000000d0: fa53 293a 5763 323d 8f9d 1c39 0077 893d
000000e0: 8cb6 a8b9 17cc b53d b4f2 16ba b237 123a
000000f0: 6f6a 22bd aeb5 2e39 f139 7f39 5009 14ba
00000100: be1b 2bba 9d5c 6abc 3ed8 07ba 404c 28b7
00000110: 52b9 993c 7e68 36b8 4aea 883d bd90 65b9
00000120: 39f6 883d 4c27 5c39 da88 8d38 8eb9 3e3a
00000130: 6284 4e39 3771 9ab9 9140 19b9 faf2 c7b8
00000140: 5306 7ebd ef77 e1b9 af1b e6b9 57f9 39bd
00000150: 10c8 97b7 f0db da35 6067 963d a2d2 ad3c
00000160: e93f 0aba 0a18 3e39 b6c6 a1bd 27ec 86b9
00000170: d5c5 613a 72d3 f6b8 a127 aab9 cbb8 ae38
00000180: 7abb 7239 0094 c9b8 824b 1aba 5d81 8139
