Quantum/1 qubit/incomplete/models/3_latent.pt (torch, 94759 bytes, 6 tensors)

encode.0.weight f4 [100, 10]
000000 d8 dc 6d bd 9c 04 68 3d d3 5a 12 be 35 d4 28 3e
       -0.05807194 0.05664502 -0.14292459 0.164872
000010 18 72 cf be f1 06 14 bf 81 5d 1e bd 46 85 dd bd
       -0.40516734 -0.5782309 -0.03866339 -0.108164355
000020 89 94 8e 3d b0 75 56 3e 12 e4 3a 3e 6d c0 38 bd
       0.069619246 0.20943332 0.18251064 -0.045105387
000030 93 0e b1 ba a9 8e 29 3e 95 28 38 be cd 7e 19 3e
       -0.0013508372 0.16558327 -0.17984231 0.14989777
000040 13 a1 fe 3c 01 ab a7 3c dc 1b d9 be 19 b3 06 3e
       0.031082666 0.020467283 -0.42404068 0.13154258
000050 9d c8 2c be 3f 8e 02 be 40 5c e5 3d 83 d0 71 be
       -0.16873403 -0.12749575 0.11199236 -0.23614697
000060 6b 61 6d bd 88 18 bd 3d 09 37 8b be 7d 97 f4 bd
       -0.057954233 0.092331946 -0.27190426 -0.119429566
000070 47 12 a9 3e a9 3a 91 3e db 5f 8b 3d 86 28 ee bc
       0.33021757 0.28365067 0.06805392 -0.029072057
000080 54 76 6b 3e c4 05 ad 3e f9 92 74 be e0 7b d1 bc
       0.22994357 0.3379346 -0.2388419 -0.025571764
000090 fe 67 59 3e 35 d5 3a be 7a 9e 98 be 34 f3 8f bd
       0.21231076 -0.18245395 -0.29808408 -0.07028809
0000a0 30 e9 96 3e a7 77 77 be c0 54 32 3e 89 8b 8a 3e
       0.29474783 -0.24166737 0.17415142 0.27059582
0000b0 27 bd 28 be 5e e0 10 3e 31 55 42 be 59 97 71 3d
       -0.16478406 0.1414809 -0.1897781 0.058982227
0000c0 85 9e 09 be 01 3b 54 be aa 73 e1 bd 94 e9 cb 3c
       -0.13439377 -0.20725633 -0.11008389 0.024891652
0000d0 61 4d c2 be 1b f7 77 3e 79 88 f3 be 40 b9 47 be
       -0.3794966 0.24215357 -0.47565058 -0.19504261
0000e0 5b 14 20 be dc d9 0b 3d e1 4f 92 3e 5d 86 95 3e
       -0.15632765 0.034143314 0.28576568 0.29204074
0000f0 f5 86 37 3e 4a ff 29 be af 6a 83 3e 0d e4 49 3e
       0.17922576 -0.16601291 0.2566733 0.197159
000100 84 7d 93 bc b8 c8 66 be 70 9c 84 bc cd 5b af 3d
       -0.018004186 -0.22537506 -0.016187876 0.085624315
000110 6c 18 84 be 76 a2 0f bd 93 c6 c1 3d 63 59 7c bd
       -0.25799882 -0.035067044 0.09461703 -0.061608683
000120 4b 65 87 bd 12 4b 9b bd 09 11 78 be dc eb 6c 3e
       -0.06611117 -0.07582678 -0.24225248 0.23136848
000130 78 fd 46 3e cd 90 4f be 9d 0e cd 3d 2e 4a dc 3c
       0.19432628 -0.20270081 0.10012553 0.02689084
000140 2e dc 9e bd ec fc 8a be 42 11 e1 3c fd 93 c7 be
       -0.0775684 -0.2714609 0.02747405 -0.38980094
000150 01 7f 5a be 53 fc a0 3e 66 7b 92 3e 93 f3 90 3e
       -0.2133751 0.31442508 0.2860977 0.28310832
000160 c4 d1 04 bf 82 e8 d2 3d f9 0b 24 be 00 ba 80 3e
       -0.51882577 0.102982536 -0.16020192 0.25141907
000170 e4 2a b5 bc 33 9f 68 3d aa c7 7e 3d 52 d0 82 bd
       -0.022115178 0.05679245 0.062202133 -0.0638739
000180 d7 b8 17 3e d4 3b 40 be df e1 97 bd 1c 55 07 bc
       0.14816605 -0.18772823 -0.07416128 -0.008260038
000190 85 c0 b4 3e 42 a1 b1 bc e8 f2 e2 bd f8 86 f8 bd
       0.3530313 -0.021683339 -0.11081487 -0.12135118
0001a0 0f 03 0a bf 53 38 c6 be 76 49 cf be 3e 6d 66 3d
       -0.5391092 -0.38714847 -0.40485734 0.056256525
0001b0 73 6c c6 3c b5 7c 4e 3e 26 15 44 be 1a 28 8e be
       0.024221634 0.2016476 -0.19148692 -0.2776497
0001c0 f4 66 04 be d6 ff 55 3e f7 9f 42 3e 5d 52 18 be
       -0.12929899 0.20898375 0.19006334 -0.14875169
0001d0 89 0c aa 3d 04 78 82 3d 2c f5 0f 3c 86 a8 41 3e
       0.08303172 0.063705474 0.008786481 0.18911943
0001e0 c2 02 e1 be b2 97 84 be be 87 5c 3e c8 1c 87 be
       -0.43947417 -0.25896984 0.21536157 -0.26389146
0001f0 a3 57 b4 3e 72 02 96 be 52 1b 27 bd 26 5b c8 be
       0.35223112 -0.2929874 -0.04079754 -0.3913204
000200 7d ee de 3e 65 c0 16 3e 9e 06 f1 3d b0 c0 2f be
       0.43541327 0.1472183 0.1176884 -0.17163348
000210 2b 9e 70 bd ea fd 7d 3e 3d b9 ec bd df e2 e7 3d
       -0.05874459 0.24803892 -0.11558769 0.11322569
000220 fe f4 5a 3e fe 5b 82 be fd 06 26 3c 34 06 d5 bd
       0.2138252 -0.2546081 0.010133502 -0.10401574
000230 35 f5 7c 3d 91 bc 52 3e 27 ff 26 3e 67 e8 13 be
       0.061757285 0.20579745 0.1630827 -0.14444123
000240 5f 44 34 be de 1d 0c 3e 12 cb d4 bd 8b f0 05 bd
       -0.17604207 0.13683268 -0.10390295 -0.032700103
000250 0a a5 0e be ba f2 e7 3c e2 09 80 be 16 13 c4 be
       -0.13930145 0.028313983 -0.2500754 -0.3829581
000260 50 42 9f 3e a9 8e 97 3e 8f 84 60 be d6 38 3f bd
       0.3110528 0.2960103 -0.21925567 -0.046685062
000270 79 55 38 3e 00 18 44 be 63 40 86 3e fd 0e 4a be
       0.18001355 -0.1914978 0.26220998 -0.1973228
000280 3b 7d a7 be 39 79 3f 3c c8 07 bc 3d 24 2e 0f bd
       -0.3271273 0.011686617 0.09181172 -0.034956113
000290 5e 76 81 3c b8 b2 18 bd 0b 02 a2 3e d4 40 a3 be
       0.015803512 -0.037279814 0.31642184 -0.31885397
0002a0 6f fd 3a 3e 5f f4 80 be 67 d6 60 bd 81 e2 2f 3e
       0.1826074 -0.2518644 -0.05489197 0.17176248
0002b0 50 a4 10 bc fd c5 04 be a8 84 1b 3e fe 75 dd bd
       -0.008828238 -0.12966152 0.15187323 -0.10813521
0002c0 74 b5 58 bc c5 ef 7c bd 10 38 8a bd 32 0f f3 3d
       -0.013226856 -0.0617521 -0.06748974 0.11868133
0002d0 d2 7b 58 be 2e 6d 3f be a0 cf e0 3e e7 cc 5d be
       -0.21140984 -0.18693992 0.43908405 -0.21660195
0002e0 28 ca aa 3e 0a e8 65 3d 80 3a c1 3e 4e f2 47 3d
       0.33357358 0.056129493 0.37739944 0.048815064
0002f0 7d 95 eb 3d 1e e8 98 3c dd ae 4e be bc d8 9c 3c
       0.11503122 0.01866537 -0.20183893 0.019146316
000300 9a 59 3c be ed b2 22 3e ac 32 50 3d 36 13 2e 3e
       -0.18393555 0.15888567 0.050829574 0.16999516
000310 22 20 2c 3e 2d eb a3 be cb c6 7a bd f4 68 43 3e
       0.16809133 -0.32015362 -0.06122474 0.19083005
000320 f2 4c 08 bf e4 23 ef be 23 1f bc 3d 3e e9 db be
       -0.5324241 -0.4670707 0.09185626 -0.42951387
000330 fb 23 30 3e 42 4a ef bd 44 de 88 bd 96 46 22 3e
       0.17201225 -0.116840854 -0.06683019 0.15847239
000340 e6 3f 24 3e 3d 8f 0c bf 45 c2 bc be 02 7b 91 be
       0.1604 -0.54906064 -0.36866966 -0.2841416
000350 bc 40 e1 3e dd 30 07 bd 2b a4 77 3e 2d 81 60 be
       0.439947 -0.033005584 0.24183719 -0.21924277
000360 20 2e 86 3d c1 fd 94 be 67 d3 2f 3e a3 ff a8 3e
       0.065517664 -0.2909985 0.17170487 0.33007535
000370 b1 cc d1 be bf c2 a2 be f2 79 9c 3e 6e 6e da bc
       -0.4097648 -0.31789204 0.30561787 -0.026663985
000380 50 18 5f bd 42 61 ee bd 64 ac a3 3d 7a 91 29 3e
       -0.054466546 -0.11639644 0.07991865 0.16559401
000390 d0 f5 91 3e 92 50 63 3e b4 7d 83 bd 8c 33 64 bd
       0.28507853 0.22198704 -0.0642046 -0.05571322
0003a0 b3 f3 ab 3d 02 bf 16 be f4 05 5d be 6e ab 57 3e
       0.08396091 -0.14721301 -0.21584302 0.21061489
0003b0 ab 59 a1 bd c8 a4 59 3d 63 5f e8 bd 95 cc a6 3e
       -0.07878431 0.053135663 -0.113463186 0.3257796
0003c0 80 2e 0d 3d 6c d8 32 be f2 4c c0 3e f7 18 e8 bd
       0.034468174 -0.17465371 0.37558705 -0.11332887
0003d0 a0 61 e2 3d a8 df 5b be e1 f0 15 be 09 7c 5a be
       0.11053777 -0.21472037 -0.1464267 -0.21336378
0003e0 ea f0 5a 3e a7 f2 c1 3d 8c 2b b3 3e ab 94 62 be
       0.21380964 0.094701104 0.3499416 -0.22127025
0003f0 e3 8a 43 bf d1 0b 36 bd 87 d2 a1 be 67 a4 eb be
       -0.763838 -0.044444863 -0.31605932 -0.46023867

encode.2.weight f4 [100, 100]
000000 68 06 c4 bd 68 24 47 bc 33 c1 16 be cd e8 0a 3d
       -0.095715344 -0.012154676 -0.14722137 0.033913422
000010 f1 55 2b 3d 54 74 4c be d4 b7 02 3e f5 3b 29 bd
       0.041830007 -0.1996625 0.12765437 -0.041316945
000020 9a 77 bc 3e 89 75 fc 3c 07 ce fb bd 7a cc c3 3c
       0.3681 0.030817764 -0.12295156 0.023901213
000030 af 70 8a be 37 21 08 3c 38 85 b9 bd 1a f0 80 be
       -0.27039096 0.0083087 -0.090586126 -0.25183183
000040 9e b0 e4 bc b0 14 4f 3d 10 9e 72 3d ea 24 98 ba
       -0.027916249 0.05055684 0.05923277 -0.0011607681
000050 4b af 85 bd c8 73 2d be fa fe c6 3d e3 fe 82 3c
       -0.06527575 -0.16938698 0.09716602 0.01599068
000060 7a 53 43 be ca a8 8e 3d ea de d0 bd 3f 0a 16 3e
       -0.19074813 0.06965788 -0.101987675 0.14652346
000070 52 fe 9e 3b e1 2e 7c 3c 46 7e 8d bc 06 5e c2 3e
       0.0048520947 0.015392036 -0.017272126 0.3796236
000080 56 60 99 3c 0e a7 75 be 20 c7 49 bd ce 48 53 3c
       0.018722694 -0.23989508 -0.049262166 0.012895776
000090 67 b9 5f be ec 4e 8e bc 3b a5 29 3b e9 9d 68 3e
       -0.21848069 -0.017371617 0.0025885839 0.22716488
0000a0 cb 4c e2 bd 2e ca e8 3e 2a a3 59 be f8 bc 25 3e
       -0.11049803 0.4546675 -0.21253648 0.16185367
0000b0 62 4f 09 be 11 68 15 3d e5 22 57 3d 68 7f 63 bd
       -0.13409188 0.0364762 0.052523512 -0.055541426
0000c0 6b 88 68 3c 83 2f e1 bd 76 e9 c3 3c bb da 00 bd
       0.014192681 -0.1099539 0.023915034 -0.031458598
0000d0 92 8c 13 bd f9 cb c4 3e bb cc 2c bc 51 23 da bd
       -0.03602273 0.3843687 -0.010546858 -0.10651267
0000e0 86 fc b6 bd d0 11 d9 bd 42 66 df 3b b4 ba 19 bd
       -0.08934884 -0.105991006 0.00681761 -0.03753157
0000f0 1e 37 2d 3d 13 63 87 bd 17 2b 32 bd c5 ac 50 3d
       0.042288892 -0.06610694 -0.043498125 0.050946016
000100 b8 65 78 3b 1a 05 47 be a9 0e 3a 3d ea 12 ca bc
       0.0037902426 -0.1943554 0.045424137 -0.024667222
000110 3c ff df bd 3e 67 4d be df 3f 47 be 0e ab 1e be
       -0.10937354 -0.20058915 -0.19457959 -0.1549494
000120 d2 1d 1c bd a3 94 45 bd 3e c9 3f bd 28 f1 8f bd
       -0.038114376 -0.048237454 -0.04682278 -0.07028419
000130 38 8e 80 3d f6 4e 23 3d ab 15 09 be 82 38 17 3e
       0.06277126 0.039870225 -0.13387172 0.1476765
000140 3b 74 ac 3e f1 5b d8 bd 11 6b c2 bc 4d 98 ce 3d
       0.33682427 -0.105644114 -0.023732694 0.10087643
000150 3f 5a 06 3f d7 74 f7 3c 5f 22 c8 3c 6a c4 06 bd
       0.52481455 0.03020708 0.024430452 -0.03290216
000160 a7 5e 77 3c 04 21 9e bd 4d e8 15 bc 24 ed 7a 3c
       0.0150982505 -0.07721141 -0.009149623 0.015315328
000170 b8 40 55 bc ae 51 b1 bd cf f1 2b 3d 13 ec 09 bf
       -0.013015918 -0.08658157 0.041978654 -0.53875846
000180 a5 3a 28 3d 9e 04 06 3e 57 cd d7 3c 2b 2c 12 bd
       0.041071553 0.13087699 0.02634303 -0.035686653
000190 8f 26 1b bd 80 ff bb bd 43 64 8e bd 33 42 38 3d
       -0.03787857 -0.09179592 -0.06952717 0.044985007
0001a0 1a d3 f3 bb 25 76 8f 3d 84 2b da bc 8a e8 3f bd
       -0.0074409368 0.07004956 -0.026632078 -0.046852626
0001b0 a1 24 c1 bc ca a7 2a ba 45 83 01 bd 88 34 9f bc
       -0.023577036 -0.0006509988 -0.03161933 -0.019434229
0001c0 c5 5e 46 3d f4 4b 53 bc 2c 5f d9 3c 29 a9 d3 bb
       0.048430223 -0.012896527 0.02653464 -0.0064593744
0001d0 39 ee 1f 3d 65 7b ec 3c c1 30 2f bd 11 c4 64 bd
       0.039045546 0.028867433 -0.042771105 -0.055851046
0001e0 21 e8 81 bd 4f f3 b8 3b ab bc f0 bb 23 ff 19 3a
       -0.06343103 0.005644239 -0.0073467097 0.0005874505
0001f0 73 8a ef bd 49 05 20 3d ea 80 3a 3d b4 8e 2a 3d
       -0.11696329 0.03906754 0.0455331 0.04164
000200 71 75 5f 3d 1f 33 87 3d b3 a9 38 bc 22 e0 62 bd
       0.05455536 0.066015474 -0.011270928 -0.05538953
000210 d3 99 c3 3c 5d b5 4b bd 11 81 4b bd e5 37 42 3c
       0.02387706 -0.04973351 -0.049683634 0.011854147
000220 01 23 88 3c 9c 3a 94 3b 5d a4 83 3d a8 33 73 bc
       0.016618254 0.0045235883 0.06427834 -0.014843859
000230 1d 96 f3 bc 12 5a 46 3c b3 dc b9 3d d9 dc 76 bd
       -0.029734666 0.012106435 0.09075298 -0.06026921
000240 61 94 4a 3d 80 24 8b bd 1d 44 b1 3c 4e 1a 18 bd
       0.04945791 -0.06794071 0.021638924 -0.03713446
000250 3b a9 68 bb 28 44 73 3d a2 37 61 bd bb f5 8a 3d
       -0.003550126 0.05939117 -0.054984696 0.067851506
000260 47 7a 39 bd 00 f6 a5 3d 3b 80 ca bc 6b 0d 12 3c
       -0.04528263 0.081035614 -0.024719348 0.008914332
000270 ca e9 ad 3c c0 bb 2b bd 6e 32 d8 bd e7 81 13 3b
       0.021229643 -0.0419271 -0.10556494 0.0022507848
000280 aa df aa bc 62 19 b4 bd 78 98 aa 3c 2e 54 b0 3b
       -0.020858604 -0.08793904 0.020824656 0.0053811288
000290 a7 f3 b7 3c d0 a8 18 3d 9e 83 d3 bc 9b 75 1d bc
       0.02245505 0.037270367 -0.025819596 -0.009610559
0002a0 9f b3 04 bc 4a 6c e7 bc f3 7f 8a 3d 8f 2d 8d bd
       -0.008099466 -0.028249878 0.067626856 -0.06893455
0002b0 27 fa 2e 3c 83 6a aa 3d 70 fc 39 3d a8 24 25 3c
       0.010679758 0.08321097 0.04540676 0.01007954
0002c0 d2 6b 40 3d 76 7a b5 bc 2b 40 26 bd 68 9a 08 bd
       0.046977825 -0.02215312 -0.04058854 -0.03335038
0002d0 b4 78 51 3d 52 57 df bd 11 d0 a6 bd b6 0d 17 bd
       0.051140502 -0.10905327 -0.08145154 -0.03687831
0002e0 05 4b 35 bc 79 21 9b bd 4c 5a 03 3d bb ca 96 bc
       -0.011065249 -0.07574744 0.032068536 -0.018407216
0002f0 fe 1d 7f 3c bb 27 9c 3d 6b e4 d6 3c d6 b4 8d bd
       0.015571116 0.076247655 0.026231965 -0.06919257
000300 8a a1 9c 3d 17 c5 dc 3d d5 aa d5 bc fb c2 ce bd
       0.07647999 0.107797794 -0.026082436 -0.10095783
000310 0e c7 0b bd 1e 5b a6 3c c2 36 79 3d e6 6f 64 3b
       -0.03412538 0.02030712 0.060843237 0.0034856736
000320 0d 90 26 bc 46 71 39 3d 5f a2 87 bd 1f a9 27 3d
       -0.01016618 0.04527404 -0.06622767 0.04093277
000330 ea 15 ed 3c 62 4d ee 3b d7 0e 9e 3d ae 10 eb 3c
       0.028941114 0.0072724083 0.07717674 0.028694477
000340 e1 50 3f 3d 11 9b 86 bc 0b 55 32 bd 14 b9 a8 3c
       0.04670799 -0.016431363 -0.043538135 0.020596065
000350 d8 17 e4 3d b8 90 da bc a6 d1 7a 3d c0 b6 d1 bc
       0.1113736 -0.026680335 0.061235093 -0.025599837
000360 2b 56 a6 bd fe af 12 3d d0 58 c2 bc c9 ac 45 3d
       -0.08121904 0.03581237 -0.02372399 0.048260484
000370 85 a6 8d 3d 59 09 b3 bd 60 33 51 3c be e8 89 bb
       0.06916527 -0.08742017 0.012768596 -0.0042086532
000380 78 2f e0 3b 21 8f 9c bd ac f9 d3 bb ed 87 ab bd
       0.006841596 -0.07644487 -0.006468972 -0.08375535
000390 63 9d 2c 3d e4 23 92 3d 11 02 50 3c 66 83 79 3d
       0.042142283 0.07135752 0.012695805 0.060916327
0003a0 ed 5c d8 3c e9 58 85 bd b3 31 4c bd de ff 71 ba
       0.026411498 -0.06511099 -0.049852084 -0.00092315476
0003b0 38 f9 8b 3d 1b 5a fa bc 50 4c cf 3d 71 4e 08 bd
       0.06834644 -0.030560544 0.10121977 -0.033277933
0003c0 83 75 7c 3d f0 ca d2 3b 47 4c 80 3c e2 dd 63 bb
       0.061635505 0.0064328834 0.015661372 -0.0034769704
0003d0 46 f2 5b 3c 03 df db bc a7 3b 7d 3c 7d 20 fa bc
       0.013424462 -0.026839739 0.015456117 -0.03053307
0003e0 2e 4f f1 bc 31 78 65 bc 15 69 60 bc 94 1b 64 3b
       -0.029456701 -0.014005707 -0.0136969285 0.0034806477
0003f0 0a 4f 33 bd bd 80 f7 bd 2c a5 31 bd 1d 22 d7 3c
       -0.04377655 -0.12085102 -0.04337041 0.026261384

encode.4.weight f4 [6, 100]
000000 90 cf 7e 3c 83 88 45 3a 60 a9 75 3a 54 a8 0d 39
       0.015552416 0.00075352954 0.0009371247 0.00013509515
000010 88 c8 31 b9 e5 ba 6a be 17 7f 4b ba a3 ab af b9
       -0.00016954739 -0.22922857 -0.00077627733 -0.0003350648
000020 19 2c 2e b9 d3 7c 1b ba 4c 2b d0 3d f9 20 b6 bd
       -0.00016610361 -0.0005931381 0.10164508 -0.08893008
000030 4f c5 97 39 b0 bb 4c be 09 db d0 bc de 0e 54 3e
       0.0002894797 -0.19993472 -0.02549507 0.20708796
000040 73 ba 62 b7 f5 b9 33 3a fa b9 56 3a 84 74 87 38
       -1.3514061e-05 0.0006856018 0.0008191165 6.459004e-05
000050 29 d3 ed bd ae 8e 4d 3a cc e5 37 b9 4d 77 a2 b8
       -0.11612541 0.00078413903 -0.00017537846 -7.7469835e-05
000060 47 d6 65 ba 9b e1 0b 3e e6 11 82 bd e5 f7 a3 bd
       -0.00087675866 0.1366028 -0.0635107 -0.080062665
000070 32 a4 cb bd 57 70 ec 39 d0 96 43 ba cc 21 09 b9
       -0.09943427 0.00045097127 -0.00074611325 -0.00013077928
000080 3e d3 35 3d 28 cd 43 ba dc 83 af b9 3f 77 1c 3a
       0.04439091 -0.00074692303 -0.00033476844 0.0005968697
000090 b3 9d 77 b9 c4 13 d6 bd 43 29 51 ba c6 cf 29 3a
       -0.00023614503 -0.10452989 -0.0007978866 0.0006477799
0000a0 a6 88 8f ba 16 a8 8e b9 25 86 4b ba cd a0 b6 3c
       -0.0010950759 -0.00027209584 -0.00077638245 0.022293473
0000b0 66 9a 56 3d 08 5a be 3d 9d 81 41 3a 54 be 7f 3a
       0.05239334 0.09294516 0.00073816796 0.0009755839
0000c0 1f ea af bd f2 bb 89 bd f4 5e fe 39 07 04 a9 39
       -0.08589577 -0.06725301 0.000485174 0.00032237192
0000d0 36 13 84 be e8 47 87 3e bc 99 7a bd 96 63 2c 3a
       -0.25795907 0.26422048 -0.06118177 0.0006576119
0000e0 32 90 c5 38 70 1d d4 3c 35 76 87 bc 72 32 4c ba
       9.4205505e-05 0.025892943 -0.016535858 -0.00077894994
0000f0 bb 2e aa bc 35 c8 04 3a 05 5d 6b b9 a4 27 84 39
       -0.020774236 0.00050652336 -0.00022445999 0.00025206537
000100 0b fc 95 39 6b 87 25 ba 94 13 d1 ba 71 62 16 ba
       0.0002860728 -0.00063144293 -0.0015951269 -0.0005736715
000110 87 d2 22 39 c1 d3 f0 36 e3 d8 2e bd 63 e0 cf 3d
       0.00015527951 7.1772088e-06 -0.042687308 0.1015022
000120 2f 76 81 ba 50 3e f6 b9 0f 3e 4b ba df 71 10 3e
       -0.000987714 -0.00046967203 -0.0007753083 0.14105938
000130 93 ba 1e ba b2 7d 24 ba 8d 4b 07 be 22 10 96 39
       -0.00060550234 -0.00062748336 -0.13212414 0.0002862225
000140 9f f3 a2 3b f5 70 4b 3a 92 76 80 3e 2b d5 96 38
       0.0049728896 0.00077606674 0.25090462 7.192263e-05
000150 66 30 fb 3c 67 16 97 ba 44 be 9a 3a ff ec 2b 3a
       0.030662727 -0.0011527062 0.0011805971 0.00065584475
000160 6a b1 7b b8 5b 56 ba bd 5e 3c 1a 3a bf 1a ba b8
       -6.0008293e-05 -0.09098502 0.0005883629 -8.874153e-05
000170 ad b5 60 bd 0d b2 10 3c 04 fb 75 ba 7e 19 34 3e
       -0.05486076 0.008831513 -0.00093834125 0.1758785
000180 dd f6 d9 b9 b1 c4 40 3a 24 fe 1e 3a db e9 77 bd
       -0.00041573393 0.0007353528 0.00060650916 -0.060525756
000190 b9 7e 27 3e ff d2 26 b8 ad 21 82 b9 02 19 f9 b9
       0.16356935 -3.977399e-05 -0.00024820623 -0.00047511613
0001a0 09 db 82 38 08 1b b1 3d ff 7b ea b9 f8 78 c5 b9
       6.2396815e-05 0.08647734 -0.00044724342 -0.00037664897
0001b0 cc 35 3f b9 02 e1 f7 b9 f1 19 ad bd 04 2a 2e 3e
       -0.0001823522 -0.00047279155 -0.084522136 0.17008215
0001c0 7c 10 33 39 47 6b cd ba b4 15 4d bb 59 97 6c 3d
       0.00017076911 -0.001567223 -0.0031293454 0.057761524
0001d0 49 b8 bf 39 fc 34 06 ba 05 d6 a3 38 79 e5 e1 38
       0.00036567662 -0.00051195896 7.81231e-05 0.00010771579
0001e0 c1 b9 b2 3c 78 d3 9f 39 08 45 51 39 38 06 83 39
       0.02181709 0.000304844 0.0001995751 0.000249909
0001f0 a6 38 06 b8 33 ae 95 bd 89 b1 e4 bc 75 45 cd 3c
       -3.2000848e-05 -0.073086165 -0.027916687 0.025057534
000200 f7 69 96 bd 3d 26 8d b8 fc 21 ad 39 47 77 81 39
       -0.0734443 -6.7305264e-05 0.00033022452 0.00024693666
000210 96 4a b6 bc 8d f4 bc 39 af b5 48 b9 a2 34 85 37
       -0.022252362 0.0003604036 -0.00019141169 1.5879345e-05
000220 1f d4 fa 39 37 0a cd 3d 0a 4d 8f b9 f7 9e 6b 38
       0.00047841758 0.10011714 -0.00027332484 5.6176414e-05
000230 53 78 34 39 64 67 c7 b9 30 ca cd 38 69 f8 3e bb
       0.00017210962 -0.0003803327 9.812822e-05 -0.0029139763
000240 4c 37 98 bd f7 ca 0d 3b 90 d0 2e 39 7f 7d 38 ba
       -0.07432422 0.002163587 0.00016671629 -0.00070377433
000250 72 89 45 38 26 01 30 bd 03 1a a1 b8 eb a7 23 b9
       4.7096466e-05 -0.042969845 -7.681923e-05 -0.00015607446
000260 ad a1 e3 bd 0e 60 4c 3d c9 1b 0e bd fc 12 1a b9
       -0.111148216 0.049896292 -0.034694467 -0.00014693657
000270 83 69 f7 b9 35 95 cf bd f7 79 9f 3e b7 08 20 39
       -0.00047190124 -0.10135881 0.3114774 0.00015262036
000280 36 58 55 be 4b 35 c1 39 60 b1 89 38 b2 ae 42 39
       -0.20834431 0.00036851535 6.565708e-05 0.00018566361
000290 2a 64 04 b9 7e 70 35 39 5b 52 25 39 10 65 89 b9
       -0.00012625815 0.00017303412 0.00015766306 -0.00026205974
0002a0 b4 8c f1 36 97 ae b7 b9 0a e8 c2 3c f7 a0 34 3d
       7.1987397e-06 -0.0003503456 0.023792285 0.04409882
0002b0 e8 dd ea 39 53 b7 b7 39 90 8d 61 b9 3a e3 27 be
       0.0004479729 0.00035041067 -0.00021510408 -0.16395274
0002c0 16 3c 93 b9 f0 59 c8 b8 80 22 38 be b0 14 9f 38
       -0.00028082792 -9.553495e-05 -0.1798191 7.585564e-05
0002d0 01 0f 62 bb 6b c1 dd 38 e3 75 63 bc c2 2b c7 b9
       -0.0034493806 0.00010574128 -0.013883087 -0.0003798884
0002e0 09 de 03 3e 44 c3 36 37 80 ef 49 b9 56 f5 93 b9
       0.12877668 1.0893509e-05 -0.00019258074 -0.00028220814
0002f0 38 4e 85 39 b8 f3 2f 3e 95 cb 88 b8 90 fe 14 b8
       0.00025426014 0.17182815 -6.5229055e-05 -3.552303e-05
000300 c8 bc 66 be 7c e8 0c 3d 9e 69 33 39 83 0b 3d 3e
       -0.22532952 0.034401402 0.00017110116 0.18461423
000310 fd 22 d8 38 6e ec 92 b9 7e 3d 79 37 6a fa 09 3e
       0.000103062 -0.00028023444 1.4855874e-05 0.13474432
000320 d3 a2 88 3c d5 1a 3f bb 69 81 5d 3c be fa 96 3b
       0.016679203 -0.002916028 0.013519623 0.0046075275
000330 f7 99 7b ba fa 8a a9 3c d2 36 e7 3b e5 6b 13 3b
       -0.00095978327 0.020696152 0.0070560956 0.002249473
000340 b9 3c 23 3b 48 5c 80 3b 5e ab 94 bc 17 c3 dc ba
       0.002490802 0.003917251 -0.01814812 -0.0016842809
000350 08 08 bf 3b de 9f 00 bd df 67 ff 3c 1e f0 14 bc
       0.005829815 -0.03140246 0.03117746 -0.0090904515
000360 1a 12 28 bc 31 98 14 3c 39 43 8f 3b c4 71 21 3c
       -0.010258222 0.009069488 0.0043720272 0.009853784
000370 69 51 6a bc 89 f6 3c bb d5 14 a0 bb df 2a d8 bb
       -0.014301636 -0.002883347 -0.004885296 -0.0065969075
000380 4a 0e ee bb 7d a2 93 3c c2 c4 5a 3b df 3f b2 3b
       -0.007264887 0.018021816 0.0033381437 0.005439743
000390 03 b1 f5 3c 1c 45 c0 3b f2 92 72 bb bf 75 29 bb
       0.029991632 0.0058676135 -0.0037013856 -0.0025857536
0003a0 ad e9 ab bc 3a ff 09 bc ba b4 88 bb c6 55 3b 39
       -0.020985449 -0.008422667 -0.004171935 0.00017865663
0003b0 fd 4e 54 bb 7f d1 fe 3b 72 30 26 37 a8 c6 d8 3a
       -0.0032395713 0.0077764387 9.905651e-06 0.0016538696
0003c0 ae 6e 8c bb 44 e7 a0 3b 11 70 de ba 34 f6 a5 3c
       -0.004285655 0.0049103815 -0.0016970654 0.020259
0003d0 49 29 d7 bb a1 20 b0 bc 74 d5 fd 3b 00 16 5b 3c
       -0.006566201 -0.021499934 0.007746393 0.013371944
0003e0 c9 83 40 bd 07 5c 14 3c 86 d0 8b 3b 13 76 e3 b9
       -0.04700068 0.009055144 0.0042668013 -0.00043384786
0003f0 83 d1 c5 3c 39 f8 ed bb b9 d2 7c 3c 4b 64 d9 ba
       0.024147755 -0.0072622565 0.0154311 -0.0016585676

decode.0.weight f4 [100, 13]
000000 98 64 44 3d 4f 32 e9 3e f3 66 b1 bb 26 0c d1 bb
       0.047947496 0.45546195 -0.005413884 -0.006379622
000010 83 32 92 3e 91 9b dc be 1d 04 da bd b0 05 57 3e
       0.28554162 -0.43087438 -0.10645316 0.20998263
000020 6f 48 d0 be 23 66 0d be 46 e1 b5 be 3c 95 82 be
       -0.40680262 -0.13808493 -0.35523432 -0.25504482
000030 97 92 8e bc 84 d9 ea ba db f7 45 bb a3 25 1d bb
       -0.017403884 -0.0017917608 -0.0030207548 -0.0023978732
000040 df b9 35 be 7a 4d 6f bd c9 e7 5b 3d 60 9a 2a 3e
       -0.17746685 -0.058423497 0.053687844 0.16660452
000050 50 62 62 bc 50 fb 37 3e 62 cf ed bc d6 e1 d9 3d
       -0.013817385 0.17966962 -0.029029552 0.10638778
000060 35 c2 87 be fe d3 10 3d 2c 82 02 3e f0 55 9c bd
       -0.26515356 0.03535842 0.12744969 -0.07633579
000070 c1 66 da 3c 0f e8 8e be 25 fc 0e be db d9 3c 3e
       0.026660325 -0.27911422 -0.13963373 0.1844248
000080 70 7b 2d 3e 94 2f e3 be c9 c3 c7 bd 71 47 ea 3d
       0.16941619 -0.44372237 -0.0975414 0.114394076
000090 f3 71 64 3d a9 d5 5b 3e 07 84 b4 bd 1f 45 f7 3e
       0.055772733 0.21468224 -0.08814245 0.48294923
0000a0 b5 57 a3 be bc ad 1d 3c f1 34 ac 3e 0c 52 76 be
       -0.31902853 0.009623941 0.3363414 -0.24054736
0000b0 3d 6d a6 be ae b3 c9 3e 74 d2 f0 be b7 d4 bb 3d
       -0.32505217 0.39394897 -0.47035563 0.091714315
0000c0 77 26 9b be 67 fd d4 be 5d 6d 3b 3d bd 7a bd 3e
       -0.30302784 -0.4159958 0.045758594 0.37007704
0000d0 30 53 30 3e 10 0c 8c bd 98 86 bc bc 46 48 62 be
       0.17219234 -0.06838238 -0.023013398 -0.22097883
0000e0 05 ba 33 bb 12 5b 24 3e 3f 88 03 bf c9 10 11 bd
       -0.0027424109 0.16050366 -0.5137977 -0.0354164
0000f0 34 32 d8 bd fa 5f 58 be bb 9e 7c 3e c5 58 a9 be
       -0.105564505 -0.21130362 0.24669926 -0.33075538
000100 73 eb 08 3e 02 47 d6 3c d1 14 3e 3d f2 28 e4 bc
       0.13371067 0.026156906 0.04640657 -0.027851555
000110 5f 22 4f 3e ab 0e 84 be 76 8d d7 3d 2c 66 e0 3d
       0.20227955 -0.2579244 0.105250284 0.10956988
000120 fb 7c eb be 8b 8c 96 3d 98 93 e4 3d 01 40 24 bc
       -0.4599379 0.07351025 0.11160964 -0.010025025
000130 3f d1 41 3e d6 12 e5 3d da 75 75 3e a0 7a a1 3c
       0.18927477 0.11185233 0.23970738 0.019711792
000140 d1 81 f8 bb 66 f8 98 be da 92 c2 bd 90 e2 12 3e
       -0.0075838347 -0.29877013 -0.09500666 0.14344239
000150 b0 80 1f bd 4d 7e f8 bd ca 26 8e 3e 6b d7 de bc
       -0.038941085 -0.12133465 0.2776397 -0.027202329
000160 42 8f 06 bd a4 23 9d 3e c2 64 92 3d 76 b3 16 39
       -0.032851465 0.30691254 0.07148124 0.00014371969
000170 af db cf b9 c4 88 8b 3a 3f fc 4d be 5e 90 45 3e
       -0.00039645794 0.0010645618 -0.20115755 0.19293353
000180 4e 4c 15 3e 4b 90 d7 bd 76 8d 87 3d 7f 19 d5 bd
       0.14579889 -0.105255686 0.066187784 -0.104052536
000190 a5 51 d1 bd bd 65 75 be 6c bb 35 3e e8 6d 2f 3e
       -0.102206506 -0.23964591 0.17747277 0.1713177
0001a0 1e 68 7c bd 7a cd 36 3d 56 1d cf 3b 34 b3 16 3e
       -0.06162273 0.04462955 0.006320636 0.14716798
0001b0 79 a8 e4 3d 83 a2 a8 3d 51 49 9c 3d d2 30 db be
       0.11164946 0.08234122 0.076311715 -0.42810684
0001c0 fe 50 38 3d 9d 22 77 bb aa a5 a1 be 4f cc 34 bd
       0.044999115 -0.003770984 -0.31571704 -0.044140156
0001d0 3e 23 62 bb bd 6e 70 3e c6 fb 33 bb 29 2c cc 3c
       -0.003450587 0.23479743 -0.00274633 0.024923401
0001e0 43 31 e8 3c c0 bd 91 3e 11 19 26 3e 6a 40 a0 be
       0.028343802 0.2846508 0.162205 -0.31299144
0001f0 56 1d 46 3e 09 ef 47 bd 99 10 2c be b7 1b 85 bc
       0.19347128 -0.048811946 -0.16803207 -0.016248567
000200 5b 7b df be 16 98 9d bd 1e 13 86 3d e7 eb 13 3c
       -0.436488 -0.07695024 0.06546615 0.0090284115
000210 9f 2e 83 bb 17 ad 0d be 5c 9a 28 3e 5d d7 49 3e
       -0.0040033604 -0.1383556 0.16465133 0.19711061
000220 18 ad 9f bd b1 3b 01 be 4d 38 a0 bd 8e 64 9c 3d
       -0.07796687 -0.12620427 -0.078232385 0.07636367
000230 68 ff 0a be 96 06 3c bb fd 07 0d 3e 5e 36 00 be
       -0.13573992 -0.002869045 0.13772579 -0.1252074
000240 ed 70 4d 3e 95 e6 12 3c 36 bb 94 be f6 f1 d4 be
       0.20062609 0.008966108 -0.2904908 -0.41590852
000250 c2 b1 5a 3e b4 96 ef 3d c6 ee 70 bd 65 fc 59 3e
       0.21356872 0.11698666 -0.058821462 0.21287687
000260 bc 8a d1 3e 01 87 24 be 13 23 60 3e 9f c8 8f be
       0.40926158 -0.16067125 0.2188838 -0.2808275
000270 04 f7 d6 3d 35 e3 a7 3d 9a cd 90 bb 8c bc c3 3d
       0.10496333 0.08197633 -0.004419041 0.09557447
000280 95 75 8c 3e bb 96 22 3e 54 d5 91 be 45 96 f7 3c
       0.27433458 0.15877812 -0.2848307 0.030223021
000290 81 36 57 be 1f 58 ac be 58 c5 fb bd c1 40 b9 be
       -0.21016885 -0.3366098 -0.122935 -0.36182216
0002a0 15 33 4f 3e 65 6f ad 3c 6c a2 c2 be c6 b0 35 3a
       0.2023433 0.021171281 -0.38014543 0.00069309433
0002b0 ed 65 76 be 08 0f ef be cf a0 44 3e b2 f3 89 be
       -0.24062319 -0.46691155 0.19201969 -0.26943737
0002c0 e7 13 d5 be d3 ff da 3d e0 de 01 3d 48 20 03 be
       -0.41616747 0.10693326 0.03170669 -0.12805283
0002d0 79 63 1e 3e 55 43 36 be 64 f1 6d 3e 87 b8 7e 3c
       0.15467633 -0.17799123 0.23236614 0.015546924
0002e0 20 28 57 3c 89 47 da 3d 43 b6 9c bc 8d d9 48 3e
       0.013132125 0.106581755 -0.019129878 0.19614239
0002f0 66 02 80 be 1b 4a 0e be c2 53 45 3e ae a1 61 3c
       -0.2500183 -0.13895456 0.19270232 0.013771458
000300 11 1b 91 3e 0f 05 d7 3d 40 d6 83 be 54 9d 16 3d
       0.28340963 0.10499012 -0.25749397 0.036771134
000310 15 d8 49 bd 37 29 12 bc 05 7e 87 3c 7d 89 a0 3d
       -0.049278338 -0.008920959 0.016539583 0.07838724
000320 b5 49 56 3c df e3 80 3c a8 53 db 3d 5e 6b ad bd
       0.013079097 0.015733657 0.107093155 -0.08467744
000330 af 61 ca 3d f9 ce 65 bb ef c9 85 be 76 5c 0a 3b
       0.09881913 -0.0035065992 -0.26130626 0.002111224
000340 94 e5 9a 39 08 ce 0a 3a 59 06 ad 3a 62 fc ca bc
       0.00029544218 0.0005294983 0.0013200744 -0.024778549
000350 5d f7 ab bd e8 5c 66 bc c6 d0 c4 bc f2 47 80 3e
       -0.0839679 -0.0140602365 -0.024025332 0.2505489
000360 fb 1c 2a 3e 91 7c 3b be a3 1d 97 be b0 90 47 3e
       0.16612618 -0.18309237 -0.295148 0.19488788
000370 e4 d5 61 3c cf ea 1b bd 71 9c 92 3d 09 f8 d2 3b
       0.013783906 -0.038065728 0.07158745 0.0064382595
000380 49 30 35 3e 75 db 27 be 76 d9 a1 3c 85 a7 66 be
       0.176942 -0.1639231 0.019757014 -0.22524841
000390 3e e7 49 bd 62 ce bd 3d 73 2e 29 3e 6d de 3d be
       -0.049292795 0.0926788 0.16521625 -0.1854188
0003a0 9a f3 0d 3d 29 6d 2f 3d ca b0 2c 39 a8 42 36 b9
       0.034656145 0.042828713 0.00016469057 -0.00017381704
0003b0 64 ff bb bb 84 c7 2f 3e 71 4c 0b be 25 4e 28 bd
       -0.005737232 0.17165953 -0.13603379 -0.04109015
0003c0 73 c2 d0 bd f3 3a 08 3e 70 61 9c 3c bf 9b 12 bd
       -0.10193338 0.13303737 0.01908943 -0.035793062
0003d0 bb d0 1a be c0 6d 20 3e 81 fa 4c 3b 83 c5 22 3e
       -0.15118687 0.15666866 0.0031277242 0.15895657
0003e0 9b de 2e 3c ad d6 61 3b 03 78 1f 3e 21 b0 23 3e
       0.0106731905 0.0034460232 0.15573125 0.15985157
0003f0 0b 1a 39 be 92 d4 8c be 16 72 a5 3e 05 9c 40 bc
       -0.18076341 -0.27505928 0.32313603 -0.011755948

decode.2.weight f4 [100, 100]
000000 f0 a8 5e 3d 12 ad b4 bc d1 6a 0e bd 99 d3 28 3c
       0.05436033 -0.022055183 -0.034769837 0.010304355
000010 9a 86 07 3d 69 f2 b8 3b 57 ed 28 3d 1e 42 89 3c
       0.03308735 0.005644132 0.04124197 0.01675516
000020 62 9f 86 ba a9 05 7d 3d b4 ac fa 3c 91 30 76 bc
       -0.0010270888 0.061772976 0.03059993 -0.015026228
000030 de 93 c8 bc 1e a5 bd bc 7d 43 e9 3c f4 c0 1c 3c
       -0.024484571 -0.023150023 0.028474564 0.009567488
000040 b8 df 4a 3d a8 fb 81 3d 84 ac ae bc 7e b7 8c 3d
       0.04952976 0.06346828 -0.021322496 0.06870936
000050 f2 c7 82 bb 64 1b df 3c 14 8a c1 bc 3b 0e 25 3b
       -0.0039911205 0.02723474 -0.023625411 0.0025185484
000060 a9 83 28 bd 80 92 60 3d cb 44 61 bd 7f 30 f0 bc
       -0.041141186 0.054827213 -0.054997247 -0.02932
000070 ac af 9e 3d 36 a2 98 bc a1 54 90 3b a6 5b 84 bc
       0.077483505 -0.018632036 0.00440462 -0.016156983
000080 e2 02 77 bd 89 b2 c3 bc 8f 54 47 bd 8e a6 9d bc
       -0.060305484 -0.023888843 -0.048664626 -0.019244459
000090 17 3a 72 bd ed 9e 2f 3b e6 6b 21 bd 49 9a 2a 3c
       -0.05913743 0.0026797608 -0.03940954 0.010412761
0000a0 14 55 94 bd c7 66 c5 bd 99 30 8a bb 3e 2a 92 3c
       -0.0724279 -0.09638744 -0.004217219 0.017842408
0000b0 bf b7 37 3d 4e b3 12 bd a4 9a 34 3d 87 ca 75 bd
       0.04485297 -0.03581553 0.04409279 -0.0600076
0000c0 89 73 45 bc 84 94 3d 3d 17 51 bc 3d 0d 15 81 3d
       -0.0120514715 0.046284214 0.09195154 0.06302843
0000d0 15 75 a6 bc 09 1e 15 3d b5 92 78 3d 0b e3 08 3d
       -0.020319501 0.036405597 0.060686786 0.03341965
0000e0 e0 e1 97 bc 16 e9 00 3c 23 ad 7d bd 0e eb f9 3c
       -0.018540323 0.007868072 -0.061932694 0.03050759
0000f0 e9 20 a4 3d 8e ac 82 3d 92 f4 3f bc 41 d5 ac 3d
       0.080140896 0.063805684 -0.011716025 0.084391125
000100 cc ac fd 39 b0 d1 cd 3b 13 18 49 bd 8f a5 66 3c
       0.00048384664 0.0062811 -0.049095225 0.014077558
000110 ee 7e 87 bb d3 a8 22 3d 06 3d 97 3b cb 72 85 bd
       -0.0041350042 0.039711785 0.004615429 -0.06516036
000120 a4 67 96 bd f9 ac 11 3d 70 36 c9 bd 6d d5 35 ba
       -0.07343987 0.03556535 -0.09824836 -0.0006936405
000130 8f 19 61 3d c8 fa 94 bb 7b 2c 91 3b 2c bb 17 3c
       0.054956015 -0.004546497 0.0044303513 0.009260934
000140 13 72 b4 bc f2 3a 4d bb c9 1e 9b bd 66 46 84 bc
       -0.022027051 -0.0031315652 -0.07574231 -0.01614685
000150 ce 4a ab bc 3b c2 96 3d 6d 26 35 bd f4 6c 82 bc
       -0.020909693 0.07361265 -0.0442261 -0.015921094
000160 d4 95 28 bc 63 00 aa bd 38 92 90 3b c7 e5 92 bc
       -0.010289628 -0.08300855 0.004411962 -0.017931832
000170 e1 27 aa 3a 69 2e 0b bd 4c 56 9f bd ce 3f 96 3c
       0.0012981856 -0.033979807 -0.07780132 0.018340971
000180 3e 4d 07 bd aa bd 39 3c d2 6e 3e 3d d4 39 a2 3d
       -0.03303265 0.011336723 0.046492405 0.07921186
000190 85 04 e6 bc 4e f4 b0 3c ac dc b8 3d 48 43 7c ba
       -0.028078327 0.021600869 0.09026465 -0.0009623063
0001a0 b7 d6 16 bc c9 51 68 bd 8a 7e ab bd 5e 8b 95 3c
       -0.009206465 -0.05671862 -0.08373745 0.018254932
0001b0 13 96 6b 3d e7 12 e0 3a 47 46 65 3d e6 09 c3 bc
       0.05751617 0.0017095477 0.055975225 -0.02380843
0001c0 70 74 e6 bd 41 6a 1f 3d d0 fb a6 3d 7b c6 55 bd
       -0.112526774 0.03891969 0.08153498 -0.05219124
0001d0 68 e3 ba 3c 57 e8 1f 3d 2a e7 9a 3c 93 bb 49 3c
       0.022813514 0.039039936 0.018909056 0.012312788
0001e0 b8 db 59 3d 65 d4 90 bd 6a 2b 8a 3c f6 33 a8 3b
       0.053188056 -0.07071761 0.016866405 0.0051331474
0001f0 51 0a b2 3d 42 9b ae 3d f3 62 cb 3b 8a 6b ba 3d
       0.08693374 0.08525707 0.006206864 0.09102543
000200 2e 73 dd bb d7 6e 1f bd 0c 0d 42 3c 81 c8 4c 3d
       -0.0067581153 -0.038924064 0.011843931 0.049995903
000210 af c0 af bd 71 0f 02 bd 23 a1 56 bd a1 4a 65 3c
       -0.08581673 -0.031753007 -0.052399766 0.013994844
000220 5e fe 37 bd 25 c5 b7 3c f1 81 92 bc 0f 39 c7 3d
       -0.044920318 0.022432873 -0.017884227 0.0972768
000230 6e 0d 1b 3c 5b 3c c4 bd 84 7b 01 3d 0d 36 42 bd
       0.009463651 -0.095818244 0.031611934 -0.047414828
000240 42 b8 fe 3c 07 24 58 3d 0b 37 db 3c f1 83 94 bd
       0.03109372 0.052768733 0.026759645 -0.07251728
000250 ac aa 2d bd 7d 16 cb 3c d2 d2 9b bc 95 03 5e 3c
       -0.042399094 0.024790997 -0.019021425 0.013550659
000260 61 34 a2 bd ce a9 2c 3c 7e 81 70 bc b7 0a 0a bd
       -0.07920147 0.0105385315 -0.014679311 -0.033701625
000270 54 5a ce bc 15 3d 39 3d 94 e6 9c 3c 09 b8 74 3c
       -0.025189556 0.045224268 0.019152917 0.0149364555
000280 f7 1f 92 3d 29 4c 10 bd 2e 54 90 bb cf c6 d6 3d
       0.07135003 -0.035228882 -0.0044045663 0.104871385
000290 5d b6 51 bc 29 52 fb 3c 87 e3 21 bd d0 66 62 3d
       -0.012799826 0.030678825 -0.039523628 0.05527383
0002a0 59 1f 6d 3a 5b 9c b9 bc 4f 1f 40 bb cf 0b a6 3c
       0.00090455037 -0.022657564 -0.0029315536 0.020269303
0002b0 12 05 e7 bb e3 66 80 3d 14 ee 57 bd 0f 96 23 3d
       -0.007050165 0.06269624 -0.052717283 0.03993803
0002c0 11 0f cf bd 46 92 95 3c 59 9b 02 3d bd 11 0c 3d
       -0.101102956 0.018258225 0.031886432 0.034196604
0002d0 cf 4f 54 3c c4 d0 4d 3d 90 da 91 3d f4 e7 c0 bd
       0.012958481 0.050247923 0.071217656 -0.094192415
0002e0 8a b4 34 3d a7 5a 3e bd 3a 9e 60 3b 1b 85 b4 bb
       0.044117488 -0.04647317 0.0034273998 -0.0055090315
0002f0 fb 24 09 3d bf fb 1b 3c de 1c 36 bd e3 b3 49 bd
       0.033482533 0.00952047 -0.044461124 -0.04924382
000300 9c 99 e4 3c db 45 e4 bd 96 74 24 bc 1a ff 41 3b
       0.027905278 -0.111461364 -0.010037562 0.0029601515
000310 da e8 6d bd 68 f6 33 3a 52 f0 17 bc ad 92 2d 3d
       -0.058083393 0.00068650255 -0.009273605 0.04237621
000320 81 10 90 3b f1 11 d4 3c fc b5 e3 bd a4 f2 a9 3b
       0.0043964987 0.025887461 -0.11118695 0.0051863957
000330 26 38 ce bb 3e 05 0b bd 58 69 f2 3c e3 ff 68 bc
       -0.0062933145 -0.033940546 0.029591247 -0.014221164
000340 2d 01 95 3d 43 29 04 bc 61 01 dc bd 60 8f af 3b
       0.07275615 -0.008066478 -0.107424505 0.005357668
000350 dd d6 2b 3b 4b 60 bc bc 05 44 9c 3d 4b ec a5 bd
       0.0026220598 -0.022995135 0.07630161 -0.0810171
000360 63 c9 44 bc 4e 37 37 bd b1 b2 65 3d ae e7 4d b9
       -0.012010905 -0.044730477 0.056078617 -0.00019636631
000370 57 4f a2 bc d0 1c 2c bd 4a 5d 4e 3d 49 76 31 bd
       -0.019813223 -0.042019665 0.050381936 -0.043325696
000380 07 0f d6 3c dc 25 45 bd 92 e6 4a bd fa 23 e0 bc
       0.026130212 -0.04813181 -0.049536295 -0.027360905
000390 75 88 a5 bd d9 13 09 bb d3 10 92 bc 5d 9d d3 bb
       -0.08082668 -0.002091637 -0.017830288 -0.006457968
0003a0 79 8d c5 bc a1 06 e9 bc 8e a6 c7 bd aa d6 03 bc
       -0.024115311 -0.028445544 -0.09748565 -0.008046785
0003b0 5b f5 ee 38 9c bb 2d bd 9c 8f bf 3b 63 e9 a7 3d
       0.000113944254 -0.042415246 0.005845977 0.08198812
0003c0 df fb ed 3b ce 77 d9 bd c7 44 9a bd c9 16 f4 bc
       0.0072626914 -0.10618554 -0.075326495 -0.029796021
0003d0 e1 69 b7 bd e1 7a fc bc c2 28 c8 3c e2 36 65 3d
       -0.08955742 -0.030820312 0.024433497 0.055960543
0003e0 07 82 b0 3c 20 84 f5 bb 13 e3 37 bc c7 31 5c bd
       0.021546377 -0.007492557 -0.011223572 -0.05375841
0003f0 46 e1 83 bd 48 a9 70 3d fa 44 97 bc e1 71 c7 bc
       -0.06439452 0.05875519 -0.018465508 -0.024346294

decode.4.weight f4 [1, 100]
000000 c7 8e e5 b9 c6 57 55 ba 87 99 93 b9 f2 a2 87 bd
       -0.0004378466 -0.00081383844 -0.00028152412 -0.06622876
000010 8a e8 a3 b9 ae 73 8d 3d 5c 22 6b 3a 56 55 d1 b9
       -0.00031263038 0.0690683 0.00089696585 -0.00039927167
000020 a6 6c c8 39 8e ec 18 3a f0 ba 02 36 e2 c9 4e bd
       0.00038227922 0.0005833589 1.9480321e-06 -0.0504855
000030 50 1d 3c 3a a5 4b 12 3d 84 16 9f 39 2d 44 ad 3d
       0.0007175999 0.03571667 0.0003034362 0.08460269
000040 0b f2 2e 39 01 30 3d 3d 5b a9 14 39 f4 2e 70 b9
       0.00016684101 0.04618836 0.0001417747 -0.00022905675
000050 f3 8e bf b9 d8 6f 42 bd c5 c9 8b 39 dd 84 4f 39
       -0.00036536864 -0.047469944 0.00026662476 0.00019790554
000060 c0 3c 9d ba 28 e8 80 3d 87 00 8b bd 2d e3 85 3d
       -0.0011996254 0.0629428 -0.0678721 0.06537471
000070 ae 38 ee 38 49 90 5d 3d 73 6a 01 3a 40 f4 eb bc
       0.00011359282 0.05409268 0.00049368216 -0.02880299
000080 e1 10 ff 39 2d 80 08 ba 79 70 45 ba 98 64 b2 39
       0.00048649966 -0.0005207088 -0.00075317133 0.00034025754
000090 5c 69 a1 b9 8b 4d 38 3a a9 b9 f2 39 1e 41 d2 b9
       -0.00030786812 0.0007030598 0.00046296165 -0.00040102837
0000a0 51 21 0c 3d 12 08 e3 39 5c 03 38 b9 5b 7a 34 b9
       0.03421146 0.00043302827 -0.00017548859 -0.00017211719
0000b0 6e 37 bb bc 78 fe f9 b8 5d 14 02 3a 96 00 9b 3d
       -0.02285358 -0.00011920644 0.0004962141 0.07568471
0000c0 43 fd 71 bb 58 8a cb b9 07 56 91 b9 3a 6e 68 b9
       -0.0036924637 -0.0003882225 -0.0002772065 -0.00022166307
0000d0 33 78 02 3a f3 aa cc 38 e1 63 ca b8 f2 64 5e 39
       0.00049770175 9.75932e-05 -9.6507145e-05 0.00021209175
0000e0 1e 11 99 38 89 d8 d1 b9 df ec b1 39 24 bd 52 ba
       7.298797e-05 -0.00040024918 0.00033936554 -0.00080390484
0000f0 da 51 f5 b9 4d 36 d3 b9 bc 56 c9 b7 37 34 ed 39
       -0.00046791026 -0.00040285513 -2.4001456e-05 0.00045243066
000100 7b 1b 8b 39 15 73 12 b9 27 96 20 ba 1d 13 01 ba
       0.0002653262 -0.00013966516 -0.000612589 -0.00049238076
000110 1e 52 49 b9 df 0e a1 bd 3b ed 6b 3a f1 a1 80 b7
       -0.00019199445 -0.078641646 0.00089998887 -1.5334199e-05
000120 4c f8 e1 38 41 37 ef 39 13 e0 00 39 c5 6a de 39
       0.00010775085 0.000456268 0.00012290505 0.0004242269
000130 34 13 29 39 a4 c9 4f ba cd bd 74 b9 3e 49 13 b9
       0.0001612425 -0.000792647 -0.0002334036 -0.00014046297
000140 28 14 68 39 b3 44 87 b9 0c b2 1e 3c 5f d9 c6 bc
       0.00022132753 -0.0002580039 0.009686004 -0.024273572
000150 5c 57 ea bc 12 d5 3e b9 76 fb a2 b9 3a 2a c2 39
       -0.02860611 -0.00018199187 -0.000310864 0.00037034025
000160 80 e3 77 bd 29 e1 90 39 4d b3 17 ba ab ce 10 b9
       -0.060519695 0.00027633578 -0.0005786911 -0.000138099
000170 c6 21 e4 39 ad de e9 3c 41 db 55 b9 26 0b 12 b9
       0.00043512712 0.028548563 -0.00020394941 -0.00013927798
000180 7a e4 3a bd 21 cd 01 ba d0 b7 57 bd 16 14 60 3d
       -0.04562805 -0.0004951526 -0.05266553 0.054706655
