Quantum/1 qubit/incomplete/models/4_latent.pt (torch, 95975 bytes, 6 tensors)

encode.0.weight f4 [100, 10]
00000000: 543f a03e 388d debc 5e16 16be 9620 3ebb
00000010: c3ba 153e c1ea c2bd 8a8e 463e 0bc9 1b3e
00000020: ca30 24bf c4c1 bfbe a83f f63d 0ef5 89bc
00000030: 5980 3bbd c4ca 00be 958d bd3d e781 f1bd
00000040: 082e 253e 8939 3abe ed67 893c 5ecc ca3d
00000050: 7016 35be d863 8a3e 3278 f7be d969 9fbc
00000060: 5674 913d 1bd3 d3bd cb3d 4b3d daf1 f33d
00000070: bb5d ddbe dc84 923e 92f4 033e 0e41 863e
00000080: 4f45 f83d 5598 55be 29dc c2be 1d9f 553e
00000090: 80d2 973d 6277 48bd ca93 bf3d 097b 80be
000000a0: ad3b 71bd c93f 103e 43df de3c df58 eb3d
000000b0: 0c3b d6bd ea34 af3e f3e7 5bbe d00c d2bd
000000c0: e914 0cbe f671 7ebb 1f67 45be f5fc 313e
000000d0: de42 dbbe 82de 44bd 3802 ad3d ccb0 903d
000000e0: 5a7a eabd 7fd7 e93e 5990 b6be 9729 a2bd
000000f0: 931b e3bd 9a0e 723e 0579 0dbb 7779 763e
00000100: 2424 ecbd b69b 03bf c838 e8be c601 ffbe
00000110: 5277 9c3e 1ea0 92be f97b f9bd ad82 adbd
00000120: d466 363e bbda 823c a3a6 b3bd f02f 08be
00000130: 28aa 96bd f285 9c3e 790b ebbd a2fd eb3d
00000140: c516 523e 24f0 16bd 0f73 b6be 3f6f 413e
00000150: edee 663e 11d5 e03d 2b5a 413e 2b8f 503e
00000160: cd2b d8be 5662 903d d092 93bd 0251 753d
00000170: 6465 acbd bad2 a6be 009d 3c3e 2f54 54bb
00000180: db00 7cbe df1f 423e 1599 e43d 06c0 3e3e
00000190: e4e0 473e 8268 513d fe38 09be 23b9 a5bd
000001a0: af0a 5cbe 4d92 ad3d 38ba 4a3e 1b14 bdbd
000001b0: 8fb4 38bb 19af 9e3b 9045 ac3d 241e a63d
000001c0: cff0 633d 75ad a8be 7a1e c6b9 9cd0 06bd
000001d0: 36a9 96bd cb91 723d 5621 4a3c ef9c 113e
000001e0: 3f36 ef3d 40ea 933e 6382 473e 02b6 11be
000001f0: 01e9 2f3c e8df a2bd b2f1 81be 6cd8 f53d
00000200: 8592 96be b535 e63c 521b 673e 4251 66be
00000210: e4cc 63bc a0e1 84be 8724 253d 41e6 26be
00000220: 2900 683d 452b d13d 6b3d 1c3e a2f6 9f3d
00000230: f166 ae3d 1ab7 f2bc c554 8f3e 6ba8 85bd
00000240: 55eb 8ebe c6fe be3d e05c 2bbe db9c 3a3e
00000250: a252 45be 0ee8 b13d c738 6b3d 54be 7fbe
00000260: 37de 15be d14b d73d f71d 673e c1a8 07be
00000270: 4e01 36ba a8f9 4f3d 3e30 0e3e 2b2e 44bd
00000280: 378a 313e 7384 41bc 18b5 b03d bdcb 983e
00000290: cbb9 823d cff5 d03d 1f9b a9be f78a 3b3d
000002a0: 4639 06be 3f47 9abe fb08 ffbd adc7 00be
000002b0: 5dd1 eebd dc01 c83d 6caf a8bd 50a3 253e
000002c0: e7da be3d a1b5 55bd 7221 8d3d 86b3 ac3d
000002d0: ccc3 073e 13bc a0be d5f4 bebb 7eab 8c3e
000002e0: 95e1 443e e169 0ebe e0f0 9bbd a60d cb3c
000002f0: 521b e2bd 1df1 6e3c b57b 983b c4ef 073e
00000300: 5697 68be 9037 963d f89b 0c3e 0249 273e
00000310: 24b5 483d 010f a1be 9863 033e fa2b 17be
00000320: 10d6 89be 7865 41be 17f0 783e 1daa ad3e
00000330: d044 d1be 9659 0cbf bb5a aebe 6c92 18bf
00000340: f38c aabc 52f2 1d3e b4a7 893e a5a9 0c3e
00000350: f9a4 07bd db35 d13e f402 15be 00d3 cbbd
00000360: 037a 54be aff3 8abe 6e40 dd3e 9306 12be
00000370: d1c6 4f3e 8ec8 083e 1c87 fd3d 0efd 153e
00000380: 5429 bd3d 2346 593e 1b46 9cbe 9ee0 94be
00000390: 73f0 c1be 8387 8f3d f627 d13c e00f 21be
000003a0: f332 e93d af60 803e 701a a0bd 331d a8be
000003b0: ad78 693e b9c1 4b3e 4dc8 8e3d b65c a7be
000003c0: 7f8f 823e 8ca9 13bd 682d 0e3d 5662 7cbd
000003d0: 8e72 01ba 3b5f f1bd 68e6 2d3e 9d78 36be
000003e0: 1a07 e53b dc01 95bd b222 f03d 2bfe ed3e
000003f0: 582f 2bbf dac9 2a3e 6d52 0abf 5480 07bf
0.31298316 -0.027166948 -0.1465697 -0.0029011122 0.14622025 -0.09517432 0.19390312 0.1521341
-0.64136946 -0.3745252 0.1202386 -0.016840484 -0.0457767 -0.12577349 0.0925552 -0.11792355
0.16130841 -0.1818601 0.016773188 0.09902261 -0.1768434 0.270293 -0.4833389 -0.019459652
0.071022674 -0.103429995 0.049619477 0.11911364 -0.43235573 0.2861699 0.12886265 0.26221508
0.121225946 -0.20858891 -0.38058594 0.20861478 0.074131966 -0.048941977 0.093543604 -0.25093868
-0.058894802 0.14086832 0.027206069 0.1149156 -0.10460481 0.34220058 -0.214752 -0.1025635
-0.13679852 -0.003882525 -0.19277619 0.17381652 -0.42824453 -0.048063762 0.08447689 0.07064971
-0.11449118 0.45672223 -0.35657004 -0.07918089 -0.11089244 0.23638383 -0.0021587026 0.24069773
-0.11530331 -0.5140947 -0.4535582 -0.4980604 0.30559784 -0.28637785 -0.12181849 -0.0847219
0.17812663 0.01597344 -0.08772018 -0.13299537 -0.073566735 0.30570942 -0.114767976 0.11522986
0.20516498 -0.03685011 -0.35634658 0.18890093 0.2255208 0.10978139 0.18882053 0.20367114
-0.42220917 0.07050006 -0.07205737 0.05989171 -0.08417776 -0.32582647 0.18419266 -0.003239881
-0.24609701 0.1895747 0.111620106 0.18627939 0.19519383 0.051125057 -0.13400647 -0.08091953
-0.2148845 0.0847517 0.197976 -0.092323504 -0.0028183793 0.0048426506 0.084117055 0.081112176
0.055649575 -0.32944837 -0.0003778821 -0.03291379 -0.07356493 0.05922107 0.0123370495 0.14220022
0.116802685 0.28889656 0.19483332 -0.14229587 0.010736705 -0.07952863 -0.2537971 0.1200417
-0.2940866 0.028101781 0.22569016 -0.22491935 -0.01390383 -0.25953388 0.04031804 -0.16298772
0.056640778 0.10213331 0.15257804 0.07810713 0.08515728 -0.029628325 0.27994362 -0.06526264
-0.2791392 0.09325938 -0.16734648 0.18223898 -0.19269803 0.08686839 0.057427194 -0.24974948
-0.1463555 0.10512508 0.22570024 -0.13247968 -0.00069429434 0.0507752 0.1388559 -0.04789559
0.17337881 -0.0118113635 0.08628291 0.2984294 0.063830934 0.10203134 -0.3312616 0.045786824
-0.13107786 -0.3013248 -0.12452885 -0.1257617 -0.116610266 0.0976598 -0.08236584 0.1617558
0.09319096 -0.052175168 0.06891145 0.08432679 0.13258284 -0.3139349 -0.005827526 0.27474588
0.19226678 -0.13907577 -0.07614303 0.024786782 -0.11040367 0.014583853 0.004653419 0.13275057
-0.2271398 0.073348165 0.13731372 0.16336444 0.049000874 -0.3145676 0.12830961 -0.1476287
-0.2692113 -0.18886364 0.24310337 0.3391885 -0.40872812 -0.548242 -0.34053597 -0.5959842
-0.020819163 0.15424469 0.2688576 0.13736589 -0.033116315 0.408614 -0.14551908 -0.099523544
-0.20749669 -0.2713904 0.43213218 -0.1426032 0.20290686 0.13357756 0.12379286 0.14647314
0.09236398 0.21218161 -0.30522236 -0.2907762 -0.3787876 0.07008269 0.02553175 -0.15728712
0.11386671 0.25073764 -0.078175426 -0.32834777 0.2279994 0.19898118 0.06971798 -0.3268792
0.25500104 -0.036050364 0.03471127 -0.061617218 -0.00049380295 -0.11785742 0.16982424 -0.17819448
0.006989372 -0.07275745 0.117253676 0.46482977 -0.66869116 0.16678563 -0.5403202 -0.5293019

encode.2.weight f4 [100, 100]
00000000: ed87 76bd d242 ed3c b2d9 2cbd 4d3f 11bd
00000010: 17da 423d 8b48 18bd 5828 adbd 1483 14bd
00000020: fe0e ffbc 3471 9d3c b7cf 90bc 538e b13c
00000030: 2af2 233d b509 43bd a6a3 4ebd 777b 9e3c
00000040: 0a80 a13c 97a5 a4bc 1866 f93c 15f1 b3bb
00000050: 6c29 a33d b4be 0dbd 476a a43b edca 04bd
00000060: d43b cf3b cb9b 1c3d 9fd0 2d3d 70d6 acbd
00000070: 3a76 cebd fb9c a0bc 551a 0c3d 1fc4 ad3d
00000080: df6b f4bb 6815 a13d c949 95bc 3c01 833d
00000090: 2ecf 15bd 9328 683d 9d5c c8ba 251d 77bd
000000a0: c6cd 3b3d a763 38bd 930e 79bc 14bd f0ba
000000b0: fe6b 18bc 23e2 dfbd 8a4a 1d3c 1170 283d
000000c0: a322 86ba 5ac5 713c 935f 8bbd 35c6 94bd
000000d0: 5254 77bc 17d1 003d 511b 903d 3c3a 6bbb
000000e0: ac80 413d b635 e0bc e232 f6bb a272 fd3b
000000f0: 6ea9 9d3d 1f85 713c 4a16 c03d b41f 723d
00000100: ec92 573d 02fd a6bc e4a9 20bd e457 f1bc
00000110: 2c26 d3bc edd7 403c 9339 783d 1127 1e3d
00000120: a6ec cb3c d951 c8bc 5e0b 303a c0c9 4e3d
00000130: 58fa fe3c 6a38 88bd 7f6a 1fbd 96c1 a93c
00000140: 35d1 c13c 3209 52bd e6f8 793d 2286 1cbd
00000150: 3116 28bd ba92 93bd 09eb 3f3d eed5 12bc
00000160: c0cd 153c 0bf8 6e3d 9ea9 b4bd 3316 58bd
00000170: 1f89 a73a 2f84 4dbc a6d7 bbbc bd82 b4bc
00000180: f516 663d ecc8 aabd 676e b93c 9378 d73d
00000190: 702f c93d 7f17 81bc 5ffe f13d 2a63 113d
000001a0: 2750 19bd 59fc e03c 8a0f 043d 4efa 97bd
000001b0: a1d4 cebd 03e1 a1bd de8f f3bc 31e6 bbbc
000001c0: c58c 143e 68ef 5abc 4644 1b3d cf22 c5bd
000001d0: bbbb 8f3d e173 883d 5819 263d b6c6 c4bc
000001e0: aa55 2d3e 0df3 ffbd d9c4 88bc fdd0 67bc
000001f0: 528c d4bc 22e4 983d 0984 6e3d 1dcf e8bc
00000200: 6fc5 54bc 14cc 873e ba43 99be 27cf 0abd
00000210: 2427 9bbe d1e4 913e 332c 9bbd 3e93 56be
00000220: 1c96 23bd 5157 db3e 2fe4 3f3c 9ed2 5fbd
00000230: f8e8 4c3c adb9 c8be 23d4 0ebe 7b00 f3bd
00000240: 939c 583d 640e db3e 93f8 3f3e b98f 303e
00000250: d9fa b6bc 827c 3b3d 43b7 80bd f5a5 8abd
00000260: 2ad4 20bd c8ca bbbc 14f3 443d c9a7 1aba
00000270: ec24 a5be 9df4 24bd 7b72 9f3d 578c 9a3e
00000280: e782 b13d db14 cc3e daa3 5cbd 6ab8 b63d
00000290: d567 82bd 4906 933d 0336 d63c 33f1 a83b
000002a0: c35a 863d 7ae5 e7bc b61c d9bd 4a36 fb3c
000002b0: 7be9 afbe 3b38 96bd 4b84 1abd acfa b8bd
000002c0: ce2d 1b3e d419 e1bd b94b dcbd f933 813c
000002d0: 6aa1 efbc 9643 d33c 869b 693d 3186 383e
000002e0: 7a83 733c 9bd1 653e 0d6a 41bd d399 0b3d
000002f0: 9be5 63bd 7ac5 473c 4741 393e f1c0 f13c
00000300: 4178 283d a406 a0bb 1697 793c 0c76 77bd
00000310: 1674 923e edd5 693d 3cf3 3abc 860c 243d
00000320: 368f 9bbc ca6b e03c 789e 46bd d1af 47bd
00000330: 06e1 a83c a94a 093c bdf3 a73d 3972 173c
00000340: 61ac 473d 7a26 173b ec43 09be 139c 81bd
00000350: fcf3 6bbd 6200 153d fb3c d8bc 79b8 9ebc
00000360: 8e43 1bbc 12e2 11bd 6c32 423d 97d5 84bb
00000370: f84f 883c 3108 bfbc cb05 853d 42dc 973c
00000380: 8cac 99bc 2b88 153e 8d77 30bd 232d 0ebb
00000390: 9d43 e5bc 0c59 05bd 13e6 a6bd 05d2 f0bd
000003a0: 8210 afbd 6bac adbd a9e4 c1bc 3392 903c
000003b0: 4335 163d ae12 6fbc 9079 913c 7e43 2ebd
000003c0: ec8f b73d 53b5 353b 2c99 b13d d42e c33d
000003d0: 4339 47bd d7ab c3bd dd61 9f3d 15df 8e3b
000003e0: 7c2b 0e3d 5560 9ebb a710 8e3d e228 e33d
000003f0: 7fee a0bd 7ba4 b8bd a79e a2bc 8ec3 3739
-0.060188223 0.028962526 -0.042199798 -0.03546076 0.047571268 -0.037178557 -0.084549606 -0.03625782
-0.031135079 0.019219019 -0.017677171 0.02167431 0.040025868 -0.04761668 -0.050449036 0.019345982
0.019714374 -0.02009849 0.03044419 -0.0054913857 0.07966885 -0.034605697 0.005017552 -0.032420088
0.0063242707 0.038234513 0.042435285 -0.08439338 -0.10081144 -0.019606104 0.0342048 0.08484673
-0.0074591483 0.07865411 -0.01822366 0.0639672 -0.036574535 0.05667932 -0.001528639 -0.06033053
0.045850538 -0.04501691 -0.015201229 -0.0018366897 -0.009303091 -0.10931804 0.009600291 0.0411225
-0.0010233711 0.014756525 -0.06805339 -0.072643675 -0.015095787 0.031449404 0.0703646 -0.0035892865
0.04724185 -0.027369361 -0.00751339 0.0077346126 0.07698332 0.014741211 0.09379251 0.059112266
0.05263035 -0.020384315 -0.03922452 -0.029460855 -0.025775038 0.011770231 0.060601782 0.038611475
0.024893116 -0.02445309 0.0006715561 0.050485373 0.031125233 -0.06651385 -0.038919922 0.020722192
0.023659328 -0.0512783 0.061028384 -0.038213857 -0.04103679 -0.0720572 0.046855006 -0.008962138
0.009143293 0.05834202 -0.088214144 -0.052755546 0.0012781954 -0.012543722 -0.022929978 -0.022034997
0.056174237 -0.08339104 0.022635652 0.105210446 0.09823501 -0.015758274 0.118160956 0.03549496
-0.037429955 0.027464079 0.03224138 -0.07420789 -0.100991495 -0.07904246 -0.029731687 -0.022936912
0.14506824 -0.013362743 0.037906907 -0.0962578 0.070182286 0.06662727 0.040551513 -0.024020534
0.1692721 -0.1249753 -0.016695427 -0.014148948 -0.025945816 0.07465388 0.058231387 -0.028419072
-0.012986525 0.26522887 -0.29934484 -0.033888962 -0.303033 0.28494886 -0.0757679 -0.20954606
-0.039938077 0.42840055 0.011712118 -0.05464422 0.012506716 -0.3920416 -0.13948111 -0.11865326
0.052883696 0.42784417 0.18747167 0.17242326 -0.02233641 0.045773037 -0.062849544 -0.06769935
-0.039264835 -0.022923842 0.04808338 -0.0005899636 -0.32254732 -0.040272344 0.07785507 0.30185196
0.08667546 0.3985966 -0.0538672 0.08921893 -0.06367461 0.07178933 0.026148802 0.0051557063
0.0656028 -0.028307665 -0.10601179 0.030665535 -0.3435782 -0.07334944 -0.03772382 -0.09032187
0.15154192 -0.109912544 -0.107566305 0.015771853 -0.029251773 0.025789063 0.057033084 0.1801994
0.014862889 0.2244324 -0.04722028 0.034082245 -0.05563889 0.012193078 0.18091308 0.029510947
0.041130308 -0.004883604 0.015233776 -0.060415313 0.28604192 0.05708878 -0.011410531 0.040051006
-0.018989187 0.027395148 -0.04849097 -0.048751656 0.020615112 0.008379617 0.08200786 0.009243541
0.048748378 0.0023063705 -0.13404816 -0.06328597 -0.05760573 0.03637732 -0.026396265 -0.019375073
-0.0094765555 -0.035615988 0.047411367 -0.004053782 0.016639695 -0.023319336 0.064952455 0.018537644
-0.018759035 0.14602725 -0.043082763 -0.0021694384 -0.027986342 -0.032555625 -0.08149352 -0.11758808
-0.085480705 -0.08480152 -0.023668604 0.017647838 0.036671888 -0.014591856 0.01775816 -0.042544834
0.08962998 0.0027726486 0.08671793 0.09530416 -0.048638593 -0.0955426 0.07782338 0.0043600895
0.03470944 -0.004833261 0.0693677 0.11091782 -0.078579895 -0.09015747 -0.019851042 0.0001752509

encode.4.weight f4 [8, 100]
00000000: 9d23 613b 4b51 9b3d 45b2 913b 7022 88bb
00000010: d69d f2ba 6167 efbb 05d0 f5bb ac84 e83a
00000020: 1a8a 9abc a235 313c aa8a 7b3b c7fd bd3b
00000030: 2a42 833a 3691 903c b5ac 04bd a251 a0ba
00000040: d870 02bd c34f 8dbb 671f 623b c507 1abb
00000050: 7ca2 3ebc 81a7 fd3a e476 6bbc 7e38 0bba
00000060: 9b8c 273b b322 b639 d44d be3b de67 95bb
00000070: 0dce 07bb 3877 81b9 22cd 1dba 91bb 1ebc
00000080: 3391 5f39 5813 14bb 8fc0 c43b 59a4 993a
00000090: 52a3 8bba 51a9 923b b482 9a3b 5156 f13b
000000a0: 343e 45bb ef0f e93b 6240 0ebd 332b 9e3b
000000b0: d859 44bb c1c5 53ba 97ac 80bd d1a2 fc3c
000000c0: 0a16 dbbb b1cd e4bb 6291 4c3b 6bdc 483a
000000d0: 7ed3 593d edd2 883a 6873 7f3b 8712 4bbc
000000e0: dbff 0bbb 4de4 223c 7ae9 ef3c 1192 613a
000000f0: 3b26 e8b9 28de 063b d64c f43b f831 453b
00000100: 93ec 4ebc 9cc6 9d39 82bf 223b e011 4abd
00000110: 34de 03bc bc68 0b3a 2fd5 62bb 42b9 88bc
00000120: ad05 3c3d 7cc6 0c3b 843b bbbb 8fce 943b
00000130: fb0e cd3b ff45 e0bb 6da5 85bb 801f cd3c
00000140: 6bcf 333c 80f5 023d 99f2 c03a 0e95 46bb
00000150: 0cb1 233c 0fff d9bb 169a 32bc db84 87bb
00000160: ff82 c9bb d4e8 f1ba f7fe 3339 d7c5 a8b9
00000170: f1d1 8c3b 53db 1ebd ec00 a8bb 1c6e 50bb
00000180: b61d 1abb 7adb 6c3d 6fdd e93a 8801 c23b
00000190: 0ae6 ca3a c3a5 f83d 2068 453b bb4b 153c
000001a0: f575 b8ba a971 003c 6fdd 35bb 3eb4 90bb
000001b0: de8e cd3c 83bb 9339 b683 ec3a 2de7 963a
000001c0: 3365 cf39 dc7a 603d 44bc 0bbd 1a3d 4dbd
000001d0: 3ecb 123c a0e9 eebb 0381 3abb a9b4 88bb
000001e0: 7754 b03b 35a3 a039 39c1 23bd 0a30 62bb
000001f0: 8bc5 9cbb 9cfc 5cbb 9456 823b f9e9 f83a
00000200: 767f a4bd f99d 62bb 6bbf 483d 30eb 7abb
00000210: e369 b039 06d1 80bb b6da bdb7 757c 1dbc
00000220: 5536 a93b 8b24 c43b 8f50 5aba 9302 f03c
00000230: 8131 37bb e1ab 813c 626c d23c 3b64 893b
00000240: 8ff3 17bb 7063 89bb c551 edbc 62c9 33bc
00000250: f8bf 34bc d8a2 903b 6b0c 623b adc6 6f3b
00000260: e20e 05bd ca19 00bc d465 e7bb 95cb 093d
00000270: 4f2b ef3c 4f6f adba 4344 e9bd 5632 1b3d
00000280: bcd4 fe3a 7e98 eaba 543a 5fbc 59f1 d0bb
00000290: d28e bebc 2764 dcbb 2435 d7bb be2b c03c
000002a0: 4dd8 b53b c70a e7bb fa04 803b 7628 653b
000002b0: 4650 51bd a508 ac39 ad6c ed3b 347d 1bbd
000002c0: b2b2 75ba 0b6a 023d 1bdd d1ba 30d1 823d
000002d0: 2d28 3bbb 0cb4 b53d e9e7 063c 5e10 3e3c
000002e0: bd9d 23ba b63a 5aba 45e1 ad3b 9140 d43b
000002f0: ac39 51bb 7da2 183b 8f33 72ba 5228 9e3b
00000300: f44d 95bb ee5c 81bd c267 f53b 337c 42bd
00000310: 0da9 a2bb fb69 31bd 86c4 2a3c cef9 be3c
00000320: d52b c339 9118 4b3e 007f 5739 c627 dab8
00000330: e941 aab9 0034 813e 6ef3 ddb8 465d c33b
00000340: cce5 743d a43c a938 2f52 08b8 8c9c 8138
00000350: 0797 6a39 3aa3 4a3d 7f54 ad3d 4815 d1bd
00000360: f8b3 a9be fa58 ccb9 847f 4fb9 608b 36b6
00000370: 4446 353c 2dc0 8938 be19 a4bc 7c76 1239
00000380: 9c53 1c37 0483 0937 bac0 8db8 e0e7 1233
00000390: 6387 cdba 141b 9138 fbbd 04bd f145 1cb9
000003a0: 697d c938 df0a 27b9 7df6 0739 d7ee 3c39
000003b0: 5940 89b9 7018 d5b6 3468 1c39 ec83 84bd
000003c0: 7fe7 1f38 3d16 c139 5e98 5cbc 7657 39b8
000003d0: ca22 9539 4c67 44b9 4442 683c 70e9 b03d
000003e0: 7e32 8ab9 98fe 78bb e130 2bb8 34ef a638
000003f0: b0f4 84bd 679d abb8 4bf3 23b8 863b 57be
0.0034353503 0.07583865 0.0044463 -0.004154496 -0.0018510174 -0.007306025 -0.0075016045 0.0017739735
-0.01886468 0.01081601 0.003838221 0.005798075 0.0010014225 0.017647367 -0.03239127 -0.001223136
-0.031845897 -0.004312487 0.003450358 -0.0023503166 -0.011635419 0.0019352288 -0.014371607 -0.0005310847
0.0025565985 0.00034739598 0.0058076177 -0.004559501 -0.002072218 -0.00024693622 -0.0006019642 -0.009688274
0.00021321028 -0.0022594538 0.0060044 0.0011721953 -0.0010653532 0.0044757505 0.004715288 0.007365026
-0.003009689 0.007112495 -0.03472937 0.004826927 -0.0029960778 -0.0008078479 -0.06282919 0.030839356
-0.006685977 -0.006982528 0.0031214585 0.00076622394 0.05318021 0.0010438837 0.00389787 -0.012394554
-0.0021362219 0.009942126 0.029286135 0.00086048344 -0.00044278972 0.0020579193 0.0074554486 0.0030089598
-0.012629646 0.0003009335 0.0024833386 -0.049333453 -0.008048583 0.0005318036 -0.003461193 -0.0166899
0.04590385 0.002148061 -0.005713882 0.0045412253 0.0062578893 -0.0068442817 -0.004078558 0.025039434
0.010974745 0.03197241 0.0014720737 -0.0030301246 0.009990942 -0.00665272 -0.010900995 -0.0041357107
-0.006149649 -0.0018456229 0.00017165752 -0.0003219086 0.004297488 -0.038783383 -0.005127063 -0.0031803912
-0.0023516244 0.057826497 0.0017842482 0.0059205927 0.0015479934 0.121409915 0.0030121878 0.009112294
-0.001407324 0.007839599 -0.0027750393 -0.004416018 0.025092538 0.00028177732 0.0018044624 0.0011512988
0.00039557516 0.054804668 -0.03411509 -0.0501071 0.0089595895 -0.007291034 -0.0028458245 -0.004171927
0.0053811627 0.00030639177 -0.039979193 -0.0034513497 -0.004784291 -0.0033719903 0.003977606 0.0018990628
-0.08032124 -0.0034579022 0.049010675 -0.0038287155 0.00033648228 -0.0039311675 -2.2632401e-05 -0.009612192
0.0051639476 0.0059858016 -0.0008328044 0.029298102 -0.002795309 0.015829029 0.025686447 0.0041928566
-0.0023185944 -0.004192762 -0.028969655 -0.010973306 -0.011032097 0.0044139437 0.0034492265 0.0036586926
-0.032484896 -0.007818649 -0.0070616994 0.033641417 0.029195456 -0.0013232025 -0.11389973 0.0378898
0.0019442062 -0.0017898229 -0.013624746 -0.006376427 -0.023261461 -0.0067258063 -0.006567614 0.023458358
0.0055494667 -0.0070508453 0.0039068433 0.0034966744 -0.051101945 0.00032812837 0.007245621 -0.0379612
-0.0009372636 0.03183941 -0.0016011329 0.063875556 -0.0028557882 0.08872232 0.008234003 0.011600582
-0.00062414614 -0.00083247887 0.0053063952 0.0064774235 -0.0031925244 0.002329021 -0.000923925 0.004826584
-0.004556412 -0.06316553 0.0074891755 -0.047481727 -0.004964 -0.04331396 0.010422831 0.023312476
0.00037225956 0.1983359 0.00020551309 -0.000104024584 -0.00032474034 0.25234985 -0.000105834435 0.005962047
0.059789464 8.069843e-05 -3.2501466e-05 6.1803585e-05 0.00022372241 0.04947207 0.08463382 -0.10209137
-0.33145118 -0.00038976205 -0.00019788562 -2.720124e-06 0.011064116 6.5684646e-05 -0.020031806 0.00013967784
9.317791e-06 8.196341e-06 -6.759302e-05 3.4204163e-08 -0.0015680607 6.9191825e-05 -0.032407742 -0.00014903375
9.607786e-05 -0.00015930411 0.00012966427 0.00018018052 -0.0002617862 -6.3507396e-06 0.00014916138 -0.064704746
3.812415e-05 0.00036828397 -0.013464062 -4.418889e-05 0.00028445415 -0.00018730498 0.014175955 0.08638275
-0.0002635903 -0.0037993547 -4.08151e-05 7.960052e-05 -0.06491983 -8.183234e-05 -3.9088813e-05 -0.210188

decode.0.weight f4 [100, 14]
00000000: 58e9 d33a d739 473c 5eb4 333e 0c97 6fbe
00000010: e77f 12bd be94 aabc 0331 673e cad7 7ebe
00000020: 41ed 3d3e bea8 19be 5588 31be 336e 1d3e
00000030: 931a 8f3d cfdd b5bd 3326 5cbb 79c6 6b3a
00000040: 6e3b f33d 2002 acbe 0f54 353e 0163 323e
00000050: 1609 a5be 642f 42be 5948 f93b d4c5 09bd
00000060: 92d0 b6be 2c43 513e 9f1e 543d 6067 8a3e
00000070: 3dff 7ebb b561 bbbb 6168 bebe 3dce 663e
00000080: 8772 593d 12a6 9ebe bf63 a4be f569 d7bc
00000090: 7c68 3ebf 2124 62bd 539b 9fbe 0bb1 9fbe
000000a0: 88f8 403e c1e8 f6bc 2f9f 2b3b d6d6 353b
000000b0: 0c76 753e e106 5e3e be7c c3be 0998 4fbe
000000c0: a19e 103d e7eb cfbe 7ee1 d1be 665b ef3d
000000d0: 007b a33c 944c 223e 3a69 093d 87ac 303e
000000e0: ae60 9cba a65e ca3c f110 033d 188c 15be
000000f0: 9037 223e 3c00 84bc b3d6 68be 33c5 e7be
00000100: 5b52 783e faed 3dbe aac7 babe 88a7 8c3e
00000110: b3dc a1be 84e1 21be d5ff 45bb 825e 0dbb
00000120: c931 7abe 960b bebe e7bd c53d cfeb ac3e
00000130: ec86 70be a6d7 1c3e e705 8e3e 18fa d0be
00000140: 8dea acbe 9baa 91be 9943 cdbe 02a3 c0be
00000150: 6153 c03b 5087 0abc d7b6 76bc 77e2 18bc
00000160: 8ec0 9dbd 2e85 033e a1d9 643d 50b8 9ebd
00000170: 78a3 633c eb75 d93c 54b4 35bb 71f4 5c3d
00000180: add7 b9bd be52 91bd c19d a93a 5e39 11b9
00000190: 0012 f6b9 d4e2 633a 1c30 983d 12a5 87bd
000001a0: a366 213e 465d c73d 33ad d23c 0e93 eabd
000001b0: ee45 77be 8736 0f3e fd61 113d 26e0 d5bd
000001c0: 533c e93c 0757 83bc 856a d93c 966b 9dbe
000001d0: 67f8 e0be 2847 efbe 151c 103e 6303 9f3e
000001e0: 4079 d3be 9d2d 79be 40bc 4d3e 5c00 283e
000001f0: a07a 2e3e a84f f1bd 394c e83b f8ba 523b
00000200: 5fbe c8be 26d4 543d bf6e 843d f982 17be
00000210: ba08 92be 0623 95bd 9276 ddbe 8ffc d9bd
00000220: 9032 8dbe 57ef 93be 94a2 123e 489d c93d
00000230: 4d16 77bc 180e 93bb 6442 61bc 25ab 443d
00000240: b955 76be 31f9 8e3e 0f28 083d 425e c2be
00000250: d2d8 693e 62f8 103e bc73 26be 7760 7e3b
00000260: ae92 53bc 165f 12be 076c 4e3a 992a 973c
00000270: 49ee e6bd 1244 263e 495a f83d 2a13 1f3e
00000280: a172 67bd 89c4 32be 82a8 983e dbe2 0fbe
00000290: 8ff4 0a3e c485 99bd 77da aabe a1a4 84bd
000002a0: 7c3b 80bb 1830 8e3b 48e9 723d e4a0 a6bd
000002b0: 5858 17be c108 8a3b c4ac 273e 45c1 28bc
000002c0: 4e2d 8abe 1ade 03be 8bc9 ef3c 7b84 0fbe
000002d0: 9530 3c3e aed5 313e 6ebc 5ebb 5f16 8fbc
000002e0: 5fa2 16bd e0c6 10bd 00f5 be3d 8334 90bd
000002f0: 159d 8ebd 02bc 483e 2698 c2be 35ef 17be
00000300: 6233 bd3d 19cb 1c3e 00ff 893e b1c9 dfbb
00000310: f126 e53b c752 603c 0226 3a3e 77b1 ef3d
00000320: 7c62 80be f6a5 a63e 3d64 87bd 18f5 fabe
00000330: 74cb 413e b991 403e c82c 09be b85a 3d3e
00000340: 1490 49be b9e0 e3bd 5193 f93a 5555 2f3b
00000350: b80b 573d 5290 2abc 54fd b8bc b4de 0c3e
00000360: 0cc1 b7bd 9632 8abc 0ea7 213e d924 3e3e
00000370: 2cfe 3fbe 78c9 413e c264 3dbe 4d92 a5be
00000380: 95ed c93b 3091 8abc ae2f a43e 5c1c c4bd
00000390: 4d1e 3a3c 643e 8abd e9a7 b7be 014e ba3e
000003a0: 4b96 e7bd cb5c c6bd 8e63 053e a296 a3be
000003b0: bd36 e83d 7f73 b13e e676 3e3b a31f bab9
000003c0: 2462 d0b8 0c16 873a 77ef 073e e816 cdbd
000003d0: 426a d83b c580 fcbc 6853 603c 9d4f b53d
000003e0: 32b7 943d ce52 a1bd be24 94bd 5417 01bd
000003f0: 831c c5bb 2ce8 58bc 9378 acbe d8c0 74be
0.0016167564 0.012159786 0.17549273 -0.23397464 -0.03576651 -0.020822879 0.2257729 -0.24887004
0.18547536 -0.15005776 -0.17337163 0.15374069 0.069874905 -0.08880197 -0.0033592104 0.00089941133
0.1187657 -0.3359537 0.17707847 0.1742058 -0.32233495 -0.1896339 0.0076075015 -0.03363593
-0.35706002 0.2043578 0.051787015 0.27031994 -0.0038909458 -0.0057184347 -0.3718901 0.22539611
0.053087737 -0.30986077 -0.3210735 -0.026295641 -0.7437818 -0.055210236 -0.3117319 -0.3118976
0.18844807 -0.030140283 0.002618741 0.002774646 0.23970813 0.21682312 -0.38181108 -0.2027284
0.03530753 -0.40609667 -0.4099235 0.11687355 0.019956112 0.15849525 0.033547617 0.17253314
-0.0011930668 0.024703335 0.03199858 -0.14604223 0.15841508 -0.016113393 -0.22738151 -0.4526764
0.24250166 -0.18547812 -0.36480457 0.27471566 -0.31613693 -0.15808684 -0.0030212302 -0.0021571224
-0.24433054 -0.37118214 0.096553616 0.33773658 -0.23488969 0.15316638 0.27738878 -0.40815806
-0.33772698 -0.28450474 -0.40090635 -0.37624365 0.0058693145 -0.008455113 -0.015058241 -0.009331337
-0.077027425 0.12843773 0.05587161 -0.077499986 0.013893954 0.026545485 -0.0027725892 0.053944055
-0.0907434 -0.0709586 0.0012940691 -0.00013849649 -0.00046934187 0.0008693163 0.07431051 -0.066232815
0.15761809 0.09734587 0.025717353 -0.1145383 -0.2414777 0.13985644 0.03549384 -0.104431435
0.028471148 -0.016032709 0.02654005 -0.30746144 -0.43939516 -0.46733975 0.14073212 0.3105727
-0.41303444 -0.24333806 0.20091343 0.16406387 0.17038965 -0.11782771 0.0070891646 0.00321549
-0.39207742 0.051960133 0.06466436 -0.14796056 -0.28522283 -0.07282071 -0.43254524 -0.10643875
-0.2757764 -0.2889354 0.14319831 0.09844452 -0.0150810005 -0.004487764 -0.013748739 0.04801478
-0.24056138 0.27924493 0.033241328 -0.37962538 0.22836617 0.1415725 -0.16255087 0.0038814822
-0.012913389 -0.14294085 0.00078743737 0.01845293 -0.11275918 0.16236904 0.121265955 0.15534654
-0.056505803 -0.17457785 0.2981606 -0.14051382 0.13569854 -0.07496217 -0.333698 -0.06476713
-0.003913341 0.0043392293 0.059304506 -0.08136156 -0.14779794 0.0042124693 0.16374499 -0.010299985
-0.2698769 -0.12877694 0.029270908 -0.14015381 0.18377908 0.17366669 -0.0033986825 -0.017466722
-0.036775943 -0.035345912 0.09324074 -0.07041266 -0.06963555 0.1960297 -0.38006705 -0.14837344
0.09238316 0.1531185 0.26952362 -0.0068294634 0.0069931676 0.013691611 0.18178561 0.117037706
-0.25075138 0.32548493 -0.06610916 -0.49015117 0.18925267 0.18805589 -0.13395989 0.18491638
-0.19683868 -0.11126847 0.0019041096 0.0026753743 0.05250141 -0.010410385 -0.022581734 0.1375683
-0.08972368 -0.016869824 0.15786383 0.18568744 -0.18749303 0.1892451 -0.18495467 -0.3233818
0.006162355 -0.016914934 0.32067627 -0.095757216 0.011359763 -0.06750181 -0.35870293 0.36387637
-0.11307963 -0.096856676 0.13026258 -0.3195086 0.113385655 0.3465843 0.0029062568 -0.00035500256
-9.936493e-05 0.0010306253 0.13274942 -0.10014135 0.006604464 -0.03082312 0.013691761 0.08853076
0.07261504 -0.07877122 -0.072335705 -0.031516388 -0.0060153618 -0.013238948 -0.3368574 -0.23901689

decode.2.weight f4 [100, 100]
00000000: f3de 1a3b ae68 a9bd b9b7 8dbd d66d b63d
00000010: 950c 4c3d 5621 67bd 5d3e 733d 4e76 af3a
00000020: deb1 3dba 22ba d03d e479 14ba 578f f53a
00000030: c095 79bd fe21 0e3d 1d38 003d 7b2e 5d3d
00000040: 8b2d 73bd 07c4 573c 1fc3 3fbd 7871 96bd
00000050: e6f3 823d 56f4 113d dc40 32bb d0a2 c83c
00000060: a53d c1bc dbfe 48bc 8ba3 34bd 83dd eebc
00000070: 8eed 823d b66e 463d 7b2f cebc b260 2a3d
00000080: 3c39 a23d e352 89bd 8d06 2fbd 2730 4bbd
00000090: aa68 b83c 5541 a4bd 45ad 4bbd 7501 ad3d
000000a0: bf57 8c3d ed2b bdbc a35b c5bd cb40 56bc
000000b0: ca1c c93d 5e75 823d d928 d3bc 8fdd 273c
000000c0: 047a a3bd 86d4 79bc a738 723d f713 eebb
000000d0: 1a96 7abd 273f e8bc f322 81bd 2b2e 4dbd
000000e0: 64d3 7cbc bf70 353a 901e 853d 43d9 b53d
000000f0: eec9 943c 93cc 753d 5613 dcbd c94f 3d3d
00000100: 0b43 7b3d 7583 56bd 59dc 933a 4c32 89bd
00000110: 90b8 893d 1dce d83d 5698 093d 0bf9 f7bc
00000120: 74fe 72bd 3b5b a73b 045a 863d 44ba 063d
00000130: 9266 c13c 55c4 2c3d c9f8 193d f0d9 6e3c
00000140: 06a5 85bd 9863 9a3d e8af 74bd 4d11 c23c
00000150: 652d 0cbd ab25 2d3d ce93 11bd c094 57bb
00000160: 601f 7c3c 87ef 4ebc 9034 fa3c 75f5 11bc
00000170: 8e36 503c e702 233d 4f32 553d 751f 9dbb
00000180: c68f 2c3d fcd6 3e3c 4181 493d 03f7 303d
00000190: 26d7 1dbd b157 cfbd f445 013d f297 76bc
000001a0: 709e 74bc fb9b f83b fdbf f8bb c4bf a3bb
000001b0: dbff 18bd 56f2 95bd bc68 09bc 543f 393d
000001c0: 7294 62bd 1904 8dbd 34ac 9e3d 07e9 eb3b
000001d0: a118 d33c 4d1e 663d 3f6e 973d ff94 62bc
000001e0: b998 943c 0f9c 2c3d 349b c83c 2fd6 50bb
000001f0: 2921 963a 7f04 04bd d141 1d3c 4d7d 67bd
00000200: 3195 eb3c 6897 adbd 9368 a0bc e871 de3c
00000210: 96c7 723d 08f5 feb9 11ad 63bc e774 88bd
00000220: 8c93 80bc 0446 3fbd 8d61 ab3c 07a7 c2bb
00000230: af8b 083d dc03 02bd 54f3 6dbc c796 04bd
00000240: 11e9 df3c a072 d4bd e503 98bd 6ed1 03bd
00000250: cb4f 25bd 44db 60bc c74e 283d 4468 a6bc
00000260: 3b37 76b9 f721 0dbc 838e 75bc e96d 123b
00000270: a880 5e3d 8cb4 47bd 27e2 b7bd 8030 43bc
00000280: ab61 f03c d8b5 d1bc 5b73 c6bb aeee a0bc
00000290: f903 003d 51b7 333d 69a8 49bd d8cd 9eba
000002a0: b76f d13c 1778 163e da5e a93d 0736 ea3b
000002b0: adf3 a3bc d562 8a3b 5150 88bc 1ab0 883d
000002c0: 9f5d e43c c637 fc3c 731e cfbd 56cd 393d
000002d0: cd06 203d 9bec a7bb 9eaf ecbc 12ea eabb
000002e0: e35e 01bd 9d64 2bbd 773c 41bd e58f 573d
000002f0: d35e e9bd ba36 6fbc 249b 483d 37d9 87bc
00000300: 36ee 4fbd 6462 ad3b 2c1b 3c3d 2809 9dbc
00000310: 07b7 fcbc 27ea 263d 6375 823b a158 67bc
00000320: fd29 533d a8ae 8a3d aeeb 91bc 5e09 33bd
00000330: b056 bdbd 8310 6d3c 3e45 973c 7de4 17bd
00000340: 35fd 8f3d e7d7 273d 3c08 16bd d447 23bd
00000350: 6c23 dfba 0566 eebc 16e9 79bc 0d59 4fbd
00000360: 1f1c 623b fc8a cc3c 655b c03c 20fa cbbb
00000370: 5b32 3c3d b2b4 033e 3751 9c3c 8567 f6bc
00000380: 841d 0fbc 31fa a6bd 91c1 303d cfd7 c5bb
00000390: 6f75 02bb 2f02 453d 2c26 07bd e6b5 d43b
000003a0: 69d4 933d 2791 153d 17ce 4fbd c80d af3b
000003b0: ce45 76bc 1205 ce3b 2598 1abb 0392 a13c
000003c0: 242a f03c ef7c 1c3d 19ca 5abd 26be 4bbd
000003d0: 324d 29bd c5dd 15bd d537 bd3c ee8c 0ebd
000003e0: 1fa0 8bbb 749e a93c 5252 b53c a7d7 97bc
000003f0: e7b9 16bb 97ba 983d ec70 c03b 29a6 a63c
0.0023631423 -0.08271919 -0.06919808 0.08907668 0.049816687 -0.056428276 0.059385646 0.0013386698
-0.0007236282 0.10191752 -0.0005663915 0.0018734735 -0.06093383 0.034700386 0.031303514 0.053999405
-0.059369605 0.013169295 -0.04681694 -0.07345861 0.06394176 0.035633408 -0.0027199304 0.024491698
-0.023588965 -0.0122677935 -0.04410128 -0.02915836 0.06392966 0.048445426 -0.025169125 0.041596122
0.07921073 -0.067052625 -0.042730857 -0.04960647 0.022510845 -0.080202736 -0.04972579 0.084475435
0.06852674 -0.023092235 -0.09636619 -0.013076971 0.09819944 0.06370042 -0.025776314 0.010245695
-0.07982257 -0.015248423 0.05913606 -0.0072655636 -0.061178304 -0.028350426 -0.06305494 -0.050092857
-0.015431259 0.00069214025 0.0649997 0.0887933 0.018162694 0.06000955 -0.107458755 0.046218667
0.061343234 -0.05237146 0.0011280879 -0.066990465 0.06724656 0.10586188 0.033592544 -0.03027012
-0.059324697 0.005107311 0.06560138 0.03289248 0.02360848 0.042179424 0.037590776 0.014578328
-0.06525616 0.07538527 -0.05973807 0.02368989 -0.03422298 0.04227225 -0.03554135 -0.0032895058
0.01538834 -0.01263035 0.030542642 -0.008908619 0.012708319 0.03979769 0.05204993 -0.0047950097
0.0421293 0.011647936 0.04919553 0.04320432 -0.03853526 -0.10124148 0.031560853 -0.015050875
-0.014930353 0.0075869537 -0.007591246 -0.0049972255 -0.037353378 -0.073216125 -0.008386787 0.04522641
-0.05531735 -0.06885547 0.07747689 0.00719941 0.02576858 0.05618124 0.07394075 -0.013829469
0.01813923 0.042141017 0.02448807 -0.0031865945 0.0011453974 -0.03223085 0.009598211 -0.05651598
0.028757663 -0.08476144 -0.019581115 0.027153924 0.05927237 -0.00048629218 -0.013896243 -0.06662922
-0.015695356 -0.04669763 0.02092054 -0.0059403214 0.033336338 -0.03174196 -0.014523346 -0.032370355
0.027332814 -0.103734255 -0.07422618 -0.03218215 -0.0403593 -0.013724152 0.041090753 -0.02031339
-0.00023480963 -0.008614055 -0.014987591 0.0022343344 0.054321915 -0.048756167 -0.08978682 -0.011913419
0.029343447 -0.025599405 -0.006056232 -0.019645061 0.03125379 0.043875996 -0.049232874 -0.001211579
0.025565965 0.14694248 0.082700446 0.007147554 -0.020013655 0.0042232075 -0.01663986 0.06674214
0.027876673 0.030788314 -0.101132296 0.04536184 0.039068986 -0.005124641 -0.028892335 -0.0071690166
-0.03158463 -0.041844 -0.047176804 0.052627463 -0.113950394 -0.01460045 0.04897608 -0.016583068
-0.050764285 0.00529127 0.04592435 -0.019169405 -0.030848993 0.04075065 0.0039812787 -0.014120252
0.051553715 0.06771594 -0.017812576 -0.043710105 -0.0924505 0.014469269 0.018465634 -0.037083138
0.07030717 0.040977385 -0.036628947 -0.039863423 -0.0017024106 -0.029101381 -0.015253326 -0.050622035
0.0034501625 0.024968617 0.02348108 -0.0062248856 0.04594646 0.12861899 0.019081695 -0.030078659
-0.008735064 -0.08153189 0.04315335 -0.0060376893 -0.0019906422 0.048097786 -0.032995388 0.0064914105
0.072182484 0.03651538 -0.050733652 0.005342219 -0.015031291 0.0062872255 -0.002358922 0.019722944
0.02931697 0.038205083 -0.05341539 -0.049741887 -0.041333385 -0.03658845 0.023097912 -0.03480237
-0.0042610313 0.02070544 0.02213398 -0.018535448 -0.002299899 0.07457464 0.0058728363 0.020342903

decode.4.weight f4 [1, 100]
00000000: 38d6 8539 fe5a 9338 8e1c feb8 a6fa edb9
00000010: f9b4 bb39 3c94 3f39 73bb 58b9 aaa4 bc3d
00000020: 730b 553d d23b 96bd 4d21 563d 2f5a 5ab9
00000030: b8bd f1b8 2b43 adbc 09e1 b63d a83d b239
00000040: 3402 aa37 c0ce 2bb5 fd53 7239 7476 d5b9
00000050: aaeb ed38 bfc2 ec39 ed57 7339 a9d6 d3b9
00000060: 5985 3239 ffae 6bbd 328a 233a c4ab 1b39
00000070: e6a7 15ba 48bf 383a cade 82b9 63fb 36bd
00000080: ddbe 0c3a 6933 b03c fae0 8c37 0e92 13b9
00000090: 942a 2dbd bec6 48bd 81c5 31b9 943d 8539
000000a0: 4b35 6bb9 bad8 94b9 2475 1cb8 d008 5638
000000b0: 96d7 e739 7c74 09b9 9fea 463a 663d bfb9
000000c0: a0b3 5b3d 16fd a639 f2b6 47b9 88b2 bab9
000000d0: 4410 6fb9 e310 8337 7cfb 433d abd7 f6b9
000000e0: 72ef 6f38 b0f2 bab8 17f0 943d 6a88 033a
000000f0: fc95 e037 e432 53b8 c898 94bd 2703 42b9
00000100: a360 fab9 5fe4 a439 9b33 6539 bd27 653c
00000110: 208f d2b9 c3e5 2cbd 0c06 b3b9 79c9 edb8
00000120: 02a5 5bbd d02c c4b9 fcb5 74b9 71f6 70bd
00000130: 71de aa39 99cd 1fb8 49f1 fcb7 f4e4 e7b9
00000140: 5769 78b8 56d6 3cb9 dc56 eab9 4541 cc39
00000150: 1e04 fa39 e567 d7b8 d054 8c39 01d2 8539
00000160: 0fa5 b539 e97b d2b7 90c0 b336 807e 9c3d
00000170: 2314 fc39 08fe 3139 8314 f438 4259 8b38
00000180: d211 4639 0179 113d 544b bbb8 be25 9dbc
0.00025527342 7.026455e-05 -0.000121169825 -0.0004539091 0.00035802255 0.00018270401 -0.00020669196 0.09211095
0.052012872 -0.073356286 0.05227785 -0.00020823696 -0.000115271134 -0.021150192 0.08929641 0.00033996743
2.0266605e-05 -6.4003325e-07 0.00023110207 -0.0004071478 0.000113449365 0.00045158525 0.00023207041 -0.0004040499
0.00017025079 -0.057539936 0.0006238549 0.0001484594 -0.0005708918 0.0007047546 -0.00024961523 -0.044673335
0.0005369017 0.02150889 1.6794063e-05 -0.00014073422 -0.042276934 -0.04901766 -0.00016953611 0.00025413616
-0.000224312 -0.00028390234 -3.7302394e-05 5.1029783e-05 0.00044220377 -0.00013108732 0.0007588062 -0.00036476104
0.0536381 0.0003185055 -0.00019046271 -0.000356097 -0.00022798876 1.562428e-05 0.047847256 -0.00047081462
5.720504e-05 -8.914375e-05 0.07272356 0.00050175807 2.6772723e-05 -5.0353716e-05 -0.07255703 -0.00018502456
-0.00047755716 0.00031450667 0.00021858366 0.013986525 -0.00040160958 -0.042211305 -0.00034146046 -0.00011338568
-0.05362416 -0.0003741742 -0.00023337448 -0.058828775 0.00032590659 -3.810003e-05 -3.0153098e-05 -0.00044230337
-5.9225913e-05 -0.00018008924 -0.00044696673 0.00038958542 0.00047686783 -0.00010271351 0.0002676607 0.00025524202
0.00034645988 -2.5091651e-05 5.357033e-06 0.076413155 0.0004808019 0.0001697467 0.00011638647 6.644662e-05
0.0001888939 0.03551579 -8.930886e-05 -0.019183036
