Quantum/1 qubit/incomplete/models/5_latent.pt (torch, 97127 bytes, 6 tensors)

encode.0.weight f4 [100, 10]
00000000: 1bd1 183e ddf2 00be 7de5 80bc c152 9ebd
00000010: 4f3d 573d dbf6 ec3c a9ef 87bc 8ed2 8d3d
00000020: ba03 80be c1bb 5e3e ac5b 463e 9d59 86be
00000030: 3076 05be 59b3 cf3d 4da0 13be ffa9 493e
00000040: 1bb7 fc3d 6eeb f4bd 2cac 553e b8b2 31be
00000050: de6b 973e e4bc a3bd b56d 4b3e 081c 0bbe
00000060: 2d89 a9bd c8e6 bdbd 1fdc 343d 4a1c c1bd
00000070: 7f8a 50be fd8f 1c3e 4004 00be 5471 4dbe
00000080: c315 0c3f a766 be3e e6b9 8fbb 42ad e63d
00000090: e1be 57be 29bd 8fbe 2520 0c3f f523 963d
000000a0: 083a c23e 49af 93bd 5210 c9be b55c 1a3e
000000b0: 02c8 40be 779a 3bbe d1a0 63be 3a24 123e
000000c0: 2ca2 73be ac71 6cbc b153 b23d 2ebe f13d
000000d0: 576a cbbe 6121 9e3e 2146 eabd ead6 233e
000000e0: 7cc6 8a3d e099 b23e 9ba5 c8bd 363e 00be
000000f0: f368 5a3d 85f6 c9bd c557 18be 847d a2be
00000100: dde6 2dbe 2724 1a3e 031f 083e 55c6 ec3c
00000110: 6361 a23e b632 483d 85d6 eabd 2407 b9be
00000120: 28e2 20be 5364 11be 5fc6 b33e a3bc c1bd
00000130: b69c d33d c7be 203e 3a11 ffbe 2e22 66be
00000140: 959e bb3d f13b 1abe 1755 22bd d15e f4bd
00000150: bb54 8fbe 2351 fd3d e39f e73d 1e52 163e
00000160: b554 983e 1ba8 38be 0ef8 1fbe fbdd 19be
00000170: 9073 ecbc 1e45 293e 509b d2bc fd3e 5c3e
00000180: 5872 72be 6a94 003e 78ae b8bd 8ca8 283e
00000190: e4e3 06be 2521 b5bd 94d2 62bd b1d9 573e
000001a0: ec70 0fbe e93b 1f3e 49e8 99bc 491a f73d
000001b0: 7c59 fc3d ea26 34be 27e8 88be 61a8 863e
000001c0: 92be 83bd 50fd 8c3e a7de 19bf 2cdd b7be
000001d0: 9192 23bf 2e83 09bf 3f39 acbc 14f4 f73d
000001e0: 1271 9abe e251 75be 9b20 623e 41d4 1ebe
000001f0: 456b 363e 2a8a e2bd a228 bfbe 35c5 df3d
00000200: 958f c73e 6171 a83d d602 293e 8da2 f1bc
00000210: 035e dabe 74a9 95ba 68b1 8abe 9c54 213e
00000220: a121 6ebe 5a5c 903e 7613 00be bddc 013e
00000230: c99d 663d 5337 fcbd 5c49 613c 1959 023e
00000240: 6bc6 1e3e 7007 373d 929e 28be 300d cfbd
00000250: 480e 69be 3e95 623e 2141 dbbd 43b3 75be
00000260: 2b3f 07be f017 08bd 3eff d6be 9094 07bf
00000270: a11b 4fbd 2f16 b5be 793e ce3e 5157 2a3e
00000280: 92b2 d0bc 919b 843e e412 053d a11e 533e
00000290: 5b80 46bd 0689 58bd e761 353e 8573 3ebe
000002a0: 2b1b 9ebc fafa acbe 1765 8b3e 81cc 083e
000002b0: 29f7 48bf 70b2 b8bd 634a 98be f84a 63be
000002c0: 36c1 aa3c cbb8 013f a6d1 c0be 8b15 99b9
000002d0: 91f4 75be 490c 8e3e 4bcb e53d 9a4a 98be
000002e0: ba48 953e e946 d33d aa10 82bd 4987 86be
000002f0: 3f95 3bbe 4d38 8bbd f0cd 68be fed2 aebc
00000300: 1d8d cf3d 5ca6 51be 23dc 863d 959a 47be
00000310: f759 d7be 87ca 29be fa2a 9d3e 5e4d a83e
00000320: 4656 c13c 51a0 643d 96ae 8dbd dc97 5d3e
00000330: 3d6f e1be 4624 eebe 12bb d1be 6585 c83d
00000340: d4fb 063e 0e3a 943e 01a8 723e 069b f93d
00000350: a87d a2be d6a0 f5bb b42a 84be 7981 2a3e
00000360: 149d d9bd 38ef ba3e fa09 20bf aece bcbe
00000370: 98be 5bbe b83d 7fbd 5a56 fcbd 64d1 18be
00000380: d341 933d 6175 00bd 8c9f fd3c fd68 003e
00000390: 4925 013e b010 6e3e aad7 5fbe a463 3dbd
000003a0: 5972 d83d 3dc7 2e3e 62e9 2e3e 2778 46be
000003b0: d834 2fbe d702 6b3e d17b 64be 2294 353e
000003c0: 06da 423e 33fc 51be 9b79 37be 71f5 86be
000003d0: f8a2 febd 73a3 753e 710e 963e d9f3 843e
000003e0: fd1e d8be 37d9 80be 371a 133e 84d8 833e
000003f0: c470 263e 7c6b 6bbe a414 9cbe e17e 863e
0.14923517 -0.12592645 -0.015734429 -0.07730628 0.052548703 0.028926304 -0.016593771 0.06924926
-0.25002843 0.2175131 0.19370908 -0.26240245 -0.13033366 0.1014163 -0.14416619 0.19693755
0.12339612 -0.11958967 0.2086646 -0.17353332 0.29574484 -0.079950124 0.19866069 -0.13584912
-0.08278117 -0.09272534 0.044155236 -0.09429224 -0.20365332 0.15289302 -0.12501621 -0.20062762
0.54720706 0.37187693 -0.0043861745 0.11263515 -0.21068908 -0.28074005 0.5473655 0.07331077
0.379349 -0.07211167 -0.39270264 0.15074427 -0.18826297 -0.18320642 -0.22229315 0.14271632
-0.23792332 -0.014431398 0.08707369 0.11803852 -0.39729568 0.3088484 -0.11439157 0.15999952
0.06776139 0.34883022 -0.09797212 -0.12523732 0.053322744 -0.09861473 -0.14877231 -0.31736386
-0.16982599 0.15052854 0.1329308 0.028903166 0.31714925 0.048876487 -0.114666976 -0.3613826
-0.15711272 -0.14198427 0.35112283 -0.09459808 0.103326246 0.15697776 -0.4981783 -0.22473976
0.091611065 -0.15061928 -0.03963193 -0.11932147 -0.27994332 0.12368991 0.11309793 0.14679763
0.29752126 -0.18032877 -0.15621969 -0.15026085 -0.028863698 0.16530272 -0.025708824 0.21508403
-0.23676431 0.12556615 -0.09017652 0.16470546 -0.13172871 -0.088442124 -0.055376604 0.21079136
-0.1400792 0.15550198 -0.01878752 0.1206556 0.12321755 -0.1759297 -0.26739618 0.26300338
-0.06432833 0.27537012 -0.60105366 -0.35910928 -0.6389552 -0.5371579 -0.02102339 0.12107101
-0.3016439 -0.23957017 0.2208275 -0.15510656 0.17814358 -0.11061509 -0.37335688 0.10926286
0.38976732 0.0822475 0.16504988 -0.029496456 -0.4264985 -0.0011418299 -0.27088475 0.15754932
-0.23255016 0.2819546 -0.12507424 0.12681861 0.05630282 -0.1231524 0.0137504 0.127293
0.15505378 0.044684827 -0.1646674 -0.10109937 -0.22759354 0.22127244 -0.10705782 -0.23994164
-0.1320769 -0.033225954 -0.4199161 -0.52961063 -0.05056346 -0.35368487 0.40282038 0.16634871
-0.025475774 0.25899938 0.03248872 0.20617153 -0.048462253 -0.05286505 0.17713128 -0.18598755
-0.019300064 -0.3378523 0.27225563 0.13359262 -0.78502136 -0.09018409 -0.29744253 -0.22196567
0.020844083 0.50672597 -0.3765995 -0.00029198485 -0.24019076 0.27743748 0.11220416 -0.29744416
0.29157048 0.103162594 -0.06350835 -0.2627509 -0.18318652 -0.06797848 -0.22734809 -0.021340843
0.10134337 -0.20473617 0.065849565 -0.19492562 -0.42060825 -0.16581164 0.3069685 0.32871526
0.023600709 0.055816952 -0.06918065 0.21639961 -0.4403018 -0.4651205 -0.40963036 0.09791068
0.13182002 0.28950542 0.23696901 0.121877715 -0.31736493 -0.00749598 -0.2581383 0.16650952
-0.106256634 0.36510634 -0.62515223 -0.36876434 -0.21459424 -0.06231472 -0.12321158 -0.14923626
0.07190289 -0.03136194 0.030959867 0.1254005 0.1261188 0.23248553 -0.21859613 -0.046237603
0.10568685 0.17068191 0.17081216 -0.19381772 -0.17110002 0.22950302 -0.22312857 0.1773229
0.19028482 -0.20506363 -0.17917483 -0.26359132 -0.124334276 0.23988132 0.29307893 0.2596729
-0.42211142 -0.25165722 0.14365469 0.25751126 0.16253954 -0.22990221 -0.30484498 0.26268676

encode.2.weight f4 [100, 100]
00000000: b029 a73d cb19 883c 6c4b 46bb cfe0 d839
00000010: 2bb3 64bd e63b bc39 6f7f 9d3c ab58 44bd
00000020: 2212 2a3c 29bd a63b 59ad 7a3c 980d a9bd
00000030: 31f5 81bd d9ad 3cbd 8a00 f03c 5dc7 203c
00000040: 118c 13ba 4b18 2f3d 4254 b6bd 7cd9 593d
00000050: 28b2 5f3d a115 053d a3b2 8c3c 722c 21bc
00000060: 74b2 003d c863 83bd 71ec 92bc ece1 a4bd
00000070: a19a 8a3d f13b d7bb 7e66 61bd ec91 953c
00000080: c2b6 013c a450 4ebd 3136 103c 554a 4bbd
00000090: 1028 333d 3774 b5bc c417 4b3c 0af1 05bd
000000a0: 10d1 d1bc 7682 73bc 755b 5bb9 1364 013d
000000b0: 6de8 643d 211a 60bc ee02 f9bc 8108 f43c
000000c0: 6e6e 62bc 0f7e 4e3d 372d aabd 5717 adbd
000000d0: 1f1b 883c f1c4 c53c 224f dc3b bd8e 3ebd
000000e0: ba9d 89bc 0271 c83c e2eb 8cbb 175c b03b
000000f0: 0305 583d 9af3 253b e647 64bc 8d7a 46bd
00000100: 5e78 02be 09ff 96bd d175 263d a0b5 27bd
00000110: 31ce 683d 9567 31bd 6a7e a43d f7be 08bc
00000120: 0881 11ba f550 a73d bdcb b6bc 4aa1 953c
00000130: 82ec f43a 16f1 4dbd 8a78 b8bb 6ef1 33bd
00000140: 7294 a8bd 3a56 11bd 09eb e43c 91e3 af3c
00000150: da02 493d 7d35 343c e932 af3b 69c6 d6bb
00000160: 77b2 5fbc 5eab b93d cfe9 a63a a764 d43c
00000170: 779c af3d d519 2ebc b74b 113c 4c5d f2bc
00000180: d14e b2bc bf88 d4bc 28d4 a33c 2786 a93d
00000190: 5d61 603c 45f7 c33c 0a02 debb 7735 3bbf
000001a0: 7d80 3b3e c5a0 2dbe 3c18 173c 299e 933f
000001b0: b207 0a3c 027e cd3c 67e6 0e3d 1973 a93d
000001c0: 64d3 a0bd 6fa3 853e b5c5 7f3c ccf9 d43d
000001d0: 5fd0 263d 73ee c13e 32e2 e73e adc2 30bd
000001e0: 4143 adbd 76f9 303f d002 84bd 0b5e fcbb
000001f0: 835b 103f 7fca 13bd 2aa6 55bd df01 cb3d
00000200: 3add 3e3d ec34 173e 4a0f 3b3e 8208 a3bd
00000210: 213e 413c 43b3 70bd 5651 01bf 64bf 583e
00000220: b643 6c3c 2e05 ab3e 4507 653e 6af0 37bc
00000230: f4f1 c63d e224 d23d 4bcc 903c 7a30 22be
00000240: 15bb bc3d beae 303e a59c 803f ee50 623e
00000250: 4b2a efbe 48e5 043d 6c62 1b3f b9bd 1bbe
00000260: ace9 763d a273 df3c 9635 eb3e 5d52 40bc
00000270: 6a0a 82bd 64bd 903c 97dd a83d 9fab c0be
00000280: eace 913d c6a6 a3bd c7f1 c03b 2d3a 25bd
00000290: cd70 993e 7a7d fbbd abe1 be3e 1709 5abd
000002a0: bee6 0bbd bc76 58bd 47f9 77bd cce5 c2bd
000002b0: 9eb7 1b3e 3f38 5d3f be15 edbe f04b cfbb
000002c0: 1182 f4bb e633 343c 0fb7 6c3e 62ff 61bd
000002d0: 6642 053f 695a e03e ff88 aa3c d6fc 54bc
000002e0: b1cf c53e 0258 a93e 9a7f 3ebc 7fd7 6b3f
000002f0: c8a6 9a3e e513 1b3e 65b4 47bd 8e02 d3bb
00000300: 0af8 443f e1fa 123d 9256 953f ed12 633e
00000310: 95c3 333d 7954 46bd 95b2 013d ecbe 5b3f
00000320: 153b 853d b382 d83c 495d 1b3d 1b93 29bd
00000330: 5cc3 efbc 8904 563c a9ff 293d cdbb 8f3a
00000340: 92a6 033c aa8f 6c3d 2837 a23c 1d70 bebc
00000350: 97e8 59bd c65a c23d 1555 9d3c 2ee9 94bd
00000360: f5c9 c83c c6b8 48bc a8a9 8c3d 4f1e 82bd
00000370: c5ec 33bc 6661 3dbd 77e6 b93c 316b 18bc
00000380: cfbc 84bc f774 87bc fe7f e3bc 19d9 3e3d
00000390: 27d1 acba d164 8dbd cc0a 093d 5fe2 19bc
000003a0: 3d81 193d c352 9abb 4501 423d c164 acbc
000003b0: 728e 43bc d596 89bd 4c21 69bd c7a4 e9bb
000003c0: d92a dd3d 5123 b33d 6f09 ed3c cac4 3bbc
000003d0: 7b49 a13d 5aff f4bc fe75 29bd fb17 d73d
000003e0: 57e4 1ebd d875 373c 44fe bd3d b2d2 41bd
000003f0: 496c 4ebc 39c0 e73c 4761 e33d 7d1d 04bc
0.08162248 0.016613862 -0.0030257357 0.00041366226 -0.05583493 0.00035902782 0.019225804 -0.047936123
0.0103803 0.0050884676 0.015300118 -0.08254546 -0.06345595 -0.04606423 0.029297132 0.009813157
-0.00056284765 0.042747777 -0.0890279 0.053185925 0.054613262 0.03249133 0.017175024 -0.009837257
0.031420186 -0.06415516 -0.01793501 -0.08050904 0.067677744 -0.006568425 -0.055029385 0.018258058
0.007917108 -0.050369874 0.008801983 -0.049631435 0.04373938 -0.022150142 0.012395803 -0.032700576
-0.025612384 -0.014862647 -0.00020919538 0.03158958 0.05588572 -0.013678105 -0.030396905 0.029789211
-0.013820274 0.050413188 -0.08309405 -0.08451717 0.016614495 0.02414176 0.0067233006 -0.046522845
-0.016798843 0.024467949 -0.0043005804 0.0053820717 0.052739155 0.00253222 -0.013933158 -0.048456717
-0.12741229 -0.07372863 0.040639702 -0.040944695 0.056837264 -0.043311674 0.08031924 -0.008346311
-0.0005550538 0.08169738 -0.022313947 0.018265385 0.0018686207 -0.050278746 -0.0056296038 -0.043931417
-0.08231439 -0.035482623 0.027944105 0.021470817 0.049074985 0.010999081 0.005346645 -0.006554414
-0.013653389 0.09065889 0.0012734475 0.025926901 0.08574765 -0.010626276 0.0088681495 -0.029585503
-0.021766098 -0.025944112 0.019998625 0.08277541 0.013695088 0.023921618 -0.0067751454 -0.73128456
0.18310733 -0.1695586 0.0092220865 1.1532642 0.008424686 0.0250845 0.034887698 0.08273906
-0.078528196 0.26101252 0.015611102 0.103992075 0.040726062 0.37877235 0.4528976 -0.043154407
-0.08460093 0.6913065 -0.06445849 -0.0077016405 0.56389636 -0.036081787 -0.05216042 0.09912466
0.046597697 0.14766282 0.18267551 -0.07960607 0.011794598 -0.058764707 -0.50514734 0.2116676
0.01442044 0.3340239 0.22366054 -0.011226753 0.09714118 0.10260941 0.01767554 -0.15838805
0.092153706 0.17254159 1.0047804 0.22101185 -0.46711954 0.032445222 0.60697055 -0.15209092
0.06028144 0.027276818 0.4593932 -0.011738387 -0.063496426 0.017668433 0.0824539 -0.37630937
0.07119544 -0.07990794 0.005888197 -0.040338684 0.29968873 -0.12279792 0.37281546 -0.053231325
-0.0341556 -0.05284761 -0.060540464 -0.095164865 0.15206763 0.8641395 -0.4630565 -0.006326191
-0.007461794 0.010998702 0.23116706 -0.055175193 0.5205444 0.43818977 0.020817278 -0.012999734
0.38635018 0.33074957 -0.011627102 0.92125696 0.3020537 0.15144308 -0.048756022 -0.0064395135
0.7694098 0.035883788 1.1667044 0.22175188 0.043887693 -0.048420403 0.03166445 0.858382
0.0650541 0.02642951 0.03793076 -0.041400056 -0.02926796 0.013062605 0.041503582 0.0010966003
0.008035319 0.057754196 0.019801691 -0.02324682 -0.05320033 0.0948997 0.01920561 -0.07271038
0.024510363 -0.012251085 0.06868297 -0.06353437 -0.010981743 -0.046235465 0.022692902 -0.0093029
-0.016203312 -0.016535265 -0.027770992 0.04659376 -0.0013184891 -0.06903995 0.033457562 -0.00939235
0.037476767 -0.004709573 0.047364492 -0.021044137 -0.011935817 -0.06718222 -0.05691652 -0.0071302387
0.10799188 0.087469704 0.028935162 -0.011460492 0.078753434 -0.029906917 -0.04137229 0.10502621
-0.03879198 0.01119753 0.09277013 -0.047320075 -0.012599059 0.028289901 0.111025386 -0.008063671

encode.4.weight f4 [10, 100]
00000000: b13b 8939 6110 8ebe faa1 9839 e587 1539
00000010: 7db3 833d 6cb7 84b9 80ef 8039 6ac5 8839
00000020: ca33 1939 d911 ae39 a08f 42b9 e51c 7cb8
00000030: 1b65 7fb9 233c 9fbd ca46 06be ab2f a838
00000040: 8580 11b9 6949 a2b9 113c f739 3ab4 ad38
00000050: 3e09 4ab9 d6c0 e539 e221 05b7 6a49 023a
00000060: b61c a53e 7a97 6e3a 65b1 57bd b685 2dbe
00000070: 9b3b 37b9 d5f2 e53c 720a 59b7 55f7 2139
00000080: 202f e63d 336b bb39 ba75 0e3e df3e 42be
00000090: 1e07 f839 3e21 0ab9 c118 be39 f9d1 c9bd
000000a0: 9730 f03c 6190 9039 7551 55b9 f270 97b8
000000b0: 459b 84b8 995a a7bb cc8e 4ab8 e53f 03ba
000000c0: 0f35 183e 6d17 afb8 9034 67b9 75b5 51ba
000000d0: 834a 9db9 1877 0b37 197a 33b8 60ec 02b9
000000e0: 55e2 573d efe4 82b9 454a 5d38 b101 a63d
000000f0: 77ce 51b9 9400 86b6 c4ab ed3a c150 09ba
00000100: 51e8 443c 209e 69b5 cef8 0f39 ea88 9ebd
00000110: 5048 a138 aa75 4c3e c0f4 f039 8703 30bd
00000120: 727a bc39 bb38 9539 6e57 39b9 d13a c8bb
00000130: eb6b bbb9 ccfd 9639 56b2 9639 83cc c5bd
00000140: 7d6b b9b9 dd13 73be e02e 49bd 77ba 2a3a
00000150: d063 4eb6 75f6 6339 038f bd39 3914 e53d
00000160: 312f 433d dac3 8639 267e 19ba ab37 8539
00000170: 229d dab8 5e49 533e 30a3 f03d 34e0 37b8
00000180: 0a8f e0b9 48ec 283a 8e7d 4839 2379 e4b6
00000190: 8f8d 3d3c ad43 60bc 3d9b 5b3c a0eb b9bb
000001a0: eba5 a1bc 1d31 d3bb 6036 323c df10 f63b
000001b0: c1bb 5e3c 1789 4b38 eca8 99bb 4c8e 303b
000001c0: 65e5 cdbb 2f0e 143d a7ed 5f3d eab5 43bc
000001d0: 6375 49bb 474c 88bb ecad e7bb fc12 c13b
000001e0: e7f5 7ebb c374 463c 2be2 8ebb 7269 073c
000001f0: 5d2f 7dbc fdad e93b 4335 b23b be2d 69bd
00000200: 3213 7b3c e9c2 0c3d 88f0 d9bb 2e4b 3a3c
00000210: 7b18 473d b44c 0c3b 944a 01bd 3dfa 66bd
00000220: e4d4 8a3b 51ee 90bb 33c3 303c bb0a a3bc
00000230: 5d65 2bbd 0807 9d3b c0c2 af3b c475 0abc
00000240: ed56 f3ba 67d7 c43b e4e6 89bc 1088 08bc
00000250: 1305 1f3d bd3b c23b 30c2 6d3c 1764 c7bb
00000260: a02b c0bb c844 60bc 3d91 993b d195 88bc
00000270: f87c 20bd b917 843a 630e 72ba 4bba 71bb
00000280: a187 01bc 441b 853b b410 38bd 9303 00ba
00000290: 6200 73bc 3425 41b9 2c8d 873a 586e 383d
000002a0: ecc2 88b9 7129 1b3c 7f48 f9bb f124 76bb
000002b0: 82d5 abbb b33a 3c3b cf6e a4bb d184 34bd
000002c0: 8c82 683c dc8d 213b c2ed 923a 7e88 a1bc
000002d0: 8652 efbb bc1d 933c b56d 113d 46cc 5d3c
000002e0: 350d b6b9 5dd2 c6bc 0c30 18bc 731f 69ba
000002f0: fc66 843c 6a5f 97b9 a16d 293c c778 973b
00000300: 5e51 7439 4df5 113b 2ada 773c c62e be3b
00000310: c059 cf3b b196 ea3b 99b5 bbbc 1a34 a0bb
00000320: 1eb9 5d37 0dcc 7f3d ff73 2ab9 00dc 0eb9
00000330: 394e 8b3c 54ac 85b9 0280 8ab9 5718 0b3a
00000340: 9910 a039 111c c1b9 c817 1a39 ec66 a2b8
00000350: f89c 9538 ca52 dbbd 9fa2 853c 6fae b7b9
00000360: 6169 1b37 e586 0e39 7575 28b8 1044 9eb8
00000370: a77e bdb8 a391 1db8 4d27 5938 a87c d039
00000380: dd7e 32bd 5a4d 8737 1d3e 263e 538f 293e
00000390: cf68 a839 baf1 623e 1978 ddb9 37db b3b8
000003a0: da20 793d 040b 91b8 4510 efbc b195 09be
000003b0: 40ea 76b8 eeb2 96b9 fb11 b1b7 b3e7 10be
000003c0: 93b4 fcbd e738 13b8 bf5a e439 1423 8ab9
000003d0: 1648 c438 3eb8 803b 7d97 0b39 944a b938
000003e0: 285e 1fbe 9ee4 03b9 2995 e738 a7ad 1939
000003f0: 1f54 35b7 fa78 39b9 fcf8 a2b9 b61d a2b9
0.0002617515 -0.2774687 0.0002911238 0.00014260372 0.06430719 -0.00025313662 0.00024592504 0.00026087026
0.0001461051 0.00033201164 -0.00018554786 -6.0108392e-05 -0.0002435636 -0.07775142 -0.13112941 8.019743e-05
-0.00013876155 -0.00030953743 0.00047156264 8.282853e-05 -0.00019267664 0.00043821958 -7.935307e-06 0.0004970046
0.32248467 0.0009101551 -0.05265941 -0.16945538 -0.00017474445 0.028069893 -1.293664e-05 0.00015446295
0.11239457 0.0003574729 0.13912097 -0.18969296 0.0004730755 -0.00013173089 0.00036258067 -0.09854502
0.029320044 0.0002757339 -0.00020343608 -7.221279e-05 -6.323172e-05 -0.0051072356 -4.8293543e-05 -0.00050067744
0.1486399 -8.349014e-05 -0.00022049458 -0.00079997565 -0.0003000089 8.312774e-06 -4.2790638e-05 -0.00012485823
0.05270608 -0.000249661 5.2759675e-05 0.08105791 -0.00020008707 -3.9935785e-06 0.0018132855 -0.00052381685
0.012018279 -8.7029366e-07 0.0001373023 -0.07740958 7.6905475e-05 0.1996676 0.0004595872 -0.042972114
0.00035949383 0.00028461762 -0.00017675545 -0.006110527 -0.00035747825 0.00028799323 0.000287431 -0.09658148
-0.00035366035 -0.23738046 -0.04911697 0.0006512771 -3.075449e-06 0.0002174022 0.0003615544 0.11185498
0.047652427 0.00025704392 -0.00058552844 0.00025409213 -0.00010424318 0.20633456 0.117498755 -4.3839405e-05
-0.00042831182 0.00064439 0.00019120259 -6.8090317e-06 0.011569395 -0.01368801 0.013403711 -0.0056738406
-0.019732436 -0.0064450637 0.010877222 0.0075093354 0.013594569 4.8526646e-05 -0.0046893265 0.0026940284
-0.0062834495 0.03614634 0.054670002 -0.011945227 -0.0030740134 -0.0041594836 -0.0070702937 0.0058921557
-0.0038903893 0.012112799 -0.0043604574 0.008264886 -0.015453187 0.0071313367 0.005438478 -0.05692839
0.015324401 0.03436557 -0.006650988 0.011370463 0.04860733 0.0021408023 -0.031565264 -0.05639099
0.0042368043 -0.004422941 0.010788727 -0.019902578 -0.041844714 0.004792098 0.005363792 -0.008450929
-0.0018565335 0.0060071233 -0.01683373 -0.008333221 0.0388232 0.0059275315 0.01451163 -0.0060849297
-0.0058645755 -0.013688274 0.004686503 -0.016673 -0.03918168 0.0010077871 -0.0009233711 -0.003688472
-0.007905872 0.004062088 -0.044937804 -0.0004883345 -0.014831634 -0.00018419774 0.0010341755 0.045027107
-0.0002608517 0.00947033 -0.007607519 -0.003755864 -0.005243958 0.002872151 -0.005018092 -0.044071976
0.014191281 0.0024651205 0.0011209773 -0.019718405 -0.0073035387 0.017958514 0.035505015 0.013537472
-0.00034723585 -0.02427023 -0.009288799 -0.0008892931 0.016162388 -0.00028872053 0.010341079 0.004622552
0.00023299965 0.0022271455 0.015127698 0.0058039157 0.0063278377 0.007159077 -0.022913741 -0.0048890235
1.3215727e-05 0.062450457 -0.00016255675 -0.00013624132 0.017005073 -0.0002549613 -0.00026416784 0.0005306056
0.00030529944 -0.0003683274 0.00014695444 -7.743933e-05 7.1341114e-05 -0.1070915 0.016312895 -0.00035034443
9.263255e-06 0.00013592427 -4.016371e-05 -7.546705e-05 -9.035813e-05 -3.756735e-05 5.1773433e-05 0.00039765728
-0.043578018 1.6129274e-05 0.16234632 0.1655858 0.00032121546 0.22162524 -0.00042241885 -8.576217e-05
0.060822345 -6.9161906e-05 -0.029182563 -0.13436009 -5.8869133e-05 -0.00028743542 -2.1108417e-05 -0.14150886
-0.12339129 -3.5100526e-05 0.0004355516 -0.00026347546 9.359435e-05 0.0039282134 0.00013312507 8.835379e-05
-0.15563262 -0.000125783 0.000110427216 0.00014655908 -1.0808027e-05 -0.00017688042 -0.00031084556 -0.00030921184

decode.0.weight f4 [100, 15]
00000000: 2a15 8f3d 71c2 023c 0527 283d 3877 6b3b
00000010: 1c06 823c 3b37 ea3d 2776 6dbe ecf0 5abe
00000020: e135 4e3d d830 323e 7e81 6a3d 0ccd 553d
00000030: d2b3 d8bd a198 b3bd 6909 703e 151c 313e
00000040: 6964 ddba 6112 bb3c 9417 6d3c ac75 9bbc
00000050: b091 e1bc 0cb4 153e 6efe d93d d80d 79be
00000060: d32c 303e a612 15be 2465 fdbd 013c a53d
00000070: fdbb ebbd 5202 13be 66cc 21be 8dc7 10bc
00000080: f789 f43e eebd aeb7 306a 123b cb0e ac3c
00000090: eef2 9d3e a06f 9fbe 3001 813e 5efa fabd
000000a0: e4d7 8ebe 2fac 5bbe 0c1b 98be 350a 0dbf
000000b0: 57c6 85be e79d ecbc 42d8 08bc b5af 1fbe
000000c0: acad 95ba 0892 e1bb 76ed f3bc 9045 04bd
000000d0: 1c0d 933d 569f 39be e015 943e 1239 bdbb
000000e0: 0e8e 3abe 5553 3c3e 30ed 99be d98d 233d
000000f0: faac 503e d24a 223b 20aa 693e 2527 60bc
00000100: feb5 e6bc 2483 bbbd 4898 2cbe 389a 413e
00000110: ee5c 2abe 2e43 f63d bb43 7c3d 7d58 4e3e
00000120: db47 023e 6539 0abe 2bc5 56be 2cba acbe
00000130: d2c8 01bd 09c6 183e 5ff6 71bd 4ef9 23bd
00000140: a4bf 25be 0353 ebbe 9d9d 5a3e 0910 993e
00000150: 138c c0bc fde6 113e 0d26 683e 909e 9cbe
00000160: b94f 9a3e 9c60 013d c88e b33a cb62 88ba
00000170: 33d7 423a 8531 e43a b546 d6ba 05dd d83d
00000180: 5436 c2bd b33b 4ebd ad54 413d 9a93 9a3d
00000190: 3af3 193e 3e18 74bd 323e 57bd c8fe da3c
000001a0: 64f0 19be 43c6 e33a ed37 24bb 6c45 4039
000001b0: 240f bb3b d07f 113b cb5e ab3d 3ee9 c43d
000001c0: f1e0 9fbc 26cd ac3d fa21 24be 055c ad3d
000001d0: 6e45 253d 0ed6 d63d 2dba 5fbd 9580 83be
000001e0: d7f9 e33d 1ac0 4abc 11ea a23d 9e99 57bb
000001f0: 1689 aa3b 3357 6b3d c0b0 8ebe 030f 51bd
00000200: 4e57 1abe aa51 19bf e0a1 973e 73c7 2d3d
00000210: 9dbb 0c3e 21db da3e c68d 173e 2cf4 9d39
00000220: c544 5aba c23d 1b39 8818 453b df42 b93a
00000230: 4b0a 76be e69f 813e 133f b53c 1f55 1abd
00000240: 0146 32bd 7d7c b63d ab7f 773d 5ce1 45be
00000250: 92d7 ed3c 01ba 783d 946f 603e 3db2 45bb
00000260: 6b9c c5bd d384 133b 198b 6abc c810 283d
00000270: 860b 1c3e 4375 393d 5791 33be 4ff8 453d
00000280: 79d9 38be 00b7 afbd c965 86be 264e bdbe
00000290: dbb1 413e dfb4 0e3e 48b4 7dbc fd90 e53d
000002a0: e4d3 e4ba 1f65 17bc 0b49 41be 7a29 ac3e
000002b0: a80f 79be 9ba2 333c 3504 a33e 0bf2 8bbe
000002c0: 0b02 f93d 1a6b 783e 326c 06be b58e 733c
000002d0: 7a6b 24ba 8408 563a 34fb 253a c7d7 69bb
000002e0: 2989 8dba cb3b 163c 1d27 25be e36f bebd
000002f0: 97ec 5b3b 095f 113e 0601 78ba 4b26 41bd
00000300: 74c7 bd3c ba4f 1d3d 1c8a b43d e9f1 59ba
00000310: e853 92bb 309e 09b9 003a 503a 117f 17bb
00000320: e298 e43d 2f54 e43d d750 36be 854d d3bd
00000330: 7ffc 17bd dea2 093e e368 273e 08e8 47be
00000340: 5509 1b3e ec2a 24be 71b8 923c 27e1 ec38
00000350: d256 3b3d bf78 bfbb 3429 82ba 80ff 4a3d
00000360: 161a af3e 9677 a83c 5a2b e3be 2748 b63e
00000370: 83bd 573e 9ca9 73be d640 06bc b13a bfbe
00000380: 5e50 0d3e b114 fdbe 0efe 01bc 6f87 9abd
00000390: 04f9 ad3c c69f 403c 8d1b 9d3d 53e8 98be
000003a0: 6fda 783e 9280 46bc 1756 85bc f4d4 753e
000003b0: 9ad3 803e 7aac 27bd 3f2a 533e 16e8 d2bd
000003c0: 61fd fe3d 3b3d c43b 0517 b93e 87da adbb
000003d0: 49e5 743c e424 aebd 37ae 9d3e fd5a 703e
000003e0: 3263 e0be 952b 143f 3f53 a0bd f6ce eabd
000003f0: c06f 7abd 3ae4 8bbe 72e3 47be 626d 3cbe
0.069864586 0.007980929 0.041052837 0.0035929214 0.015872054 0.114363156 -0.23189603 -0.21380967
0.05034435 0.17401445 0.0572524 0.0521975 -0.10581173 -0.08769346 0.2344109 0.17295869
-0.0016890886 0.022835912 0.0144709535 -0.018977009 -0.02753529 0.14619464 0.10644232 -0.24321687
0.17204599 -0.14557895 -0.12372807 0.080680855 -0.11510465 -0.14356354 -0.15800628 -0.008836639
0.4776151 -2.083086e-05 0.0022341125 0.021003148 0.30849403 -0.3113985 0.25196218 -0.12254785
-0.27899086 -0.21452402 -0.29708135 -0.550937 -0.26127884 -0.028883887 -0.008352341 -0.1559437
-0.0011419556 -0.0068838634 -0.029776316 -0.032292902 0.07180235 -0.18127188 0.2892294 -0.0057746256
-0.18218252 0.18391164 -0.30063772 0.0399302 0.20378485 0.0024763835 0.22818804 -0.013681208
-0.028162953 -0.091558725 -0.16854966 0.18906486 -0.16637012 0.12024532 0.06158803 0.20150943
0.12722723 -0.13498457 -0.20973651 -0.33735788 -0.031685658 0.14919294 -0.05907285 -0.040032677
-0.16186386 -0.4596177 0.21349187 0.29895046 -0.023504293 0.14248271 0.22670765 -0.30589724
0.3013895 0.031586275 0.0013699168 -0.0010405419 0.000743258 0.0017409778 -0.0016347977 0.10589031
-0.094830185 -0.050349902 0.047199894 0.07547684 0.1503419 -0.05959343 -0.05254955 0.026732817
-0.15033108 0.0017377812 -0.0025057748 0.00018336409 0.005708592 0.0022201426 0.0836769 0.096148
-0.01951644 0.084375665 -0.16028586 0.08464817 0.040349416 0.104900464 -0.05462091 -0.25684038
0.111316375 -0.012374902 0.07954801 -0.003289796 0.00520433 0.057456207 -0.27869225 -0.051039707
-0.15072367 -0.59890234 0.29615688 0.042426538 0.13743444 0.42745307 0.14800176 0.00030127296
-0.00083262875 0.00014804958 0.0030074436 0.0014134309 -0.24027364 0.25317305 0.022124803 -0.037678834
-0.043523792 0.08910463 0.060424488 -0.19324249 0.029033456 0.060724262 0.21917564 -0.0030166053
-0.09648975 0.002250959 -0.01431539 0.04103163 0.15238771 0.045277845 -0.17535912 0.04833251
-0.18051709 -0.08579826 -0.2624953 -0.36973685 0.18915503 0.13936184 -0.015484877 0.11209295
-0.0017458168 -0.009240418 -0.1887552 0.33625394 -0.24322379 0.010964061 0.31839147 -0.27333102
0.12158593 0.24259606 -0.1312721 0.014865567 -0.0006272119 0.0008164721 0.00063316827 -0.0035681592
-0.0010798323 0.009169529 -0.16128202 -0.092986844 0.0033557767 0.1419641 -0.0009460602 -0.04715566
0.023166396 0.03840611 0.08815405 -0.00083139405 -0.004465569 -0.00013124268 0.0007943213 -0.002311651
0.111619726 0.11148869 -0.17804275 -0.1031752 -0.037106033 0.13441035 0.16348605 -0.19522107
0.15140279 -0.16031998 0.017910214 0.00011295295 0.045737095 -0.0058432515 -0.0009930492 0.04956007
0.3419959 0.020564836 -0.44369012 0.35601923 0.21068387 -0.2379517 -0.008194169 -0.37349465
0.13800189 -0.4942985 -0.0079341065 -0.07545363 0.021236904 0.011756843 0.076712705 -0.2986475
0.24302076 -0.0121156145 -0.016276402 0.24007016 0.2516144 -0.04093597 0.20621584 -0.10298173
0.12450672 0.0059887446 0.36150375 -0.0053055915 0.014947244 -0.0850313 0.30796978 0.2347221
-0.4382568 0.57879 -0.07828378 -0.11465256 -0.06114173 -0.2732256 -0.19520357 -0.18401101

decode.2.weight f4 [100, 100]
00000000: acc6 81bc 87a8 87bc aba4 e6bc 3953 6cbb
00000010: f6d6 4a3d 2fe6 ab3d bf7d e83a 07c5 f03c
00000020: 7813 a13c 1078 2abd 5aef 3b3d 8498 2cbd
00000030: 5c00 83bc b847 633c 775e a13c 543e 573d
00000040: ebe6 b03d bd24 bc3d 07b9 f13d 4040 8abc
00000050: 7593 ce3d 6760 fd3d 8811 acbd 5c6f 97bd
00000060: 4b9f 36bd 4824 e7bb b500 92bc 72aa 25bb
00000070: cd09 3bbd 75ab 8dbb fb2e 78bd 0220 803d
00000080: 27a6 b4bc 82e6 963d 7b79 373b f95e 0e3c
00000090: 7049 163b 63b7 25bc 305b b9bd 1146 8a3b
000000a0: 5b36 69bc 4554 e63b 8844 33bd 7ae8 c93c
000000b0: 39f6 ddbd 5ef4 99bd 0a84 f73c 529f 34bd
000000c0: 83a1 99bd 3a38 8fbd ff1a 4cbd e886 a1bc
000000d0: 5d68 c83d 4e59 183d 096b 17ba 9261 64bd
000000e0: 2fc6 823d 95c5 723d 16d2 323d 86e4 563d
000000f0: 44cd bdbc 4922 64bd 85fb b03c 243e 96bd
00000100: 91be 133d dff9 06bd 7c79 3c3c ea74 d2bc
00000110: cb3d 29bd 2722 1fbd 20c0 d6bc 21b0 933b
00000120: f22f 653c 8606 d0bd fcad 4cbd 4072 c03b
00000130: 273f 65bd 5d5b a1ba 625d 4b3d 5610 c33c
00000140: 9e4c 1fbd 703b debc a95a b5bc 0c66 8ebc
00000150: b30f 873d 4546 353c 208f c0bc 3beb c13d
00000160: 0825 b3bd 0777 773c f547 a9bd 0a16 aa3c
00000170: 1681 f93d c65d 513d 58d4 9abd aa97 90bd
00000180: f402 a6bc cd75 7fbd cc0c 57bd f0f6 913c
00000190: f398 e93d 68d6 693d 9025 cc3c 8b7d f23c
000001a0: 5e3e 77bc 807e b3bc 2579 a739 5272 893c
000001b0: e189 d8bc 8246 2c3d 7a1e 7a3d 99f1 a8bd
000001c0: 6e73 9fbb 1029 143d de1b c73d 926f 013e
000001d0: d1d3 6abb f8ec a2bc 13fb b13d 43ba 433b
000001e0: 828a 403c 96b0 bfbd f1d0 373d 8ddc 0e3b
000001f0: 6a88 acbd 96f3 a23c eed6 853b c20e 60bd
00000200: a44c 633b 4f6b 8fbc 34a1 92bd 1773 06bd
00000210: b5a9 b4bc 33b3 513d 3e8f fd3c 3ac9 5b3c
00000220: 8742 933c 1abc 8f3c fecb 953d 18f9 313d
00000230: 4ce9 8fbc a346 e33c f8b7 65bd 2468 363d
00000240: 7e95 73bd e3a1 72bc fc97 b43c b72e 043c
00000250: f07d 95bc 7c6c 023d 3daf 38bb 53fe 0bbd
00000260: 20af b7bd 91be 56bd de45 81bc f133 7ebc
00000270: 97b0 ecbc 7789 fcbb db1e 15bd 1425 85bd
00000280: ee0e ecbb e4ac 643c a7bd 653c b866 1fbd
00000290: 5fda 94ba 9fda 1dbd 67da 85bd 2142 313d
000002a0: a596 92bc fe35 3dbd ba47 8d3d 5601 0fbd
000002b0: 799c bb3c 5e6b 7abc 741a 33bb b9b3 893c
000002c0: be30 b83c 8f48 183c 9ee3 fc3d f439 e63a
000002d0: 2141 41bc 1ac8 e23d 3413 33bc 3d95 ac3c
000002e0: dcb2 963d ecc1 24bd 07d5 9d3c 5130 573d
000002f0: 77b3 72bd c594 083d 792f cc3d e24f 97bb
00000300: f6e2 173c 058b fa3c 951d 9a3d 4159 d43d
00000310: e33a 3a3d 9514 59bd 15c1 8c3d 327f 66bd
00000320: 8005 8ebd 9d1d 43bd ecbc f0bd 6d34 1f3c
00000330: b8e1 8bbe 317c 1fbc 5047 afbc 2974 923d
00000340: a499 a83d 14cc 2ebb c726 083e d766 7dbe
00000350: c282 88bc a545 933c 3486 a1bd 5ca4 a9bd
00000360: 448c b8be f192 233e 5b0a 363c 40e8 a23d
00000370: 5b1b 0a3e 4630 0e3c 8c9f 763d 234c a33d
00000380: 7f47 28be 3e02 9e3d 1f0a c63c 5442 46be
00000390: e653 b2bd 2e06 d93b 43c8 e53d 164e 5b3e
000003a0: ca69 023d dd70 eabd 23ba 09bd 5531 54bd
000003b0: 94a1 48bd ec82 19be 2d91 22bd 6ac3 63bd
000003c0: a396 453e 880f 18bc 7405 d7bc 015f 293d
000003d0: a279 31be 99b5 fc3d 688c 8bbe 0fc5 af3d
000003e0: d040 e93c b040 f03d 0f75 8d3a e05a 2ebe
000003f0: b2e6 32bd 21bd 733e 2164 673c 160d 58bc
-0.015841804 -0.016559852 -0.028154692 -0.0036060347 0.04952141 0.083935134 0.001773767 0.029390825
0.019662604 -0.041618407 0.04588256 -0.042137638 -0.015991382 0.01387208 0.019698365 0.052549675
0.08637794 0.09186695 0.11802869 -0.01687634 0.10086719 0.12371903 -0.08401781 -0.07394287
-0.044585507 -0.0070538856 -0.017822603 -0.0025278595 -0.045663644 -0.004323418 -0.06059168 0.06256105
-0.022051884 0.073681846 0.0027995992 0.008689635 0.0022931956 -0.010114524 -0.09050596 0.0042197783
-0.014234151 0.0070290887 -0.04376653 0.024646986 -0.10837979 -0.075173125 0.030214328 -0.044097252
-0.07501509 -0.06993146 -0.049830433 -0.019717649 0.09785531 0.037194543 -0.00057761424 -0.055757113
0.06385457 0.05927046 0.043657385 0.05246403 -0.023169167 -0.05569676 0.021604309 -0.07336071
0.03607041 -0.03295314 0.0115035735 -0.025690515 -0.041318696 -0.03885093 -0.02621466 0.00450708
0.013988482 -0.10157494 -0.049970612 0.0058729947 -0.05596843 -0.0012310554 0.049649604 0.0238115
-0.038891427 -0.027127951 -0.022137957 -0.017382644 0.06594791 0.011064117 -0.023505747 0.09468695
-0.087472975 0.015104062 -0.08265678 0.020762462 0.12182824 0.05111482 -0.075600326 -0.070601776
-0.02026508 -0.062368203 -0.05250244 0.017817944 0.11406126 0.05708924 0.024920255 0.02960088
-0.015090553 -0.021910906 0.00031942982 0.016778145 -0.026432933 0.04205943 0.06106422 -0.08249206
-0.004866055 0.036171973 0.09722112 0.12640217 -0.0035831819 -0.019888386 0.08690467 0.002986566
0.011751773 -0.09359853 0.044876996 0.002179894 -0.084244564 0.019891541 0.0040844595 -0.054701574
0.0034683133 -0.017507223 -0.07159653 -0.032824602 -0.022053579 0.05119629 0.030952092 0.013414675
0.017976059 0.017545749 0.07314299 0.043450445 -0.0175673 0.027743643 -0.05608365 0.04453291
-0.05946874 -0.014809105 0.022045128 0.008067778 -0.018248528 0.03184174 -0.0028180622 -0.03417809
-0.08968949 -0.052427832 -0.015780386 -0.0155153135 -0.028892798 -0.007706817 -0.03640638 -0.06501213
-0.007203928 0.013957236 0.014022267 -0.03891632 -0.0011356584 -0.03853857 -0.065357976 0.043275956
-0.017894099 -0.04619407 0.068984464 -0.034913383 0.02290176 -0.015284387 -0.0027329 0.016809331
0.02248418 0.009294643 0.12348102 0.0017564879 -0.011795313 0.110733226 -0.010929871 0.021067256
0.073583335 -0.040224 0.019266618 0.052536312 -0.059253182 0.033345003 0.09969992 -0.004617677
0.00927042 0.030583868 0.075251736 0.10368586 0.045466315 -0.052998144 0.06872765 -0.056273647
-0.06934643 -0.047635663 -0.11754784 0.009717089 -0.27320647 -0.009734199 -0.02139631 0.07151062
0.082324296 -0.0026671933 0.13296042 -0.24746262 -0.016663913 0.017977545 -0.07886925 -0.08283302
-0.36044514 0.15974022 0.011110867 0.079544544 0.13486998 0.0086785015 0.06021075 0.07973506
-0.16433524 0.077152714 0.024174748 -0.1936124 -0.087074086 0.006623051 0.112198375 0.21416506
0.03183917 -0.11447308 -0.03362478 -0.05180486 -0.048982218 -0.14991349 -0.03968923 -0.055606283
0.19295745 -0.009281047 -0.026247717 0.04135037 -0.17331555 0.123393245 -0.2725556 0.08582508
0.028473288 0.11731088 0.0010792332 -0.17026854 -0.04367704 0.23802616 0.014122994 -0.013186714

decode.4.weight f4 [1, 100]
00000000: 9a49 abb9 c6b1 54b9 39d0 3e3d 2e17 9a3d
00000010: 02b5 2d39 2f60 b2b9 7fff a739 2925 9139
00000020: 4284 9038 93db c2b9 4232 9b39 dcba f839
00000030: 2b7f 51bc 745f 12b9 c049 2b39 6b72 4c3d
00000040: eab8 14ba c5b4 1eba b0d5 df3c b9be 4739
00000050: 087c 543a 4939 cb38 9c0a 7239 da2d 0d39
00000060: 3106 1f3d a0f8 e639 6504 b4bc c056 d6b9
00000070: b57d 8d39 dd73 acb8 90f2 8737 71f7 2ab9
00000080: 485f 3839 b996 40ba d8af f138 0d9a 843d
00000090: 3050 7d39 3c74 97b8 62ea b539 874c e9b9
000000a0: 71f6 07bd 1f67 eb3c 7656 58bd 80b3 06ba
000000b0: f1ac 10ba d073 e139 9ba9 afb9 3846 913d
000000c0: 19eb 2737 6a28 bdb8 411f 03ba 68cb 97b8
000000d0: 8221 24ba bebc 3839 b653 74bd 10d1 2f3a
000000e0: fe2f 3f39 7e3c 2e3a a2ae b0b9 9d0d a63c
000000f0: 0ed8 22ba 2632 fe38 e71d 833d 8cc4 203c
00000100: af29 0cba adfe 4939 322d d6b9 df40 163d
00000110: 5778 b838 2408 d139 647f f1b8 8b5e 4b3a
00000120: ee17 03b9 77cb 8b3d 7efe 7037 222a 123a
00000130: d8db 1ebd ef3a 50bd cebc 053d 6b78 6fb9
00000140: bcbb a9b9 e4ee f438 f72a c1b7 e32f 05ba
00000150: 4cbc e4b8 a2b0 89bd fc79 4cbd c41e c6b8
00000160: c20e 0c3a 763c e038 7109 9dbd 86be 7a39
00000170: fb5b bbb8 10bb db35 5820 bbb9 6491 5a38
00000180: 9825 ab37 bb20 83b9 2bd7 c1b8 0a7a 14b9
-0.000326705 -0.00020284121 0.046585295 0.075239524 0.00016565996 -0.00034022468 0.00032043082 0.00027684242
6.89109e-05 -0.0003716616 0.0002960135 0.00047441467 -0.012786667 -0.00013959204 0.00016335305 0.049913805
-0.00056733063 -0.00060541584 0.027323574 0.00019049169 0.00081056403 9.6904645e-05 0.00023082871 0.00013463889
0.038824264 0.0004405426 -0.021974752 -0.00040881895 0.00026987275 -8.22318e-05 1.6206206e-05 -0.00016304642
0.00017583102 -0.0007346678 0.00011524529 0.06474695 0.00024157832 -7.2218914e-05 0.0003469764 -0.0004449824
-0.03319401 0.028735695 -0.05281683 -0.0005138442 -0.00055189343 0.0004300163 -0.00033504967 0.07093471
1.0008714e-05 -9.01975e-05 -0.00050019106 -7.2381285e-05 -0.00062610966 0.0001761792 -0.059650145 0.0006706873
0.00018233058 0.0006646587 -0.00033699448 0.020270163 -0.0006212004 0.00012121005 0.06402188 0.009812485
-0.00053467875 0.00019263728 -0.00040850934 0.03668296 8.796219e-05 0.00039869652 -0.00011515504 0.00077579234
-0.00012502048 0.06825917 1.4364368e-05 0.0005575736 -0.038783878 -0.050837453 0.03265076 -0.00022837675
-0.00032374065 0.000116793235 -2.30274e-05 -0.0005080683 -0.0001090696 -0.06723143 -0.04992102 -9.447106e-05
0.0005342775 0.00010692414 -0.076678164 0.00023912833 -8.9339876e-05 1.6371214e-06 -0.00035691517 5.2110656e-05
2.0402294e-05 -0.00025010653 -9.243035e-05 -0.00014159843
